puppersim/dc_saves/aac_slow_straight_efficient_0/actor_18.pt (torch, 92567 bytes, 6 tensors)

fc1.weight f4 [128, 15]
0.0043562767 0.0016557254 -0.047226097 0.12778465 0.046622787 -0.080382414 0.048810087 -0.008922757
-0.073009506 -0.07266518 -0.032266874 -0.053403597 -0.0008871451 -0.03055948 -0.06323565 -0.16115572
-0.05584246 -0.02123805 0.11348154 0.0145065775 -0.119344816 0.0036287378 -0.104790896 -0.006354031
0.074034736 -0.014056525 0.04459844 -0.08281739 0.07030584 0.06437735 -0.040206872 -0.17306735
-0.30729204 0.12181531 -0.04581927 -0.1904034 0.026553199 -0.080489345 0.18590362 0.03923405
0.0850451 0.028052697 0.08691846 0.06319987 -0.03290124 -2.6276075e-05 0.013805612 0.10122036
0.06503572 -0.13269438 0.029468367 0.047285404 0.06594809 -0.042529162 0.11658463 -0.0576369
0.056423813 0.059732568 -0.012999346 -0.055898014 -0.0012624381 -0.02174709 -0.157231 -0.035931837
-0.025370149 -0.07660506 0.0832071 0.028931929 -0.06357503 0.08929189 -0.01634544 -0.14786275
-0.06348592 -0.029883558 0.049784064 7.6954566e-05 0.047527127 -0.046856694 0.08173905 -0.01138311
-0.021577569 -0.06125742 0.018641414 -0.02566375 -0.00127675 0.032233384 -0.07575311 -0.028836355
-0.00090502854 -0.04941855 -0.025305215 0.058306623 0.012140633 0.05301115 -0.05190905 -0.18500656
0.0674605 -0.002980676 -0.0050666854 -0.08299459 -0.03725832 -0.014514804 0.016234163 -0.023593297
-0.15359826 0.026108483 0.11966164 0.09833116 0.033758696 -0.07370513 -0.034665637 0.01938004
0.035608433 -0.07441269 0.21874379 -0.14280823 -0.19199778 0.11908648 -0.0713758 -0.0053852573
-0.010064162 0.010224927 -0.06455499 0.17200351 -0.051097326 -0.032313388 0.057985656 0.011181883
-0.11160658 0.008479385 -0.017703054 0.036788967 -0.001608515 -0.016450966 -0.026517171 0.04418024
0.070860356 0.02139698 7.316954e-05 -0.0966521 0.03334655 0.035114937 -0.024303168 0.0037014806
0.058534596 0.02202091 0.004101844 0.17183588 -0.0023556645 -0.06315089 -0.037911475 0.07374084
0.008800314 -0.0531824 -0.07113192 -0.04011456 -0.014217109 0.043563727 -0.0022477305 0.20341453
0.001806862 0.0046026516 0.07652734 0.06563387 -0.06893669 -0.008752637 0.17444673 0.21077375
-0.07617632 0.103003405 0.2280112 0.11060845 -0.058811404 0.14460441 0.24229646 -0.04313458
0.11322373 0.24505402 0.105705276 0.015034561 0.022126712 0.22465089 0.13033126 0.059027
0.086396396 0.08439811 0.20920277 -0.050474297 0.07692587 0.26464882 -0.14998099 0.052982677
0.16687965 -0.048250534 0.02209692 -0.01676633 -0.059443265 0.031624347 0.11792694 0.13504793
0.057208765 0.093151666 -0.057526015 0.13378517 0.085363366 -0.11105595 -0.0011854691 0.11321063
0.05153258 -0.096998885 -0.0017038139 0.037440866 -0.013079574 -0.034738146 0.0090933535 -0.0628862
-0.07076155 0.017803475 -0.0118351355 -0.009935581 -0.08328383 -0.029762764 0.116098195 -0.012379192
-0.08269711 -0.04920465 0.06600685 0.09089999 0.00018660915 0.0420465 -0.023231609 0.062224712
-0.08946268 -0.21344413 -0.012134898 0.12705174 -0.0862564 0.12190039 -0.029731302 -0.017150713
-0.124912925 0.04177898 0.092464335 -0.059584994 0.102898 -0.13719735 0.062134545 -0.09605741
-0.15854286 0.21587516 -0.06595276 -0.114968635 -0.16065115 -0.090651646 -0.22941227 -0.015646156
00000000: 19bf 8e3b ed04 d93a 2770 41bd fbd9 023e
00000010: 89f7 3e3d 899f a4bd 16ed 473d c130 12bc
00000020: 0286 95bd 7bd1 94bd 452a 04bd bbbd 5abd
00000030: 4d8f 68ba e057 fabc b181 81bd 0106 25be
00000040: 10bb 64bd 6bfb adbc 0269 e83d ffac 6d3c
00000050: 0e6b f4bd 1ed0 6d3b 9c9c d6bd 7a35 d0bb
00000060: 869f 973d 574d 66bc dbac 363d 2a9c a9bd
00000070: 82fc 8f3d 46d8 833d f6af 24bd 9138 31be
00000080: 6255 9dbe 4e7a f93d fdac 3bbd 1cf9 42be
00000090: 1886 d93c 99d7 a4bd 855d 3e3e e2b3 203d
000000a0: 202c ae3d c5ce e53c 4e02 b23d ef6e 813d
000000b0: 73c3 06bd 716b dcb7 ef30 623c 9f4c cf3d
000000c0: 7331 853d 09e1 07be a567 f13c 57ae 413d
000000d0: cb0f 873d 0f33 2ebd ecc3 ee3d ac14 6cbd
000000e0: a81c 673d 23aa 743d 35fb 54bc 51f5 64bd
000000f0: 6578 a5ba f426 b2bc 2a01 21be 432d 13bd
00000100: 0fd5 cfbc 1de3 9cbd 7c68 aa3d a702 ed3c
00000110: a033 82bd abde b63d dfe6 85bc 5569 17be
00000120: e804 82bd 5dce f4bc 60ea 4b3d ab62 a138
00000130: ceab 423d ceec 3fbd ce66 a73d 3980 3abc
00000140: 71c3 b0bc 0fe9 7abd e1b5 983c c93c d2bc
00000150: 9f58 a7ba 2707 043d 7224 9bbd 383a ecbc
00000160: 703f 6dba 1b6b 4abd e24c cfbc edd2 6e3d
00000170: 81e9 463c 3822 593d 969e 54bd 5c72 3dbe
00000180: bb28 8a3d 7257 43bb 7006 a6bb 11f9 a9bd
00000190: 2e9c 18bd 80cf 6dbc 82fd 843c bb46 c1bc
000001a0: dd48 1dbe 75e1 d53c 2911 f53d d961 c93d
000001b0: 8f46 0a3d b7f2 96bd 8efd 0dbd e4c2 9e3c
000001c0: 26da 113d ae65 98bd 5ffe 5f3e 523c 12be
000001d0: 119b 44be 9de3 f33d 7a2d 92bd d076 b0bb
000001e0: 28e4 24bc 7486 273c 6835 84bd b021 303e
000001f0: 6e4b 51bd 0b5b 04bd 5e82 6d3d 3734 373c
00000200: fe91 e4bd 1eed 0a3c ff05 91bc 07b0 163d
00000210: cfd4 d2ba 2dc4 86bc 8a3a d9bc 57f6 343d
00000220: 3c1f 913d b848 af3c 9972 9938 89f1 c5bd
00000230: 6496 083d aed4 0f3d 7017 c7bc 8a94 723b
00000240: f9c1 6f3d 3265 b43c c368 863b bff5 2f3e
00000250: 7e61 1abb 4155 81bd 1049 1bbd 7005 973d
00000260: 312f 103c cad5 59bd 9dad 91bd 2a4f 24bd
00000270: e1ee 68bc e16f 323d a94e 13bb e64b 503e
00000280: 3ad4 ec3a d7d1 963b 5eba 9c3d 0d6b 863d
00000290: ae2e 8dbd 3867 0fbc 2aa2 323e 13d5 573e
000002a0: 5502 9cbd 73f3 d23d c57b 693e af86 e23d
000002b0: 3ae4 70bd 2e13 143e 901c 783e e3ad 30bd
000002c0: d8e1 e73d 71ef 7a3e 027c d83d 8553 763c
000002d0: 1443 b53c e20a 663e 8f75 053e 4cc6 713d
000002e0: 98f0 b03d ebd8 ac3d 4039 563e 23be 4ebd
000002f0: 4f8b 9d3d 0d80 873e 9e94 19be 5d04 593d
00000300: 80e2 2a3e 5aa2 45bd 9a04 b53c 8b59 89bc
00000310: c87a 73bd 8888 013d ae83 f13d 014a 0a3e
00000320: bd53 6a3d 4dc6 be3d 66a0 6bbd fbfe 083e
00000330: fdd2 ae3d 4d71 e3bd be61 9bba fada e73d
00000340: d413 533d 5aa7 c6bd 8252 dfba 985b 193d
00000350: b64b 56bc 9649 0ebd 4afc 143c 7bca 80bd
00000360: 6eeb 90bd 98d8 913c 28e8 41bc d9c8 22bc
00000370: b690 aabd 0ad1 f3bc e4c4 ed3d 18d2 4abc
00000380: 1a5d a9bd d18a 49bd 992e 873d c629 ba3d
00000390: 83ac 4339 f338 2c3d 3750 bebc 57df 7e3d
000003a0: 3638 b7bd 1991 5abe 74d1 46bc da19 023e
000003b0: 32a7 b0bd e9a6 f93d 0f8f f3bc a77f 8cbc
000003c0: 59d2 ffbd 7020 2b3d f15d bd3d 650f 74bd
000003d0: 30bc d23d 767d 0cbe cb80 7e3d bfb9 c4bd
000003e0: 0f59 22be 610e 5d3e 3e12 87bd ad74 ebbd
000003f0: bc81 24be 92a7 b9bd 0deb 6abe 5e2c 80bc

fc1.bias f4 [128]
-0.018610144 0.034696303 0.036241256 -0.021018913 -0.038606912 -0.058653925 0.027305767 -0.2310823
0.065967314 -0.3478008 -0.012590516 -0.19719428 -0.25242746 0.0 -0.113891825 0.08005449
0.04489044 -0.03722201 -0.009488368 0.1444755 0.17029192 -0.13384964 0.0 0.037742417
0.025327135 -0.009510507 -0.035818096 0.22473823 0.088116795 -0.20803444 0.045620892 -0.018846642
-0.080868594 -0.02856731 0.12436468 0.191446 -0.0070507834 0.14677636 -0.36933985 -0.0055128485
-0.32762226 -0.2141077 0.005806443 0.037200455 -0.009503337 0.0 0.0 0.0818345
0.106292486 -0.040009197 -0.09702211 -0.03054131 -0.009261387 -0.020911619 0.21705301 0.082323216
-0.060968112 0.0 -0.037443668 -0.12536189 -0.07802646 -0.19026464 -0.17966522 -0.07597048
0.015569203 0.22570251 0.084694095 0.0 0.112578236 -0.0069897617 0.2767475 0.07534479
0.006859538 0.09033756 0.0 -0.020452186 0.0034687528 0.0 0.0032720114 0.1094148
-0.26423457 0.17671017 -0.06720306 -0.047981985 0.084702395 0.026564151 -0.079491735 0.011991728
0.17192598 0.238615 0.14144054 -0.049037315 -0.023804374 0.0151265245 -0.30553618 -0.0606842
-0.18337716 0.0 0.19002733 -0.1537481 -0.020282969 0.15917887 -0.0034548368 0.0
0.0 -0.023178617 -0.20832835 0.07067017 -0.012502037 0.0170909 -0.026790729 -0.004979938
-0.059470724 -0.047885247 0.011008443 0.025270076 -0.015296168 -0.008877961 0.15586422 0.11628027
0.025421545 0.0038621814 0.0 -0.088752665 -0.009525065 0.08531276 0.0 0.033885397
00000000: 4d74 98bc b61d 0e3d b671 143d db2f acbc
00000010: 4822 1ebd 193f 70bd 58b0 df3c d7a0 6cbe
00000020: df19 873d f212 b2be 7448 4ebc 4ced 49be
00000030: 2c3e 81be 0000 0000 1e40 e9bd 9cf3 a33d
00000040: 0adf 373d 1b76 18bd 1a75 1bbc 63f1 133e
00000050: 0161 2e3e e10f 09be 0000 0000 cb97 1a3d
00000060: da7a cf3c f5d1 1bbc ffb5 12bd c721 663e
00000070: 9476 b43d fb06 55be f9dc 3a3d 4664 9abc
00000080: 6f9e a5bd fe05 eabc e9b2 fe3d 6c0a 443e
00000090: 420a e7bb 8b4c 163e 1d1a bdbe 20a5 b4bb
000000a0: 1bbe a7be 0d3f 5bbe f943 be3b 815f 183d
000000b0: e2b3 1bbc 0000 0000 0000 0000 d998 a73d
000000c0: e0af d93d afe0 23bd 87b3 c6bd c531 fabc
000000d0: 13bd 17bc d84e abbc 2543 5e3e 1399 a83d
000000e0: b3b9 79bd 0000 0000 885e 19bd de5e 00be
000000f0: 56cc 9fbd bcd4 42be 29fa 37be 6996 9bbd
00000100: f815 7f3c 8f1e 673e 1974 ad3d 0000 0000
00000110: 6b8f e63d 5f0a e5bb d9b1 8d3e 5f4e 9a3d
00000120: fac5 e03b e602 b93d 0000 0000 588b a7bc
00000130: 0454 633b 0000 0000 3e6f 563b de14 e03d
00000140: c149 87be 83f3 343e c2a1 89bd c288 44bd
00000150: 7378 ad3d 109d d93c 90cc a2bd f478 443c
00000160: 5d0d 303e 7e57 743e cad5 103e 5adb 48bd
00000170: 6401 c3bc 3ed5 773c 3d6f 9cbe ff8f 78bd
00000180: 39c7 3bbe 0000 0000 8696 423e 2470 1dbe
00000190: 7828 a6bc c9ff 223e 8b6a 62bb 0000 0000
000001a0: 0000 0000 15e1 bdbc 0754 55be 86bb 903d
000001b0: 58d5 4cbc 3702 8c3c 3b78 dbbc bf2e a3bb
000001c0: 9397 73bd 5223 44bd c25c 343c 3103 cf3c
000001d0: c79c 7abc de74 11bc df9a 1f3e 5a24 ee3d
000001e0: d840 d03c a71c 7d3b 0000 0000 f5c3 b5bd
000001f0: 050f 1cbc 75b8 ae3d 0000 0000 6acb 0a3d

fc2.weight f4 [128, 128]
-0.026475642 0.112211145 -0.23854119 0.0036635639 -0.1564096 -0.074633725 0.024171727 0.037368834
-0.034171376 0.13723877 0.045658153 0.015201336 0.040016256 -0.012743495 0.084768 -0.08673638
-0.054959558 0.011264283 -0.09618407 -0.15699562 0.0046509188 0.19957888 0.01832746 -0.14045803
0.04032966 -0.11375645 0.07388622 -0.04742808 -0.261428 -0.038620062 -0.17201205 0.051262002
0.045484483 0.19535322 -0.13323618 -1.3220055 -0.09763537 -0.22007145 -0.05776556 -0.10401444
0.14338467 0.037590463 0.14348665 0.025119837 0.06815891 0.013410748 -0.01884689 -0.10994128
-0.08414806 0.037474163 -0.014686289 0.0974756 0.035311393 -0.06201773 -0.44383764 -0.2037356
-0.19258972 0.0676554 -0.13545354 -0.24370249 -0.06795079 -0.015478341 -0.00019445732 -0.07739886
0.15629528 -0.27562144 -0.012883112 -0.022861283 -0.2378652 0.026125768 -0.27881762 0.08504679
0.026475593 -0.38793212 -0.038218126 -0.009953501 0.031856395 -0.065506704 0.07527182 -0.35506833
-0.0947029 -0.7223621 -0.04155409 0.12094853 -0.027314408 -0.0100114085 -0.030837314 -0.107633896
-0.37983817 -0.006754829 -0.323675 -0.07505326 0.040317703 0.06371687 -0.11554036 -0.23593344
-0.07500908 0.09769861 -0.15439294 -0.0039796927 -0.10198295 -0.11555483 0.024059512 -0.07747976
0.0074222405 -0.04076653 -0.00548309 -0.0136564085 0.0063755815 0.0377554 0.07738131 0.1136123
-0.010831438 0.05610552 -0.711098 0.070274375 -0.06664379 -0.041486427 -0.09229685 -0.09219472
-0.062429402 0.044309612 0.1511261 0.08759522 0.102022104 0.03790912 0.13109264 0.034298178
0.12817071 -0.0050928947 -0.006215187 0.0015090638 0.19579506 0.12364292 -0.1675862 -0.056007016
-0.09545074 -0.07494167 0.10749569 -0.062578425 -0.09993759 0.0070126206 -0.06898449 0.08112341
0.1429301 -0.0009463964 -0.024194928 -0.042245533 -0.083582565 0.06399394 -0.08728353 -0.002697743
0.016939955 -0.007268318 -0.114580564 0.0009894163 -0.12472176 -0.121816896 0.0060293814 -0.094533846
0.06872268 0.046853237 -0.038012225 -0.018996965 -0.033433862 0.15075444 -0.1508204 -0.020693947
0.12538065 0.0458269 -0.029185345 -0.1291595 0.24338193 -0.008291382 -0.01548164 0.06706251
-0.031612024 0.028672079 0.0478264 -0.073504016 0.09371673 -0.16962162 -0.071401246 -0.036180276
-0.039724566 0.0033532404 -0.18424092 0.020276425 -0.0012826262 0.07275297 -0.0029363972 0.02700872
0.047950897 -0.027528377 0.004103334 -0.07674382 -0.07353496 -0.05086819 -0.061247334 -0.17494738
-0.021626608 0.02146544 0.16052037 0.045925803 0.07111338 0.010554122 0.08248282 -0.009274426
0.063865215 0.030079613 0.020681007 0.1328735 0.17503159 0.007731506 -0.08130512 -0.064991966
0.09706262 -0.05980767 0.10369461 0.12689458 -0.059521727 0.021097077 -0.1365957 0.037029926
-0.046071816 0.020517817 -0.25312072 -0.09564234 0.0014604306 -0.04149802 0.007524449 -0.024921477
-0.057320986 -0.033944156 -0.18913451 -0.15245794 0.18238214 -0.013590261 -0.13033384 -0.049657777
0.024159813 -0.06682164 0.043084018 0.08190066 -0.046511058 0.018012356 -0.076619074 -0.13020442
0.10547356 -0.14977941 -0.007504303 0.03660515 -0.06502376 0.011421151 -0.07038169 0.095043056
00000000: 72e3 d8bc f5ce e53d 2444 74be 6718 703b
00000010: d729 20be 91d9 98bd c903 c63c 1010 193d
00000020: 49f7 0bbd 5288 0c3e 0b04 3b3d 060f 793c
00000030: 16e8 233d 18ca 50bc d89a ad3d d8a2 b1bd
00000040: 461d 61bd d48d 383c 27fc c4bd 76c3 20be
00000050: bc66 983b 685e 4c3e 7823 963c 3bd4 0fbe
00000060: b730 253d 24f9 e8bd a951 973d f243 42bd
00000070: e4d9 85be 1230 1ebd ed23 30be 1bf8 513d
00000080: f04d 3a3d ad0a 483e 116f 08be 7a37 a9bf
00000090: 0ef5 c7bd 695a 61be 949b 6cbd 8605 d5bd
000000a0: 6ed3 123e 75f8 193d 2aee 123e 1ec8 cd3c
000000b0: e696 8b3d c1b8 5b3c cb64 9abc e528 e1bd
000000c0: d155 acbd 827e 193d c39e 70bc 4aa1 c73d
000000d0: aea2 103d 4e06 7ebd b03e e3be 11a0 50be
000000e0: 3d36 45be ea8e 8a3d 55b4 0abe 258d 79be
000000f0: c929 8bbd de98 7dbc 3de7 4bb9 4b83 9ebd
00000100: df0b 203e 411e 8dbe b013 53bc 9647 bbbc
00000110: ef92 73be b505 d63c 2fc1 8ebe 032d ae3d
00000120: 58e3 d83c 0a9f c6be 9c8a 1cbd 0214 23bc
00000130: da7b 023d 6128 86bd 1d28 9a3d 84cb b5be
00000140: 98f3 c1bd b9ec 38bf 9f34 2abd ddb3 f73d
00000150: 77c2 dfbc e406 24bc 899e fcbc 296f dcbd
00000160: 267a c2be 9d57 ddbb bbb8 a5be 86b5 99bd
00000170: 2d24 253d fe7d 823d 6da0 ecbd 8998 71be
00000180: 5c9e 99bd 3516 c83d 2f19 1ebe 1568 82bb
00000190: 70dc d0bd 03a8 ecbd 7418 c53c b5ad 9ebd
000001a0: 4436 f33b cefa 26bd 7eab b3bb 21bf 5fbc
000001b0: 41ea d03b 68a5 1a3d 187a 9e3d 91ad e83d
000001c0: 5876 31bc e7ce 653d 850a 36bf 03ec 8f3d
000001d0: 8a7c 88bd aced 29bd 2206 bdbd 96d0 bcbd
000001e0: f9b5 7fbd ff7d 353d cdc0 1a3e 1f65 b33d
000001f0: f7f0 d03d 9846 1b3d 263d 063e 3f7c 0c3d
00000200: 2f3f 033e 4ce2 a6bb c4a8 cbbb c7cb c53a
00000210: 807e 483e 8038 fd3d b89b 2bbe 9d67 65bd
00000220: ad7b c3bd 057b 99bd b326 dc3d 1e29 80bd
00000230: 14ac ccbd 20ca e53b be47 8dbd 0824 a63d
00000240: 455c 123e 9617 78ba 7134 c6bc a709 2dbd
00000250: 562d abbd 410f 833d b5c1 b2bd 9ecc 30bb
00000260: a9c5 8a3c 122b eebb 37a9 eabd 4daf 813a
00000270: 1f6e ffbd 237b f9bd 1e92 c53b f69a c1bd
00000280: 7abe 8c3d 2ee9 3f3d b5b2 1bbd 869f 9bbc
00000290: f2f1 08bd 5f5f 1a3e aa70 1abe 5a86 a9bc
000002a0: c963 003e fdb4 3b3d 1b16 efbc 6342 04be
000002b0: 1d39 793e 94d8 07bc b4a6 7dbc 1258 893d
000002c0: 9c7b 01bd b5e1 ea3c 9de5 433d 4689 96bd
000002d0: 8fee bf3d 4ab1 2dbe d13a 92bd c531 14bd
000002e0: 3ab6 22bd 0ac2 5b3b a7a9 3cbe bf1a a63c
000002f0: cb1d a8ba 82ff 943d 9270 40bb 6441 dd3c
00000300: 2968 443d 3183 e1bc 4375 863b dd2b 9dbd
00000310: 7f99 96bd 2a5b 50bd 7cde 7abd 6825 33be
00000320: 492a b1bc 4ad8 af3c 745f 243e b21c 3c3d
00000330: e4a3 913d 32eb 2c3c c1ec a83d c3f3 17bc
00000340: c4cb 823d 8569 f63c 376b a93c fe0f 083e
00000350: 7b3b 333e 9358 fd3b 4c83 a6bd 821a 85bd
00000360: c4c8 c63d e3f8 74bd d75d d43d a7f0 013e
00000370: 0ecd 73bd c7d3 ac3c bedf 0bbe b1ac 173d
00000380: cdb5 3cbd fb14 a83c 0a99 81be 22e0 c3bd
00000390: eb6b bf3a d4f9 29bd a78f f63b 2028 ccbc
000003a0: 69c9 6abd 0709 0bbd 7aac 41be ef1d 1cbe
000003b0: 62c2 3a3e b0a9 5ebc 3c76 05be f465 4bbd
000003c0: cdea c53c c9d9 88bd de78 303d 89bb a73d
000003d0: 6182 3ebd a68e 933c 76ea 9cbd 4f54 05be
000003e0: 8602 d83d c65f 19be a8e6 f5bb 48ef 153d
000003f0: 2d2b 85bd c81f 3b3c 4724 90bd efa5 c23d

fc2.bias f4 [128]
-0.012395904 -0.04388103 -0.014952547 -0.061567426 -0.07563657 -0.09378208 -0.011618572 -0.024407905
-0.08814621 -0.17261139 -0.055705976 -0.0001969621 -0.04551566 -0.015340737 -0.015862755 -0.0026113472
-0.075608216 -0.08128758 -0.14308979 -0.004450705 -0.06121809 -0.011936887 -0.06851158 -0.036403093
-0.03620122 -0.07266019 -0.05665637 -0.067302965 -0.06010608 -0.048500054 -0.048663914 -0.0076744608
-0.05510678 -0.049877796 -0.0085261725 -0.079880305 -0.049410857 -0.00938976 -0.07989314 -0.029326431
-0.01907135 -0.025892084 -0.09895425 -0.04045866 -0.057899904 -0.048524883 -0.07590356 -0.010158026
-0.04731962 -0.027321959 -0.03412934 -0.016665027 -0.093246624 -0.10379941 -0.068810396 -0.045349594
-0.03866937 -0.116178185 -0.11274683 -0.020136127 -0.010245943 -0.0009423933 -0.03514491 -0.067837514
-0.049889587 -0.030038854 -0.118663624 -0.01288584 -0.0017361054 -0.005779388 -0.03539957 -0.025927657
-0.0844177 -0.049347777 -0.020389704 -0.06316765 -0.02308074 -0.029848369 -0.036138874 -0.0065019527
-0.059031058 -0.008946518 -0.03805326 -0.10623156 -0.015574565 -0.062353224 -0.07243657 -0.05801122
-0.026212096 -0.05648854 -0.0034914776 -0.0883914 -0.08540934 -0.082256 -0.07535013 -0.0031020863
-0.045389865 -0.06996745 -0.056598175 -0.05011155 -0.116137244 -0.010389877 -0.05205743 -0.042336144
-0.07863792 -0.022390513 -0.027369527 -0.11974121 -0.03853074 -0.019726086 -0.02447316 -0.016308043
-0.04993463 -0.057420116 -0.04211189 -0.08476848 -0.06811175 -0.071334496 -0.026374009 -0.07629846
0.13424753 -0.086446576 -0.0054267263 -0.099813454 -0.051722135 -0.016817415 0.1521796 -0.035967007
00000000: 3118 4bbc 98bc 33bd 87fb 74bc 202e 7cbd
00000010: 59e7 9abd d210 c0bd d35b 3ebc 16f3 c7bc
00000020: 0086 b4bd 0ac1 30be f32b 64bd 9c87 4eb9
00000030: a16e 3abd b757 7bbc 9cf2 81bc 2323 2bbb
00000040: 7bd8 9abd 1a7a a6bd 2186 12be 38d7 91bb
00000050: d2bf 7abd ef92 43bc cd4f 8cbd 691b 15bd
00000060: bb47 14bd dece 94bd 8310 68bd 23d6 89bd
00000070: cb31 76bd fea7 46bd d053 47bd 0b7a fbbb
00000080: a6b7 61bd a94c 4cbd 5cb1 0bbc 4998 a3bd
00000090: 0a63 4abd 82d7 19bc 049f a3bd fc3d f0bc
000000a0: 853b 9cbc a31b d4bc 87a8 cabd fbb7 25bd
000000b0: 7328 6dbd 07c2 46bd 5373 9bbd d96d 26bc
000000c0: 38d2 41bd 4dd2 dfbc 35cb 0bbd 1885 88bc
000000d0: 16f8 bebd c994 d4bd 77ec 8cbd 7fc0 39bd
000000e0: c663 1ebd d4ee edbd cfe7 e6bd 85f4 a4bc
000000f0: 9ade 27bc f20a 77ba 1cf4 0fbd 65ee 8abd
00000100: 0659 4cbd 0b14 f6bc ea05 f3bd 211f 53bc
00000110: 088e e3ba 0561 bdbb 24ff 10bd 3d66 d4bc
00000120: 30e3 acbd e520 4abd 4f08 a7bc 0a5e 81bd
00000130: d213 bdbc 9184 f4bc 5b06 14bd 550e d5bb
00000140: 8dca 71bd 6b94 12bc bcdd 1bbd ef8f d9bd
00000150: 762c 7fbc 1866 7fbd a059 94bd 2c9d 6dbd
00000160: c0ba d6bc 8760 67bd 46d1 64bb 8d06 b5bd
00000170: 18eb aebd d575 a8bd 2b51 9abd 5f4c 4bbb
00000180: b9ea 39bd 184b 8fbd 7dd3 67bd c541 4dbd
00000190: 5dd9 edbd 4d3a 2abc 2c3a 55bd aa68 2dbd
000001a0: eb0c a1bd 4f6c b7bc 0f36 e0bc e13a f5bd
000001b0: 69d2 1dbd 9a98 a1bc f07b c8bc 7298 85bc
000001c0: 4188 4cbd 5b31 6bbd 847d 2cbd 199b adbd
000001d0: 2c7e 8bbd d217 92bd 4e0e d8bc 5e42 9cbd
000001e0: 2f78 093e e70a b1bd aed2 b1bb ff6a ccbd
000001f0: 97da 53bd adc4 89bc f8d4 1b3e 2452 13bd

fc3.weight f4 [32, 128]
0.2167896 0.0053089145 -0.16570319 -0.1628404 -0.061353736 0.16756947 -0.08011705 0.023069158
0.1422524 -0.07708768 0.032941822 0.01516884 -0.01740907 0.068110004 0.081055716 -0.18479611
-0.16411501 0.0253458 -0.3187378 0.011952529 -0.003391769 0.0011429352 0.0020861018 0.2616219
0.07623775 -0.017983666 0.040555164 -0.099769846 0.12791383 0.08609593 -0.1036525 -0.05055906
-0.048054088 -0.040092815 -0.15624073 0.07703361 -0.023284616 0.013606241 -0.5500134 -0.06848315
-0.08988163 0.0021314374 0.008043245 -0.10565354 -0.006470829 0.17479141 -0.06177364 -0.032587662
-0.040522836 -0.056895413 0.0585546 0.021375032 -0.05925571 -0.26024824 -0.051068235 0.018156955
-0.045007274 -0.10763349 -0.09217524 0.012038203 -0.08154499 -0.045505986 -0.04946136 0.14544784
-0.018190997 -0.195028 0.06112498 -0.019415531 -0.0739281 0.024488706 0.032395042 -0.09374695
0.13070297 0.10772898 -0.22784828 0.11522943 0.022941412 -0.07403105 0.021296382 -0.026217217
0.046096083 -0.13119653 0.029062986 0.026173472 -0.17653352 0.040721387 0.07848756 -0.12601006
0.25736094 0.022490378 0.018194193 -0.006429978 0.053506557 -0.103670925 -0.046179857 -0.034049246
-0.04146554 -0.17228207 0.114625186 -0.10366785 -0.013250545 0.084662 -0.09659887 -0.38109344
0.03535115 -0.11073127 0.099786796 -0.1350405 0.08980022 -0.04247985 -0.058542185 -0.09863796
0.042796895 -0.14426723 -0.02876402 0.01538488 -0.16051355 0.14641592 -0.02028319 -0.07298123
-0.0015133973 -0.107522756 0.13693425 0.09419301 0.059756514 0.054710105 0.07553883 -0.011242556
-0.3697754 0.03776216 0.16916642 -0.067695916 0.06873258 -0.11553079 0.24986035 -0.19534883
-0.16486807 0.039513044 0.09926891 -0.018594608 -0.037817728 -0.09642783 -0.38314858 0.116907276
0.101824276 -0.027250154 0.7500767 -0.016075216 -0.054554027 0.016768157 -0.052778687 -0.2714036
-0.22414847 -0.08847218 -0.090845354 0.092700556 -0.19177365 0.008604982 -0.54295814 0.018915035
0.06631547 0.042091984 0.034983296 0.10800701 -0.019022504 -0.0742114 0.23876402 0.044689808
0.23348862 0.22101133 -0.21325532 0.05709341 -0.07355186 -0.110916995 0.040592846 0.13217267
-0.050688215 -0.04002873 -0.099320106 -0.03554956 -0.028086584 0.49857172 -0.03039037 0.019803688
0.00093267555 0.19307825 -0.14683063 0.02370224 0.03341466 -0.18822819 0.13331792 0.17759046
-0.15309288 0.07393895 -0.04085541 -0.21016073 -0.0047782054 -0.20578794 0.02097677 0.049037475
0.112765774 -0.061038427 0.42541558 -0.06676903 -0.0122207 0.1052013 -0.023214418 -0.08363737
0.0064363047 0.10364576 0.06062259 0.13181883 0.28056127 0.03844966 -0.09686203 -0.12974976
-0.08560432 -0.10157958 -0.10132973 -0.020525446 -0.13862525 -0.052334867 -0.1295989 0.20359442
-0.06240016 -0.13196501 -0.08265129 0.023601312 0.11299389 0.031417273 0.06566458 0.15628327
0.13593265 0.17144175 0.09261282 0.0030691242 -0.28992614 0.02115297 -0.007910775 -0.110507555
-0.004806419 0.02504678 0.15886423 -0.13640341 -0.17511009 -0.02102935 0.033433016 0.1044583
0.03434349 0.034666423 -0.26422632 -0.092621356 0.04604944 -0.1329846 -0.003106867 0.033233296
00000000: 18fe 5d3e 67f6 ad3b 19ae 29be a2bf 26be
00000010: 0e4e 7bbd 5597 2b3e 6814 a4bd 88fb bc3c
00000020: 9daa 113e 25e0 9dbd 01ee 063d ba86 783c
00000030: 779d 8ebc 427d 8b3d 8a00 a63d 313b 3dbe
00000040: c40d 28be ffa1 cf3c 9a31 a3be 8ad4 433c
00000050: 7148 5ebb 8bce 953a fbb6 083b 4ef3 853e
00000060: 8a22 9c3d 7b52 93bc 2c1d 263d 2254 ccbd
00000070: d8fb 023e 1053 b03d c347 d4bd 0417 4fbd
00000080: 5dd4 44bd 5d38 24bd 92fd 1fbe ccc3 9d3d
00000090: 61bf bebc b6ec 5e3c aecd 0cbf e540 8cbd
000000a0: dc13 b8bd 96af 0b3b d1c7 033c e260 d8bd
000000b0: 3f09 d4bb 85fc 323e 5b06 7dbd a47a 05bd
000000c0: 46fb 25bd 2a0b 69bd f3d6 6f3d b11a af3c
000000d0: 1eb6 72bd 423f 85be ed2c 51bd e5bd 943c
000000e0: 8c59 38bd f26e dcbd 5fc6 bcbd e23b 453c
000000f0: 0f01 a7bd 7c64 3abd ff97 4abd 47f0 143e
00000100: 4905 95bc 6cb5 47be 305e 7a3d 520d 9fbc
00000110: 9e67 97bd 8a9c c83c aab0 043d 67fe bfbd
00000120: 00d7 053e 03a1 dc3d 0f51 69be 68fd eb3d
00000130: a1ef bb3c 979d 97bd c075 ae3c 7dc5 d6bc
00000140: 3fcf 3c3d 6258 06be 8015 ee3c c069 d63c
00000150: 34c5 34be 78cb 263d 16be a03d c808 01be
00000160: d0c4 833e be3d b83c fd0b 953c 91b2 d2bb
00000170: b129 5b3d 6c51 d4bd 1727 3dbd 3977 0bbd
00000180: c5d7 29bd b66a 30be 9cc0 ea3d cf4f d4bd
00000190: d018 59bc 4563 ad3d a1d5 c5bd ae1e c3be
000001a0: 5ecc 103d 13c7 e2bd 055d cc3d 0f48 0abe
000001b0: 2ee9 b73d 5aff 2dbd eec9 6fbd b302 cabd
000001c0: cc4b 2f3d caba 13be 86a2 ebbc dd10 7c3c
000001d0: aa5d 24be 0eee 153e ef28 a6bc 2f77 95bd
000001e0: 305d c6ba e434 dcbd 7e38 0c3e 44e8 c03d
000001f0: 3fc3 743d b417 603d 1ab4 9a3d b332 38bc
00000200: 3453 bdbe 7fac 1a3d f639 2d3e 28a4 8abd
00000210: abc3 8c3d 689b ecbd 64db 7f3e 8609 48be
00000220: 2dd3 28be 6ed8 213d 804d cb3d b853 98bc
00000230: c3e6 1abd f47b c5bd 0d2c c4be 156d ef3d
00000240: 3f89 d03d b73b dfbc 0705 403f 2cb0 83bc
00000250: 0b74 5fbd 605d 893c 772e 58bd 6af5 8abe
00000260: 2d87 65be e730 b5bd 210d babd cad9 bd3d
00000270: 5060 44be e9fb 0c3c 4eff 0abf b4f3 9a3c
00000280: 68d0 873d a568 2c3d a54a 0f3d c732 dd3d
00000290: 15d5 9bbc 25fc 97bd 8e7e 743e a90c 373d
000002a0: a417 6f3e cb50 623e 9a5f 5abe c8da 693d
000002b0: 5ca2 96bd 7328 e3bd af44 263d 4658 073e
000002c0: 729e 4fbd 2af5 23bd 5768 cbbd 6a9c 11bd
000002d0: d615 e6bc cb44 ff3e 3af5 f8bc 583b a23c
000002e0: cc7e 743a 4eb6 453e c55a 16be 332b c23c
000002f0: cfdd 083d e4be 40be 7e84 083e 46da 353e
00000300: 61c4 1cbe 4e6d 973d 0158 27bd 6034 57be
00000310: 7e92 9cbb 13ba 52be 7ad7 ab3c 85db 483d
00000320: bef1 e63d 6e03 7abd 12d0 d93e 34be 88bd
00000330: 5539 48bc c773 d73d 2a2c bebc 124a abbd
00000340: a3e7 d23b 3a44 d43d 654f 783d 84fb 063e
00000350: baa5 8f3e 647d 1d3d 9a5f c6bd 1fdd 04be
00000360: 5151 afbd f408 d0bd f685 cfbd fb24 a8bc
00000370: c7f3 0dbe 165d 56bd 93b5 04be 0e7b 503e
00000380: 4f97 7fbd d621 07be 1445 a9bd 8a57 c13c
00000390: 5769 e73d 66af 003d 277b 863d b908 203e
000003a0: ee31 0b3e 6d8e 2f3e caab bd3d 5c23 493b
000003b0: 3371 94be fe48 ad3c 329c 01bc c951 e2bd
000003c0: 2a7f 9dbb e82e cd3c 4ead 223e 56ad 0bbe
000003d0: 0f50 33be be45 acbc 0ff1 083d 3cee d53d
000003e0: c2ab 0c3d 61fe 0d3d ac48 87be 44b0 bdbd
000003f0: 569e 3c3d 1d2d 08be 949c 4bbb a31f 083d

fc3.bias f4 [32]
-0.010702037 -5.8160433e-05 -0.0012955064 0.009058619 0.0018925674 -0.009300837 -0.005387805 0.0041916734
-0.013794968 -0.0043333718 0.003641186 -0.009554336 0.0077210004 0.0014005896 -0.034849763 0.0012098037
0.61431926 0.6255877 0.62594813 0.6253726 0.62499917 0.61432016 0.6244632 0.64323294
0.62777126 0.6225601 0.61574113 0.62653613 0.6251034 0.61791253 0.62016594 0.61518085
00000000: 9957 2fbc 4af1 73b8 fbcd a9ba 9a6a 143c
00000010: 0610 f83a 8a62 18bc 2f8c b0bb 4e5a 893b
00000020: 4a04 62bc f5fe 8dbb f7a0 6e3b ca89 1cbc
00000030: 7200 fd3b fd93 b73a a0be 0ebd 4792 9e3a
00000040: 0744 1d3f 8426 203f 233e 203f 6b18 203f
00000050: f2ff 1f3f 1644 1d3f d2dc 1f3f eaaa 243f
00000060: 9eb5 203f 1960 1f3f 36a1 1d3f ac64 203f
00000070: c706 203f 842f 1e3f 32c3 1e3f 7e7c 1d3f
