puppersim/dc_saves/aac_slow_straight_efficient_0/critic2_28.pt (torch, 84759 bytes, 5 tensors)

fc1.weight f4 [128, 31]
0	0xbecc8db3	-0.39951858
1	0x3de54d10	0.11196339
2	0xbdc3ae27	-0.09554701
3	0xbed3cbf5	-0.41366544
4	0xbe562946	-0.20914182
5	0xbf9ac749	-1.2092067
6	0x3e1534a5	0.14570864
7	0xbde481f1	-0.11157597
8	0xbe329493	-0.17439489
9	0xbed10292	-0.40822273
10	0x3f1f778a	0.6229178
11	0xbff8a784	-1.9426122
12	0xbf1a4965	-0.6026824
13	0xbf15e7a1	-0.5855656
14	0xbfb6a4c8	-1.4269037
15	0xbdf95f48	-0.121763766
16	0xbe2d8581	-0.16945459
17	0x3ead966e	0.3390383
18	0xbe80bd6e	-0.25144523
19	0x3e52ed1f	0.20598267
20	0x3cf18e46	0.029486787
21	0xbd975e2b	-0.07391008
22	0x3c6d7e17	0.014495394
23	0xbef63b1a	-0.48091966
24	0xbd7c9328	-0.061663777
25	0x3deafbe0	0.114738226
26	0x3e7892d8	0.24274766
27	0xbc7b7b18	-0.015349172
28	0x3e860a30	0.26179647
29	0xbe863c84	-0.26218045
30	0xbd712d00	-0.058880806
31	0xbea952a2	-0.33070856
32	0xbe37d60a	-0.17952743
33	0xbf13e04c	-0.57764125
34	0x3f293661	0.660986
35	0x3eb9d782	0.36297232
36	0xbea17630	-0.31535482
37	0x3e33eda1	0.17571117
38	0xbf894a8a	-1.0725873
39	0xbcba8755	-0.02276961
40	0x3e3c5c1c	0.18394512
41	0x3edda267	0.43287966
42	0xbef5ec7e	-0.48031992
43	0xbe157526	-0.1459547
44	0xbf2db56a	-0.6785494
45	0x3e38430e	0.1799433
46	0xbc0aae98	-0.008464478
47	0x3d2c2e9a	0.04203663
48	0x3ddcecd7	0.10787361
49	0x3f000dda	0.50021136
50	0xbf08a8ec	-0.53382754
51	0x3c25c1f5	0.010117044
52	0xbbdb768d	-0.006697482
53	0x3e325c49	0.17418016
54	0xbd00652e	-0.031346492
55	0xbd287666	-0.04112854
56	0x3e3802a6	0.1796976
57	0xbd15f399	-0.036609266
58	0x3bf8715b	0.0075818724
59	0xbe42d8c9	-0.1902801
60	0x3ddad2e0	0.106847525
61	0x3e957063	0.29187307
62	0x3d58d401	0.052936558
63	0x3f3be7e1	0.73400694
64	0xbea8ff93	-0.33007488
65	0x3e0c1192	0.13678578
66	0x3cc467c4	0.02397526
67	0x3d8c9995	0.06865231
68	0x3dae65f8	0.08515543
69	0xbf2650c6	-0.64967
70	0xbf8ba75e	-1.0910451
71	0x3e80c3e0	0.2514944
72	0x3e52af08	0.20574582
73	0x3e6ed303	0.23322682
74	0x3dcc6bf3	0.09981527
75	0xbf99aa5d	-1.2005116
76	0xbf42b26e	-0.7605351
77	0xbe295bc8	-0.16538918
78	0xbdb8a3ed	-0.09015641
79	0xbe889168	-0.26673436
80	0x3d99f0e5	0.0751665
81	0x3cda7de5	0.02667136
82	0xbeb8c335	-0.3608643
83	0x3e0c4c63	0.13701014
84	0xbde7736a	-0.1130131
85	0x3e9070d8	0.28211093
86	0x3c08c096	0.008346697
87	0xbe6ab772	-0.22921541
88	0x3d261ae5	0.040552992
89	0x3e8952f1	0.26821092
90	0x3c3a4090	0.011367932
91	0x3e81ed98	0.25376582
92	0x3d40175e	0.046897285
93	0xbf02a4e3	-0.5103285
94	0x3f48253d	0.7818182
95	0xbea44377	-0.32082722
96	0xbd3276d6	-0.043570362
97	0x3f156c99	0.5836883
98	0xbf9d0e5e	-1.227001
99	0x3f1486a5	0.5801795
100	0x3f894944	1.0725484
101	0xbfc00340	-1.5000992
102	0xbefccab2	-0.49373394
103	0x3ecb1901	0.39667514
104	0xbf559787	-0.8343434
105	0xbf09d484	-0.538399
106	0xbf1c9bc0	-0.61175156
107	0xbd80f357	-0.062964134
108	0x3d3465ae	0.04404228
109	0x3e0342c4	0.12818438
110	0xbe18fd7e	-0.1494045
111	0xbd2a1b09	-0.04152969
112	0xbbcde23a	-0.006283072
113	0x3c9729d3	0.01845256
114	0x3ca34182	0.019928697
115	0xbdef3e9b	-0.11681863
116	0xbeb1ea54	-0.3474909
117	0x3c000371	0.0078133205
118	0xbdf020d5	-0.11725012
119	0x3e453f22	0.19262365
120	0xbd4ff6da	-0.050772525
121	0x3cddf38c	0.027093671
122	0xbc9d512f	-0.01920375
123	0x3de37921	0.11107088
124	0xbf38ca5c	-0.72183776
125	0xbfa4d682	-1.2877963
126	0x3e4fb815	0.20285065
127	0xbe44b86e	-0.1921098
128	0xbeab057f	-0.3340263
129	0xbddc0c55	-0.1074454
130	0x3eafad46	0.34311885
131	0x3f42c5b0	0.760829
132	0xbfdb6542	-1.7140276
133	0xbead2f5d	-0.33825198
134	0xbec0d0f3	-0.37659416
135	0xbf5f8903	-0.8731844
136	0xbe54366a	-0.20723882
137	0xbe2420ef	-0.16028188
138	0xbf1afd32	-0.60542595
139	0x3e391019	0.18072547
140	0xbd2e1548	-0.042500764
141	0x3e4b09d9	0.19827975
142	0x3d690478	0.056889027
143	0xbdc2c270	-0.09509742
144	0xbe6244b1	-0.22096516
145	0x3df1cf1b	0.1180708
146	0x3dac823e	0.08423279
147	0x3e27d3ed	0.16389437
148	0xbd945bd0	-0.07244074
149	0x3e449cd5	0.19200452
150	0xbdfa1a97	-0.12212103
151	0xbe13c2a7	-0.14429723
152	0x3e15892a	0.14603105
153	0x3de32492	0.110909596
154	0xbd5d3448	-0.054004937
155	0xbcc26500	-0.023729801
156	0x3ee8f836	0.4550187
157	0x3f51b651	0.8191882
158	0x3e42ea41	0.19034673
159	0xbb86a3fb	-0.0041089035
160	0x3f376b6e	0.716483
161	0x3ede4f39	0.43419817
162	0xbd3dc42c	-0.046329662
163	0x3f1fd92f	0.6244077
164	0x3f44172a	0.76597846
165	0xbe8cdb1f	-0.27510926
166	0x3f0606b8	0.52354
167	0x3f423e74	0.75876546
168	0x3dd8025f	0.10547327
169	0xbda42d53	-0.080164574
170	0x3d5d30b5	0.05400153
171	0xbe170401	-0.14747621
172	0xbd45e8b1	-0.048317615
173	0x39db2c77	0.00041804064
174	0xbe7de337	-0.24793707
175	0xbd3d0212	-0.046144553
176	0xbc52e76c	-0.012872558
177	0xbd9187fe	-0.071060166
178	0xbd5ed246	-0.05439975
179	0xbd1e7cfb	-0.03869341
180	0xbdf76e40	-0.120815754
181	0xbcaafa26	-0.020871233
182	0xbb961849	-0.0045805317
183	0xbdee4b24	-0.11635426
184	0x3e07d7c8	0.13265908
185	0xbd03aebe	-0.03214907
186	0x3e53d4ff	0.2068672
187	0x3e054a75	0.13016684
188	0xbf3a23d9	-0.7271095
189	0x3eef04fe	0.46683496
190	0xbbd6c1a5	-0.006553846
191	0xbf260bdb	-0.6486184
192	0x3ec8cfdb	0.3922108
193	0x3f830219	1.0235015
194	0xbda65f12	-0.08123602
195	0x3f4a8539	0.7910953
196	0xbe015c3b	-0.1263284
197	0x3d216938	0.039406985
198	0xbe85b23f	-0.26112553
199	0xbe23e119	-0.16003837
200	0xbf2363d0	-0.63824177
201	0x3de5128f	0.111851804
202	0xbe0f90ae	-0.14020035
203	0x3d361a54	0.044458702
204	0xbd62858e	-0.05530315
205	0x3e87ebb9	0.2654703
206	0x3dfba981	0.1228819
207	0xbe246b12	-0.16056469
208	0xbeaa7831	-0.33294824
209	0xbe765f9c	-0.2405991
210	0xbc43dc74	-0.011954416
211	0xbf2ca7f7	-0.67443794
212	0xbea15223	-0.31507978
213	0xbe452c7c	-0.1925525
214	0x3e3ba69a	0.18325272
215	0x3e124fe9	0.14288296
216	0xbda27e23	-0.07934215
217	0xbf22ec70	-0.63642025
218	0xbea20c35	-0.31649938
219	0x3df3f2d6	0.11911552
220	0x3e87cb60	0.2652235
221	0xbf22ba50	-0.6356554
222	0xbf27883d	-0.6544226
223	0x3e474ece	0.19463655
224	0x3edf9f3f	0.43676183
225	0xbfb2b094	-1.3960137
226	0xbeedabc0	-0.46420097
227	0xbec808f1	-0.39069322
228	0xbf872706	-1.0558784
229	0xbf7b48af	-0.9815778
230	0xbe98534b	-0.29751047
231	0xbe9daf73	-0.3079792
232	0x3ea1da58	0.31611896
233	0x3ed97510	0.42472124
234	0x3e9a03ab	0.30080923
235	0xbe08a57f	-0.13344382
236	0x3d003e45	0.031309385
237	0x3e48563d	0.19564147
238	0xbbfc90e2	-0.007707701
239	0x3e912ebe	0.28355974
240	0xbce63d39	-0.028105365
241	0xbe0c509e	-0.13702628
242	0x3ddb6f59	0.10714597
243	0xbd6a5c16	-0.057216726
244	0x3d56de22	0.052457936
245	0xbe907959	-0.2821758
246	0xbea25ea9	-0.31712845
247	0x3ddcbdb9	0.10778374
248	0xbe923be1	-0.2856131
249	0x3f5ad648	0.8548322
250	0xbe02e8c1	-0.12784101
251	0x3d211c0e	0.039333396
252	0x3e483ec5	0.19555195
253	0xbdb3a00f	-0.08770763
254	0xbd5b30c4	-0.053513303
255	0x3ea38835	0.31939855

fc1.bias f4 [128]
0	0xbeb9547c	-0.3619727
1	0xbe9fb9f4	-0.31196558
2	0xbf506e3b	-0.814182
3	0xbe1160ae	-0.14197037
4	0xbeddfbcc	-0.43356168
5	0xbf27fe93	-0.65622824
6	0xbf6ed895	-0.9329923
7	0xbe80ee06	-0.25181597
8	0xbebeb1de	-0.37245077
9	0x3e161082	0.14654735
10	0xbe76b488	-0.24092305
11	0xbe31066a	-0.17287603
12	0xbe3437e7	-0.1759945
13	0xbf101093	-0.5627529
14	0xbf35d819	-0.71032864
15	0xbf16f311	-0.5896464
16	0xbfd49648	-1.6608362
17	0xbdbe47e3	-0.09291055
18	0xbf4e3a70	-0.8055792
19	0x3da96c17	0.082725696
20	0x3d79f03d	0.061020125
21	0xbe787cc5	-0.24266346
22	0x3e54961f	0.20760392
23	0x3b8de01c	0.0043296944
24	0xbfc9075b	-1.570537
25	0xbfb4ad78	-1.4115438
26	0xbf0b1ec1	-0.543438
27	0xbfa3d7c3	-1.280022
28	0xbf38e019	-0.72216946
29	0xbdb6e450	-0.08930266
30	0xbfc1e5cf	-1.5148257
31	0xbe03db64	-0.1287666
32	0x3fa8c09e	1.3183782
33	0xbe9eea3a	-0.31038076
34	0x3e4882c2	0.1958113
35	0xbfc5b11c	-1.5444674
36	0xbec05a7f	-0.37569043
37	0xbf4aeca9	-0.79267365
38	0xbf3b268d	-0.731057
39	0xbe85db20	-0.26143742
40	0xbe5e120e	-0.21686575
41	0xbe8b2ec8	-0.2718413
42	0xbf4280f3	-0.7597801
43	0xbf1ede1c	-0.6205766
44	0xbec9edf2	-0.3943935
45	0x3f762e51	0.96164423
46	0xbf82ddbb	-1.0223917
47	0xbc4f9b27	-0.012671269
48	0xbf096fce	-0.53686225
49	0xbf3c04b5	-0.7344468
50	0xbd93758c	-0.07200155
51	0x3dc688f0	0.096940875
52	0xbe0030e5	-0.12518652
53	0xbeee1748	-0.46502137
54	0xbe6c4f61	-0.23077156
55	0xbe951e7e	-0.29124826
56	0x3e8e6b6c	0.2781633
57	0xbe1ff455	-0.15620549
58	0x3f46333a	0.77421916
59	0xbeb1a616	-0.34697026
60	0xbb9eb9c1	-0.004843921
61	0xbf2dd66c	-0.67905307
62	0xbebb1aa5	-0.36543766
63	0x3d8be6fa	0.06831165
64	0xbf4c5e67	-0.79831547
65	0xbef54c34	-0.479097
66	0xbe569718	-0.20956075
67	0xbf8965c1	-1.0734178
68	0xbf7d6a02	-0.9898988
69	0xbded5ecc	-0.11590347
70	0x3f8286df	1.0197409
71	0xbeb360b2	-0.3503471
72	0x3f08a7fb	0.5338132
73	0xbe9f7f3f	-0.3115177
74	0xbee12a36	-0.43977517
75	0xbf0f2b37	-0.55925316
76	0xbfb18db2	-1.3871367
77	0xbf904126	-1.1269882
78	0xbe097248	-0.13422501
79	0xbd8f785e	-0.0700538
80	0xbee00843	-0.43756303
81	0x3f92c9b3	1.1467804
82	0xbe8712de	-0.26381582
83	0xbf90a210	-1.1299458
84	0xbec7c730	-0.39019156
85	0xbf764658	-0.96201086
86	0xbe70721b	-0.23481028
87	0xbf34fbbf	-0.70696634
88	0xbe2d9dc3	-0.16954713
89	0xbf41225f	-0.7544307
90	0xbefc0d08	-0.49228692
91	0xbe3e0d5f	-0.18559788
92	0xbe959820	-0.29217625
93	0xbf2675ee	-0.65023696
94	0x3fa22460	1.2667351
95	0xbf2af7e4	-0.667845
96	0x3f9250bb	1.1430887
97	0xbe54ecfe	-0.2079353
98	0xbeb07ddf	-0.34471032
99	0xbeb7c3f6	-0.35891694
100	0xbee3ff18	-0.4453056
101	0x3deb96cd	0.11503372
102	0xbef85819	-0.48504713
103	0xbf0944f9	-0.5362087
104	0xbf13d057	-0.57739776
105	0xbd9b1ced	-0.075738765
106	0xbe997f4f	-0.2997994
107	0xbe8510eb	-0.2598947
108	0xbea28827	-0.317445
109	0xbe990ba1	-0.29891685
110	0xbec2e77c	-0.38067234
111	0xbe890a6a	-0.26765758
112	0xbf29e338	-0.66362333
113	0xbee4c2cc	-0.44679868
114	0xbebfeca5	-0.37485233
115	0xbf5902a1	-0.84769636
116	0xbf53816a	-0.82619345
117	0xbe37d5f1	-0.17952706
118	0xbf928e59	-1.1449691
119	0xbf3a8b2c	-0.7286861
120	0xbf2e58c8	-0.6810422
121	0xbf451309	-0.7698217
122	0x3f220857	0.63293976
123	0xbf1a7118	-0.6032882
124	0xbf2cb6af	-0.67466253
125	0x3dbeacee	0.093103275
126	0x3f76a4de	0.9634532
127	0xbf0663ad	-0.52495843

fc2.weight f4 [128, 128]
0	0xbe0fcd74	-0.14043218
1	0x3c14145a	0.009038055
2	0xbf3a5dfc	-0.7279966
3	0xbeb6499b	-0.35603032
4	0x3e4f93fe	0.20271298
5	0xbddf40f2	-0.10901059
6	0xbf7f3e9b	-0.99704903
7	0x3ef6aaa2	0.48177058
8	0xbf2e05f9	-0.67977864
9	0x3e2e6ddc	0.17034096
10	0xbe437d5b	-0.19090788
11	0x3e153572	0.14571169
12	0xbda252ed	-0.07925973
13	0x3e4891a9	0.19586815
14	0xbf167337	-0.58769554
15	0x3e5dd0f5	0.21661742
16	0xbf6822fa	-0.9067837
17	0x3ecd4278	0.40089774
18	0x3e9d560b	0.30729708
19	0x3e0de9a2	0.13858655
20	0xbed0b0d8	-0.4075992
21	0xbda4c9bf	-0.080462925
22	0x3ea673cc	0.3251022
23	0xbec7e118	-0.3903892
24	0xbe336caf	-0.17521928
25	0x3ec485fe	0.38383478
26	0xbe098b04	-0.13431937
27	0xbea198e8	-0.3156197
28	0xbe0792d6	-0.13239607
29	0xbed24fee	-0.41076607
30	0xbdd12d1b	-0.10213681
31	0xbea96622	-0.33085734
32	0xbeff263a	-0.49833852
33	0xbeb2ae89	-0.34898785
34	0xbe5c1d58	-0.21495569
35	0xbc0757e4	-0.008260701
36	0xbed581ec	-0.41700685
37	0x3e68831f	0.22706269
38	0xbecc72dc	-0.3993138
39	0x3e50b003	0.20379643
40	0xbd3e3c35	-0.046444137
41	0xbc26f69d	-0.010190633
42	0xbda9a05c	-0.08282539
43	0xbd26c338	-0.04071352
44	0x3e027af9	0.12742223
45	0xbe1d6523	-0.15370612
46	0xbdb5d9b0	-0.08879411
47	0xbf5d87a1	-0.8653508
48	0xbcb80405	-0.022462854
49	0xbf0604fb	-0.5235135
50	0xbdd8f9c6	-0.105945155
51	0x3f4f3d37	0.8095278
52	0xbd1b81e5	-0.037965674
53	0xbd92950c	-0.07157335
54	0x3e255aa1	0.16147853
55	0xbec6926a	-0.3878358
56	0xbf12519a	-0.57155764
57	0xbea3a2e3	-0.3196021
58	0xbe82b0b8	-0.2552545
59	0x3e07bdfa	0.13256064
60	0x3ec134c6	0.37735575
61	0x3e3f026e	0.1865327
62	0x3e02404a	0.12719837
63	0xbea1b6cb	-0.31584772
64	0xbe169163	-0.14703898
65	0xbf542ba3	-0.82879084
66	0x3e89b388	0.26894784
67	0xbe19ed75	-0.15031989
68	0x3d2b1240	0.04176545
69	0x3f0af394	0.5427792
70	0x3e240d14	0.16020614
71	0xbf26101a	-0.6486832
72	0xbd24e215	-0.04025467
73	0x3b3d7697	0.0028909796
74	0xbe8d228b	-0.27565417
75	0xbec58329	-0.3857663
76	0x3df04623	0.117321275
77	0xbd8a61c1	-0.06756926
78	0x3eb83161	0.35975173
79	0xbd5a2b48	-0.053263932
80	0xbf3d6945	-0.73988754
81	0xbf8d0673	-1.1017593
82	0x3ed056e3	0.4069129
83	0x3d5196ee	0.05116933
84	0xbe8fa451	-0.2805505
85	0xbf0ba66b	-0.5455081
86	0x3d9e900e	0.0774232
87	0xbec38736	-0.38189095
88	0x3daa2dcf	0.083095185
89	0x3e965431	0.29361108
90	0x3e14300e	0.14471456
91	0xbefecb59	-0.49764517
92	0xbec21325	-0.3790523
93	0xbcd380fa	-0.025818337
94	0xbe8449be	-0.2583751
95	0xbe594d35	-0.21220858
96	0xbe8b8e68	-0.27257085
97	0xbe717c9c	-0.23582691
98	0xbe33e81c	-0.17569011
99	0x3e2121b4	0.15735513
100	0xbf7ee5a7	-0.9956917
101	0xbe9c5f87	-0.30541632
102	0x3e746859	0.2386793
103	0xbe15b9f7	-0.14621721
104	0xbebb02b4	-0.365255
105	0xbe8e0530	-0.27738333
106	0xbeb83ecf	-0.3598542
107	0x3e8fd071	0.28088716
108	0x3e87e958	0.26545215
109	0x3c432cda	0.011912549
110	0xbee7a2b2	-0.45241314
111	0xbdab8ebb	-0.08376833
112	0x3f014aab	0.5050456
113	0xbe810f33	-0.2520691
114	0x3e9cb45d	0.30606356
115	0x3e1e1494	0.15437537
116	0xbe0c426f	-0.13697217
117	0x3dff5092	0.124665394
118	0xbdc2cb97	-0.09511488
119	0x3d90f8a5	0.07078675
120	0x3e939dca	0.2883132
121	0x3db736a6	0.0894597
122	0x3c33ed9f	0.010981946
123	0x3ee58524	0.4482814
124	0x3e4a3e58	0.19750345
125	0xbdc0f668	-0.09421998
126	0xbef360d9	-0.47534826
127	0xbc5dc569	-0.013535836
128	0xbd88ebe7	-0.0668562
129	0xbf2ae7f2	-0.6676017
130	0xbeeb648c	-0.4597515
131	0xbeb5e3ab	-0.3552526
132	0xbab5feaa	-0.00138851
133	0xbe55775b	-0.20846312
134	0x3d4333f1	0.047656957
135	0xbf370c5f	-0.7150325
136	0xbca6bbcb	-0.020353219
137	0x3d46882a	0.0484697
138	0xbd993b9a	-0.07482071
139	0xbe6c546b	-0.23079078
140	0xbefcaee6	-0.49352187
141	0xbf3434f3	-0.70393294
142	0x3dc9ce68	0.09853822
143	0xbdf9d0d0	-0.12198031
144	0x3d8a0dd7	0.06740921
145	0xbee2b05f	-0.44275185
146	0x3d01fad0	0.031733334
147	0xbf035357	-0.5129904
148	0xbed65725	-0.4186336
149	0xbefbff45	-0.49218193
150	0xbd98aa98	-0.07454413
151	0xbf0f8dc2	-0.5607568
152	0xbe4b8b0d	-0.19877262
153	0xbe3f7641	-0.18697454
154	0xbe2bf192	-0.1679137
155	0xbe20eac9	-0.15714563
156	0xbf0361e3	-0.5132124
157	0xbe2d415e	-0.16919467
158	0xbe1eabf9	-0.1549529
159	0x3e1aa1c4	0.15100771
160	0xbecc3ea5	-0.39891544
161	0xbeb9caaf	-0.36287448
162	0xbec0e756	-0.37676495
163	0xbec389c5	-0.38191047
164	0xbf1cb3ef	-0.61212057
165	0x3e3c2601	0.18373872
166	0xbf69a245	-0.9126323
167	0xbf3d1eb7	-0.7387499
168	0x3e33c0af	0.17553972
169	0xbddc1199	-0.10745544
170	0x3d10cb21	0.03534997
171	0xbefc7e49	-0.49315098
172	0xbea600f2	-0.32422596
173	0xbd39ecf9	-0.04539201
174	0x3d727a2a	0.059198536
175	0x3e7cc365	0.24683912
176	0x3e40b2a2	0.18818143
177	0xbe738ea0	-0.23784876
178	0x3b387b64	0.0028149718
179	0xbe301141	-0.17194082
180	0xbf29e457	-0.66364044
181	0xbe838ddc	-0.25694168
182	0xbe21e27f	-0.15809058
183	0x3e6ecce2	0.23320344
184	0xbe4ce899	-0.20010604
185	0xbea6e5a9	-0.32597092
186	0xbe398235	-0.18116076
187	0xbca8057d	-0.02051043
188	0x3b579127	0.0032892914
189	0xbde6518b	-0.11246022
190	0x3dea38fd	0.11436651
191	0xbcb3191c	-0.021862559
192	0xbf0dda27	-0.55411
193	0xbd679daa	-0.056546845
194	0xbeb6eece	-0.3572907
195	0x3d120728	0.035651356
196	0xbe8ab43b	-0.2709063
197	0xbdb3c04e	-0.087769136
198	0xbd72d431	-0.059284393
199	0xbe4ca9c6	-0.19986638
200	0x3e772502	0.24135211
201	0xbe2a80d8	-0.16650712
202	0xbdd9e312	-0.10639013
203	0xbf187780	-0.5955734
204	0xbe24f938	-0.16110694
205	0xbe0a05d9	-0.13478793
206	0xbf08e6b0	-0.53477
207	0x3dbd0260	0.092289686
208	0x3d0a120d	0.03370862
209	0x3d3fa17b	0.04678486
210	0xbe8eba9a	-0.2787674
211	0xbeab45f1	-0.334518
212	0xbe737411	-0.23774745
213	0xbd92ffd3	-0.07177701
214	0xbe5554ea	-0.20833173
215	0xbe100d95	-0.14067681
216	0xbeed86ee	-0.46392006
217	0x3e7a7737	0.2445954
218	0xbda9e29a	-0.08295174
219	0xbe7647ef	-0.24050878
220	0xbd94798c	-0.07249746
221	0x3dec138e	0.11527167
222	0xbe179b12	-0.14805248
223	0xbdb89766	-0.09013252
224	0xbe9f5bb7	-0.3112466
225	0xbe5ea1b2	-0.2174137
226	0xbe4f5b8e	-0.20249769
227	0xbe0cb2d3	-0.13740091
228	0xbee1ce35	-0.44102636
229	0x3d3cd6e7	0.046103384
230	0x3e8b6634	0.27226412
231	0xbea51946	-0.32245845
232	0x3d29e8d0	0.041481793
233	0xbe7700d8	-0.24121416
234	0x3e18c75e	0.14919803
235	0xbc969497	-0.0183814
236	0xbe7d5203	-0.24738316
237	0x3ca64b5e	0.02029961
238	0x3dd11f5b	0.10211059
239	0xbd3d9eec	-0.046294138
240	0xbef0fdd5	-0.47068658
241	0xbc7148ba	-0.014726812
242	0xbddcad4d	-0.10775242
243	0xbe46ce0b	-0.19414537
244	0xbf14bbfa	-0.5809933
245	0xbe899a9c	-0.2687577
246	0xbe3db671	-0.18526627
247	0xbe4e3a91	-0.20139529
248	0x3cd3b613	0.025843656
249	0xbe18835d	-0.14893861
250	0xbe229c64	-0.15879971
251	0x3ca98426	0.020692896
252	0xbbd02331	-0.0063518514
253	0xbecb4319	-0.3969963
254	0xbe2dde3e	-0.1697931
255	0x3d6fca64	0.058542624

fc2.bias f4 [128]
0	0xbe2be521	-0.16786624
1	0xbe46588c	-0.19369715
2	0xbe993b37	-0.2992799
3	0xbe0d0d20	-0.13774538
4	0xbe282b93	-0.16422872
5	0xbe38a080	-0.18029976
6	0xbe9f2cf9	-0.31089
7	0xbe2ca2c4	-0.16858965
8	0xbdf200b8	-0.11816543
9	0xbe9abb22	-0.30220896
10	0xbb3b90c0	-0.0028620213
11	0xbe689d46	-0.22716245
12	0xbde2028c	-0.11035642
13	0xbe662394	-0.2247451
14	0xbebea5c8	-0.37235856
15	0x3e120fb5	0.14263804
16	0xbee2e2da	-0.443137
17	0xbf09d682	-0.5384294
18	0xbe5ba671	-0.21450211
19	0xbf2246f0	-0.6338949
20	0xbe13bb7f	-0.14426993
21	0xbf227f50	-0.63475513
22	0xbe4a1f10	-0.19738412
23	0xbeb72c18	-0.35775828
24	0x3eb53915	0.35395113
25	0x3ad148e4	0.0015967158
26	0xbe611fed	-0.21984835
27	0xbe4c6a00	-0.19962311
28	0xbd127a39	-0.03576109
29	0xbf45385c	-0.7703912
30	0xbe8037fc	-0.25042713
31	0xbe57331c	-0.2101559
32	0xbe3409e6	-0.17581901
33	0xbf26c463	-0.6514341
34	0xbe9f3fc4	-0.31103337
35	0xbf2ad11c	-0.66725326
36	0xbe1c5e41	-0.1527033
37	0xbf03005a	-0.5117241
38	0xbe617fbb	-0.22021382
39	0xbe77f762	-0.24215463
40	0xbf36d7d7	-0.71423095
41	0xbe5ef279	-0.21772183
42	0xbf4380b0	-0.76368237
43	0xbf48fc27	-0.78509754
44	0xbdb2cc2d	-0.0873035
45	0xbeaceb85	-0.33773437
46	0x3f0cc2c3	0.5498468
47	0xbc9c9112	-0.019112144
48	0xbef88253	-0.4853693
49	0xbf0b1a0f	-0.5433664
50	0xbf21a8c1	-0.63148123
51	0xbed0a093	-0.40747508
52	0xbf185cb1	-0.59516436
53	0xbe412ec1	-0.18865491
54	0x3e668f6b	0.22515647
55	0xbea62ec0	-0.32457542
56	0xbe3dbad8	-0.18528306
57	0xbe915071	-0.28381684
58	0xbe07a6b2	-0.13247183
59	0xbf37c5a1	-0.7178593
60	0xbe20aab4	-0.15690118
61	0xbe07906c	-0.13238686
62	0xbe94b19b	-0.29041752
63	0xbe49639d	-0.19666906
64	0xbd4e65e1	-0.050390128
65	0xbe331a68	-0.17490542
66	0xbe98a2ff	-0.29811856
67	0x3d026133	0.031830978
68	0xbe3b22df	-0.18275021
69	0xbec86cc7	-0.3914549
70	0xbe725368	-0.2366463
71	0xbe33d52c	-0.17561787
72	0xbd1ee727	-0.038794663
73	0xbd660f86	-0.056167148
74	0xbf816c9b	-1.0111269
75	0xbe3ffffc	-0.18749994
76	0xbe156510	-0.14589334
77	0xbe12fdd2	-0.14354637
78	0xbec001d7	-0.37501404
79	0xbe49c9e8	-0.19705927
80	0xbe71796c	-0.23581475
81	0xbf00032c	-0.5000484
82	0xbdd079c3	-0.10179474
83	0xbe9f360c	-0.31095922
84	0xbe81fc49	-0.2538779
85	0xbf15cbaa	-0.5851389
86	0xbdd9d61d	-0.10636542
87	0xbd4a0c30	-0.04932803
88	0xbd8624a6	-0.06549959
89	0xbf46b00e	-0.7761239
90	0xbf12f759	-0.5740867
91	0xbf18e44a	-0.5972334
92	0xbe8a8a9b	-0.27058873
93	0xbe0b0452	-0.13575867
94	0xbf0393f6	-0.51397645
95	0xbf71d563	-0.9446623
96	0xbf1c8b9e	-0.6115054
97	0xbf432c09	-0.7623907
98	0xbf088f84	-0.5334399
99	0xbe960937	-0.29303905
100	0xbf367f18	-0.7128768
101	0xbed0e45b	-0.4079922
102	0xbecef401	-0.40420535
103	0xbef362db	-0.47536358
104	0xbe2406c3	-0.16018204
105	0xbe240745	-0.16018398
106	0xbe8f962a	-0.28044254
107	0xbea1a748	-0.31572938
108	0xbe3cc916	-0.18436083
109	0xbdc0f7e0	-0.094222784
110	0xbef543a8	-0.4790318
111	0xbeeb0ef6	-0.45909852
112	0xbe8f902a	-0.28039676
113	0xbe82c0a2	-0.25537592
114	0xbe9272ba	-0.28603154
115	0xbd4c8e41	-0.04994035
116	0x3d3e970c	0.04653077
117	0xbf529264	-0.82254624
118	0xbe5c7ac4	-0.21531206
119	0xbe3fb958	-0.18723047
120	0xbf1fd915	-0.62440616
121	0xbef9ab4f	-0.4876351
122	0xbf4b3a75	-0.79386073
123	0xbf460c46	-0.7736248
124	0xbe5ff9c1	-0.21872617
125	0xbde1ced8	-0.110257804
126	0xbe01ac3c	-0.12663358
127	0xbe805563	-0.25065145

fc3.weight f4 [1, 128]
0	0xbaab2aeb	-0.0013059055
1	0xbe7726e1	-0.24135925
2	0x3ac05c83	0.0014676008
3	0xbf185f0a	-0.5952002
4	0xbece487e	-0.40289682
5	0xbe969553	-0.294108
6	0xbeb433a4	-0.3519565
7	0xbd1b2aea	-0.037882723
8	0xbe679a77	-0.22617517
9	0x3c8f17ec	0.017467462
10	0xbc0e5485	-0.008687143
11	0xbc7253ee	-0.014790518
12	0x3d885008	0.0665589
13	0xbe6eb7bd	-0.23312278
14	0x3b1012f8	0.0021983963
15	0xbc4a1a91	-0.0123354355
16	0x3d1e6377	0.038669076
17	0xbd3788cf	-0.044808205
18	0xbb640898	-0.0034795161
19	0x3cd6fb3b	0.026242843
20	0xbecb5d25	-0.397195
21	0x3cbb1a35	0.022839645
22	0xbea9c31e	-0.33156675
23	0xbab3b8c7	-0.0013711684
24	0x3c3d73fb	0.011563296
25	0xbc51aa23	-0.012796911
26	0xbc0d6fcd	-0.008632612
27	0xbeec1916	-0.4611289
28	0xbcb81966	-0.022473048
29	0x3ac36eff	0.0014910399
30	0xbc73611e	-0.0148546975
31	0xbf152eb8	-0.5827441
32	0xbb58df8e	-0.0033092233
33	0x3d16c693	0.03681047
34	0xbd72d94b	-0.059289258
35	0x3cb0ea9f	0.021596251
36	0xbc91fce4	-0.017820783
37	0x3c449136	0.011997512
38	0xbc8ef3e2	-0.017450277
39	0x3b89c582	0.004204453
40	0x3a0ace44	0.0005295018
41	0xbec3e51b	-0.3826073
42	0xbc2218c3	-0.009893599
43	0x3ab50a9f	0.001381237
44	0x3cb2aee0	0.021811903
45	0x3c04445f	0.008072942
46	0x3e113a91	0.14182498
47	0xbc884be9	-0.01663776
48	0x39ddaac8	0.00042279647
49	0x3bc4c9e5	0.006005513
50	0xbd0b26ab	-0.033972424
51	0xbab92be1	-0.0014127457
52	0x3b854c5c	0.0040679406
53	0xbf1e17d0	-0.61755085
54	0xbd8724dd	-0.06598828
55	0x3b59a4da	0.0033209831
56	0xbec6f472	-0.38858372
57	0xbeb09ceb	-0.3449472
58	0xbec683c1	-0.38772395
59	0x3d717863	0.0589527
60	0xbe75e990	-0.24014878
61	0xbc58f931	-0.013243006
62	0xbe217e64	-0.1577087
63	0xbe574c96	-0.21025309
64	0xbce0fd4a	-0.027464528
65	0xbeeeacce	-0.46616215
66	0xbf1680e8	-0.58790445
67	0xbcc3e9bc	-0.023915164
68	0xbc02c72b	-0.007982056
69	0x3caa0c26	0.020757746
70	0x3c83510a	0.016029853
71	0xbe56afd6	-0.20965514
72	0x3d23ef6f	0.040023264
73	0xbc1ce4f8	-0.009576075
74	0xbc9bcd53	-0.019018805
75	0xbe861c95	-0.2619368
76	0xbc986619	-0.018603371
77	0xbc53b5ff	-0.012921809
78	0x3b413d48	0.002948599
79	0xbd70598a	-0.05867914
80	0x3d25a9fc	0.040445313
81	0xbb988379	-0.0046543446
82	0xbcdbd91f	-0.02683693
83	0x3d76f099	0.060288046
84	0xbed11f51	-0.40844205
85	0x3ca3921b	0.01996713
86	0xbea140c4	-0.31494725
87	0x3c48669f	0.012231498
88	0x3b70c9c6	0.003674136
89	0x3a96bce4	0.0011500386
90	0x3c2e6a08	0.010645397
91	0x3caa4e5b	0.020789316
92	0x3c561fe0	0.013069123
93	0xbed2f54c	-0.41202772
94	0x3c8d38d6	0.017239016
95	0xbc6c38dd	-0.014417854
96	0x3c92343a	0.01784717
97	0xbae991cc	-0.001781994
98	0x3d39e2ee	0.045382433
99	0xbbe6febe	-0.0070494106
100	0xbb2d2685	-0.0026420665
101	0xbd047ecb	-0.03234748
102	0x3cb77a4b	0.022397181
103	0x3b967a36	0.0045922054
104	0xbebdc975	-0.37067762
105	0xbea0bf51	-0.31395963
106	0xbebf224f	-0.37330863
107	0x3c98b884	0.018642671
108	0x3d05aa23	0.03263296
109	0xbed5a2e6	-0.41725844
110	0xbd10ab08	-0.035319358
111	0xbc3f6a99	-0.01168313
112	0x3db89b5f	0.0901401
113	0xbebe1ebe	-0.3713283
114	0xbc86d293	-0.016457831
115	0xbd9856b0	-0.07438409
116	0x3d367cef	0.04455274
117	0xbc1fa8be	-0.009744821
118	0xbe52e879	-0.20596494
119	0xbef16fa1	-0.4715548
120	0x3cf50893	0.029911315
121	0xbd83539d	-0.06412432
122	0x3c000466	0.007813549
123	0x3c9539e1	0.018216075
124	0x3d579a73	0.05263753
125	0x3c8cb33b	0.017175307
126	0x3ca5db2b	0.020246109
127	0xbf0c3395	-0.5476621
