puppersim/dc_saves/aac_slow_straight_efficient_0/critic2_6.pt (torch, 84759 bytes, 5 tensors)

fc1.weight f4 [128, 31]
000000 3d 5e c0 be 77 ed 54 3e a9 95 70 bd c9 6b e8 be
       -0.37571898 0.2079371 -0.058736477 -0.45394734
000010 ec 60 e4 bd ff 5e a3 bf 8e d0 12 3e f1 49 65 bd
       -0.11151299 -1.2763366 0.1433737 -0.05597872
000020 c2 90 ac bd 39 b0 d6 be 26 21 2d 3f 0e 6c f2 bf
       -0.08426048 -0.41931322 0.67628706 -1.8939226
000030 73 12 1c bf bb a0 08 bf 83 18 c7 bf ec 74 c4 bd
       -0.6096565 -0.53370255 -1.5554355 -0.095926136
000040 90 ff 44 be 72 31 e4 3e 34 f8 82 be 04 57 80 3e
       -0.19238114 0.44568974 -0.2557999 0.25066388
000050 d2 49 8e 3d 9d da f8 bd e2 21 bb 3c a1 14 c6 be
       0.06947674 -0.12151072 0.022843305 -0.38687614
000060 2c e1 75 3b 53 30 95 3b bd 59 42 3e f4 97 bf bd
       0.0037518246 0.00455288 0.18979545 -0.09355155
000070 c7 ac 81 3e 3d f9 45 bd 7e 65 08 be a2 52 a9 be
       0.2532713 -0.048333395 -0.13319966 -0.33070856
000080 0a d6 37 be 4c e0 13 bf 61 36 29 3f 82 d7 b9 3e
       -0.17952743 -0.57764125 0.660986 0.36297232
000090 30 76 a1 be a1 ed 33 3e 8a 4a 89 bf 55 87 ba bc
       -0.31535482 0.17571117 -1.0725873 -0.02276961
0000a0 1c 5c 3c 3e 67 a2 dd 3e 7e ec f5 be 26 75 15 be
       0.18394512 0.43287966 -0.48031992 -0.1459547
0000b0 6a b5 2d bf 0e 43 38 3e 98 ae 0a bc 9a 2e 2c 3d
       -0.6785494 0.1799433 -0.008464478 0.04203663
0000c0 d7 ec dc 3d da 0d 00 3f ec a8 08 bf f5 c1 25 3c
       0.10787361 0.50021136 -0.53382754 0.010117044
0000d0 8d 76 db bb 49 5c 32 3e 2e 65 00 bd 66 76 28 bd
       -0.006697482 0.17418016 -0.031346492 -0.04112854
0000e0 a6 02 38 3e 99 f3 15 bd 5b 71 f8 3b c9 d8 42 be
       0.1796976 -0.036609266 0.0075818724 -0.1902801
0000f0 e0 d2 da 3d 63 70 95 3e 1b 3e 90 3d da 25 3c 3f
       0.106847525 0.29187307 0.07043096 0.73495257
000100 2e 9a a7 be 62 15 06 3e 79 2f b7 3c 64 e3 8d 3d
       -0.32734817 0.13094094 0.022361504 0.06928137
000110 27 33 ab 3d d9 26 27 bf 72 99 8b bf 61 4b 7d 3e
       0.08359366 -0.6529365 -1.0906203 0.24735786
000120 da 8b 52 3e 45 9c 70 3e df cd c2 3d aa 77 99 bf
       0.20561162 0.23497112 0.09511923 -1.1989644
000130 e5 a6 42 bf 03 50 2f be 87 ca c1 bd 94 8f 8b be
       -0.7603591 -0.17120366 -0.09462457 -0.2725798
000140 3e b7 a3 3d de 32 01 3d 97 8f bb be b2 32 fe 3d
       0.07993935 0.03154265 -0.36632988 0.12412013
000150 92 1b eb bd a0 41 92 3e 94 87 02 3c fe 5b 65 be
       -0.11479868 0.28565693 0.007966895 -0.22398373
000160 58 9f 33 3d de e3 8c 3e 92 b9 8b b8 dc 98 84 3e
       0.043853134 0.275176 -6.662602e-05 0.25897872
000170 e6 22 3a 3d 3b 8d d8 be e7 f9 45 3f ee 5b 78 be
       0.045443438 -0.4229525 0.77334446 -0.24253818
000180 f1 0b 08 be dc b0 15 3f ee 3b 96 bf d3 6d f4 3e
       -0.13285805 0.5847299 -1.1737039 0.4774004
000190 8c 1f 8c 3f 89 9c ba bf f8 36 17 bf 97 a3 cb 3e
       1.0947127 -1.4579021 -0.5906825 0.39773247
0001a0 fc 51 49 bf c3 50 23 bf 16 11 21 bf 7f db 9f 3c
       -0.78640723 -0.6379511 -0.62916696 0.019513844
0001b0 7a ed d1 3c 9f 72 45 3e c0 a0 2d be d2 f0 23 bd
       0.025625933 0.19282006 -0.16955853 -0.040024586
0001c0 1a 00 60 bd 0c 82 51 3d a7 6b 14 3c f2 fd 12 be
       -0.054687597 0.051149413 0.009058869 -0.14354685
0001d0 e4 2d db be 99 f2 12 3d 1e c7 0c be 66 6a 6e 3e
       -0.4280845 0.03587589 -0.13747832 0.23282775
0001e0 65 a7 80 bd 3a eb d7 39 71 09 14 bd 49 36 08 3e
       -0.06281928 0.00041183253 -0.036141817 0.13301958
0001f0 f0 7c 33 bf cf 29 a4 bf 61 f6 63 3e 04 4a 55 be
       -0.70112514 -1.2825259 0.22261955 -0.20829016
000200 7c 81 8d be b5 29 00 be c3 c7 a7 3e 7d 2e 3b 3f
       -0.2763785 -0.1251591 0.32769594 0.7311781
000210 74 9e db bf c5 72 b3 be 70 56 c6 be 55 cc 65 bf
       -1.7157731 -0.350485 -0.38737822 -0.8976491
000220 b1 85 68 be 62 c5 51 be 7c 54 08 bf 6f c1 35 3e
       -0.22707249 -0.20485452 -0.5325391 0.1774957
000230 66 c3 e6 bb 30 ef 42 3e 04 32 61 3d 48 4c f8 bd
       -0.0070423363 0.19036555 0.05497934 -0.121239245
000240 a4 49 51 be bd a9 c5 3d c4 23 60 bc f1 e4 21 3e
       -0.20438248 0.09651516 -0.013680402 0.1580999
000250 f4 5c a6 bc b0 9b 52 3e b0 d3 80 bd 06 8a cd bd
       -0.020307995 0.20567203 -0.06290376 -0.100360915
000260 96 43 1e 3e 5a ff c6 3d 1d 9a ad bd 00 65 c2 bc
       0.1545547 0.09716673 -0.084766604 -0.023729801
000270 36 f8 e8 3e 51 b6 51 3f 41 ea 42 3e fb a3 86 bb
       0.4550187 0.8191882 0.19034673 -0.0041089035
000280 6e 6b 37 3f 39 4f de 3e 2c c4 3d bd 2f d9 1f 3f
       0.716483 0.43419817 -0.046329662 0.6244077
000290 2a 17 44 3f 1f db 8c be b8 06 06 3f 74 3e 42 3f
       0.76597846 -0.27510926 0.52354 0.75876546
0002a0 5f 02 d8 3d 53 2d a4 bd b5 30 5d 3d 01 04 17 be
       0.10547327 -0.080164574 0.05400153 -0.14747621
0002b0 b1 e8 45 bd 77 2c db 39 37 e3 7d be 12 02 3d bd
       -0.048317615 0.00041804064 -0.24793707 -0.046144553
0002c0 6c e7 52 bc fe 87 91 bd 46 d2 5e bd fb 7c 1e bd
       -0.012872558 -0.071060166 -0.05439975 -0.03869341
0002d0 40 6e f7 bd 26 fa aa bc 49 18 96 bb 24 4b ee bd
       -0.120815754 -0.020871233 -0.0045805317 -0.11635426
0002e0 c8 d7 07 3e be ae 03 bd ff d4 53 3e 75 4a 05 3e
       0.13265908 -0.03214907 0.2068672 0.13016684
0002f0 d9 23 3a bf fe 04 ef 3e a5 c1 d6 bb db 0b 26 bf
       -0.7271095 0.46683496 -0.006553846 -0.6486184
000300 db cf c8 3e 19 02 83 3f 12 5f a6 bd 39 85 4a 3f
       0.3922108 1.0235015 -0.08123602 0.7910953
000310 3b 5c 01 be 38 69 21 3d 3f b2 85 be 19 e1 23 be
       -0.1263284 0.039406985 -0.26112553 -0.16003837
000320 d0 63 23 bf 8f 12 e5 3d ae 90 0f be 54 1a 36 3d
       -0.63824177 0.111851804 -0.14020035 0.044458702
000330 8e 85 62 bd b9 eb 87 3e 81 a9 fb 3d 12 6b 24 be
       -0.05530315 0.2654703 0.1228819 -0.16056469
000340 31 78 aa be 9c 5f 76 be 74 dc 43 bc f7 a7 2c bf
       -0.33294824 -0.2405991 -0.011954416 -0.67443794
000350 23 52 a1 be 7c 2c 45 be 9a a6 3b 3e e9 4f 12 3e
       -0.31507978 -0.1925525 0.18325272 0.14288296
000360 23 7e a2 bd e9 3b 1f bf 83 ff 80 be 0e b6 fe 3d
       -0.07934215 -0.6220079 -0.2519494 0.12437068
000370 30 b1 7b 3e 14 d7 1b bf 91 d0 31 bf 7b 8f 70 3e
       0.2457931 -0.6087506 -0.6945887 0.23492233
000380 30 82 e8 3e 48 7a b1 bf a4 8a d2 be 03 10 e2 be
       0.45411825 -1.3865442 -0.411214 -0.4415284
000390 09 2a 85 bf 7e 5d 79 bf 34 02 6f be 7b 8b ad be
       -1.0403453 -0.9740828 -0.23340684 -0.33895478
0003a0 ff 15 f3 3d 4e e5 ad 3e 01 87 bb 3e 3a 46 5f be
       0.1186943 0.33964008 0.36626437 -0.21804133
0003b0 fa 6e c7 bd 27 d3 2b 3e 8b 98 f8 3c 81 76 5a 3e
       -0.09737964 0.16779767 0.030346176 0.21334268
0003c0 87 47 b1 bc b8 a1 4c be 83 ee 4b 3e 2f f7 7c bd
       -0.021640552 -0.19983566 0.19915204 -0.06175917
0003d0 5f 0a 24 3c ba db 14 be a1 4b b9 be 81 4f 5d 3e
       0.010012238 -0.14536944 -0.36190513 0.2161236
0003e0 e1 3b 92 be 48 d6 5a 3f c1 e8 02 be 0e 1c 21 3d
       -0.2856131 0.8548322 -0.12784101 0.039333396
0003f0 c5 3e 48 3e 0f a0 b3 bd c4 30 5b bd 35 88 a3 3e
       0.19555195 -0.08770763 -0.053513303 0.31939855

fc1.bias f4 [128]
000000 06 5c a7 be f4 b9 9f be e2 bc 4e bf 39 47 64 bd
       -0.32687396 -0.31196558 -0.8075696 -0.055731986
000010 f0 60 d3 be 93 fe 27 bf 95 d8 6e bf 6e 40 7b be
       -0.41284895 -0.65622824 -0.9329923 -0.24536297
000020 de b1 be be 0f 24 18 3e 88 b4 76 be 44 5e 3f be
       -0.37245077 0.14857505 -0.24092305 -0.18688303
000030 ba 88 3d be 0e 38 15 bf d9 97 34 bf 11 f3 16 bf
       -0.18509188 -0.5828866 -0.705442 -0.5896464
000040 22 cc cd bf e3 47 be bd 6a 95 50 bf 7a c8 5b 3d
       -1.6077921 -0.09291055 -0.8147799 0.053657986
000050 3d f0 79 3d c5 09 81 be c1 76 4c 3e 94 fd ae 3c
       0.061020125 -0.25202766 0.19967176 0.02136115
000060 35 95 c3 bf 78 ad b4 bf ce 97 02 bf c3 d7 a3 bf
       -1.5279909 -1.4115438 -0.51012886 -1.280022
000070 95 22 32 bf 11 a2 45 bd a2 fa bf bf 64 db 03 be
       -0.6958402 -0.04825026 -1.4998362 -0.1287666
000080 1a 48 a6 3f 3a ea 9e be c2 82 48 3e 28 8e be bf
       1.2990754 -0.31038076 0.1958113 -1.4887133
000090 7f 5a c0 be 73 2f 4b bf 8d 26 3b bf 74 6a 84 be
       -0.37569043 -0.79369277 -0.731057 -0.25862467
0000a0 55 69 57 be c8 2e 8b be 56 47 3e bf ee b2 20 bf
       -0.21036275 -0.2718413 -0.743276 -0.62773025
0000b0 f2 ed c9 be b0 ee 76 3f 77 02 83 bf a3 35 d0 3c
       -0.3943935 0.9645796 -1.0235127 0.025416201
0000c0 3d dc 0f bf 10 52 3c bf a2 f8 8a bd 4d e3 cc 3d
       -0.5619543 -0.7356272 -0.06785704 0.10004292
0000d0 35 a4 e1 bd 43 43 ea be 61 4f 6c be 71 d2 ae be
       -0.11017648 -0.45754442 -0.23077156 -0.3414493
0000e0 6c 6b 8e 3e e6 7e 21 be 58 85 48 3f e0 2d a4 be
       0.2781633 -0.15771064 0.78328466 -0.3206625
0000f0 c1 b9 9e bb 48 0f 28 bf bd 67 af be f5 7e 82 ba
       -0.004843921 -0.6564832 -0.34258834 -0.0009956049
000100 67 5e 4c bf 34 4c f5 be 81 f1 82 be 84 99 8d bf
       -0.79831547 -0.479097 -0.25574878 -1.1062474
000110 f9 b5 67 bf cc 5e ed bd e7 f7 84 3f b2 60 b3 be
       -0.90512043 -0.11590347 1.0388154 -0.3503471
000120 30 41 fe 3e f7 d4 a6 be 23 d2 e0 be 86 af 19 bf
       0.4965911 -0.32584354 -0.43910322 -0.6003345
000130 ac ec a8 bf 16 07 8e bf 20 a5 11 be e5 c7 91 bd
       -1.3197227 -1.1095912 -0.14223146 -0.07118205
000140 43 08 e0 be ad 89 95 3f 67 6a 88 be db c9 8e bf
       -0.43756303 1.168264 -0.2664368 -1.1155351
000150 30 c7 c7 be 58 46 76 bf 1b 72 70 be bf fb 34 bf
       -0.39019156 -0.96201086 -0.23481028 -0.70696634
000160 c3 9d 2d be 5f 22 41 bf fd d2 fb be 56 70 36 be
       -0.16954713 -0.7544307 -0.4918441 -0.1781629
000170 77 46 8d be b6 4f 27 bf 2b 2b a0 3f e4 f7 2a bf
       -0.27592823 -0.65356004 1.2513174 -0.667845
000180 a7 f1 8a 3f fe ec 54 be 46 16 c1 be a8 72 b6 be
       1.0854996 -0.2079353 -0.37712306 -0.3563435
000190 18 ff e3 be a9 82 eb 3d 19 58 f8 be 17 44 04 bf
       -0.4453056 0.11499531 -0.48504713 -0.51666397
0001a0 57 d0 13 bf 0f d7 7f bd 4f 7f 99 be 76 b3 86 be
       -0.57739776 -0.062460955 -0.2997994 -0.26308793
0001b0 27 88 a2 be a1 0b 99 be 3d e9 ca be 6a 0a 89 be
       -0.317445 -0.29891685 -0.39631072 -0.26765758
0001c0 38 e3 29 bf 8e ff e6 be 66 a7 c9 be 0b a8 57 bf
       -0.66362333 -0.45116848 -0.39385527 -0.8424079
0001d0 6a 81 53 bf 2a 5b 3a be d9 33 92 bf 7c dd 38 bf
       -0.82619345 -0.18198839 -1.1422073 -0.7221296
0001e0 c8 58 2e bf 11 bc 42 bf 80 ed 1b 3f be 7f 1a bf
       -0.6810422 -0.76068217 0.6090927 -0.6035117
0001f0 af b6 2c bf ae f5 02 3e fa 19 77 3f 46 12 fd be
       -0.67466253 0.12789032 0.9652401 -0.49428004

fc2.weight f4 [128, 128]
000000 74 cd 0f be 5a 14 14 3c fc 5d 3a bf 9b 49 b6 be
       -0.14043218 0.009038055 -0.7279966 -0.35603032
000010 fe 93 4f 3e f2 40 df bd 9b 3e 7f bf a2 aa f6 3e
       0.20271298 -0.10901059 -0.99704903 0.48177058
000020 f9 05 2e bf dc 6d 2e 3e 5b 7d 43 be 72 35 15 3e
       -0.67977864 0.17034096 -0.19090788 0.14571169
000030 ed 52 a2 bd a9 91 48 3e 37 73 16 bf f5 d0 5d 3e
       -0.07925973 0.19586815 -0.58769554 0.21661742
000040 fa 22 68 bf 78 42 cd 3e 0b 56 9d 3e a2 e9 0d 3e
       -0.9067837 0.40089774 0.30729708 0.13858655
000050 d8 b0 d0 be bf c9 a4 bd cc 73 a6 3e 18 e1 c7 be
       -0.4075992 -0.080462925 0.3251022 -0.3903892
000060 af 6c 33 be fe 85 c4 3e 04 8b 09 be e8 98 a1 be
       -0.17521928 0.38383478 -0.13431937 -0.3156197
000070 d6 92 07 be ee 4f d2 be 1b 2d d1 bd 22 66 a9 be
       -0.13239607 -0.41076607 -0.10213681 -0.33085734
000080 3a 26 ff be 89 ae b2 be 58 1d 5c be e4 57 07 bc
       -0.49833852 -0.34898785 -0.21495569 -0.008260701
000090 ec 81 d5 be 1f 83 68 3e dc 72 cc be 03 b0 50 3e
       -0.41700685 0.22706269 -0.3993138 0.20379643
0000a0 35 3c 3e bd 9d f6 26 bc 5c a0 a9 bd 38 c3 26 bd
       -0.046444137 -0.010190633 -0.08282539 -0.04071352
0000b0 f9 7a 02 3e 23 65 1d be b0 d9 b5 bd a1 87 5d bf
       0.12742223 -0.15370612 -0.08879411 -0.8653508
0000c0 05 04 b8 bc fb 04 06 bf c6 f9 d8 bd 37 3d 4f 3f
       -0.022462854 -0.5235135 -0.105945155 0.8095278
0000d0 e5 81 1b bd 0c 95 92 bd a1 5a 25 3e 6a 92 c6 be
       -0.037965674 -0.07157335 0.16147853 -0.3878358
0000e0 9a 51 12 bf e3 a2 a3 be b8 b0 82 be fa bd 07 3e
       -0.57155764 -0.3196021 -0.2552545 0.13256064
0000f0 c6 34 c1 3e 6e 02 3f 3e 4a 40 02 3e cb b6 a1 be
       0.37735575 0.1865327 0.12719837 -0.31584772
000100 63 91 16 be a3 2b 54 bf 88 b3 89 3e 75 ed 19 be
       -0.14703898 -0.82879084 0.26894784 -0.15031989
000110 40 12 2b 3d 94 f3 0a 3f 14 0d 24 3e 1a 10 26 bf
       0.04176545 0.5427792 0.16020614 -0.6486832
000120 15 e2 24 bd 97 76 3d 3b 8b 22 8d be 29 83 c5 be
       -0.04025467 0.0028909796 -0.27565417 -0.3857663
000130 23 46 f0 3d c1 61 8a bd 61 31 b8 3e 48 2b 5a bd
       0.117321275 -0.06756926 0.35975173 -0.053263932
000140 45 69 3d bf 73 06 8d bf e3 56 d0 3e ee 96 51 3d
       -0.73988754 -1.1017593 0.4069129 0.05116933
000150 51 a4 8f be 6b a6 0b bf 0e 90 9e 3d 36 87 c3 be
       -0.2805505 -0.5455081 0.0774232 -0.38189095
000160 cf 2d aa 3d 31 54 96 3e 0e 30 14 3e 59 cb fe be
       0.083095185 0.29361108 0.14471456 -0.49764517
000170 25 13 c2 be fa 80 d3 bc be 49 84 be 35 4d 59 be
       -0.3790523 -0.025818337 -0.2583751 -0.21220858
000180 68 8e 8b be 9c 7c 71 be 1c e8 33 be b4 21 21 3e
       -0.27257085 -0.23582691 -0.17569011 0.15735513
000190 a7 e5 7e bf 87 5f 9c be 59 68 74 3e f7 b9 15 be
       -0.9956917 -0.30541632 0.2386793 -0.14621721
0001a0 b4 02 bb be 30 05 8e be cf 3e b8 be 71 d0 8f 3e
       -0.365255 -0.27738333 -0.3598542 0.28088716
0001b0 58 e9 87 3e da 2c 43 3c b2 a2 e7 be bb 8e ab bd
       0.26545215 0.011912549 -0.45241314 -0.08376833
0001c0 ab 4a 01 3f 33 0f 81 be 5d b4 9c 3e 94 14 1e 3e
       0.5050456 -0.2520691 0.30606356 0.15437537
0001d0 6f 42 0c be 92 50 ff 3d 97 cb c2 bd a5 f8 90 3d
       -0.13697217 0.124665394 -0.09511488 0.07078675
0001e0 ca 9d 93 3e a6 36 b7 3d 9f ed 33 3c 24 85 e5 3e
       0.2883132 0.0894597 0.010981946 0.4482814
0001f0 58 3e 4a 3e 68 f6 c0 bd d9 60 f3 be 69 c5 5d bc
       0.19750345 -0.09421998 -0.47534826 -0.013535836
000200 e7 eb 88 bd f2 e7 2a bf 8c 64 eb be ab e3 b5 be
       -0.0668562 -0.6676017 -0.4597515 -0.3552526
000210 aa fe b5 ba 5b 77 55 be f1 33 43 3d 5f 0c 37 bf
       -0.00138851 -0.20846312 0.047656957 -0.7150325
000220 cb bb a6 bc 2a 88 46 3d 9a 3b 99 bd 6b 54 6c be
       -0.020353219 0.0484697 -0.07482071 -0.23079078
000230 e6 ae fc be f3 34 34 bf 68 ce c9 3d d0 d0 f9 bd
       -0.49352187 -0.70393294 0.09853822 -0.12198031
000240 d7 0d 8a 3d 5f b0 e2 be d0 fa 01 3d 57 53 03 bf
       0.06740921 -0.44275185 0.031733334 -0.5129904
000250 25 57 d6 be 45 ff fb be 98 aa 98 bd c2 8d 0f bf
       -0.4186336 -0.49218193 -0.07454413 -0.5607568
000260 0d 8b 4b be 41 76 3f be 92 f1 2b be c9 ea 20 be
       -0.19877262 -0.18697454 -0.1679137 -0.15714563
000270 e3 61 03 bf 5e 41 2d be f9 ab 1e be c4 a1 1a 3e
       -0.5132124 -0.16919467 -0.1549529 0.15100771
000280 a5 3e cc be af ca b9 be 56 e7 c0 be c5 89 c3 be
       -0.39891544 -0.36287448 -0.37676495 -0.38191047
000290 ef b3 1c bf 01 26 3c 3e 45 a2 69 bf b7 1e 3d bf
       -0.61212057 0.18373872 -0.9126323 -0.7387499
0002a0 af c0 33 3e 99 11 dc bd 21 cb 10 3d 49 7e fc be
       0.17553972 -0.10745544 0.03534997 -0.49315098
0002b0 f2 00 a6 be f9 ec 39 bd 2a 7a 72 3d 65 c3 7c 3e
       -0.32422596 -0.04539201 0.059198536 0.24683912
0002c0 a2 b2 40 3e a0 8e 73 be 64 7b 38 3b 41 11 30 be
       0.18818143 -0.23784876 0.0028149718 -0.17194082
0002d0 57 e4 29 bf dc 8d 83 be 7f e2 21 be e2 cc 6e 3e
       -0.66364044 -0.25694168 -0.15809058 0.23320344
0002e0 99 e8 4c be a9 e5 a6 be 35 82 39 be 7d 05 a8 bc
       -0.20010604 -0.32597092 -0.18116076 -0.02051043
0002f0 27 91 57 3b 8b 51 e6 bd fd 38 ea 3d 1c 19 b3 bc
       0.0032892914 -0.11246022 0.11436651 -0.021862559
000300 27 da 0d bf aa 9d 67 bd ce ee b6 be 28 07 12 3d
       -0.55411 -0.056546845 -0.3572907 0.035651356
000310 3b b4 8a be 4e c0 b3 bd 31 d4 72 bd c6 a9 4c be
       -0.2709063 -0.087769136 -0.059284393 -0.19986638
000320 02 25 77 3e d8 80 2a be 12 e3 d9 bd 80 77 18 bf
       0.24135211 -0.16650712 -0.10639013 -0.5955734
000330 38 f9 24 be d9 05 0a be b0 e6 08 bf 60 02 bd 3d
       -0.16110694 -0.13478793 -0.53477 0.092289686
000340 0d 12 0a 3d 7b a1 3f 3d 9a ba 8e be f1 45 ab be
       0.03370862 0.04678486 -0.2787674 -0.334518
000350 11 74 73 be d3 ff 92 bd ea 54 55 be 95 0d 10 be
       -0.23774745 -0.07177701 -0.20833173 -0.14067681
000360 ee 86 ed be 37 77 7a 3e 9a e2 a9 bd ef 47 76 be
       -0.46392006 0.2445954 -0.08295174 -0.24050878
000370 8c 79 94 bd 8e 13 ec 3d 12 9b 17 be 66 97 b8 bd
       -0.07249746 0.11527167 -0.14805248 -0.09013252
000380 b7 5b 9f be b2 a1 5e be 8e 5b 4f be d3 b2 0c be
       -0.3112466 -0.2174137 -0.20249769 -0.13740091
000390 35 ce e1 be e7 d6 3c 3d 34 66 8b 3e 46 19 a5 be
       -0.44102636 0.046103384 0.27226412 -0.32245845
0003a0 d0 e8 29 3d d8 00 77 be 5e c7 18 3e 97 94 96 bc
       0.041481793 -0.24121416 0.14919803 -0.0183814
0003b0 03 52 7d be 5e 4b a6 3c 5b 1f d1 3d ec 9e 3d bd
       -0.24738316 0.02029961 0.10211059 -0.046294138
0003c0 d5 fd f0 be ba 48 71 bc 4d ad dc bd 0b ce 46 be
       -0.47068658 -0.014726812 -0.10775242 -0.19414537
0003d0 fa bb 14 bf 9c 9a 89 be 71 b6 3d be 91 3a 4e be
       -0.5809933 -0.2687577 -0.18526627 -0.20139529
0003e0 13 b6 d3 3c 5d 83 18 be 64 9c 22 be 26 84 a9 3c
       0.025843656 -0.14893861 -0.15879971 0.020692896
0003f0 31 23 d0 bb 19 43 cb be 3e de 2d be 64 ca 6f 3d
       -0.0063518514 -0.3969963 -0.1697931 0.058542624

fc2.bias f4 [128]
000000 21 e5 2b be 8c 58 46 be 1a 2b 95 be 20 0d 0d be
       -0.16786624 -0.19369715 -0.29134446 -0.13774538
000010 93 2b 28 be 80 a0 38 be f9 2c 9f be 05 f9 27 be
       -0.16422872 -0.18029976 -0.31089 -0.16403587
000020 b8 00 f2 bd dc 3b 85 be c0 90 3b bb 84 15 50 be
       -0.11816543 -0.26022232 -0.0028620213 -0.20320708
000030 8c 02 e2 bd 94 23 66 be c8 a5 be be d8 f5 35 3e
       -0.11035642 -0.2247451 -0.37235856 0.17769563
000040 da e2 e2 be 38 bc 0b bf 71 a6 5b be 8c fe 33 bf
       -0.443137 -0.54584074 -0.21450211 -0.7031028
000050 7f bb 13 be b7 b7 38 bf 10 1f 4a be 08 4a b5 be
       -0.14426993 -0.72155327 -0.19738412 -0.35408044
000060 f4 43 c6 3e 41 d0 6d bc 28 f2 62 be 00 6a 4c be
       0.3872372 -0.014514984 -0.22162688 -0.19962311
000070 23 9c c4 bd 88 2c 44 bf e7 1e 79 be 1c 33 57 be
       -0.09600093 -0.7663045 -0.24328195 -0.2101559
000080 e6 09 34 be 63 c4 26 bf c4 3f 9f be 1c d1 2a bf
       -0.17581901 -0.6514341 -0.31103337 -0.66725326
000090 41 5e 1c be 5a 00 03 bf bb 7f 61 be 62 f7 77 be
       -0.1527033 -0.5117241 -0.22021382 -0.24215463
0000a0 d7 d7 36 bf 79 f2 5e be 31 49 40 bf 27 fc 48 bf
       -0.71423095 -0.21772183 -0.7511168 -0.78509754
0000b0 92 87 9f bd 40 91 94 be 6e 3a 0c 3f 70 33 cf bc
       -0.0778953 -0.29017067 0.54776657 -0.025293082
0000c0 be d6 f0 be 87 d9 e9 be 5c 49 21 bf 93 a0 d0 be
       -0.47038835 -0.45673773 -0.6300256 -0.40747508
0000d0 b1 5c 18 bf c1 2e 41 be de 9d 6f 3e c0 2e a6 be
       -0.59516436 -0.18865491 0.23400065 -0.32457542
0000e0 d8 ba 3d be 71 50 91 be b2 a6 07 be a1 c5 37 bf
       -0.18528306 -0.28381684 -0.13247183 -0.7178593
0000f0 b4 aa 20 be 76 10 04 be 9b b1 94 be 9d 63 49 be
       -0.15690118 -0.12896904 -0.29041752 -0.19666906
000100 96 53 e1 bd 68 1a 33 be ff a2 98 be 60 75 5c 3d
       -0.11002271 -0.17490542 -0.29811856 0.053822875
000110 98 6d 54 be c7 6c c8 be 68 53 72 be 11 34 2a be
       -0.20744932 -0.3914549 -0.2366463 -0.16621424
000120 27 e7 1e bd 1c 81 5c bd cf 68 84 bf fc ff 3f be
       -0.038794663 -0.053834066 -1.0344485 -0.18749994
000130 10 65 15 be d2 fd 12 be 4f 05 8f be e8 c9 49 be
       -0.14589334 -0.14354637 -0.27933738 -0.19705927
000140 40 fb 83 be 2c 03 00 bf c3 79 d0 bd 0c 36 9f be
       -0.25777626 -0.5000484 -0.10179474 -0.31095922
000150 49 fc 81 be 61 fd 1a bf 1d d6 d9 bd 30 0c 4a bd
       -0.2538779 -0.60542876 -0.10636542 -0.04932803
000160 a6 24 86 bd 0e b0 46 bf 59 f7 12 bf 4a e4 18 bf
       -0.06549959 -0.7761239 -0.5740867 -0.5972334
000170 7e 60 83 be 52 04 0b be 26 c0 e9 be 48 7f 66 bf
       -0.25659555 -0.13575867 -0.4565441 -0.90037966
000180 9e 8b 1c bf ed 2a 43 bf 84 8f 08 bf 37 09 96 be
       -0.6115054 -0.76237375 -0.5334399 -0.29303905
000190 18 7f 36 bf 25 02 d5 be 87 ca da be 08 0c f1 be
       -0.7128768 -0.416032 -0.4273264 -0.47079492
0001a0 c3 06 24 be 45 07 24 be 2a 96 8f be 48 a7 a1 be
       -0.16018204 -0.16018398 -0.28044254 -0.31572938
0001b0 aa d4 3b be e0 f7 c0 bd a8 43 f5 be 88 93 f1 be
       -0.18342844 -0.094222784 -0.4790318 -0.4718287
0001c0 4e f0 9a be a2 c0 82 be 5b 07 9d be 41 8e 4c bd
       -0.30261463 -0.25537592 -0.30669674 -0.04994035
0001d0 f8 c8 e6 3c 64 92 52 bf c4 7a 5c be 58 b9 3f be
       0.028172001 -0.82254624 -0.21531206 -0.18723047
0001e0 15 d9 1f bf 4f ab f9 be 9b 00 60 bf 46 0c 46 bf
       -0.62440616 -0.4876351 -0.87500924 -0.7736248
0001f0 bb 37 5e be eb 6d ea bd 36 dd f2 bd 63 55 80 be
       -0.21700947 -0.114467464 -0.11858599 -0.25065145

fc3.weight f4 [1, 128]
000000 eb 2a ab ba e1 26 77 be 1c cc 4e 3c 0a 5f 18 bf
       -0.0013059055 -0.24135925 0.012621906 -0.5952002
000010 7e 48 ce be 53 95 96 be a4 33 b4 be 7d 7b 92 bd
       -0.40289682 -0.294108 -0.3519565 -0.0715246
000020 77 9a 67 be 90 f0 ad 3c 85 54 0e bc 51 8e 46 bc
       -0.22617517 0.021232873 -0.008687143 -0.012118892
000030 08 50 88 3d bd b7 6e be f8 12 10 3b c0 10 15 bc
       0.0665589 -0.23312278 0.0021983963 -0.009098232
000040 77 63 1e 3d 83 31 4b 3c 98 08 64 bb 51 21 5e 3c
       0.038669076 0.012401941 -0.0034795161 0.013557748
000050 25 5d cb be aa 47 c4 3b 1e c3 a9 be e8 d3 b8 3b
       -0.397195 0.0059899883 -0.33156675 0.0056404956
000060 09 8e 5d 3c e5 34 1a bc 35 2a d5 bb 16 19 ec be
       0.013522633 -0.009412025 -0.0065052756 -0.4611289
000070 1b 85 a2 3b e4 94 da 3b c1 66 c0 bc b8 2e 15 bf
       0.004959715 0.006670581 -0.023486497 -0.5827441
000080 8e df 58 bb 93 c6 16 3d 4b d9 72 bd 9f ea b0 3c
       -0.0033092233 0.03681047 -0.059289258 0.021596251
000090 e4 fc 91 bc 36 91 44 3c e2 f3 8e bc 82 c5 89 3b
       -0.017820783 0.011997512 -0.017450277 0.004204453
0000a0 44 ce 0a 3a 1b e5 c3 be 4b 08 4c 3c 9f 0a b5 3a
       0.0005295018 -0.3826073 0.012453149 0.001381237
0000b0 db 3b ff 3c 91 db f2 3c 1e ed 13 3e 8e 7e d3 bc
       0.031156471 0.029645713 0.14445922 -0.025817182
0000c0 e0 ce f4 3b 54 c5 64 3b 45 d9 12 bd e1 2b b9 ba
       0.0074709505 0.0034907656 -0.035851736 -0.0014127457
0000d0 5c 4c 85 3b d0 17 1e bf 7a d1 97 bd da a4 59 3b
       0.0040679406 -0.61755085 -0.07413001 0.0033209831
0000e0 72 f4 c6 be eb 9c b0 be c1 83 c6 be 63 78 71 3d
       -0.38858372 -0.3449472 -0.38772395 0.0589527
0000f0 90 e9 75 be 5d de 1d 3c 64 7e 21 be 96 4c 57 be
       -0.24014878 0.009635535 -0.1577087 -0.21025309
000100 58 69 26 bd ce ac ee be e8 80 16 bf 45 7f c0 bc
       -0.040627807 -0.46616215 -0.58790445 -0.023498187
000110 ee 2c 9b bc 26 0c aa 3c 0a 51 83 3c 7b 46 5d be
       -0.018942323 0.020757746 0.016029853 -0.21608917
000120 6f ef 23 3d 53 81 1e bc 12 e5 cc bc 95 1c 86 be
       0.040023264 -0.009674388 -0.025011573 -0.2619368
000130 19 66 98 bc ff b5 53 bc 7d d6 34 3b 8a 59 70 bd
       -0.018603371 -0.012921809 0.0027593665 -0.05867914
000140 58 8c 25 3d 79 83 98 bb 1f d9 db bc 99 f0 76 3d
       0.040417045 -0.0046543446 -0.02683693 0.060288046
000150 51 1f d1 be 68 b3 20 3b c4 40 a1 be 9f 66 48 3c
       -0.40844205 0.0024520997 -0.31494725 0.012231498
000160 c6 c9 70 3b e4 bc 96 3a 08 6a 2e 3c 5b 4e aa 3c
       0.003674136 0.0011500386 0.010645397 0.020789316
000170 68 50 01 3d 4c f5 d2 be aa 3d 4f 3c 51 71 12 bd
       0.031570822 -0.41202772 0.012648979 -0.0357526
000180 3a 34 92 3c 20 6d 99 bb ee e2 39 3d be fe e6 bb
       0.01784717 -0.004682198 0.045382433 -0.0070494106
000190 85 26 2d bb 9a 3c f8 bc 0a c4 94 3c 66 f2 cb 3b
       -0.0026420665 -0.030302335 0.018159885 0.0062239645
0001a0 75 c9 bd be 51 bf a0 be 4f 22 bf be 84 b8 98 3c
       -0.37067762 -0.31395963 -0.37330863 0.018642671
0001b0 cb 43 19 3d e6 a2 d5 be 08 ab 10 bd 12 45 c1 bc
       0.037418168 -0.41725844 -0.035319358 -0.023592506
0001c0 c3 6d 1d 3d be 1e be be 55 15 8b bc b0 56 98 bd
       0.038434755 -0.3713283 -0.016977945 -0.07438409
0001d0 f2 7d c1 3d be a8 1f bc 79 e8 52 be a1 6f f1 be
       0.0944785 -0.009744821 -0.20596494 -0.4715548
0001e0 93 08 f5 3c 9d 53 83 bd 25 af 27 3d e1 39 95 3c
       0.029911315 -0.06412432 0.040938515 0.018216075
0001f0 7b 0c 08 bc 36 12 93 3c 13 7f d8 3c 95 33 0c bf
       -0.008303757 0.01795302 0.026427781 -0.5476621
