puppersim/dc_saves/aac_slow_straight_efficient_0/critic1_9.pt (torch, 84759 bytes, 5 tensors)

fc1.weight f4 [128, 31]
00000000: 26b1 b73c 925d 09bf f3fa b5bf 3442 f1bf
00000010: b6b1 b83e 0342 12bf 522a a5bb 7cbd adbe
00000020: 5210 1abf 0149 36be b492 ff3e 5f46 90be
00000030: 0079 033f bab4 c6be 99ff 233f b8b0 af3b
00000040: 3532 be3b f3fe 303a ca31 acbb b4b6 dd3b
00000050: 4af0 873a 16a8 533c ab1e 1bbc 1bbd 4e39
00000060: 2876 2a3c a535 8aba 8228 9d3b d4a2 1a3a
00000070: aeeb 533c ac09 a23c 4536 0c3a 5207 5abf
00000080: b267 debe de90 383e 7e5c 0b3e 3890 a53f
00000090: a4fa 92bf b6cf f2be 87d6 a23d 8465 b9bf
000000a0: 4de2 11be 0b9b b73d 746d acbf 6ba4 5ebf
000000b0: 5350 2abe 1eb1 473e 4841 adbc f599 e03d
000000c0: f599 13bd d1cd bc3c e958 063e 0a88 21bd
000000d0: c8dd c6bd fc5f ff3d 5a21 2b3d bf13 643d
000000e0: 1311 a23b 71d9 4ebc fb81 1a3d 7bfe a43d
000000f0: d9fa f63e 6aa0 8cbd 8329 5cbf 5e2b 4e3e
00000100: 507a 923e 0f08 1dbe ea4f d8be 49e0 79be
00000110: 73ae 663e c187 073f 07de f6bd 9a0e 95be
00000120: 7ed2 0bbe 9222 87bf 7f35 19bf bbcd 433d
00000130: 72e9 5bbf b042 9d3e 56de 09be 5dc8 6fbe
00000140: 5df6 eebc a790 063d 936d 4e3e 911e c9be
00000150: 24ff 0bbe 212f cb3d d84b d5bd a570 54be
00000160: 4b83 22bc 01ca 1f3d 5edf 81bc 78dd 74bd
00000170: 612b 633d ae0e 55be a26b 42bd 1d61 95be
00000180: 89d5 113f ff3e 183d 1e5e 53be a36d 063f
00000190: c31a 653d aa6a a2bc bec5 553e ebaf 37bf
000001a0: 8f4d 52bf 3873 adbd e321 8fbe 07cc 833d
000001b0: 783b 06bd 4a30 5cba 8f29 58bd 5af8 163c
000001c0: a2bf 213d 4cd0 9dbc a2ea 043f 10fb a03e
000001d0: 25bf 163e 3f0d b2bc 6b53 8b3d 8b00 98bd
000001e0: dd32 6cbc 1ed1 0a3f 5256 073e 666b e03d
000001f0: df97 8b3e fd46 98bc 0455 2fbf c9b2 fb3e
00000200: d20f 0fbf faec 79bf 0c70 1eba 6211 75bf
00000210: 1554 19be c8cc 8c3d ea23 39bf 9a43 8abf
00000220: 1171 c23e 7820 7fbf 667d 82bf 61c1 bdbe
00000230: c812 a0be a3b2 b6bd 7257 6f3e e77a 13bd
00000240: 3097 b2bd 8ca9 193e 3a61 69be 73bb e9be
00000250: 40df 1ebf e0e9 08bf 7253 52be 1351 4cbe
00000260: 4ef7 f63e c29b 8cbc b464 dfbe 6936 403d
00000270: 2460 193f 56e5 92bf 3672 c93e 6732 d6be
00000280: 8436 3cbf 4290 b2bd e8c8 493f 1883 8abe
00000290: 512f 043f 87cc c4bd 8e65 e0be 75f6 563f
000002a0: 817a 423e 897a 3abf 26c3 9abe abee 993b
000002b0: 5f11 ee3d df8e 31be 5043 08be 8683 75be
000002c0: 0add 85be 32b2 32bd d5c1 963c c2a3 42be
000002d0: 19d5 b73d 5a49 db3e 4c57 12be cd67 6f3d
000002e0: 8940 d03d 79fa 803e f617 a1bc a196 0d3f
000002f0: 4cef e5be 38c7 023f ed1a 43bf 9063 a1bf
00000300: 8eff bbbf e2db ba3e b6f5 2e3e b3a2 06bd
00000310: cb59 c4bd 79b2 61be a5f4 063e 47b2 313e
00000320: e1b4 993f 4d05 60ba a109 373b e653 c3bb
00000330: 1425 8d3c 2c41 09bc da86 053c 04b7 363b
00000340: 744d 65bc 6975 b9bc 7c95 053b 7826 9e3b
00000350: 84b5 123c b4a7 ac3b 2240 713c 8c77 003c
00000360: 29d8 fb3b e6d1 63be f18f 29bf 56f7 0a3f
00000370: 224f c53f 046a 2d3e 2745 273e d9ae fcbc
00000380: e49a 5c3f 0b43 0cc0 3604 0ac0 8dab 44be
00000390: 859b 57be dc57 d93e db2c 62c0 2e19 ef3e
000003a0: 7479 833c 4581 c8bb a1c3 423a 9d07 63ba
000003b0: e4fc 50bc 4cd6 973b eecf 173b 00e9 283c
000003c0: 9a56 1cbc cdb5 a6bc d5c7 2a3c cd2e ef3b
000003d0: 7c3a fb3b e30a 513c 53e9 2a3c d857 adbb
000003e0: 51bd 133f 1927 53bf bc44 8bbf 1cf6 473f
000003f0: 895a a33b 512f 8ebf be51 873f 59e1 bfbd
0.022423338 -0.536584 -1.4217209 -1.8848329 0.36073083 -0.57131976 -0.0050404454 -0.33933628
-0.6018115 -0.17801286 0.49916613 -0.2817869 0.51356506 -0.38809758 0.64061886 0.0053616427
0.005804325 0.00067518576 -0.0052549588 0.0067661647 0.0010371294 0.012918493 -0.009467761 0.00019716138
0.010404147 -0.0010544552 0.0047960887 0.0005898897 0.012934608 0.019780003 0.0005348663 -0.8516742
-0.43438488 0.18024012 0.13609502 1.2934637 -1.148274 -0.47424096 0.07951074 -1.4484105
-0.14246483 0.08965119 -1.3470902 -0.8696963 -0.16632204 0.19501159 -0.021149293 0.10966865
-0.036035497 0.02304736 0.13119854 -0.039436378 -0.0971027 0.124694794 0.041779853 0.055682894
0.004945883 -0.012625084 0.037721615 0.08056351 0.48238257 -0.06866534 -0.8600084 0.20133731
0.28608942 -0.15335105 -0.4224847 -0.24401964 0.22527485 0.5294152 -0.12054067 -0.29112703
-0.13654515 -1.0557425 -0.59847254 0.04780362 -0.85903084 0.3071494 -0.1346372 -0.23416276
-0.02917021 0.032852795 0.20158987 -0.39281133 -0.13671547 0.099210985 -0.10414857 -0.20746095
-0.009918998 0.039011005 -0.01585358 -0.05978152 0.05546129 -0.20806381 -0.047465928 -0.29175654
0.56966454 0.037169453 -0.20641372 0.5251104 0.055933725 -0.019826252 0.20876214 -0.71752805
-0.82149595 -0.08469242 -0.2795554 0.064353995 -0.032771558 -0.00083995296 -0.05277401 0.009214485
0.039489396 -0.019264363 0.5192052 0.31441545 0.14721353 -0.021734832 0.0680302 -0.074219786
-0.014416424 0.5422534 0.13216522 0.109579846 0.27264306 -0.018588537 -0.684891 0.4915984
-0.55883515 -0.9762722 -0.0006043918 -0.9572965 -0.14973481 0.068749964 -0.72320426 -1.080188
0.37976888 -0.9965892 -1.0194519 -0.370616 -0.3126433 -0.08920791 0.23373201 -0.03600588
-0.08720243 0.15006083 -0.22790995 -0.45650825 -0.620594 -0.53481865 -0.20539644 -0.19952802
0.48235554 -0.017164115 -0.43631518 0.04692689 0.59912324 -1.1476238 0.3934495 -0.4183533
-0.73520684 -0.08718921 0.78822184 -0.27053142 0.516347 -0.09609323 -0.4382748 0.83969814
0.18992044 -0.72843224 -0.3022701 0.004697641 0.11624407 -0.17339657 -0.13306928 -0.23975953
-0.26145202 -0.04362697 0.018402973 -0.19007781 0.08976192 0.428294 -0.14291114 0.0584486
0.10168559 0.25191095 -0.019664746 0.55307966 -0.44909132 0.51085234 -0.7621296 -1.2608509
-1.4687364 0.36495882 0.17085919 -0.032870006 -0.09587439 -0.22040738 0.13179262 0.17353164
1.2008325 -0.0008545712 0.0027929323 -0.005960929 0.017229594 -0.008377355 0.008149827 0.0027880082
-0.013995517 -0.022638993 0.002038329 0.004826363 0.0089544095 0.005269015 0.014724763 0.007841002
0.0076856804 -0.22248039 -0.6623526 0.54283655 1.5414774 0.16934973 0.16334973 -0.030845093
0.86173844 -2.191592 -2.156507 -0.19206066 -0.2105542 0.42449844 -3.5339878 0.46698898
0.016049124 -0.0061189258 0.00074296637 -0.0008660497 -0.012755606 0.0046337005 0.0023164707 0.010309458
-0.009542132 -0.020350361 0.01042362 0.0072992803 0.007666884 0.012758943 0.010431605 -0.005290013
0.5771075 -0.82481533 -1.0880351 0.7810991 0.004985158 -1.110819 1.0571821 -0.093691535

fc1.bias f4 [128]
00000000: 6b14 1cbf 7134 6ebe 01c4 e6bd 418b 5abe
00000010: 2991 5ebf be9d e0bd 352b b0bf 9b8f 2abe
00000020: 724b 913e bf47 8a3f 057a aa3f 32b9 b83f
00000030: 7f10 3bbf b6a6 89bd dc4c 343f dcca febe
00000040: 3064 88be 4f1d 2cbf 49d9 88bf 947e 31be
00000050: 26b0 18bf 659d 0d3f 3da9 78bf 1b52 6fbe
00000060: 3032 22bf dd4c 46bf 4121 5ebe 8e2b 2fbe
00000070: 557b 26bf 6b26 01be 24d0 85bf b945 8abf
00000080: 8adc 95be 2857 b2be 6408 c6bf d69f 06bf
00000090: 94e8 0fbe e1c2 d5be aacd 51bf 8dcd fabe
000000a0: d368 bcbe c464 37bf 039c 53bd b8cc 41be
000000b0: c9b3 88bf 1a89 79bf d4ce 7ebe a47a dabe
000000c0: dd49 62be bcda 4dbd 2112 fdbd 8450 1b3f
000000d0: d4c2 3dbf a4ba 483f a073 733f 3a29 123d
000000e0: 5d95 823e dd3a 45bd 63bd 06bf e302 1abf
000000f0: c931 6abe cece c1be 7c9a 7f3e 23c1 86be
00000100: 0fc1 e5be bc43 18bf 3e56 b8bf c541 edbe
00000110: 3ab0 333f 1624 083f a58e 67bf 4b68 00bf
00000120: 9cd5 69bf d4ff e9be af1e dfbe 71ed d8be
00000130: 7569 d3be aa86 5f3f f850 89bf a0b5 c8be
00000140: 1237 613e 075d 71bf 0d93 8bbe df53 50bf
00000150: c472 cbbc 7550 7b3b 3c87 22bf 72e0 23bf
00000160: b468 62bf b9f8 07bf 6b87 15bf 628d 48bf
00000170: 22dd 5cbf cc27 bebf b55f 8cbf 776f 85bf
00000180: 335e cdbe b14d 50bf 7f55 b4be 41a9 463e
00000190: d769 b83f 3aa9 01bf 9cb9 f9be 4e69 ecbe
000001a0: af6b 8fbf 31c2 07bf e754 a5be 9f16 19bf
000001b0: cb99 94bf ad30 663e 34bf 5ebf a5a4 67be
000001c0: 3c0a d4be 0996 6abe 7a0d febd 7f7f 3dbe
000001d0: f775 3e3f e140 9cbe 46a9 ccbd 5267 a3bf
000001e0: 1f18 80bf 3afc 87bf 9889 a1be 58cc 7bbf
000001f0: 3d3f afbf 8df0 b3bf 07ab edbe a0c9 083f
-0.60968655 -0.23262192 -0.112678535 -0.21342184 -0.86940247 -0.10967587 -1.3763186 -0.16656344
0.28377873 1.0803145 1.3318487 1.4431517 -0.73072046 -0.06721251 0.7042978 -0.49764144
-0.26638937 -0.6723222 -1.069131 -0.17333442 -0.5964378 0.5531829 -0.9713324 -0.23371165
-0.6335783 -0.77461034 -0.21692373 -0.17106459 -0.6503194 -0.12612312 -1.0454144 -1.0802528
-0.2926982 -0.3483212 -1.5471311 -0.5258764 -0.14053565 -0.41750243 -0.81954443 -0.48984948
-0.36798725 -0.7163813 -0.051662456 -0.1892575 -1.0679866 -0.97474825 -0.24883586 -0.42671692
-0.22098489 -0.05025743 -0.123569734 0.6066973 -0.7412541 0.7840979 0.95098305 0.035683848
0.2550458 -0.04815184 -0.5263273 -0.60160655 -0.22870554 -0.37853092 0.24961275 -0.26319227
-0.44873855 -0.59478354 -1.4401319 -0.4633924 0.70190775 0.5318006 -0.90452033 -0.5015914
-0.9134157 -0.45702994 -0.43578097 -0.42368653 -0.41291395 0.87314856 -1.0727835 -0.3920107
0.21993664 -0.94282573 -0.27260628 -0.8137798 -0.024834998 0.0038347517 -0.634876 -0.6401435
-0.88441014 -0.53113896 -0.58409756 -0.78340733 -0.8627492 -1.4855895 -1.0966707 -1.0424641
-0.4011093 -0.8136855 -0.35221478 0.19400503 1.44073 -0.50648844 -0.4877442 -0.4617409
-1.1204737 -0.5303069 -0.32291338 -0.5980014 -1.1609434 0.22479506 -0.870105 -0.226214
-0.41414058 -0.22908796 -0.12404914 -0.18505667 0.7439875 -0.3051825 -0.09993224 -1.2765906
-1.0007361 -1.0623848 -0.31550288 -0.9835868 -1.3691174 -1.4057785 -0.46419546 0.53432655

fc2.weight f4 [128, 128]
00000000: 4e79 2f3e 03d3 b53e ace4 1b3f 0143 4a3e
00000010: b9b6 c9be 7f07 923e 5185 f5be dd2b 2b3c
00000020: b81a 673e 7524 153e a10f a6bd df5c 1bbf
00000030: 13bd 44be cd93 0e3d 2f0b e0bd ecfc 513e
00000040: 6d66 b7be 901d afbe 6d40 023e e0ad b5bd
00000050: e3bd 0ebd 1698 abbe 32de afbe d6ba 91be
00000060: b6f2 a9be 05b0 6cbe 27b3 d8bc 4b27 d4be
00000070: fa23 293f 700a e23d 3484 18be 84f1 99bf
00000080: f11e 253e 6a2a b3be e2e6 f2bd 777d 5dbf
00000090: b638 c4be 2247 a8be 7ef9 4ebf 0ba0 013f
000000a0: 3a97 0dbf 8efd c8be 66d6 93bd e4ee 773e
000000b0: 4442 3ebe ba9c c7be e039 123e cffd acbd
000000c0: e94b cfbd b082 db3d 5585 afbe e0d0 8c3d
000000d0: ec89 debd 39ca f0bc f5b8 20bf daba 0cbf
000000e0: 2787 e83c e1a9 a1bd b26d 953e 9364 15bf
000000f0: 880f 263e c9c6 a4ba adbb 323d 586b 193e
00000100: e928 1cbe 9d19 8d3e 345d 4fbe 204c 7b3c
00000110: a4e3 0f3d 4dca 723e ce68 26bf d7a7 cfbd
00000120: 4990 b6be 12a3 fcbd c0ee f2be 3040 c33d
00000130: 6074 afbd d7e5 ec3d 49ac 3fbf c81b a93d
00000140: 0179 7f3d 12c5 a6be 1b2c 52be dba4 c63d
00000150: 09c4 dfbe 9a26 c1bd 93a8 cfbc dc78 f73e
00000160: 26bc 39bf 17e1 1abf 5135 cabe 983b 873e
00000170: 0399 293d a679 33bf 112d 813e c0d1 bf3d
00000180: 54d4 3bbd c9d7 453c b604 8fbe 1787 d4bd
00000190: f68d b6be 8252 5ebe 104f 0c3e 8bb8 7fbe
000001a0: 8fec 98be ef30 3b3e 9be9 8dbd dbd4 57be
000001b0: bffe 1cbe fbe8 4abe b785 7b3d 7e71 42bd
000001c0: f844 29bf 6245 4a3f 1f2f 5fbe a4fc a8bc
000001d0: 1ece 40bf 4242 a03d eaa7 ddbd 458d 48be
000001e0: 0aa6 40be cf2f 9dbe 78f9 d5be 14bd e4bd
000001f0: 3b52 133e 41ba 5fbd 215f d2bd 051a 563e
00000200: 1539 bdbc e089 c8bd 758f 78be 03d4 32bc
00000210: a01b cbbc a6e9 d23d aa08 5abe 5af5 c7be
00000220: e947 a5be 4831 673d e307 fcbd c5e4 53be
00000230: 1181 13be 3f25 a63d d387 3e3d 4e4b 34be
00000240: 7d54 9ebe 375a dbbd 996b 48bd c906 a43d
00000250: 7b18 03be f507 4abe deb9 78be a569 10bd
00000260: 1521 39bd 8c9c 45bd 6be0 36be 57dd c33c
00000270: d192 1abe 5f37 ae3d 4a7f 80bc aa6d 133b
00000280: ef27 7d3e 4f72 f0bd f640 2fbe 9228 02be
00000290: e103 913e b82b 4cbe db84 35be 4281 82be
000002a0: c959 173d e8a2 1bbe 0392 f03d 09ae fd3d
000002b0: 522c 9fbb 36d3 e9bc 2d83 9cbe 8e96 2f3e
000002c0: 8544 9abd b5d0 a3be 5d38 a9be 2fb6 8abe
000002d0: defe 8fbc 3efe 2bbd 2ef0 19bd 09bf d8bd
000002e0: 300f a8bd 260f b83d 1668 a4be 7e24 71be
000002f0: 2790 78bd 6421 88be 95da 023d 0329 5cbd
00000300: 3689 8bbe aa6a 34be 98be 0bbe b608 e2bd
00000310: 3433 7ebd 0148 b8bd 510b ccbd 018c 84be
00000320: 6576 a1be c237 d5bd 40a2 84bc b50b 623e
00000330: 3270 8dbe c1d9 d9be b85f 41be 0446 e83b
00000340: 405e e83c 9fc1 5e3d 0dc5 f23d 7437 87bc
00000350: 8300 c5bd 4532 7dbd 4267 e0bd c48e 7fbe
00000360: d760 b0be 0e43 9dbe e279 4fbe a302 a03d
00000370: ce3e 0bbd cbbc 71be 972e 8dbe 4462 87be
00000380: de71 6b3d af75 cabe e441 5b3e 7b09 6cbc
00000390: c841 3ebe 2632 fbbc 6c7a ad3d b1bd 3fbe
000003a0: 1d0e 8cbe b9e3 02bf ba68 24be c493 82be
000003b0: 1779 57be c66a 45be 3c63 afba 9b66 81be
000003c0: bb62 09be a899 9ebd ac76 7d3c 46fd c93d
000003d0: d1da 1fbe 3665 e8bd 5526 41bc 9793 a1be
000003e0: c6bc 61be 21fa 64be c723 4d3b ec8c 93bd
000003f0: 52b3 773d 2912 57bd aecd 07be f82e 113c
0.17136118 0.35512552 0.608958 0.19752122 -0.3939722 0.28521344 -0.47953275 0.01044747
0.22568786 0.14564689 -0.0810845 -0.60688585 -0.19212751 0.034808923 -0.10939633 0.20506638
-0.35820332 -0.34202242 0.12719889 -0.08871055 -0.03484906 -0.3351447 -0.3434921 -0.28462857
-0.33192986 -0.23114021 -0.026452614 -0.41436228 0.6607052 0.11037147 -0.14894181 -1.202683
0.16125084 -0.34993297 -0.11860444 -0.8651957 -0.38324517 -0.3286677 -0.80849445 0.5063483
-0.5530888 -0.39255947 -0.07218628 0.24212223 -0.18579966 -0.3898676 0.1427989 -0.08446848
-0.101219006 0.10718286 -0.34281412 0.06875777 -0.1086615 -0.029393302 -0.6278222 -0.5497261
0.028384758 -0.0789373 0.29185253 -0.5835659 0.16216862 -0.001257145 0.043636013 0.14982355
-0.15249981 0.27558604 -0.20250398 0.015337974 0.035129204 0.23709984 -0.6500367 -0.10139435
-0.35656956 -0.12335791 -0.47447777 0.09533727 -0.08567119 0.11567276 -0.7487226 0.08257252
0.062371258 -0.32572228 -0.20524637 0.096994124 -0.4370425 -0.09431191 -0.025348937 0.48334396
-0.72552717 -0.6049971 -0.39493802 0.26412654 0.04140569 -0.70107496 0.25229695 0.093661785
-0.04585679 0.012075373 -0.27933282 -0.10377329 -0.35655183 -0.21711162 0.13702035 -0.24972741
-0.2986798 0.18280385 -0.06929322 -0.21077292 -0.15331553 -0.19815437 0.061406817 -0.047471516
-0.6612086 0.7901212 -0.21795319 -0.020628281 -0.7531451 0.07825138 -0.10823043 -0.1958514
-0.18813339 -0.30700538 -0.41791892 -0.11168876 0.14386837 -0.054620985 -0.10272051 0.20908363
-0.023098508 -0.097919226 -0.24273475 -0.010914805 -0.024793446 0.10298471 -0.21292368 -0.39054376
-0.32281426 0.056443483 -0.12306192 -0.20692737 -0.14404704 0.08112573 0.04651625 -0.17606851
-0.30923834 -0.107105665 -0.048930738 0.08009107 -0.12802307 -0.19729598 -0.24289653 -0.035257
-0.045197565 -0.048244998 -0.17859046 0.023909254 -0.15095069 0.08506655 -0.015685696 0.0022495785
0.24722265 -0.11740553 -0.17114624 -0.12710789 0.28323272 -0.19938552 -0.17726462 -0.2548924
0.03695086 -0.15198863 0.117465995 0.1238671 -0.0048575783 -0.028543096 -0.3056883 0.17147276
-0.075326 -0.31995168 -0.33050814 -0.2709212 -0.017577585 -0.04199051 -0.03758257 -0.10583312
-0.08206022 0.08987264 -0.3211066 -0.23549077 -0.06068435 -0.26587975 0.031946737 -0.05375005
-0.2725312 -0.17618814 -0.13646924 -0.11036818 -0.06206055 -0.08998109 -0.09963096 -0.25888065
-0.3153564 -0.104110256 -0.016190648 0.22074778 -0.2762466 -0.42548946 -0.1888417 0.0070884246
0.028365254 0.05438387 0.11853991 -0.016505934 -0.09619238 -0.06181552 -0.10957195 -0.24956805
-0.34448883 -0.3071522 -0.20261338 0.07813003 -0.033995442 -0.23607175 -0.27574608 -0.26442158
0.05748164 -0.3954291 0.21411854 -0.014406557 -0.18579781 -0.030663561 0.08470616 -0.18724705
-0.27354518 -0.5112873 -0.16055575 -0.2550336 -0.21042286 -0.19279012 -0.0013381015 -0.25273594
-0.13416569 -0.07744151 0.015470188 0.09862761 -0.15610816 -0.113474295 -0.011788924 -0.31557915
-0.22044668 -0.22361042 0.0031301843 -0.07204613 0.060473748 -0.052507553 -0.13262054 0.008861296

fc2.bias f4 [128]
00000000: 86f4 debe 3a26 17be 89d9 cdbe 7cb1 47be
00000010: f740 f7bd 8afa 8fbe d55c efbd 290c 98be
00000020: c632 bcbd 3ec3 46be 933d 3a3e 90b7 8fbe
00000030: 60ae 213b d2ea 623e 0026 623c e86e 5ebe
00000040: 9d82 eabd 5c80 27bf 4e60 efbd f54b edbd
00000050: 7188 11bf 8dc2 efbe 3e4f 41be ba8e 1dbe
00000060: b331 88be e907 3cbf 6054 0cbf 59d9 64bf
00000070: eb19 96be 67f4 b3bd ccd3 02be 7f9c 173f
00000080: a0e5 25be 8dbc c8be 1f5b d1bd 26a5 9fbe
00000090: db86 e2be 4f44 21be 3b8a 9cbd d531 dbbd
000000a0: 5e82 cdbd 0cb5 19be 0253 30bf fba0 a5be
000000b0: e46f 13bf 3112 203e d9cd 5ebf 4cda 2abe
000000c0: c20f 76be 40f8 733e 16f6 08be cd40 c6be
000000d0: b0ab 22be 49b3 d5be 46de f5bf 20c3 46be
000000e0: 4ca8 08bf 2082 62bf 9469 bebd 5d45 1abe
000000f0: 89a3 5cbe 8cb3 2dbe 1804 adbe f08a 42bf
00000100: b01c 02bf 51e9 84be d794 03bf 43b7 63bf
00000110: ddcd 90bd acf6 86be 43fc 4bbe ce80 31be
00000120: 320f febe 49b3 16be ead5 9dbf c318 86bf
00000130: 0604 94be 7bcd e4be 4854 2cbe f5c6 6ebe
00000140: 950e 78bf c193 68be ad2d 4ebe fcb9 56be
00000150: 78e8 b1bf 98da fbbd 86d0 bfbd c1e5 6cbe
00000160: 1803 6bbf 4f6d 09bf 540a 0dbf 7ee4 6cbf
00000170: 0f9e d33e a695 3cbe 1584 b8be 8d5d 1abe
00000180: 6808 10bf 34dc 18bf 4772 6bbe 0e2b 62bd
00000190: bb35 82bc 70de e4be 595e 28be c6d8 2abe
000001a0: 9e4b 96be be4c 5bbe bd53 e6bd 37fd c3be
000001b0: e8b5 a8be 4c8e 72be e1e4 bebf 374c f4be
000001c0: 8f9c 103d 3216 fabe 24d6 dfbe 7551 5bbe
000001d0: 00af 17be 14b7 9ebe 7ebb aabd d8e2 ebbe
000001e0: 21e9 87be bd0d e1be ce20 aebd 7b08 9ebe
000001f0: 48e9 84bf 8730 40be 3ebe 0abf 6c23 05bf
-0.43545932 -0.14760676 -0.4020503 -0.19501299 -0.12072938 -0.28120834 -0.11687628 -0.29696777
-0.09189372 -0.19410416 0.18187551 -0.28069735 0.0024670586 0.2215989 0.013803005 -0.21721995
-0.11450694 -0.65430236 -0.116882905 -0.11586753 -0.5684882 -0.46828118 -0.18877885 -0.15386477
-0.26600417 -0.7344957 -0.54816246 -0.89394146 -0.2931665 -0.087868504 -0.12776107 0.5922317
-0.16200876 -0.39206353 -0.10222458 -0.31180686 -0.44243512 -0.15748714 -0.07643553 -0.10702864
-0.10034631 -0.1501047 -0.6887666 -0.3234938 -0.57592607 0.1563194 -0.8703285 -0.16684836
-0.24029449 0.23825169 -0.13375124 -0.38721314 -0.15885806 -0.41738346 -1.9208457 -0.19410372
-0.533818 -0.88479805 -0.09297481 -0.15065522 -0.21546759 -0.16963023 -0.33792186 -0.7599325
-0.50825024 -0.25959256 -0.51398987 -0.8895151 -0.07070515 -0.2636007 -0.19920449 -0.17334291
-0.49620968 -0.1471683 -1.2330906 -1.0476307 -0.2890932 -0.4468802 -0.16829026 -0.23318084
-0.9689725 -0.22712614 -0.20134611 -0.20969385 -1.3899069 -0.12297553 -0.093659446 -0.23134519
-0.91801596 -0.53682417 -0.55093884 -0.9253615 0.41331527 -0.18416461 -0.3603827 -0.1507475
-0.56262827 -0.59711003 -0.22992812 -0.05521684 -0.015894761 -0.44700956 -0.16442241 -0.16684255
-0.29354566 -0.21415994 -0.112464406 -0.38279125 -0.32951283 -0.23687094 -1.4913598 -0.47714397
0.035305556 -0.4884506 -0.43718064 -0.21417792 -0.14812851 -0.30999053 -0.083365425 -0.46071506
-0.2654505 -0.43955794 -0.08502351 -0.30865845 -1.0383692 -0.18768512 -0.54196537 -0.52007174

fc3.weight f4 [1, 128]
00000000: 7c6c cd3b 7a1c ffbd 9407 1cbc 253f 99bd
00000010: 251f f4be dff0 693c 57d6 98bc 604e 91bc
00000020: 7fff ebbe 42e6 b1be d744 c33d c8de b3be
00000030: e10c 98bc e528 efbc f160 20bd d84d 92be
00000040: bcbf 87be 3418 b9bc 84f3 5bbe d837 cabe
00000050: c5e7 d9bc a4f1 bb3d 832a a8be 86d0 e9be
00000060: d240 b1be b078 82ba bd51 3fbc 6838 92bd
00000070: 0817 013b dcea 8d3c 3478 29bd 9844 1c3e
00000080: 8ed1 28bc 22ba 29be 311e 69be 5ee8 b6b9
00000090: 3fa2 bc3b 6743 e6bd 5b1d f2be 88b3 6dbe
000000a0: 295d 5c3c 7d90 febe f98b d93b ada0 d7bc
000000b0: 565f 9a3c e781 c4bc ed5f 6abc 1690 33be
000000c0: dbdf 8abc 1c68 883c 5519 93bd 59e8 b13c
000000d0: 497a eebe 20ae 1dbd caa7 3bbd 3c59 06ba
000000e0: d193 aebc 0f87 4bbd 4c05 a7be 2a07 14be
000000f0: dc7e f1bc d348 94be 06f3 0b3c 46a1 99bc
00000100: a0a4 303c 83cd b3be 9ccb 94bc a288 41bc
00000110: 70ff c5bc a70c 75bc 36e7 dcbe 15a3 fcbd
00000120: 7a71 ffba f9c0 2abf d925 eb3c 74db 3c3c
00000130: 6b0e e53c b00d 62bd dc82 803e 2bbd c6bd
00000140: 9acc 1dbd d8f2 98be e964 b2bc 886e 403d
00000150: b3ab 34bd 6b33 9fbc d25f 33bc 7d9d a5bc
00000160: 8899 ea3b 3ba2 a9bc 0f09 813c c7b7 843c
00000170: 5e40 99bd 8ff1 b3be 465a 443c 34e5 45be
00000180: c39b 10be c3f7 c3bd 8b73 c4ba a8ae fdbc
00000190: a6e1 89bc 4c48 00bd 81ca 34bd a821 19be
000001a0: 5cf4 5cbc 5ce2 bfbb b68a 7bbc 5de7 aabc
000001b0: f782 afbb 3256 c7bc 927d e73b bc6f 7fbc
000001c0: 79f9 45bc dd72 883b f1b3 8b3d f2fc 983a
000001d0: 134a eabe 6b46 eebc c5aa a6bc 4ce2 c23b
000001e0: ddda e7bc e441 1dbc 6354 83bc 7afb b9bb
000001f0: cb3c bfbb 2e78 c33b 9cb3 743b c91f 793c
0.006269036 -0.12456603 -0.009523291 -0.07482747 -0.4768001 0.01427862 -0.018656893 -0.017737567
-0.46093366 -0.34745985 0.095346145 -0.35130906 -0.018560829 -0.029194305 -0.03915495 -0.28575015
-0.2651347 -0.022594549 -0.21479613 -0.3949573 -0.026599774 0.09176949 -0.32844934 -0.45666903
-0.34619766 -0.000995418 -0.011677203 -0.07139665 0.0019697566 0.017323904 -0.0413744 0.15260541
-0.010303868 -0.1657491 -0.22765423 -0.00034886872 0.005756646 -0.11243325 -0.4728802 -0.23213017
0.0134499455 -0.4971961 0.0066390005 -0.026321733 0.018844288 -0.023987724 -0.014305097 -0.17535433
-0.016952446 0.016651206 -0.07182566 0.021717237 -0.4657767 -0.038496137 -0.045814313 -0.00051249913
-0.021310719 -0.04968935 -0.3262123 -0.14455858 -0.029479437 -0.2896181 0.008541828 -0.018753659
0.010781437 -0.3511773 -0.018163495 -0.011812361 -0.024169654 -0.01495663 -0.4314515 -0.12335793
-0.0019488775 -0.667007 0.02870457 0.011526931 0.027960977 -0.055188835 0.25099838 -0.0970405
-0.0385252 -0.29872775 -0.021776633 0.04698041 -0.044109058 -0.019433698 -0.010948138 -0.020216698
0.0071594156 -0.02070724 0.01575139 0.016200913 -0.0748298 -0.35145232 0.0119844135 -0.19325715
-0.14121918 -0.09568741 -0.0014988048 -0.030967072 -0.01683123 -0.031318948 -0.044138435 -0.14954245
-0.013485994 -0.0058558416 -0.0153528955 -0.020862276 -0.0053561884 -0.024333093 0.0070645297 -0.015590604
-0.012083405 0.0041640834 0.068214305 0.0011672063 -0.4575964 -0.029086312 -0.020345101 0.005947387
-0.028302604 -0.009598229 -0.01603145 -0.0056757303 -0.0058361045 0.0059652543 0.00373385 0.015205332
