puppersim/dc_saves/aac_slow_straight_efficient_0/critic1_20.pt (torch, 84759 bytes, 5 tensors)

fc1.weight f4 [128, 31]
0.039487477 -0.50847167 -1.059856 -1.7322546 0.3478343 -0.53727794 -0.042671304 -0.16363285
-0.64304507 -0.21107864 0.48287046 -0.21336469 0.67639834 -0.20395197 0.64064294 -0.0031507856
-0.0012834057 0.0046286318 0.012700925 0.01880751 -0.005967432 -0.0065882453 0.0029773263 -0.006888195
0.0006401838 -0.0008248137 0.0031266809 0.016662879 0.0068055172 -0.0072859568 0.0040209657 -0.75285035
0.043483917 0.069792345 0.09914324 -0.1399848 -1.3541225 -0.3832593 0.33037668 -0.9821392
-0.13114172 0.043852963 -1.4663792 -0.8377892 -0.3806027 -0.50245756 -0.053652517 -0.040733557
0.21434452 -0.2581583 -0.29941377 0.16756274 0.53646487 -0.19177479 0.0676203 -0.08066147
0.10812167 -0.15870485 -0.1974525 -0.0059916135 0.2634124 -0.29593837 -0.6798891 -0.17200871
0.23113622 -0.15911487 -0.6436514 -0.18728393 0.199268 0.3348118 -0.5416373 -0.20318705
-0.57911193 -1.1569709 -0.33712274 0.38776848 -0.8927776 0.048161607 -0.24611083 0.028087368
-0.09056236 0.16546309 0.07753047 0.009652999 -0.051995546 -0.1854239 -0.086220466 0.04002806
0.15742171 0.030980337 0.33137155 -0.19018425 -0.14233951 -0.20432442 -0.04700916 -0.29017577
0.56633395 0.037369873 -0.20314747 0.5217407 0.055680957 -0.016500551 0.20501544 -0.7186642
-0.8211265 -0.0880286 -0.27652395 0.06809318 -0.03173619 0.0026512085 -0.04944382 0.011965201
0.04286494 -0.017483246 0.5228743 0.31789914 0.15035973 -0.018382983 0.068975426 -0.077657275
-0.017131472 0.5457737 0.1357089 0.113217294 0.12394173 -0.21159968 -0.64157814 0.46459472
-0.48670393 -0.82723594 -0.06455018 -1.2143487 -0.2221973 0.037867453 -0.7876176 -1.0596209
0.33187094 -1.0173928 -0.9769847 -0.39781252 -0.18237741 -0.05140216 0.053532436 -0.31012952
-0.46869057 0.023308981 -0.3883406 -0.44015968 -0.4157834 -0.3339868 -0.41545632 -0.0035059787
0.0027066683 0.063027434 -0.39913866 0.061284572 0.60021114 -1.1423415 0.37963375 -0.41790012
-0.7344264 -0.09619625 0.78918546 -0.26409078 0.50489396 -0.094051085 -0.43117267 0.82800484
0.20298037 -0.7251509 -0.31568244 0.0025631431 0.12727042 -0.17989402 -0.14389294 -0.25380567
-0.27005237 -0.056539547 0.022362614 -0.20208426 0.088704646 0.4420364 -0.15432614 0.06996757
0.115497254 0.2646381 -0.061789114 0.5186645 -0.8104834 0.018673703 -0.679717 -1.0776482
-1.2707157 0.23563147 -0.017142667 0.026974129 -0.15881489 -0.2843004 0.17557581 0.07043627
1.1626945 0.0009793098 -0.0005984313 -0.0020677117 -0.0033784271 -0.01330914 -0.0020446654 0.010390313
-0.014593298 -0.014736682 -0.018257903 0.02304736 -0.00156214 0.017211968 0.015098919 0.0075732823
0.0018148976 -0.11439351 -0.5888173 0.6157624 1.3694923 0.25802383 0.1465549 -0.15618718
0.71645916 -2.0075238 -1.8868724 -0.083896086 -0.19531205 0.45799482 -2.412087 -0.014594241
0.017929502 -0.0006161666 0.008997569 -0.0011252462 0.0025925564 0.0004830703 0.0076414226 0.00063896447
-0.008942489 -0.0015275362 -0.0018931103 0.003551864 -0.009351987 -0.0012861043 -0.0050116247 -0.0030285611
0.4545238 -0.6552766 -1.1162306 0.7845745 0.2987556 -0.5737631 0.8505721 -0.6831686
00000000: 9fbd 213d 332b 02bf 5da9 87bf 85ba ddbf
00000010: 5617 b23e 0c8b 09bf 1bc8 2ebd 5f8f 27be
00000020: 9a9e 24bf 0025 58be cc3a f73e 467c 5abe
00000030: 7128 2d3f c9d8 50be 2d01 243f 697d 4ebb
00000040: f337 a8ba c7ab 973b 8a17 503c 3512 9a3c
00000050: 738a c3bb 35e2 d7bb 3f1f 433b 5eb6 e1bb
00000060: 02d2 273a 4f38 58ba 00e9 4c3b 9780 883c
00000070: d100 df3b 09bf eebb 4ec2 833b cdba 40bf
00000080: 311c 323d 4aef 8e3d 9c0b cb3d 2d58 0fbe
00000090: e353 adbf 903a c4be 2227 a93e 7a6d 7bbf
000000a0: 044a 06be 2a9f 333d 50b2 bbbf 5a79 56bf
000000b0: 5bde c2be 0fa1 00bf bec2 5bbd 3bd8 26bd
000000c0: 217d 5b3e 532d 84be c34c 99be 9195 2b3e
000000d0: c355 093f 9c60 44be 837c 8a3d d731 a5bd
000000e0: e56e dd3d 8683 22be fd30 4abe 4c55 c4bb
000000f0: fddd 863e 3c85 97be 360d 2ebf 0d23 30be
00000100: f9ae 6c3e 02ef 22be 57c6 24bf 5cc7 3fbe
00000110: e90c 4c3e 746c ab3e bea8 0abf 4410 50be
00000120: ae40 14bf 9f17 94bf 5a9b acbe 9789 c63e
00000130: 138d 64bf 1b45 453d 7a04 7cbe 7b17 e63c
00000140: c278 b9bd 286f 293e 4cc8 9e3d 9d27 1e3c
00000150: 48f9 54bd c3df 3dbe 5b94 b0bd 77f4 233d
00000160: 2833 213e 7aca fd3c 88a9 a93e a9bf 42be
00000170: 73c1 11be 6c3a 51be ad8c 40bd eb91 94be
00000180: 43fb 103f 2711 193d e405 50be cc90 053f
00000190: b711 643d 2a2c 87bc 91ef 513e 61fa 37bf
000001a0: 5935 52bf 5748 b4bd 8c94 8dbe 7074 8b3d
000001b0: cffd 01bd e6bf 2d3b 9a85 4abd b109 443c
000001c0: 2693 2f3d 0639 8fbc 17db 053f adc3 a23e
000001d0: e7f7 193e e997 96bc fd42 8d3d c70a 9fbd
000001e0: 4d57 8cbc d3b7 0b3f 46f7 0a3e 78de e73d
000001f0: 29d5 fd3d 96ad 58be 773e 24bf 5cdf ed3e
00000200: 4231 f9be bcc5 53bf e332 84bd c76f 9bbf
00000210: b087 63be e71a 1b3d 4fa1 49bf a8a1 87bf
00000220: fdea a93e ed39 82bf ab1b 7abf 15ae cbbe
00000230: 25c1 3abe 128b 52bd d444 5b3d 4cc9 9ebe
00000240: 36f8 efbe 7af2 be3c 94d4 c6be 9c5c e1be
00000250: 90e1 d4be 5100 abbe b1b6 d4be 90c4 65bb
00000260: 5c62 313b 8714 813d e75b ccbe 8805 7b3d
00000270: 70a7 193f 3f38 92bf 5b5f c23e 01f7 d5be
00000280: 5e03 3cbf 8a02 c5bd 0f08 4a3f e836 87be
00000290: bb40 013f db9d c0bd aac2 dcbe 20f8 533f
000002a0: 16da 4f3e 7da3 39bf 21a1 a1be 68fa 273b
000002b0: 2d53 023e 2336 38be ac58 13be d1f2 81be
000002c0: 4e44 8abe 0396 67bd cd31 b73c 2def 4ebe
000002d0: c8aa b53d 9852 e23e ac07 1ebe 284b 8f3d
000002e0: d389 ec3d a57e 873e 9516 7dbd 32c7 043f
000002f0: d77b 4fbf 98f9 983c ef01 2ebf 60f0 89bf
00000300: d0a6 a2bf 6049 713e c76e 8cbc d9f8 dc3c
00000310: 5fa0 22be d28f 91be 25ca 333e e440 903d
00000320: 2cd3 943f 2f5c 803a 0be0 1cba 7282 07bb
00000330: 9a68 5dbb 940e 5abc cbff 05bb 223c 2a3c
00000340: ba18 6fbc 2072 71bc 9991 95bc d1cd bc3c
00000350: b8c0 ccba 1d00 8d3c 7561 773c 4c29 f83b
00000360: dce1 ed3a 2547 eabd bbbc 16bf 9ba2 1d3f
00000370: 864b af3f b31b 843e 7d12 163e 88ef 1fbe
00000380: de69 373f 457b 00c0 0985 f1bf b6d1 abbd
00000390: e2ff 47be 4c7e ea3e a25f 1ac0 af1c 6fbc
000003a0: e4e0 923c 3e86 21ba 8a6a 133c ff7c 93ba
000003b0: e1e7 293b 9944 fd39 e664 fa3b 2e80 273a
000003c0: 8483 12bc 9c37 c8ba 3e22 f8ba 64c6 683b
000003d0: 1439 19bc 8092 a8ba 8e38 a4bb d37a 46bb
000003e0: 58b7 e83e 35c0 27bf a5e0 8ebf e0d9 483f
000003f0: 7ef6 983e 23e2 12bf 18bf 593f 23e4 2ebf

fc1.bias f4 [128]
-0.6564404 -0.28231293 0.048501063 -0.20968245 -0.88614166 -0.09531834 -1.2358668 -0.06902931
0.38579503 0.9792946 1.336169 1.4609841 -0.7519368 -0.098238245 0.760773 -0.44474453
-0.14096832 -0.6723222 -0.91906834 -0.16823281 -0.59498984 0.54809266 -0.9337969 -0.3536403
-0.5967739 -0.7212741 -0.19765066 -0.11947087 -0.64393157 -0.12607443 -1.0454144 -1.0802528
-0.28177923 -0.29730248 -1.4381511 -0.47438857 -0.13955179 -0.34008875 -0.6519202 -0.41319722
-0.36798725 -0.6828578 -0.095775045 -0.1892575 -1.0679866 -0.68989474 -0.4057905 -0.24562876
-0.17831416 -0.05025743 -0.20125018 0.5330168 -0.8097846 0.99032146 0.9668793 0.014025732
0.252584 -0.055528294 -0.48499432 -0.600472 -0.22870554 -0.23802978 0.320178 -0.20702595
-0.32681525 -0.59733635 -1.485876 -0.509701 0.8320192 0.5318006 -0.90452033 -0.37851414
-0.91447324 -0.41069672 -0.43463582 -0.42143086 -0.10683335 1.0710211 -1.0001394 -0.22879502
0.24536209 -0.9251244 0.055393472 -0.811852 -0.024834998 -0.011225674 -0.5637072 -0.75477695
-0.7832907 -0.46837404 -0.42378497 -0.8559071 -0.852291 -1.4353722 -1.0966707 -1.0424641
-0.29900876 -0.57721657 -0.32903662 0.16362871 1.2628574 -0.50648844 -0.26872534 -0.39300048
-0.9792314 -0.5303069 -0.32971635 -0.5870236 -0.99374044 0.22204237 -0.89280003 -0.20882067
-0.29378608 -0.22908796 -0.081320815 -0.18505667 0.8345204 -0.19007283 -0.2615845 -1.2188171
-0.87886107 -1.0623848 -0.31550288 -0.83061486 -1.3056301 -1.4057785 -0.5934553 0.53052175
00000000: 7a0c 28bf 528b 90be 0da9 463d ffb6 56be
00000010: 2eda 62bf 4336 c3bd e230 9ebf 3d5f 8dbd
00000020: ed86 c53e 0db3 7a3f 9607 ab3f 8701 bb3f
00000030: ee7e 40bf 2231 c9bd 05c2 423f 8eb5 e3be
00000040: 005a 10be 4f1d 2cbf 1048 6bbf 3945 2cbe
00000050: 4151 18bf cd4f 0c3f 500d 6fbf 5710 b5be
00000060: 2dc6 18bf 6ba5 38bf ef64 4abe 25ad f4bd
00000070: b3d8 24bf a819 01be 24d0 85bf b945 8abf
00000080: 5e45 90be 0838 98be 5615 b8bf 0fe3 f2be
00000090: aae6 0ebe 1d20 aebe 3ee4 26bf 968e d3be
000000a0: d368 bcbe c5cf 2ebf b525 c4bd b8cc 41be
000000b0: c9b3 88bf f19c 30bf c6c3 cfbe 1b86 7bbe
000000c0: fd97 36be bcda 4dbd 8714 4ebe ca73 083f
000000d0: 0b4e 4fbf b585 7d3f 6785 773f 2fcc 653c
000000e0: b152 813e a371 63bd 2d51 f8be 88b8 19bf
000000f0: c931 6abe 14be 73be 5fee a33e 9cfe 53be
00000100: 5454 a7be 09eb 18bf 2f31 bebf c47b 02bf
00000110: 36ff 543f 1624 083f a58e 67bf 9bcc c1be
00000120: eb1a 6abf d746 d2be 9688 debe c9c5 d7be
00000130: 72cb dabd 3817 893f 9104 80bf 3e49 6abe
00000140: 3340 7b3e f4d4 6cbf 44e4 623d 88d5 4fbf
00000150: c472 cbbc e4eb 37bc 1d4f 10bf 1039 41bf
00000160: bd85 48bf b9ce efbe 58fa d8be ba1c 5bbf
00000170: be2f 5abf 47ba b7bf b55f 8cbf 776f 85bf
00000180: ad17 99be 77c4 13bf 7d77 a8be 498e 273e
00000190: 50a5 a13f 3aa9 01bf 5e96 89be 5c37 c9be
000001a0: e9ae 7abf 31c2 07bf 95d0 a8be 2e47 16bf
000001b0: c665 7ebf 135f 633e 8b8e 64bf 16d5 55be
000001c0: 216b 96be 0996 6abe 878b a6bd 7f7f 3dbe
000001d0: 21a3 553f 74a2 42be 67ee 85be 3302 9cbf
000001e0: 0afd 60bf 3afc 87bf 9889 a1be 2da3 54bf
000001f0: e31e a7bf 8df0 b3bf b0ec 17bf 46d0 073f

fc2.weight f4 [128, 128]
0.16938974 0.37068385 0.6143356 0.19752122 -0.3939722 0.28521344 -0.47953275 0.013840594
0.22568786 0.15417 -0.061772086 -0.60403454 -0.19212751 0.034808923 -0.10939633 0.20506638
-0.35820332 -0.34202242 0.13667879 -0.08871055 -0.03484906 -0.3351447 -0.3425856 -0.28417867
-0.33189523 -0.23114021 -0.026452614 -0.41436228 0.6607052 0.11037147 -0.14894181 -1.202683
0.16125084 -0.34993297 -0.11860444 -0.8651957 -0.38324517 -0.3286014 -0.8086741 0.50222504
-0.5530888 -0.39255947 -0.07218628 0.24212223 -0.18579966 -0.38213798 0.1427989 -0.08446848
-0.10115124 0.10718286 -0.34281412 0.06928492 -0.10820072 -0.028131742 -0.6278222 -0.5497261
0.034718085 -0.0789373 0.2913125 -0.5835659 0.16216862 -0.001257145 0.043636013 0.14982355
-0.15297464 0.27558604 -0.20250398 0.015337974 0.04808249 0.23709984 -0.6500367 -0.10200377
-0.35656956 -0.12335791 -0.47447777 0.09533727 -0.08567119 0.1276222 -0.7487226 0.083074495
0.06158217 -0.32615042 -0.20512128 0.09532816 -0.4370425 -0.09184765 -0.025348937 0.48334396
-0.72552717 -0.6049971 -0.39498937 0.26412654 0.04140569 -0.70107496 0.25229695 0.093661785
-0.044374198 0.012075373 -0.27924752 -0.1040277 -0.34616598 -0.21711162 0.14125165 -0.24972741
-0.2986798 0.18280385 -0.06929322 -0.21077292 -0.14696924 -0.19815437 0.061406817 -0.048322327
-0.6612086 0.7901212 -0.21551703 -0.020628281 -0.7534046 0.07591035 -0.10823043 -0.1958514
-0.18813339 -0.30700538 -0.41791892 -0.11194282 0.14386837 -0.054620985 -0.10234785 0.20908363
-0.019315366 -0.097919226 -0.24216445 -0.010914805 -0.024793446 0.10298471 -0.21292368 -0.39054376
-0.32281426 0.095787294 -0.079222105 -0.17237893 -0.14404704 0.08112573 0.04651625 -0.17606851
-0.30509642 -0.107105665 -0.048930738 0.08009107 -0.12802307 -0.19729598 -0.24289653 -0.035257
-0.045197565 -0.048244998 -0.17859046 0.023909254 -0.15095069 0.08506655 -0.015685696 0.0022495785
0.24722265 -0.11740553 -0.17114624 -0.12407533 0.28323272 -0.1978785 -0.18515497 -0.2548924
0.03695086 -0.14382102 0.117465995 0.1238671 -0.0048575783 -0.014306149 -0.3056883 0.19138174
-0.075326 -0.31995168 -0.33050814 -0.2709212 -0.017577585 -0.04199051 -0.03758257 -0.10583312
-0.08206022 0.08987264 -0.3211066 -0.23549077 -0.06068435 -0.26587975 0.03991709 -0.05375005
-0.2725312 -0.17618814 -0.13646924 -0.11036818 -0.01951512 -0.08998109 -0.09963096 -0.2396314
-0.3153564 -0.104110256 -0.016190648 0.22074778 -0.2762466 -0.4154649 -0.1888417 0.0070884246
0.03375084 0.05438387 0.12680471 -0.016505934 -0.09619238 -0.05824276 -0.10957195 -0.24956805
-0.34448883 -0.3071522 -0.19425805 0.07813003 -0.033995442 -0.23052396 -0.27574608 -0.26442158
0.06402619 -0.3954291 0.25266436 -0.014406557 -0.1448041 -0.030663561 0.102690816 -0.18724705
-0.27354518 -0.5112873 -0.16055575 -0.2550336 -0.21042286 -0.19279012 -0.0013381015 -0.25273594
-0.13416569 -0.07744151 0.015470188 0.09862761 -0.15403733 -0.113474295 -0.011788924 -0.31557915
-0.22044668 -0.22361042 0.0031301843 -0.07204613 0.060473748 -0.052507553 -0.13262054 0.008861296
00000000: 8174 2d3e 46ca bd3e 1945 1d3f 0143 4a3e
00000010: b9b6 c9be 7f07 923e 5185 f5be a9c3 623c
00000020: b81a 673e bede 1d3e ba04 7dbd 02a2 1abf
00000030: 13bd 44be cd93 0e3d 2f0b e0bd ecfc 513e
00000040: 6d66 b7be 901d afbe 86f5 0b3e e0ad b5bd
00000050: e3bd 0ebd 1698 abbe 6167 afbe de7f 91be
00000060: 2cee a9be 05b0 6cbe 27b3 d8bc 4b27 d4be
00000070: fa23 293f 700a e23d 3484 18be 84f1 99bf
00000080: f11e 253e 6a2a b3be e2e6 f2bd 777d 5dbf
00000090: b638 c4be 713e a8be 4405 4fbf d291 003f
000000a0: 3a97 0dbf 8efd c8be 66d6 93bd e4ee 773e
000000b0: 4442 3ebe 97a7 c3be e039 123e cffd acbd
000000c0: 6228 cfbd b082 db3d 5585 afbe 41e5 8d3d
000000d0: 5798 ddbd 8a74 e6bc f5b8 20bf daba 0cbf
000000e0: 8d34 0e3d e1a9 a1bd e926 953e 9364 15bf
000000f0: 880f 263e c9c6 a4ba adbb 323d 586b 193e
00000100: 62a5 1cbe 9d19 8d3e 345d 4fbe 204c 7b3c
00000110: 25f2 443d 4dca 723e ce68 26bf 5ae7 d0bd
00000120: 4990 b6be 12a3 fcbd c0ee f2be 3040 c33d
00000130: 6074 afbd 65af 023e 49ac 3fbf f622 aa3d
00000140: 963d 7c3d 30fd a6be 500b 52be 693b c33d
00000150: 09c4 dfbe 9f1a bcbd 93a8 cfbc dc78 f73e
00000160: 26bc 39bf 17e1 1abf 0c3c cabe 983b 873e
00000170: 0399 293d a679 33bf 112d 813e c0d1 bf3d
00000180: b8c1 35bd c9d7 453c 88f9 8ebe 7a0c d5bd
00000190: ab3c b1be 8252 5ebe 46a4 103e 8bb8 7fbe
000001a0: 8fec 98be ef30 3b3e 9be9 8dbd dbd4 57be
000001b0: 1b7f 16be fbe8 4abe b785 7b3d a2ed 45bd
000001c0: f844 29bf 6245 4a3f 7fb0 5cbe a4fc a8bc
000001d0: 20df 40bf e376 9b3d eaa7 ddbd 458d 48be
000001e0: 0aa6 40be cf2f 9dbe 78f9 d5be 4742 e5bd
000001f0: 3b52 133e 41ba 5fbd c09b d1bd 051a 563e
00000200: 423b 9ebc e089 c8bd f5f9 77be 03d4 32bc
00000210: a01b cbbc a6e9 d23d aa08 5abe 5af5 c7be
00000220: e947 a5be 212c c43d 333f a2bd 1a84 30be
00000230: 1181 13be 3f25 a63d d387 3e3d 4e4b 34be
00000240: 9935 9cbe 375a dbbd 996b 48bd c906 a43d
00000250: 7b18 03be f507 4abe deb9 78be a569 10bd
00000260: 1521 39bd 8c9c 45bd 6be0 36be 57dd c33c
00000270: d192 1abe 5f37 ae3d 4a7f 80bc aa6d 133b
00000280: ef27 7d3e 4f72 f0bd f640 2fbe 351b febd
00000290: e103 913e a9a0 4abe 4499 3dbe 4281 82be
000002a0: c959 173d d145 13be 0392 f03d 09ae fd3d
000002b0: 522c 9fbb 5764 6abc 2d83 9cbe 93f9 433e
000002c0: 8544 9abd b5d0 a3be 5d38 a9be 2fb6 8abe
000002d0: defe 8fbc 3efe 2bbd 2ef0 19bd 09bf d8bd
000002e0: 300f a8bd 260f b83d 1668 a4be 7e24 71be
000002f0: 2790 78bd 6421 88be 1a80 233d 0329 5cbd
00000300: 3689 8bbe aa6a 34be 98be 0bbe b608 e2bd
00000310: 2cde 9fbc 0148 b8bd 510b ccbd ef61 75be
00000320: 6576 a1be c237 d5bd 40a2 84bc b50b 623e
00000330: 3270 8dbe d1b7 d4be b85f 41be 0446 e83b
00000340: 523e 0a3d 9fc1 5e3d 18d9 013e 7437 87bc
00000350: 8300 c5bd f68f 6ebd 4267 e0bd c48e 7fbe
00000360: d760 b0be 0e43 9dbe 95eb 46be a302 a03d
00000370: ce3e 0bbd 790e 6cbe 972e 8dbe 4462 87be
00000380: 2a20 833d af75 cabe 395d 813e 7b09 6cbc
00000390: 8747 14be 2632 fbbc 904f d23d b1bd 3fbe
000003a0: 1d0e 8cbe b9e3 02bf ba68 24be c493 82be
000003b0: 1779 57be c66a 45be 3c63 afba 9b66 81be
000003c0: bb62 09be a899 9ebd ac76 7d3c 46fd c93d
000003d0: f6bb 1dbe 3665 e8bd 5526 41bc 9793 a1be
000003e0: c6bc 61be 21fa 64be c723 4d3b ec8c 93bd
000003f0: 52b3 773d 2912 57bd aecd 07be f82e 113c

fc2.bias f4 [128]
-0.41846406 -0.101557314 -0.3975368 -0.19481316 -0.10830924 0.0030701626 -0.22107102 -0.75990665
-0.0825788 -0.16607128 0.14285949 -0.2424892 -0.08559426 0.22626692 -0.08286054 -0.20376405
-0.12409492 -0.6473124 -0.09796436 -0.11557184 -0.5373367 -0.45797768 -0.11280673 -0.15388511
-0.26429433 -0.72526264 -0.54459685 -0.8687734 -0.2918242 -0.04590822 -0.1159869 0.536982
-0.15803821 -0.39206353 -0.08594704 -0.30958357 -0.41119957 -0.14838715 -0.07643553 -0.09151087
-0.06629598 -0.14001098 -0.6469712 -0.3308763 -0.42400703 0.054509237 -0.8526803 -0.10153806
-0.2555909 0.25928947 -0.14669442 -0.38722542 -0.15885806 -0.31671664 -1.8099644 -0.06978069
-0.49984348 -0.95053095 -0.10228016 -0.1279345 -0.18910663 -0.1660786 -0.29992026 -0.79993576
-0.5027998 -0.26617536 -0.48419937 -0.82889277 -0.31229696 -0.41998687 -0.17490692 -0.19933604
-0.49620968 -0.15360054 -1.2836956 -1.0013388 -0.2779668 -0.40576157 -0.16875058 -0.2162219
-0.41429907 -0.23625398 -0.19441372 -0.18341172 -0.12766846 -0.19935846 -0.16572662 -0.15534332
-0.120619275 -0.45037743 -0.43041468 -1.1093342 0.34738135 -0.17467918 -0.39472616 -0.14321183
-0.54536724 -0.572762 -0.117039025 -0.05138973 -0.103246994 -0.4629723 -0.1280345 -0.16684255
-0.41602972 -0.44209448 -0.016305704 -0.50108093 -0.7115856 -0.22969812 -0.5419162 -0.5458104
-0.07001787 -0.48700815 -0.4610551 -0.11260763 -0.1482968 -0.27305093 -0.06623418 -0.45654368
-0.11944488 -0.36033738 -0.11203324 -0.19866113 -0.659899 -0.14599173 -0.5570359 -0.2986646
00000000: ec40 d6be 48fd cfbd f289 cbbe 1a7d 47be
00000010: 3cd1 ddbd c834 493b 7160 62be 3e89 42bf
00000020: 131f a9bd 970e 2abe c249 123e 174f 78be
00000030: 0b4c afbd 84b2 673e c9b2 a9bd 86a7 50be
00000040: 7a25 febd 44b6 25bf 8aa1 c8bd eeb0 ecbd
00000050: e68e 09bf 0d7c eabe 3707 e7bd 0f94 1dbe
00000060: 9651 87be d0aa 39bf b36a 0bbf ef67 5ebf
00000070: fb69 95be 420a 3cbd 8a8a edbd a777 093f
00000080: c5d4 21be 8dbc c8be 0005 b0bd bd81 9ebe
00000090: c088 d2be cdf2 17be 3b8a 9cbd 0d6a bbbd
000000a0: 30c6 87bd 0a5f 0fbe e89f 25bf 9e68 a9be
000000b0: 7317 d9be 1445 5f3d 4249 5abf 30f3 cfbd
000000c0: cfdc 82be 97c1 843e 1037 16be 6942 c6be
000000d0: b0ab 22be af28 a2be eaac e7bf 2ee9 8ebd
000000e0: 7ceb ffbe ff55 73bf 4378 d1bd 4301 03be
000000f0: 2ba5 41be 8210 2abe 268f 99be 97c8 4cbf
00000100: 7db7 00bf 2348 88be fbe8 f7be 5132 54bf
00000110: 63e5 9fbe 8508 d7be cd1a 33be bf1e 4cbe
00000120: 320f febe 7649 1dbe 2350 a4bf df2b 80bf
00000130: aa51 8ebe fbbf cfbe f4cc 2cbe 4669 5dbe
00000140: 021f d4be 90ec 71be 6414 47be 48d0 3bbe
00000150: 85bb 02be a024 4cbe 3db4 29be 5212 1fbe
00000160: 3d07 f7bd df97 e6be 505f dcbe aafe 8dbf
00000170: f8db b13e 19df 32be 8c19 cabe 1fa6 12be
00000180: 309d 0bbf 88a0 12bf 28b2 efbd 0a7e 52bd
00000190: 2973 d3bd b50a edbe 7a1b 03be c6d8 2abe
000001a0: d901 d5be 355a e2be 8a93 85bc d746 00bf
000001b0: 792a 36bf fc35 6bbe 05bb 0abf 3bba 0bbf
000001c0: 8765 8fbd 2259 f9be 6a0f ecbe d49e e6bd
000001d0: 1edb 17be 55cd 8bbe c9a5 87bd 18c0 e9be
000001e0: 849f f4bd 247e b8be af71 e5bd d36d 4bbe
000001f0: 24ef 28bf db7e 15be e899 0ebf 91ea 98be

fc3.weight f4 [1, 128]
-0.0063287583 -0.14703058 0.021979166 -0.08720367 -0.5001189 0.006414708 -0.019215716 0.035365675
-0.47973886 -0.37096775 -0.042372186 -0.37766087 -0.013822274 -0.016628195 -0.015726354 -0.3045334
-0.2490957 -0.028389994 -0.22094789 -0.4139016 0.004151856 -0.0034675442 -0.38529927 -0.4542448
-0.35077342 -0.0038585977 0.0053380555 0.010824954 0.014432808 0.0107721 -0.065998904 0.119614586
0.006042893 -0.1657491 -0.23131843 0.0030725787 -0.026523445 -0.12099584 -0.4728802 -0.22939698
0.04645789 -0.51671046 -0.0043739057 -0.01397382 -0.011805756 -0.10216855 0.031944912 -0.16547579
-0.0044191517 0.021707043 -0.14305483 0.0032322106 -0.4657767 -0.027030652 -0.010713452 -0.008324933
-0.06444284 -0.037642337 -0.31800982 -0.13721369 -0.013417006 -0.30023095 -0.037011966 -0.0005233974
0.007203355 -0.35218927 0.033479445 -0.017511897 -0.02359712 -0.016155006 -0.45119685 -0.10577035
-0.0019488775 -0.6730688 0.0024205546 0.011240359 -0.030397044 -0.12023491 0.23609021 -0.108815625
-0.04072097 -0.29088017 -0.005269698 0.04906748 -0.015544189 0.004582654 -0.011940815 -0.008170329
0.0075699603 -0.009325367 0.0021885494 -0.03388252 -0.05993385 -0.36685777 -0.009302148 -0.19579828
-0.10381964 -0.024407914 -0.009844411 -0.03087598 0.01925823 -0.01723041 -0.11083458 -0.14954245
-0.011007643 -0.010143612 -0.0007272712 -0.0087231845 -0.00043356337 0.0075798403 0.017423274 0.013324149
-0.014390653 0.0047180695 0.09117863 -0.026466072 -0.4553843 -0.053341575 -0.06211669 0.012355861
-0.027136635 -0.01535666 -0.031448897 -0.09285271 0.00029215936 0.0055191005 -0.00036962953 -0.013792823
00000000: 7961 cfbb 2f8f 16be a70d b43c d697 b2bd
00000010: cb07 00bf 7932 d23b 476a 9dbc 99db 103d
00000020: 55a0 f5be 7cef bdbe 758e 2dbd c45c c1be
00000030: d276 62bc da37 88bc 8ed4 80bc cdeb 9bbe
00000040: f112 7fbe 2292 e8bc 2a40 62be e9ea d3be
00000050: 4b0c 883b bd3f 63bb f245 c5be c692 e8be
00000060: 9398 b3be 87e0 7cbb dbea ae3b 265b 313c
00000070: 9677 6c3c 767d 303c 6f2a 87bd 7ef8 f43d
00000080: 7603 c63b 22ba 29be bdde 6cbe 515d 493b
00000090: b247 d9bc abcc f7bd 5b1d f2be 0be7 6abe
000000a0: a14a 3e3d 2347 04bf fb52 8fbb 73f2 64bc
000000b0: ee6c 41bc bf3d d1bd abd8 023d 7c72 29be
000000c0: 88ce 90bb f8d2 b13c f77c 12be 7fd3 533b
000000d0: 497a eebe 636f ddbc 7987 2fbc 4d65 08bc
000000e0: 9cfa 83bd da2e 1abd 2fd2 a2be bf81 0cbe
000000f0: 00d3 5bbc dfb7 99be dc99 17bd 9b34 09ba
00000100: 1f0a ec3b 2752 b4be be21 093d 1c75 8fbc
00000110: bf4e c1bc 8157 84bc 4603 e7be 209e d8bd
00000120: 7a71 ffba 3d4e 2cbf 2ba2 1e3b 7c29 383c
00000130: 3903 f9bc b83d f6bd a2c1 713e bada debd
00000140: 08cb 26bd 3fee 94be 6ead acbb fbfa 483d
00000150: 0ead 7ebc 172a 963b 68a3 43bc d8dc 05bc
00000160: 6e0d f83b 6dc9 18bc c46d 0f3b 66c8 0abd
00000170: 327d 75bd c8d4 bbbe 0968 18bc 587f 48be
00000180: 649f d4bd 1bf3 c7bc 744a 21bc a0ef fcbc
00000190: 70c3 9d3c ca26 8dbc 3efd e2bd a821 19be
000001a0: 6759 34bc 6431 26bc 58a6 3eba b0eb 0ebc
000001b0: e44f e3b9 4f60 f83b 41bb 8e3c 884d 5a3c
000001c0: c6c6 6bbc 099a 9a3b ddbb ba3d 60cf d8bc
000001d0: 2228 e9be b27c 5abd 126e 7ebd 3d70 4a3c
000001e0: a64d debc 809a 7bbc 8fd0 00bd 9029 bebd
000001f0: f72c 9939 92d9 b43b d6ca c1b9 4bfb 61bc
