puppersim/dc_saves/aac_slow_straight_efficient_0/critic2_13.pt (torch, 84759 bytes, 5 tensors)

fc1.weight f4 [128, 31]
00000000: c653 b9be cb82 123e 5699 5bbd 8f2d f3be
00000010: 7a43 25be 1a09 a8bf 250f 0b3e 92f3 18bd
00000020: 784e 8bbc b234 e0be 2076 323f a28a ebbf
00000030: b8bd 1cbf 40fa eabe c9c0 cdbf 612f e1bd
00000040: 29d8 45be a206 bf3e b2f9 7abe 158e 003e
00000050: 81cb 123e f81c 8bbd feaf 873d 78c6 c9be
00000060: 65f1 f2bd 25ba 713c df41 eb3d 4b17 4cbd
00000070: 66a1 7c3e c77c fdbd 1471 27be a252 a9be
00000080: 0ad6 37be 4ce0 13bf 6136 293f 82d7 b93e
00000090: 3076 a1be a1ed 333e 8a4a 89bf 5587 babc
000000a0: 1c5c 3c3e 67a2 dd3e 7eec f5be 2675 15be
000000b0: 6ab5 2dbf 0e43 383e 98ae 0abc 9a2e 2c3d
000000c0: d7ec dc3d da0d 003f eca8 08bf f5c1 253c
000000d0: 8d76 dbbb 495c 323e 2e65 00bd 6676 28bd
000000e0: a602 383e 99f3 15bd 5b71 f83b c9d8 42be
000000f0: e0d2 da3d 6370 953e da1f 8f3d 3cec 3b3f
00000100: 9b82 a7be e3e1 043e 9dd3 a23c 05c1 933d
00000110: 33c3 a43d 2dcc 26bf 4e95 8bbf 6630 7b3e
00000120: 74e6 533e b986 6f3e f4f8 bf3d fb82 99bf
00000130: 4caa 41bf cbfb 33be 3a14 bdbd a31c 8dbe
00000140: 8b73 ab3d 88cf c23c e18d bbbe 79a9 073e
00000150: f141 e4bd 062a 943e 9ecb b23c 1815 63be
00000160: 65e6 2c3d 00bb 8c3e f5b3 aabb f240 853e
00000170: 1dc4 043d bc9c dcbe 4a2f 373f 63b0 7fbe
00000180: b287 dabd 4b24 163f 7fa7 97bf 6ac4 fe3e
00000190: e970 863f d0b8 bebf deb6 0ebf b03f e03e
000001a0: 1463 3ebf d9c5 1cbf 3c9c 1cbf 87b2 333c
000001b0: 3284 653d 711b 0a3e 1f8d 8cbe da03 13bd
000001c0: fc5f 00bc b9a3 08bc 6432 ce3d c2d2 6abe
000001d0: 7442 bbbe 15a4 1fbc 8c3f 0abe 2ae5 3a3e
000001e0: 6b57 b03c 0970 a2bd 2025 55bd 37e8 bf3d
000001f0: 49ee 37bf 6f1d a3bf dff7 523e 245d 43be
00000200: 089f 85be a831 13be dca2 b13e 3426 393f
00000210: 2d5c dcbf ddf7 a9be 6de3 c7be 1847 6abf
00000220: 58d1 55be f72f 64be 3aee 07bf 4264 223e
00000230: a73a 683c f8af 313e bb4c 623d ee9c ffbd
00000240: 4d22 38be 22a0 903d dd21 cdbc 23e3 0e3e
00000250: dccf 04bc 5f28 493e e500 38bd dde3 9dbd
00000260: d98d 083e c821 9f3d e2b3 8abd 0065 c2bc
00000270: 36f8 e83e 51b6 513f 41ea 423e fba3 86bb
00000280: 6e6b 373f 394f de3e 2cc4 3dbd 2fd9 1f3f
00000290: 2a17 443f 1fdb 8cbe b806 063f 743e 423f
000002a0: 5f02 d83d 532d a4bd b530 5d3d 0104 17be
000002b0: b1e8 45bd 772c db39 37e3 7dbe 1202 3dbd
000002c0: 6ce7 52bc fe87 91bd 46d2 5ebd fb7c 1ebd
000002d0: 406e f7bd 26fa aabc 4918 96bb 244b eebd
000002e0: c8d7 073e beae 03bd ffd4 533e 754a 053e
000002f0: d923 3abf fe04 ef3e a5c1 d6bb db0b 26bf
00000300: dbcf c83e 1902 833f 125f a6bd 3985 4a3f
00000310: 3b5c 01be 3869 213d 3fb2 85be 19e1 23be
00000320: d063 23bf 8f12 e53d ae90 0fbe 541a 363d
00000330: 8e85 62bd b9eb 873e 81a9 fb3d 126b 24be
00000340: 3178 aabe 9c5f 76be 74dc 43bc f7a7 2cbf
00000350: 2352 a1be 7c2c 45be 9aa6 3b3e e94f 123e
00000360: 237e a2bd 5bce 2abf 971e 83be 415b e43d
00000370: 78b7 903e 113b 34bf 5d3b 42bf 6d7e 933e
00000380: 6030 f33e a1a5 b3bf cd25 b5be df95 13bf
00000390: efd4 87bf 6b06 6ebf 0e10 96be 9600 c8be
000003a0: a25e 09bd d92f 7f3e 28cd 993e e71b 3dbe
000003b0: 92ae dbbd c859 ae3d d8db db3b 066e 333e
000003c0: 5c20 ac3c 28e0 1ebe 54ba 1b3e ef56 6bbc
000003d0: b65b fe3c 2b30 73bc 5c88 8dbe 1eda 813e
000003e0: e13b 92be 48d6 5a3f c1e8 02be 0e1c 213d
000003f0: c53e 483e 0fa0 b3bd c430 5bbd 3588 a33e
-0.36196727 0.14307706 -0.05361303 -0.47495696 -0.16139022 -1.3127778 0.13579996 -0.03734166
-0.01700519 -0.43790203 0.69711494 -1.8401682 -0.6122699 -0.4589405 -1.6074458 -0.10995365
-0.1932074 0.37309748 -0.24509314 0.125542 0.14335443 -0.06792635 0.06625365 -0.39409232
-0.118624486 0.014753853 0.11487173 -0.0498269 0.24670944 -0.12377315 -0.1635173 -0.33070856
-0.17952743 -0.57764125 0.660986 0.36297232 -0.31535482 0.17571117 -1.0725873 -0.02276961
0.18394512 0.43287966 -0.48031992 -0.1459547 -0.6785494 0.1799433 -0.008464478 0.04203663
0.10787361 0.50021136 -0.53382754 0.010117044 -0.006697482 0.17418016 -0.031346492 -0.04112854
0.1796976 -0.036609266 0.0075818724 -0.1902801 0.106847525 0.29187307 0.06988497 0.7340734
-0.32716832 0.12976794 0.019876296 0.0721455 0.08045044 -0.651553 -1.0904939 0.24530181
0.2069338 0.23391236 0.09373656 -1.1993097 -0.7565048 -0.1757652 -0.092323735 -0.2756091
0.083716474 0.0237806 -0.36631683 0.13248242 -0.1114539 0.2893831 0.021825608 -0.22176015
0.04221191 0.2748642 -0.005209441 0.26026112 0.03241359 -0.4308833 0.7155653 -0.2496963
-0.10670413 0.5864913 -1.1847991 0.49759227 1.0503207 -1.490015 -0.55747783 0.4379859
-0.7436993 -0.6123939 -0.61175895 0.010967857 0.056034274 0.1348703 -0.27451417 -0.035892345
-0.007835384 -0.008339816 0.10068205 -0.2293196 -0.36574137 -0.00974371 -0.13500804 0.18251482
0.02152606 -0.07931525 -0.05203736 0.09370463 -0.7184797 -1.2743357 0.20602368 -0.19078499
-0.26097894 -0.14374411 0.34694564 0.7232392 -1.721563 -0.33196917 -0.390407 -0.9151473
-0.2088064 -0.22283922 -0.5309788 0.15858558 0.01417414 0.17352283 0.055248957 -0.12481104
-0.17981835 0.07061793 -0.025040561 0.13953833 -0.008106198 0.19644307 -0.044922728 -0.07709477
0.1333536 0.07770115 -0.06772591 -0.023729801 0.4550187 0.8191882 0.19034673 -0.0041089035
0.716483 0.43419817 -0.046329662 0.6244077 0.76597846 -0.27510926 0.52354 0.75876546
0.10547327 -0.080164574 0.05400153 -0.14747621 -0.048317615 0.00041804064 -0.24793707 -0.046144553
-0.012872558 -0.071060166 -0.05439975 -0.03869341 -0.120815754 -0.020871233 -0.0045805317 -0.11635426
0.13265908 -0.03214907 0.2068672 0.13016684 -0.7271095 0.46683496 -0.006553846 -0.6486184
0.3922108 1.0235015 -0.08123602 0.7910953 -0.1263284 0.039406985 -0.26112553 -0.16003837
-0.63824177 0.111851804 -0.14020035 0.044458702 -0.05530315 0.2654703 0.1228819 -0.16056469
-0.33294824 -0.2405991 -0.011954416 -0.67443794 -0.31507978 -0.1925525 0.18325272 0.14288296
-0.07934215 -0.66721123 -0.25609276 0.11150218 0.28264976 -0.7040263 -0.7587183 0.28807393
0.47497845 -1.4034921 -0.35380402 -0.5765056 -1.0611857 -0.92978543 -0.29309124 -0.39062947
-0.033537515 0.24920596 0.30039334 -0.18467675 -0.10726656 0.08513218 0.006709557 0.1752244
0.021011524 -0.15515196 0.15207797 -0.014363988 0.03104959 -0.014843027 -0.27643096 0.25361723
-0.2856131 0.8548322 -0.12784101 0.039333396 0.19555195 -0.08770763 -0.053513303 0.31939855

fc1.bias f4 [128]
00000000: 919e a3be f4b9 9fbe 6955 4ebf 87b8 98bd
00000010: b143 dcbe 93fe 27bf 95d8 6ebf bb78 93be
00000020: deb1 bebe b775 ff3d 88b4 76be 3ce5 29be
00000030: 8e32 49be 59c3 0fbf 2b0a 32bf 11f3 16bf
00000040: 9f36 d0bf e347 bebd af9c 52bf 8562 793d
00000050: 1af8 783d cec0 81be 87ab 453e 7825 12bd
00000060: 4dd4 c0bf 78ad b4bf 03d1 02bf c3d7 a3bf
00000070: 9a33 2dbf 3c86 e5bc c2ba bebf 3a26 04be
00000080: c774 a33f 2aa2 9ebe c282 483e a1f7 bcbf
00000090: 18d0 bdbe 2de6 43bf 8d26 3bbf b8a6 85be
000000a0: 5569 57be 9489 8bbe b7d3 4cbf f707 23bf
000000b0: f2ed c9be 704e 773f 0775 82bf 6030 803c
000000c0: 1fdf 0fbf 7e34 38bf dacb b3bd 0963 cd3d
000000d0: f2a2 c5bd 4747 d7be 614f 6cbe 2b6e adbe
000000e0: 6c6b 8e3e 8c03 3ebe 52ac 463f 6d3d a8be
000000f0: c1b9 9ebb 017e 28bf 135a b0be e084 afbb
00000100: 2a8b 4dbf 344c f5be b73d 60be 390d 90bf
00000110: 025b 66bf cc5e edbd ea2d 853f b260 b3be
00000120: c343 f83e a90c a2be 74dc dbbe fd0c 22bf
00000130: d256 b2bf c3b9 8dbf ae77 fabd 8ab5 71bd
00000140: 4308 e0be 7b89 943f 2461 89be bcb4 8ebf
00000150: 30c7 c7be 5846 76bf 1b72 70be bffb 34bf
00000160: c39d 2dbe 5f22 41bf 24de ffbe f561 2dbe
00000170: b296 7fbe 2f33 2dbf 2ed2 9e3f e4f7 2abf
00000180: b9c4 893f feec 54be 19fe c9be af27 b5be
00000190: 18ff e3be fcdf dd3d 1958 f8be 10b6 02bf
000001a0: 57d0 13bf 8a81 b9bc cf23 9bbe df4d 81be
000001b0: 6bc9 a2be b334 97be a5c4 d3be 6a0a 89be
000001c0: 38e3 29bf 4205 d3be cf69 cebe 0fcd 57bf
000001d0: 6a81 53bf 3c3e ebbd 0c21 92bf 34d5 36bf
000001e0: c858 2ebf 35f8 3ebf 4e7a 1c3f 8cc9 16bf
000001f0: afb6 2cbf 7357 0e3e 4528 7e3f e209 00bf
-0.31956914 -0.31196558 -0.80599076 -0.07457071 -0.43020394 -0.65622824 -0.9329923 -0.28803048
-0.37245077 0.12473624 -0.24092305 -0.16591352 -0.19648191 -0.5615745 -0.69546765 -0.5896464
-1.6266669 -0.09291055 -0.8227033 0.06088497 0.060783483 -0.2534241 0.19303714 -0.035680264
-1.5064789 -1.4115438 -0.51100177 -1.280022 -0.6765686 -0.02801811 -1.4900744 -0.12905207
1.2770013 -0.30983096 0.1958113 -1.476307 -0.37072825 -0.76523095 -0.731057 -0.2610376
-0.21036275 -0.272534 -0.8001055 -0.6368403 -0.3943935 0.9660406 -1.0191964 0.015648067
-0.5619983 -0.71955097 -0.08779116 0.10028655 -0.0965022 -0.42046568 -0.23077156 -0.33873114
0.2781633 -0.1855604 0.7760669 -0.32859364 -0.004843921 -0.65817267 -0.3444372 -0.005356416
-0.8029047 -0.479097 -0.21898542 -1.1254035 -0.89982617 -0.11590347 1.0404637 -0.3503471
0.48489198 -0.31650284 -0.4294163 -0.6330107 -1.3932745 -1.1072315 -0.12229858 -0.05901102
-0.43756303 1.1604456 -0.26831925 -1.1148906 -0.39019156 -0.96201086 -0.23481028 -0.70696634
-0.16954713 -0.7544307 -0.49974167 -0.16931899 -0.2495983 -0.67656225 1.2407892 -0.667845
1.076316 -0.2079353 -0.39451674 -0.3538184 -0.4453056 0.10833737 -0.48504713 -0.51059055
-0.57739776 -0.022644777 -0.30300757 -0.25254723 -0.31794295 -0.29532394 -0.41360965 -0.26765758
-0.66362333 -0.4121495 -0.403151 -0.8429727 -0.82619345 -0.1148648 -1.1416335 -0.7141907
-0.6810422 -0.74597484 0.6112412 -0.58901286 -0.67466253 0.13900547 0.99280196 -0.5001508

fc2.weight f4 [128, 128]
00000000: 74cd 0fbe 5a14 143c fc5d 3abf 9b49 b6be
00000010: fe93 4f3e f240 dfbd 9b3e 7fbf a2aa f63e
00000020: f905 2ebf dc6d 2e3e 5b7d 43be 7235 153e
00000030: ed52 a2bd a991 483e 3773 16bf f5d0 5d3e
00000040: fa22 68bf 7842 cd3e 0b56 9d3e a2e9 0d3e
00000050: d8b0 d0be bfc9 a4bd cc73 a63e 18e1 c7be
00000060: af6c 33be fe85 c43e 048b 09be e898 a1be
00000070: d692 07be ee4f d2be 1b2d d1bd 2266 a9be
00000080: 3a26 ffbe 89ae b2be 581d 5cbe e457 07bc
00000090: ec81 d5be 1f83 683e dc72 ccbe 03b0 503e
000000a0: 353c 3ebd 9df6 26bc 5ca0 a9bd 38c3 26bd
000000b0: f97a 023e 2365 1dbe b0d9 b5bd a187 5dbf
000000c0: 0504 b8bc fb04 06bf c6f9 d8bd 373d 4f3f
000000d0: e581 1bbd 0c95 92bd a15a 253e 6a92 c6be
000000e0: 9a51 12bf e3a2 a3be b8b0 82be fabd 073e
000000f0: c634 c13e 6e02 3f3e 4a40 023e cbb6 a1be
00000100: 6391 16be a32b 54bf 88b3 893e 75ed 19be
00000110: 4012 2b3d 94f3 0a3f 140d 243e 1a10 26bf
00000120: 15e2 24bd 9776 3d3b 8b22 8dbe 2983 c5be
00000130: 2346 f03d c161 8abd 6131 b83e 482b 5abd
00000140: 4569 3dbf 7306 8dbf e356 d03e ee96 513d
00000150: 51a4 8fbe 6ba6 0bbf 0e90 9e3d 3687 c3be
00000160: cf2d aa3d 3154 963e 0e30 143e 59cb febe
00000170: 2513 c2be fa80 d3bc be49 84be 354d 59be
00000180: 688e 8bbe 9c7c 71be 1ce8 33be b421 213e
00000190: a7e5 7ebf 875f 9cbe 5968 743e f7b9 15be
000001a0: b402 bbbe 3005 8ebe cf3e b8be 71d0 8f3e
000001b0: 58e9 873e da2c 433c b2a2 e7be bb8e abbd
000001c0: ab4a 013f 330f 81be 5db4 9c3e 9414 1e3e
000001d0: 6f42 0cbe 9250 ff3d 97cb c2bd a5f8 903d
000001e0: ca9d 933e a636 b73d 9fed 333c 2485 e53e
000001f0: 583e 4a3e 68f6 c0bd d960 f3be 69c5 5dbc
00000200: e7eb 88bd f2e7 2abf 8c64 ebbe abe3 b5be
00000210: aafe b5ba 5b77 55be f133 433d 5f0c 37bf
00000220: cbbb a6bc 2a88 463d 9a3b 99bd 6b54 6cbe
00000230: e6ae fcbe f334 34bf 68ce c93d d0d0 f9bd
00000240: d70d 8a3d 5fb0 e2be d0fa 013d 5753 03bf
00000250: 2557 d6be 45ff fbbe 98aa 98bd c28d 0fbf
00000260: 0d8b 4bbe 4176 3fbe 92f1 2bbe c9ea 20be
00000270: e361 03bf 5e41 2dbe f9ab 1ebe c4a1 1a3e
00000280: a53e ccbe afca b9be 56e7 c0be c589 c3be
00000290: efb3 1cbf 0126 3c3e 45a2 69bf b71e 3dbf
000002a0: afc0 333e 9911 dcbd 21cb 103d 497e fcbe
000002b0: f200 a6be f9ec 39bd 2a7a 723d 65c3 7c3e
000002c0: a2b2 403e a08e 73be 647b 383b 4111 30be
000002d0: 57e4 29bf dc8d 83be 7fe2 21be e2cc 6e3e
000002e0: 99e8 4cbe a9e5 a6be 3582 39be 7d05 a8bc
000002f0: 2791 573b 8b51 e6bd fd38 ea3d 1c19 b3bc
00000300: 27da 0dbf aa9d 67bd ceee b6be 2807 123d
00000310: 3bb4 8abe 4ec0 b3bd 31d4 72bd c6a9 4cbe
00000320: 0225 773e d880 2abe 12e3 d9bd 8077 18bf
00000330: 38f9 24be d905 0abe b0e6 08bf 6002 bd3d
00000340: 0d12 0a3d 7ba1 3f3d 9aba 8ebe f145 abbe
00000350: 1174 73be d3ff 92bd ea54 55be 950d 10be
00000360: ee86 edbe 3777 7a3e 9ae2 a9bd ef47 76be
00000370: 8c79 94bd 8e13 ec3d 129b 17be 6697 b8bd
00000380: b75b 9fbe b2a1 5ebe 8e5b 4fbe d3b2 0cbe
00000390: 35ce e1be e7d6 3c3d 3466 8b3e 4619 a5be
000003a0: d0e8 293d d800 77be 5ec7 183e 9794 96bc
000003b0: 0352 7dbe 5e4b a63c 5b1f d13d ec9e 3dbd
000003c0: d5fd f0be ba48 71bc 4dad dcbd 0bce 46be
000003d0: fabb 14bf 9c9a 89be 71b6 3dbe 913a 4ebe
000003e0: 13b6 d33c 5d83 18be 649c 22be 2684 a93c
000003f0: 3123 d0bb 1943 cbbe 3ede 2dbe 64ca 6f3d
-0.14043218 0.009038055 -0.7279966 -0.35603032 0.20271298 -0.10901059 -0.99704903 0.48177058
-0.67977864 0.17034096 -0.19090788 0.14571169 -0.07925973 0.19586815 -0.58769554 0.21661742
-0.9067837 0.40089774 0.30729708 0.13858655 -0.4075992 -0.080462925 0.3251022 -0.3903892
-0.17521928 0.38383478 -0.13431937 -0.3156197 -0.13239607 -0.41076607 -0.10213681 -0.33085734
-0.49833852 -0.34898785 -0.21495569 -0.008260701 -0.41700685 0.22706269 -0.3993138 0.20379643
-0.046444137 -0.010190633 -0.08282539 -0.04071352 0.12742223 -0.15370612 -0.08879411 -0.8653508
-0.022462854 -0.5235135 -0.105945155 0.8095278 -0.037965674 -0.07157335 0.16147853 -0.3878358
-0.57155764 -0.3196021 -0.2552545 0.13256064 0.37735575 0.1865327 0.12719837 -0.31584772
-0.14703898 -0.82879084 0.26894784 -0.15031989 0.04176545 0.5427792 0.16020614 -0.6486832
-0.04025467 0.0028909796 -0.27565417 -0.3857663 0.117321275 -0.06756926 0.35975173 -0.053263932
-0.73988754 -1.1017593 0.4069129 0.05116933 -0.2805505 -0.5455081 0.0774232 -0.38189095
0.083095185 0.29361108 0.14471456 -0.49764517 -0.3790523 -0.025818337 -0.2583751 -0.21220858
-0.27257085 -0.23582691 -0.17569011 0.15735513 -0.9956917 -0.30541632 0.2386793 -0.14621721
-0.365255 -0.27738333 -0.3598542 0.28088716 0.26545215 0.011912549 -0.45241314 -0.08376833
0.5050456 -0.2520691 0.30606356 0.15437537 -0.13697217 0.124665394 -0.09511488 0.07078675
0.2883132 0.0894597 0.010981946 0.4482814 0.19750345 -0.09421998 -0.47534826 -0.013535836
-0.0668562 -0.6676017 -0.4597515 -0.3552526 -0.00138851 -0.20846312 0.047656957 -0.7150325
-0.020353219 0.0484697 -0.07482071 -0.23079078 -0.49352187 -0.70393294 0.09853822 -0.12198031
0.06740921 -0.44275185 0.031733334 -0.5129904 -0.4186336 -0.49218193 -0.07454413 -0.5607568
-0.19877262 -0.18697454 -0.1679137 -0.15714563 -0.5132124 -0.16919467 -0.1549529 0.15100771
-0.39891544 -0.36287448 -0.37676495 -0.38191047 -0.61212057 0.18373872 -0.9126323 -0.7387499
0.17553972 -0.10745544 0.03534997 -0.49315098 -0.32422596 -0.04539201 0.059198536 0.24683912
0.18818143 -0.23784876 0.0028149718 -0.17194082 -0.66364044 -0.25694168 -0.15809058 0.23320344
-0.20010604 -0.32597092 -0.18116076 -0.02051043 0.0032892914 -0.11246022 0.11436651 -0.021862559
-0.55411 -0.056546845 -0.3572907 0.035651356 -0.2709063 -0.087769136 -0.059284393 -0.19986638
0.24135211 -0.16650712 -0.10639013 -0.5955734 -0.16110694 -0.13478793 -0.53477 0.092289686
0.03370862 0.04678486 -0.2787674 -0.334518 -0.23774745 -0.07177701 -0.20833173 -0.14067681
-0.46392006 0.2445954 -0.08295174 -0.24050878 -0.07249746 0.11527167 -0.14805248 -0.09013252
-0.3112466 -0.2174137 -0.20249769 -0.13740091 -0.44102636 0.046103384 0.27226412 -0.32245845
0.041481793 -0.24121416 0.14919803 -0.0183814 -0.24738316 0.02029961 0.10211059 -0.046294138
-0.47068658 -0.014726812 -0.10775242 -0.19414537 -0.5809933 -0.2687577 -0.18526627 -0.20139529
0.025843656 -0.14893861 -0.15879971 0.020692896 -0.0063518514 -0.3969963 -0.1697931 0.058542624

fc2.bias f4 [128]
00000000: 21e5 2bbe 8c58 46be 1a2b 95be 200d 0dbe
00000010: 932b 28be 80a0 38be f92c 9fbe afdc 4dbe
00000020: b800 f2bd 4cf6 7ebe cd34 f2ba bacf 73be
00000030: 8c02 e2bd 9423 66be 50a2 bbbe be67 373e
00000040: dae2 e2be 8401 06bf 71a6 5bbe 92c3 36bf
00000050: 7fbb 13be b802 2abf 101f 4abe 905d b5be
00000060: 3494 c43e 371b f5bb 399b 61be 006a 4cbe
00000070: c016 25be b27e 45bf 59b9 7bbe 1c33 57be
00000080: e609 34be 63c4 26bf c43f 9fbe 1cd1 2abf
00000090: 415e 1cbe 5a00 03bf bb7f 61be 62f7 77be
000000a0: d7d7 36bf 3a3d 55be ffaf 3ebf 27fc 48bf
000000b0: 9709 95bd 4bdf 94be 20c6 043f d3a1 2bbd
000000c0: e37a eebe 5886 e0be 5c49 21bf 93a0 d0be
000000d0: b15c 18bf c12e 41be f878 573e c02e a6be
000000e0: d8ba 3dbe 7150 91be b2a6 07be a1c5 37bf
000000f0: b4aa 20be c7d4 8abd 9bb1 94be 9d63 49be
00000100: af53 96bd 681a 33be ffa2 98be 6327 333d
00000110: d61b 3fbe c76c c8be f5b2 7dbe 1134 2abe
00000120: 27e7 1ebd c39f 2ebd b900 82bf 6d50 36be
00000130: 1065 15be d2fd 12be 548c 53be e8c9 49be
00000140: 8366 88be 3984 fdbe c379 d0bd 0c36 9fbe
00000150: 49fc 81be e692 14bf 1dd6 d9bd 300c 4abd
00000160: a624 86bd 0eb0 46bf 59f7 12bf 4ae4 18bf
00000170: e8e3 7bbe 5204 0bbe 0cdf f6be 0b39 6dbf
00000180: 9e8b 1cbf 793d 41bf 848f 08bf 3709 96be
00000190: 187f 36bf 317f d1be afb5 e5be e786 f2be
000001a0: c306 24be 4507 24be 2a96 8fbe 48a7 a1be
000001b0: aad4 3bbe e0f7 c0bd b82f f2be cd65 efbe
000001c0: 5f5b 98be a2c0 82be 538e 95be 418e 4cbd
000001d0: 12dd c43c 6492 52bf c47a 5cbe 58b9 3fbe
000001e0: 15d9 1fbf 4fab f9be 36ea 6ebf 460c 46bf
000001f0: bb37 5ebe eb6d eabd eca4 d9bd 6355 80be
-0.16786624 -0.19369715 -0.29134446 -0.13774538 -0.16422872 -0.18029976 -0.31089 -0.20103715
-0.11816543 -0.24898642 -0.0018478871 -0.2380971 -0.11035642 -0.2247451 -0.36647272 0.17910668
-0.443137 -0.5234606 -0.21450211 -0.71392167 -0.14426993 -0.664104 -0.19738412 -0.35422945
0.3839432 -0.007480051 -0.22031869 -0.19962311 -0.1612196 -0.77146447 -0.24582423 -0.2101559
-0.17581901 -0.6514341 -0.31103337 -0.66725326 -0.1527033 -0.5117241 -0.22021382 -0.24215463
-0.71423095 -0.20824137 -0.744873 -0.78509754 -0.0727722 -0.2907661 0.51864815 -0.041902374
-0.4657813 -0.43852496 -0.6300256 -0.40747508 -0.59516436 -0.18865491 0.2104224 -0.32457542
-0.18528306 -0.28381684 -0.13247183 -0.7178593 -0.15690118 -0.06778865 -0.29041752 -0.19666906
-0.0734018 -0.17490542 -0.29811856 0.043738734 -0.18662962 -0.3914549 -0.24775298 -0.16621424
-0.038794663 -0.04263283 -1.015647 -0.17804118 -0.14589334 -0.14354637 -0.20659 -0.19705927
-0.2664071 -0.4951494 -0.10179474 -0.31095922 -0.2538779 -0.5803665 -0.10636542 -0.04932803
-0.06549959 -0.7761239 -0.5740867 -0.5972334 -0.24598658 -0.13575867 -0.48217046 -0.92665166
-0.6115054 -0.75484425 -0.5334399 -0.29303905 -0.7128768 -0.40917352 -0.44865176 -0.47368547
-0.16018204 -0.16018398 -0.28044254 -0.31572938 -0.18342844 -0.094222784 -0.47302032 -0.46757355
-0.2975721 -0.25537592 -0.29210147 -0.04994035 0.024031196 -0.82254624 -0.21531206 -0.18723047
-0.62440616 -0.4876351 -0.9332613 -0.7736248 -0.21700947 -0.114467464 -0.106271595 -0.25065145

fc3.weight f4 [1, 128]
00000000: eb2a abba e126 77be 1ccc 4e3c 0a5f 18bf
00000010: 7e48 cebe 5395 96be a433 b4be 5fdb 1ebd
00000020: 779a 67be 0e2c 6d3c 213b 5abc 3f90 abbc
00000030: 0850 883d bdb7 6ebe 5855 aabb d1ab 3cbc
00000040: 7763 1e3d f54a 6b3c 9808 64bb 6736 743d
00000050: 255d cbbe 1d21 b83c 1ec3 a9be ed70 a5bb
00000060: 5725 7a3c 5ff9 cbbc d05a 94bb 1619 ecbe
00000070: 844b dbbc c31d 233d cffb 32bc b82e 15bf
00000080: 8edf 58bb 93c6 163d 4bd9 72bd 9fea b03c
00000090: e4fc 91bc 3691 443c e2f3 8ebc 82c5 893b
000000a0: 44ce 0a3a f950 c8be fea3 04bc 9f0a b53a
000000b0: c287 1b3d 45f8 fc3c fd32 f33d e5a6 20bc
000000c0: 9e5f f9ba 4b8d 0c3c 45d9 12bd e12b b9ba
000000d0: 5c4c 853b d017 1ebf 75a2 74bd daa4 593b
000000e0: 72f4 c6be eb9c b0be c183 c6be 6378 713d
000000f0: 90e9 75be 9b7e 0fbb 647e 21be 964c 57be
00000100: c141 33bb ceac eebe e880 16bf b12e bfbc
00000110: 8256 bebb 260c aa3c 3528 8dba 7b46 5dbe
00000120: 6fef 233d dcd0 38bc 8356 87bc 0eca 8abe
00000130: 1966 98bc ffb5 53bc d8f9 603c 8a59 70bd
00000140: dde3 173d e0c5 9dbc 1fd9 dbbc 99f0 763d
00000150: 511f d1be 836e 243d c440 a1be 9f66 483c
00000160: c6c9 703b e4bc 963a 086a 2e3c 5b4e aa3c
00000170: eaf7 2c3d 4cf5 d2be 587a f43b d142 61bc
00000180: 3a34 923c a7f3 2cbc eee2 393d befe e6bb
00000190: 8526 2dbb 6ba4 d7bc b796 6a3c d27d 61ba
000001a0: 75c9 bdbe 51bf a0be 4f22 bfbe 84b8 983c
000001b0: cb43 193d e6a2 d5be 95bb 19bd 3df0 3abc
000001c0: 6b0f d33c be1e bebe 069d 6cbc b056 98bd
000001d0: 832b f7bb bea8 1fbc 79e8 52be a16f f1be
000001e0: 9308 f53c 9d53 83bd 6232 64ba e139 953c
000001f0: 7b0c 08bc 3612 933c 8eb4 123d 9533 0cbf
-0.0013059055 -0.24135925 0.012621906 -0.5952002 -0.40289682 -0.294108 -0.3519565 -0.038783427
-0.22617517 0.0144758355 -0.0133197615 -0.020942805 0.0665589 -0.23312278 -0.005198162 -0.011515574
0.038669076 0.014361133 -0.0034795161 0.059622195 -0.397195 0.022476727 -0.33156675 -0.005048862
0.015267692 -0.024899183 -0.0045274273 -0.4611289 -0.026769407 0.039823305 -0.010924294 -0.5827441
-0.0033092233 0.03681047 -0.059289258 0.021596251 -0.017820783 0.011997512 -0.017450277 0.004204453
0.0005295018 -0.39124277 -0.008095739 0.001381237 0.037971266 0.030880103 0.118749596 -0.009805416
-0.0019025689 0.008578609 -0.035851736 -0.0014127457 0.0040679406 -0.61755085 -0.059725244 0.0033209831
-0.38858372 -0.3449472 -0.38772395 0.0589527 -0.24014878 -0.002189553 -0.1577087 -0.21025309
-0.0027352425 -0.46616215 -0.58790445 -0.023337694 -0.0058086524 0.020757746 -0.0010769429 -0.21608917
0.040023264 -0.011280265 -0.016520744 -0.2710728 -0.018603371 -0.012921809 0.013731442 -0.05867914
0.03708254 -0.019259393 -0.02683693 0.060288046 -0.40844205 0.040144455 -0.31494725 0.012231498
0.003674136 0.0011500386 0.010645397 0.020789316 0.042228617 -0.41202772 0.0074608736 -0.01374884
0.01784717 -0.010556138 0.045382433 -0.0070494106 -0.0026420665 -0.026323518 0.01431816 -0.00086018175
-0.37067762 -0.31395963 -0.37330863 0.018642671 0.037418168 -0.41725844 -0.037532408 -0.011409816
0.025764188 -0.3713283 -0.014441734 -0.07438409 -0.007543029 -0.009744821 -0.20596494 -0.4715548
0.029911315 -0.06412432 -0.00087050174 0.018216075 -0.008303757 0.01795302 0.03581672 -0.5476621
