puppersim/dc_saves/aac_slow_straight_efficient_0/critic2_21.pt (torch, 84759 bytes, 5 tensors)

fc1.weight f4 [128, 31]
-0.02168261 0.0391244 -0.43174407 0.007922881 -0.7454774 -1.0270008 0.41653606 0.38962698
-0.08043968 0.14741288 0.8272994 -1.2967935 0.13698705 -0.051117912 -0.99645907 -0.0710484
-0.30524507 -0.18310398 -0.030746838 -0.06161285 -0.04979579 -0.4219258 -0.1691686 -0.3720305
0.19521172 0.0245356 0.00039248078 -0.19481334 -0.17303751 0.000572441 -0.32805884 -0.36171225
-0.19559465 -0.71890986 0.67778504 0.47775805 -0.29248273 0.23872894 -1.065744 0.08196449
0.18583563 0.440124 -0.5538128 -0.08936148 -0.48405156 0.23561627 -0.002501314 -0.0115110455
0.23800892 0.51450026 -0.45573208 -0.17680348 0.13167891 0.15743332 -0.1781801 -0.0012261488
0.14516044 0.100416936 0.0150255 -0.2287852 0.069400534 0.14855039 -0.08387966 0.30578762
-0.3031487 0.16252667 -0.09884821 0.16870692 -0.100198336 -0.8283951 -1.2052978 0.15827484
-0.077446856 0.22054419 0.12259474 -1.0144362 -0.5467854 -0.1276296 -0.089163855 -0.012199592
-0.13000625 -0.0691913 -0.22573078 0.017268362 -0.12542947 0.15095513 0.011849369 -0.09105799
-0.027026564 0.23524854 0.23040663 0.0009819999 0.13780022 0.061082315 -0.40115222 -1.3022642
0.01087704 1.0992173 -1.2493842 1.1464859 -1.1010399 -0.8696506 -0.10350691 0.92575055
-0.20164214 0.19129464 -0.34177732 0.11838896 0.30620196 0.47152486 0.292177 0.06797801
0.021898704 -0.29043108 0.29273197 0.563073 -0.16483875 0.16945721 -0.21033426 0.30930185
0.07483824 -0.02270156 -0.39428082 -0.36184794 -0.70233876 -0.9188037 0.32434237 -0.13474505
-0.6611913 -0.17940001 0.25725463 0.5455631 -1.6803865 -0.7901572 -0.1867307 -2.20263
-0.6676906 -0.680776 -1.1215955 -0.1293851 -0.1020699 -0.17032649 0.072891966 -0.0001657255
-0.051565867 0.028294114 0.059388574 0.28290612 -0.05763156 0.020126272 -0.08336023 0.6859576
0.042460877 0.1520774 -0.31275493 -0.026516564 0.39377233 0.8228348 0.19972546 0.0023485161
0.6985415 0.4420084 -0.15242864 0.6163108 0.73747283 -0.4239627 0.50690657 0.7864206
0.15428995 -0.06434862 0.061844025 -0.14859591 -0.0478234 -0.01839502 -0.2068306 -0.027506668
-0.0590385 -0.0643374 -0.09504349 0.0035067112 -0.087992355 -0.034619514 0.005305483 -0.10381422
0.22598623 -0.024547238 0.30373093 -0.62529725 -0.49854407 0.14328466 -1.4171289 -1.0859478
0.2195206 0.9901411 -0.98095554 0.8045517 -0.27946964 -0.72792405 0.09490541 -0.41820765
-1.6021558 -0.48566362 -0.2094917 0.3212003 -0.15486029 0.044757444 0.5732636 -0.21898417
0.3626646 0.2903113 -0.030114634 0.70160735 -0.46440145 -0.4498069 -0.6796595 -0.1815552
0.80451876 -0.10001883 -0.116919875 -0.26420385 0.51825744 -0.090695776 -0.50150675 0.5666614
0.4561283 -0.51949877 0.27151605 0.77800703 -0.23614463 -0.041371956 -0.22168152 -0.1627523
-0.42058814 -0.034597356 -0.13038915 0.08359449 -0.15891372 0.17764054 -0.046432424 -0.47928587
-0.1086513 -0.119254105 0.2408026 0.047516763 -0.0537461 0.2677155 -0.2851956 0.30635634
-0.91865194 -0.39740708 0.03210385 0.10774328 0.7255741 -0.3242946 -0.09964422 1.3926514
00000000: bb9f b1bc e840 203d 8f0d ddbe f9ce 013c
00000010: 9bd7 3ebf c374 83bf 3744 d53e 307d c73e
00000020: 8fbd a4bd 67f3 163e e5c9 533f 54fd a5bf
00000030: 5546 0c3e 0461 51bd f117 7fbf d381 91bd
00000040: 1549 9cbe 9c7f 3bbe cbe0 fbbc c15d 7cbd
00000050: acf6 4bbd a906 d8be 893a 2dbe c87a bebe
00000060: 95e5 473e e2fe c83c e1c5 cd39 267d 47be
00000070: bf30 31be dd0f 163a 54f7 a7be 5932 b9be
00000080: f749 48be 7a0a 38bf 5283 2d3f b49c f43e
00000090: 4cc0 95be 5c75 743e 4d6a 88bf 00dd a73d
000000a0: b24b 3e3e ef57 e13e adc6 0dbf 2703 b7bd
000000b0: 9bd5 f7be 6445 713e 16ed 23bb d398 3cbc
000000c0: 9cb8 733e 4ab6 033f b755 e9be f90b 35be
000000d0: d6d6 063e 3336 213e d874 36be bab6 a0ba
000000e0: f0a4 143e 65a7 cd3d 842d 763c ab46 6abe
000000f0: de21 8e3d 981d 183e 19c9 abbd 3290 9c3e
00000100: 4e36 9bbe 646d 263e ee70 cabd 82c1 2c3e
00000110: c934 cdbd b411 54bf 3347 9abf cd12 223e
00000120: 759c 9ebd 56d6 613e f312 fb3d 0cd9 81bf
00000130: 21fa 0bbf 55b1 02be 8a9b b6bd cce0 47bc
00000140: 5c20 05be 2bb4 8dbd f825 67be 6176 8d3c
00000150: 9570 00be fb93 1a3e db23 423c 9d7c babd
00000160: d066 ddbc fee4 703e b7ef 6b3e 73b6 803a
00000170: 801b 0d3e 7331 7a3d d363 cdbe 98b0 a6bf
00000180: 9d35 323c 27b3 8c3f d2eb 9fbf 0dc0 923f
00000190: e0ee 8cbf 6ca1 5ebf 6efb d3bd fdfd 6c3f
000001a0: 477b 4ebe bee2 433e 70fd aebe e975 f23d
000001b0: 81c6 9c3e b56b f13e 3998 953e 0e38 8b3d
000001c0: e964 b33c 62b3 94be f7e0 953e 8d25 103f
000001d0: 7dcb 28be 3186 2d3e dd61 57be d05c 9e3e
000001e0: cb44 993d 9ff8 b9bc 2ddf c9be 2244 b9be
000001f0: 79cc 33bf b836 6bbf 3410 a63e 9bfa 09be
00000200: d543 29bf a3b4 37be e1b6 833e 06aa 0b3f
00000210: e816 d7bf be47 4abf 5536 3fbe e4f7 0cc0
00000220: c5ed 2abf 5647 2ebf 7190 8fbf 877d 04be
00000230: 060a d1bd 116a 2ebe 6248 953d 9ac6 2db9
00000240: bb36 53bd 0fc9 e73c 6f41 733d 12d9 903e
00000250: 120f 6cbd dadf a43c c5b8 aabd eb9a 2f3f
00000260: 75eb 2d3d 2eba 1b3e 6a21 a0be 4439 d9bc
00000270: 879c c93e 4da5 523f d584 4c3e 90e9 193b
00000280: 9ed3 323f ed4e e23e 4116 1cbe 8bc6 1d3f
00000290: 05cb 3c3f a411 d9be a1c4 013f dc52 493f
000002a0: 2ffe 1d3e 36c9 83bd 2950 7d3d 8729 18be
000002b0: 78e2 43bd 27b1 96bc 67cb 53be aa55 e1bc
000002c0: 5bd2 71bd 54c3 83bd 29a6 c2bd dad0 653b
000002d0: 5635 b4bd 31cd 0dbd 9ed9 ad3b 8d9c d4bd
000002e0: ef68 673e 4a17 c9bc 9f82 9b3e 7b13 20bf
000002f0: 2b41 ffbe 37b9 123e 7b64 b5bf 5600 8bbf
00000300: 02ca 603e e379 7d3f e71f 7bbf 1af7 4d3f
00000310: a516 8fbe 3b59 3abf c55d c23d 501f d6be
00000320: 7113 cdbf e7a8 f8be fe84 56be 5e74 a43e
00000330: b293 1ebe 9553 373d 67c1 123f 633d 60be
00000340: 2daf b93e afa3 943e f7b2 f6bc 8a9c 333f
00000350: 07c6 edbe 174d e6be 2afe 2dbf 9be9 39be
00000360: f1f4 4d3f acd6 ccbd b073 efbd ba45 87be
00000370: 85ac 043f b5be b9bd bf62 00bf b910 113f
00000380: a689 e93e dffd 04bf 2704 8b3e 782b 473f
00000390: e6cf 71be a475 29bd 7b00 63be 8aa8 26be
000003a0: 5457 d7be f5b5 0dbd bc84 05be 9733 ab3d
000003b0: 47ba 22be 67e7 353e ed2f 3ebd f564 f5be
000003c0: 9384 debd 7f3b f4bd f594 763e f0a0 423d
000003d0: df24 5cbd 0212 893e 2805 92be bdda 9c3e
000003e0: c62c 6bbf f178 cbbe 547f 033d 82a8 dc3d
000003f0: 39bf 393f f109 a6be 4512 ccbd 6742 b23f

fc1.bias f4 [128]
-0.4945207 -0.3427745 -0.5137483 -0.4196009 -0.3106302 -0.68842554 -0.9275522 -0.46248326
-0.37388802 -0.11922669 -0.23907661 -0.5196304 -0.32732013 -0.2144169 -1.4404382 -0.61590344
-1.2961464 -0.43907952 -0.8416678 -0.36380982 0.12380039 -0.23761234 0.022103507 -0.17478625
-2.0535917 -1.4494398 -0.5987741 -1.1142862 -0.8091033 -1.020316 -0.90173835 -0.027214533
1.4613789 -0.20811582 0.22682762 -1.6482553 -0.30520642 -0.9353232 -0.29005277 -0.48564515
-0.1763511 -0.2371458 -0.671701 -0.17894259 0.11519702 0.8214645 -1.288488 -0.21203852
-1.3083323 -0.30586252 -0.13006909 0.073780484 -0.29834872 -0.614591 -0.22637388 -0.53169376
0.3975591 -0.06718142 -0.013555154 -0.3624248 0.022575434 -1.2991043 -0.40991434 -0.78552705
-0.6960743 -0.19941361 -0.23084092 -1.0089438 0.119353265 -0.10762042 0.900508 -0.1221553
0.9196445 -0.22893573 -0.61564326 -0.54947823 -1.3171203 -1.5405444 -0.20546979 -0.20235327
-0.5188968 1.5346214 -0.2114302 -0.72613275 -0.35010916 -1.0318546 -0.26514488 -0.53171337
-0.2878831 -0.4964405 -0.27148134 -0.4299455 -0.16207542 -0.4339802 1.0787344 -0.5400245
1.5007694 -0.29974294 0.22595192 -0.15607049 -0.17753269 -0.29711208 -0.49966606 -0.4573277
-0.32867095 0.093533695 -0.18601409 -0.71866405 -0.30475867 -0.16844837 -0.3565768 -0.29729146
-0.47366884 -0.2692826 -0.31129554 -0.40465036 -0.7224065 -0.17606172 -1.4565891 -0.49546206
-0.6662479 -0.24043408 0.5734645 -0.49960724 -0.6086164 -0.036978934 0.35408962 -0.5446328
00000000: d131 fdbe 2480 afbe 0285 03bf eed5 d6be
00000010: ec0a 9fbe a83c 30bf 1074 6dbf 9bca ecbe
00000020: 406e bfbe 1f2d f4bd 80d0 74be 7f06 05bf
00000030: 8196 a7be 1b90 5bbe 4760 b8bf d9ab 1dbf
00000040: 20e8 a5bf 08cf e0be 8a77 57bf 4845 babe
00000050: 0f8b fd3d a650 73be 6a12 b53c 2bfb 32be
00000060: 0c6e 03c0 3e87 b9bf 4249 19bf eea0 8ebf
00000070: 6521 4fbf b799 82bf 53d8 66bf 03f1 debc
00000080: 770e bb3f 501c 55be 8045 683e 08fa d2bf
00000090: 0444 9cbe 5771 6fbf cc81 94be 7ba6 f8be
000000a0: 6295 34be 59d6 72be 99f4 2bbf ba3c 37be
000000b0: 6aec eb3d 7f4b 523f 2ded a4bf a020 59be
000000c0: 6f77 a7bf 039a 9cbe d530 05be 391a 973d
000000d0: 2ac1 98be d655 1dbf 8ece 67be 151d 08bf
000000e0: de8c cb3e 6a96 89bd 7016 5ebc be8f b9be
000000f0: 1ef0 b83c 0d49 a6bf 4be0 d1be 4d18 49bf
00000100: ed31 32bf 1533 4cbe 9061 6cbe 1225 81bf
00000110: 7c6f f43d 1868 dcbd b187 663f 8f2c fabd
00000120: d26d 6b3f 216e 6abe cc9a 1dbf 9baa 0cbf
00000130: 6697 a8bf 8f30 c5bf ac66 52be b235 4fbe
00000140: 6cd6 04bf 796e c43f 2981 58be d6e3 39bf
00000150: 8241 b3be d013 84bf 12c1 87be 5e1e 08bf
00000160: 6a65 93be 732d febe 9aff 8abe d121 dcbe
00000170: 19f7 25be a732 debe f813 8a3f 0c3f 0abf
00000180: 3619 c03f e877 99be f15f 673e f1d0 1fbe
00000190: 21cb 35be 131f 98be 3bd4 ffbe db26 eabe
000001a0: 8f47 a8be 988e bf3d 7a7a 3ebe 5efa 37bf
000001b0: 5409 9cbe bb7d 2cbe 3c91 b6be 9636 98be
000001c0: b984 f2be 69df 89be 2162 9fbe 552e cfbe
000001d0: a2ef 38bf 8649 34be 8371 babf 34ad fdbe
000001e0: 398f 2abf 5a34 76be 92ce 123f 85cc ffbe
000001f0: 49ce 1bbf 3977 17bd 3c4b b53e 0e6d 0bbf

fc2.weight f4 [128, 128]
-0.14429091 0.009038055 -0.7279966 -0.58060926 0.105416514 -0.10901059 -1.0232121 0.48446906
-0.7377984 0.023642937 -0.19090788 0.14571169 -0.006366927 0.19586815 -0.45853087 0.21661742
-0.9067837 0.24987982 0.28793964 -0.37033862 -0.4075992 -0.080462925 -0.06311072 -0.3903892
-0.21818742 0.38383478 -0.49931827 -0.31541348 -0.057726618 0.41479287 -0.015012035 -0.33085734
-0.62787366 -0.35640103 -0.21495569 -0.10735714 -0.41681919 0.22706269 -0.42484137 0.20289308
-0.046444137 -0.08225738 -0.08282539 -0.18704852 -0.37570256 -0.51130456 0.16225918 -0.7838501
-0.65840733 -0.571834 -0.105945155 0.8095278 -0.037965674 0.28757304 0.16147853 -0.4930178
-0.6049096 -0.3196021 -0.025037752 0.13256064 0.37735575 0.21969923 0.14058793 -0.23035325
-0.14703898 -0.8426372 0.1279672 -0.1743358 -0.32223147 0.5427792 0.16815907 -0.6486832
-0.2866798 -0.016029136 -0.6206675 -0.4411941 0.117321275 -0.07470199 0.37582117 -0.05017602
-0.73988754 0.2911471 0.26730737 -0.075400054 -0.2805505 -0.5455081 0.01617716 -0.38189095
0.08488321 0.14964437 0.14471456 -0.4565796 -0.36395654 -0.025818337 -0.14027712 -0.19949439
-0.42878655 -0.23523878 -0.33616492 0.0067762304 -0.9956917 -0.39730835 0.2386793 0.23502311
-0.365255 -0.25949606 -0.3598542 0.28088716 -0.06690217 0.011912549 -0.23466155 -0.08376833
0.51154655 -0.25273445 -0.84492207 0.05622753 -0.15073651 0.124665394 0.050412275 0.07078675
0.2883132 -0.36921185 0.15870714 0.12816627 0.19750345 -0.09421998 -0.47411844 -0.019561592
-0.0668562 -0.6676017 -0.4597515 -0.3552526 -0.00138851 -0.20846312 0.047656957 -0.7150325
-0.020353219 0.08856109 -0.07482071 -0.23079078 -0.49352187 -0.70393294 0.13099517 -0.12198031
0.06740921 -0.44275185 0.025951957 -0.5129904 -0.4186336 -0.49218193 -0.07454413 -0.5607568
-0.20564233 -0.18697454 -0.16154289 -0.15714563 -0.51853114 -0.16603401 -0.1188426 0.15100771
-0.41029668 -0.37072188 -0.37676495 -0.38136092 -0.61212057 0.19320229 -0.9126323 -0.7387499
0.17553972 -0.10745544 0.03534997 -0.4916465 -0.32422596 -0.043277133 0.059198536 0.20845523
0.1954336 -0.23784876 0.0049263365 -0.17194082 -0.66364044 -0.2154225 -0.15809058 0.21633072
-0.21958308 -0.32597092 -0.18447109 -0.02051043 0.0032892914 -0.14157736 0.11476143 -0.0116583025
-0.55411 -0.06412947 -0.3572907 0.031027237 -0.2709063 -0.087769136 -0.056087077 -0.19986638
0.20618095 -0.14481698 -0.14599189 -0.5955734 -0.16110694 -0.121060565 -0.53477 0.115118116
0.03370862 0.024432678 -0.2787674 -0.334518 -0.2287024 -0.07177701 -0.20833173 -0.14067681
-0.46392006 0.24410225 -0.08927399 -0.24050878 -0.07249746 0.11527167 -0.11685326 -0.08517471
-0.31588402 -0.2174137 -0.24441548 -0.13883588 -0.44102636 0.046103384 0.27226412 -0.31749207
0.041481793 -0.24121416 0.14919803 -0.01888712 -0.24738316 0.02029961 0.10211059 -0.046294138
-0.47068658 -0.02285195 -0.09129164 -0.18602395 -0.5809933 -0.2687577 -0.18526627 -0.20139529
0.025843656 -0.19479166 -0.18952274 0.020692896 -0.0063518514 -0.3969963 -0.16635567 0.058542624
00000000: ffc0 13be 5a14 143c fc5d 3abf cfa2 14bf
00000010: 9de4 d73d f240 dfbd 9df8 82bf 540c f83e
00000020: 5be0 3cbf d5ae c13c 5b7d 43be 7235 153e
00000030: a8a1 d0bb a991 483e 8fc4 eabe f5d0 5d3e
00000040: fa22 68bf 7fe0 7f3e d36c 933e 069d bdbe
00000050: d8b0 d0be bfc9 a4bd 3140 81bd 18e1 c7be
00000060: 866c 5fbe fe85 c43e a5a6 ffbe e07d a1be
00000070: bf72 6cbd bb5f d43e 0af5 75bc 2266 a9be
00000080: 54bc 20bf 327a b6be 581d 5cbe 0fde dbbd
00000090: 5369 d5be 1f83 683e cf84 d9be 34c3 4f3e
000000a0: 353c 3ebd 8f76 a8bd 5ca0 a9bd a689 3fbe
000000b0: 165c c0be dbe4 02bf 4527 263e 66aa 48bf
000000c0: 628d 28bf b763 12bf c6f9 d8bd 373d 4f3f
000000d0: e581 1bbd c63c 933e a15a 253e d46c fcbe
000000e0: 5bdb 1abf e3a2 a3be f91b cdbc fabd 073e
000000f0: c634 c13e d6f8 603e 48f6 0f3e b9e1 6bbe
00000100: 6391 16be 12b7 57bf d509 033e 1585 32be
00000110: 86fb a4be 94f3 0a3f e431 2c3e 1a10 26bf
00000120: b2c7 92be 894f 83bc 11e4 1ebf 31e4 e1be
00000130: 2346 f03d 5bfd 98bd a26b c03e 5f85 4dbd
00000140: 4569 3dbf 3c11 953e 83dc 883e 586b 9abd
00000150: 51a4 8fbe 6ba6 0bbf f785 843c 3687 c3be
00000160: 40d7 ad3d 603c 193e 0e30 143e cdc4 e9be
00000170: 8358 babe fa80 d3bc cea4 0fbe 4248 4cbe
00000180: e989 dbbe 6fe2 70be cf1d acbe 240b de3b
00000190: a7e5 7ebf 006c cbbe 5968 743e e6a9 703e
000001a0: b402 bbbe abdc 84be cf3e b8be 71d0 8f3e
000001b0: 0104 89bd da2c 433c 1e4b 70be bb8e abbd
000001c0: b7f4 023f 6966 81be d04c 58bf d74e 663d
000001d0: ac5a 1abe 9250 ff3d 1a7d 4e3d a5f8 903d
000001e0: ca9d 933e 5609 bdbe 2084 223e 053e 033e
000001f0: 583e 4a3e 68f6 c0bd a7bf f2be a23f a0bc
00000200: e7eb 88bd f2e7 2abf 8c64 ebbe abe3 b5be
00000210: aafe b5ba 5b77 55be f133 433d 5f0c 37bf
00000220: cbbb a6bc 845f b53d 9a3b 99bd 6b54 6cbe
00000230: e6ae fcbe f334 34bf 9923 063e d0d0 f9bd
00000240: d70d 8a3d 5fb0 e2be 3399 d43c 5753 03bf
00000250: 2557 d6be 45ff fbbe 98aa 98bd c28d 0fbf
00000260: e793 52be 4176 3fbe 806b 25be c9ea 20be
00000270: 75be 04bf d204 2abe c063 f3bd c4a1 1a3e
00000280: 6812 d2be 42cf bdbe 56e7 c0be bd41 c3be
00000290: efb3 1cbf d2d6 453e 45a2 69bf b71e 3dbf
000002a0: afc0 333e 9911 dcbd 21cb 103d 17b9 fbbe
000002b0: f200 a6be 5d43 31bd 2a7a 723d 4a75 553e
000002c0: bf1f 483e a08e 73be 1b6d a13b 4111 30be
000002d0: 57e4 29bf b797 5cbe 7fe2 21be cd85 5d3e
000002e0: 63da 60be a9e5 a6be fde5 3cbe 7d05 a8bc
000002f0: 2791 573b a8f9 10be 0a08 eb3d 7702 3fbc
00000300: 27da 0dbf 5056 83bd ceee b6be d52c fe3c
00000310: 3bb4 8abe 4ec0 b3bd 90bb 65bd c6a9 4cbe
00000320: 1921 533e e74a 14be e67e 15be 8077 18bf
00000330: 38f9 24be 9aee f7bd b0e6 08bf 0cc3 eb3d
00000340: 0d12 0a3d 0a27 c83c 9aba 8ebe f145 abbe
00000350: f630 6abe d3ff 92bd ea54 55be 950d 10be
00000360: ee86 edbe f1f5 793e 48d5 b6bd ef47 76be
00000370: 8c79 94bd 8e13 ec3d c350 efbd 1470 aebd
00000380: 8dbb a1be b2a1 5ebe 0d48 7abe fe2a 0ebe
00000390: 35ce e1be e7d6 3c3d 3466 8b3e 528e a2be
000003a0: d0e8 293d d800 77be 5ec7 183e 29b9 9abc
000003b0: 0352 7dbe 5e4b a63c 5b1f d13d ec9e 3dbd
000003c0: d5fd f0be 0334 bbbc 1df7 babd 107d 3ebe
000003d0: fabb 14bf 9c9a 89be 71b6 3dbe 913a 4ebe
000003e0: 13b6 d33c 7777 47be 4012 42be 2684 a93c
000003f0: 3123 d0bb 1943 cbbe 2459 2abe 64ca 6f3d

fc2.bias f4 [128]
-0.49918795 -0.20796409 -0.9708647 -0.19076939 -0.18997976 -0.20363845 -0.31819203 -0.5113397
-0.13911188 -1.4018439 -0.76270145 -0.2726407 -0.15083517 -0.22876287 -1.0830902 -0.103493355
-0.97157025 -0.5048209 -0.08157721 -0.19563264 -0.12141157 -0.18419613 -0.1731965 -0.4277277
-0.87696934 -0.19262913 0.20636904 -0.2433276 -0.54661965 -0.7988818 -0.18540473 -0.22882238
-0.1815991 -0.6989133 -0.303752 -0.7338272 -0.28732046 -0.14414726 -0.15770602 -0.15425515
-0.11315513 -0.2062877 -0.52671975 -0.7655546 -0.7990021 -0.20574978 0.5609647 0.0034525534
-0.14647356 -0.5175709 -0.63285387 -0.4014563 0.013493426 -0.18964636 0.1980458 -0.33825445
-0.24679053 -0.28042904 -0.13025141 -0.49888077 -0.19281206 -0.8411867 -0.26390076 -0.18755229
0.11497823 -0.19655494 -0.2699814 -0.066104464 -0.33220813 -0.6697001 -1.5986694 -0.13351795
-0.32510108 0.027383946 -0.8969321 -0.23144531 -0.8677968 -0.20777637 -0.8841989 -0.19082718
-1.0999496 -0.5696536 -0.053917266 -0.35259366 -0.2483923 -0.5750232 -0.13278908 -1.4885532
-0.24003513 -0.7298269 -0.9323792 -0.30290604 -0.16704898 -0.120481774 -0.17188558 -1.9098032
-0.3916894 -0.7995451 -0.567975 -0.66431206 -0.70467955 -0.6428082 -0.1609112 -0.38962588
-0.1787778 -0.13687114 -0.39498025 -0.08615095 -0.0386103 -0.11304084 -0.5742904 -0.12254863
-0.754636 -0.28129834 -0.09961321 -0.048779882 -0.3109071 -0.8291734 -0.17797205 -0.22285849
-1.18976 -1.6881108 -0.45902878 -0.27468994 -0.18921241 0.5644805 -0.16779594 -0.26809508
00000000: 9095 ffbe 8af4 54be 978a 78bf 0d59 43be
00000010: 0e8a 42be 9986 50be 11ea a2be 29e7 02bf
00000020: 5873 0ebe 9f6f b3bf 6740 43bf 9097 8bbe
00000030: 8974 1abe d040 6abe b3a2 8abf 53f4 d3bd
00000040: d4b8 78bf f13b 01bf f411 a7bd ec53 48be
00000050: a1a6 f8bd e99d 3cbe 6c5a 31be 20ff dabe
00000060: 1081 60bf 9240 45be 6852 533e df2a 79be
00000070: 44ef 0bbf 8583 4cbf bdda 3dbe 6a50 6abe
00000080: 1df5 39be fbeb 32bf 6285 9bbe 19dc 3bbf
00000090: ab1b 93be 579b 13be b07d 21be 10f5 1dbe
000000a0: e0bd e7bd 153d 53be 1bd7 06bf 63fb 43bf
000000b0: 678b 4cbf 12b0 52be 629b 0f3f 3c44 623b
000000c0: 2afd 15be 877f 04bf b602 22bf ae8b cdbe
000000d0: 8813 5d3c a832 42be 85cc 4a3e b02f adbe
000000e0: a8b6 7cbe 6594 8fbe a060 05be 4d6d ffbe
000000f0: 8670 45be 0358 57bf 001e 87be b50d 40be
00000100: b579 eb3d b345 49be 013b 8abe c761 87bd
00000110: 2f17 aabe 7771 2bbf 33a1 ccbf eeb8 08be
00000120: a673 a6be 4c54 e03c 589d 65bf 0000 6dbe
00000130: ee27 5ebf 54c3 54be dc5a 62bf 3368 43be
00000140: 26cb 8cbf d1d4 11bf 5ad8 5cbd 2887 b4be
00000150: 8d5a 7ebe b834 13bf dcf9 07be e988 bebf
00000160: c5cb 75be f0d5 3abf 67b0 6ebf 8016 9bbe
00000170: e30e 2bbe 26bf f6bd c602 30be 6e74 f4bf
00000180: 838b c8be fdae 4cbf cf66 11bf 5b10 2abf
00000190: e165 34bf 148f 24bf e8c5 24be 0b7d c7be
000001a0: 8711 37be f327 0cbe da3a cabe e96f b0bd
000001b0: d525 1ebd f581 e7bd b204 13bf c7fa fabd
000001c0: d32f 41bf 5606 90be 0302 ccbd 6acd 47bd
000001d0: 372f 9fbe b544 54bf 4e3e 36be 0435 64be
000001e0: 0e4a 98bf 0414 d8bf d205 ebbe 29a4 8cbe
000001f0: e6c0 41be cb81 103f b3d2 2bbe c243 89be

fc3.weight f4 [1, 128]
-0.03167284 -0.20625536 -0.0038167592 -0.5495916 -0.3511883 -0.24669108 -0.3374262 -0.014705497
-0.24161431 -0.027862884 -0.1263018 -0.008027365 0.022844484 -0.24896298 -0.021601534 -0.018179871
-0.027411474 -0.0068473234 -0.04197941 0.013326574 -0.37815043 -0.10463098 -0.3526164 0.010156207
0.011065908 -0.021234205 -0.024692526 -0.41371995 0.031809628 -0.023601618 -0.015240883 -0.5706346
0.0022163116 0.076831244 -0.062828146 0.009402188 -0.011710522 0.056436367 -0.05053312 -0.009383551
-0.018067794 -0.3889323 -0.011081588 0.030870566 0.0039755283 -0.015115005 0.109910555 -0.02418719
-0.014926087 -0.0011051826 0.00094477704 -0.017874882 -0.0050047403 -0.6056659 -0.06461485 0.005139823
-0.31741542 -0.32800806 -0.3835965 -0.025871336 -0.21441174 0.021274874 -0.20378324 -0.17725156
-0.02162846 -0.43207067 -0.6207914 -0.0204844 -0.016462054 0.08618147 -0.13484369 -0.2149379
-0.017616706 -0.015936673 -0.04889391 -0.21007116 0.009193582 0.0048094625 0.005726273 -0.07085787
-0.01632474 -0.019145042 0.029801147 0.012819143 -0.4277222 0.036579072 -0.2843994 -0.065189615
-0.075881906 -0.018536154 0.035165057 -0.014072854 0.013551849 -0.45476165 -0.21161073 -0.011371356
-0.001098139 -0.016753694 0.02371302 0.05894712 0.010180611 -0.022481654 0.020013565 0.014280635
-0.36767733 -0.30683985 -0.2002495 0.013428779 -0.013630598 -0.39930683 0.027819563 0.017832262
0.014118895 -0.29608044 -0.022799106 -0.06629941 -0.026746778 0.035380345 -0.22988144 -0.38899997
-0.009939972 0.02527076 -0.038201395 -0.011665998 0.009528028 0.009597104 0.029596295 -0.50621134
00000000: 61bb 01bd 9b34 53be 9822 7abb 09b2 0cbf
00000010: f4ce b3be 969c 7cbe 20c3 acbe 53ef 70bc
00000020: be69 77be b440 e4bc 4255 01be 3685 03bc
00000030: 5b24 bb3c 27f0 7ebe b3f5 b0bc f4ed 94bc
00000040: 078e e0bc 835f e0bb 9af2 2bbd b457 5a3c
00000050: ef9c c1be c448 d6bd 238a b4be 3866 263c
00000060: c84d 353c 5bf3 adbc fb47 cabc 1ad3 d3be
00000070: d04a 023d 2e58 c1bc e6b4 79bc 1c15 12bf
00000080: 8a3f 113b b359 9d3d 0bac 80bd a20b 1a3c
00000090: 7ddd 3fbc d229 673d d1fb 4ebd 77bd 19bc
000000a0: e902 94bc 2222 c7be 8d8f 35bc 45e4 fc3c
000000b0: 2645 823b eda4 77bc c918 e13d 3724 c6bc
000000c0: 8c8c 74bc c6db 90ba eaaa 773a 586e 92bc
000000d0: cefe a3bb ec0c 1bbf ca54 84bd f66b a83b
000000e0: 4684 a2be acf0 a7be c366 c4be 20f0 d3bc
000000f0: c08e 5bbe a548 ae3c 8eac 50be 6f81 35be
00000100: 2b2e b1bc 5e38 ddbe 2fec 1ebf e7ce a7bc
00000110: 6edb 86bc e97f b03d 7714 0abe ae18 5cbe
00000120: e950 90bc a08d 82bc fb44 48bd e51c 57be
00000130: aea0 163c b298 9d3b 76a3 bb3b ee1d 91bd
00000140: 76bb 85bc 10d6 9cbc 8921 f43c 6207 523c
00000150: 67fe dabe f0d3 153d cc9c 91be 2282 85bd
00000160: f967 9bbd 22d9 97bc 3c09 103d d491 66bc
00000170: 9308 5e3c 85d6 e8be 7cb0 58be ed4e 3abc
00000180: 6eef 8fba 0b3f 89bc cf41 c23c 8972 713d
00000190: 94cc 263c 722b b8bc 7df3 a33c 53f9 693c
000001a0: 3440 bcbe 1d1a 9dbe 340e 4dbe 6204 5c3c
000001b0: df52 5fbc f271 ccbe dae5 e33c f714 923c
000001c0: f052 673c db97 97be 31c5 babc fcc7 87bd
000001d0: 0f1c dbbc fbea 103d 0a66 6bbe 012b c7be
000001e0: 44db 22bc a004 cf3c 1179 1cbd be22 3fbc
000001f0: 721b 1c3c 2c3d 1d3c ee73 f23c 1197 01bf
