puppersim/dc_saves/aac_slow_straight_pupper_0/actor_14.pt (torch, 43223 bytes, 6 tensors)

fc1.weight f4 [80, 15]
00000000: 25b3 2ebe 467d e5bd 4bd5 973d 82ec 863d
00000010: 2cdd 613d 6d08 50be 680e b0bc 4c43 c93c
00000020: 21af d4bd ca68 0cbd 0e39 aa3a 0e09 623d
00000030: 1882 a6bd f713 e8bd 3e94 0cbe 16ae d5bd
00000040: 7860 89bd ec95 2cbb 3f83 933e c982 863d
00000050: c42c 4c3c 7ccf 6a3d f561 c03a 722f acbd
00000060: 7d71 383e 2438 163e 54af 0f3e ca4f 0b3e
00000070: a406 5d3e d33c f9bc 205b 42be 4aa5 b63d
00000080: 9acf 703d b3b2 903d 303f 88be 91db 913d
00000090: 70cd 6bbc 3881 6f3c b275 4c3d cef5 933c
000000a0: 0885 423e 0588 e4bb 7739 85bc 6ece e0bc
000000b0: 4152 2dbe 0b54 19bd 1ecb 643d bc37 23bd
000000c0: 9906 9ebd 778c 23bd aae1 93bd 63f6 0c3e
000000d0: 9459 61bd 7d86 dbbd 8b8d 0f3e de60 adbd
000000e0: e115 11be e1e9 783d ba7b 21bd 62d1 37bd
000000f0: d231 75bc 3ef2 a8bc 417b 353e 69d5 573e
00000100: 105b 4e3d ccfd 743e 3a12 7c3c b539 1ebd
00000110: 0245 88bb 4599 1bbd eb28 423d 8013 0f3e
00000120: 7cec 03bc 0e83 16bc 7a91 80bd f55c 1dbd
00000130: a7a5 0cbd c907 e0bc 8279 023c 20d2 f83c
00000140: 501c 5ebd a528 1e3e 5c19 edbd d52d 843d
00000150: a917 0ebe bb2f 66bd b2bd 8fbd 1546 bf3d
00000160: 39cf b83d 22f1 39be 9323 9fbc 5b7d f83b
00000170: 535f 4dbd 4543 42bd 1619 363c 810c 253d
00000180: 5c8d 57bc deb0 53bd 4c70 413c 6481 ea3d
00000190: fa98 283e bed2 47bd ac9c 28be 8718 14bd
000001a0: bdf8 39bd 9388 aabd c953 0d3d cc0a 68be
000001b0: 7826 d0ba 48f3 033e b8f6 8cbd 9bf6 06be
000001c0: 5b6e c03d cfa4 c73d 002f 9bbd d4e5 c93c
000001d0: 41e0 883c ff52 813e ea01 2dbe 85c9 6cbd
000001e0: 4bcc 4ebd 77b0 263d f01d 0fbe b32b e6bd
000001f0: 68df afbc 9ca9 3dbe caca 19bd e939 db3c
00000200: 1dc9 82bd 320b 1a3e 46fb 54be f99e 19bd
00000210: 7eb2 a43e 3453 c3bc dc9b 7bbd 8daf 09be
00000220: 49a8 79be 83b8 8fbc 9214 ab3d ab26 b4be
00000230: 73fe ee3c b4b3 9dbd 6fda 2c3e 7fb7 79bc
00000240: 082e f33d 1b21 4b3c 951b 61be 8fe8 023c
00000250: d2b0 d43d 41e3 95be a6cd dfbd a1e1 943c
00000260: edff c8bd 8254 933d ab3c 7b3d 7a65 163e
00000270: bfd8 e0bc 7983 b4bd 4122 6a3a 1acc 643e
00000280: 0e5a 833e bba0 24bc d774 89bd b62f 05bc
00000290: 0020 c9bd 7d82 17bc 0dc1 babd 5142 c2bc
000002a0: d44a 673e 5a0d d53d dff4 a1bd 5d71 a0bc
000002b0: 2962 bdbd 84a7 a33d 8bcd 283e b7c0 3cbd
000002c0: 5441 2dbd 3149 23be f316 f8bd 73b7 1bbe
000002d0: 5022 9cbc 40ff 823e f444 f43e d3ad 7a3d
000002e0: 19da 1abc 3907 543e a6a2 113e 7a15 c0be
000002f0: 2b52 4f3e c6bd df3e 3da7 34be 9d8b 853e
00000300: b951 763e 43b7 943d db47 e83d 28f5 d3bd
00000310: c0e2 91bd cc8c 24be a9dd f13c f20f 243d
00000320: 3c8d cabd 0224 803d 1e25 3fbd 155d db3d
00000330: d5a2 773d cd7a 15be 3e8a 35be cd67 cc39
00000340: 30d0 e1bd 8602 e33d 37f3 11be 00a9 e6bc
00000350: ff56 5a3c 75f0 68bd 5d16 5cbd b5d5 08bd
00000360: 6f4e a2bd ef66 5a3c 2ae9 0abe e3d6 453d
00000370: 9cdb c13d f128 a73c 2520 6cb9 5cfc 4fbe
00000380: fde8 28be ec3e 12be feed abbe c1f7 333e
00000390: 364b 0c3e f6c1 22bd 1a00 febc 7ef6 993d
000003a0: a954 e73d 7637 94bc d8de c93c eb11 1e3e
000003b0: f9e4 75be b6b5 cc3b fe5e 53bd 74c6 ecbd
000003c0: a2b6 bebc abd9 00be 13a0 e03e 9d80 f43e
000003d0: 8585 b5be 9ff8 403e b891 6c3e 71a4 06be
000003e0: 9dd7 e2be bdac 8bbc 01cf 343e 45b9 07be
000003f0: 28cf 11be e65e 3e3e 1e54 debe 34ee 79bd
-0.17060526 -0.11205535 0.07413729 0.06588079 0.055142567 -0.20315714 -0.021491244 0.024568222
-0.10384966 -0.034279622 0.0012986974 0.055184416 -0.08130282 -0.11331933 -0.13728425 -0.10433595
-0.06707853 -0.0026334478 0.2881107 0.06567914 0.012461845 0.05732678 0.0014677631 -0.08407487
0.18012042 0.14669853 0.14031726 0.13604656 0.21584564 -0.030424511 -0.18980074 0.08918245
0.058791734 0.07065334 -0.26610708 0.07121957 -0.014392242 0.0146182105 0.04991693 0.018061545
0.1899606 -0.0069742226 -0.016262753 -0.027442183 -0.16925909 -0.037433665 0.05585777 -0.039848074
-0.07716102 -0.03992888 -0.072207764 0.13765864 -0.05501707 -0.10719011 0.14018838 -0.084657416
-0.14168502 0.06076992 -0.039424635 -0.044877417 -0.014965491 -0.020623323 0.17722799 0.21077503
0.050379813 0.23924941 0.015385205 -0.038629252 -0.004158617 -0.037987966 0.047402304 0.13972282
-0.008051988 -0.009186519 -0.062777475 -0.03841873 -0.034337666 -0.027347462 0.00796354 0.030373633
-0.05422622 0.15445192 -0.115771025 0.06454054 -0.13876213 -0.056197863 -0.070186034 0.09339539
0.090238996 -0.18158391 -0.019426143 0.007583303 -0.050139736 -0.047427434 0.011114379 0.040295128
-0.013156261 -0.051682346 0.011806559 0.114504606 0.16464606 -0.048784964 -0.16466016 -0.036156204
-0.04540323 -0.08326831 0.034503732 -0.22660369 -0.0015880605 0.12885773 -0.06882995 -0.1318001
0.09396049 0.097482316 -0.07577324 0.024645723 0.016708495 0.25258633 -0.16895261 -0.05780937
-0.050487798 0.040695634 -0.13976264 -0.11238804 -0.021468833 -0.18521732 -0.03754691 0.026761012
-0.063860156 0.15043333 -0.20798978 -0.037505124 0.3216743 -0.023843385 -0.061427936 -0.13445874
-0.24380602 -0.017544037 0.08353533 -0.3518575 0.029174065 -0.07700291 0.16880201 -0.015241503
0.11874014 0.01239803 -0.21983178 0.007990017 0.10385288 -0.29274943 -0.10927896 0.018173994
-0.09814439 0.07193853 0.061337154 0.14687148 -0.027447103 -0.08814139 0.0008931496 0.22343484
0.25654644 -0.010048087 -0.067117386 -0.008129051 -0.09820557 -0.009247419 -0.09118853 -0.023713263
0.22587138 0.10402937 -0.079080336 -0.019585306 -0.09247238 0.079909354 0.16484658 -0.046082225
-0.04229863 -0.15945889 -0.12113752 -0.15206699 -0.01905933 0.25585365 0.47708857 0.061200928
-0.009451413 0.2070588 0.14222202 -0.37516385 0.20246188 0.43699473 -0.17641921 0.2608308
0.24054612 0.07261517 0.1134183 -0.10349494 -0.07123327 -0.16069335 0.029524641 0.04005427
-0.098902196 0.06256868 -0.046666257 0.10711113 0.060458023 -0.14597626 -0.17728516 0.0003898725
-0.11026037 0.11084466 -0.14252935 -0.028156757 0.013326406 -0.056869943 -0.053732265 -0.033406932
-0.07925116 0.013330205 -0.13565508 0.048300635 0.09465715 0.020405265 -0.00022518689 -0.20311111
-0.16495128 -0.14281815 -0.3358001 0.1757498 0.13700566 -0.039735757 -0.031005908 0.07517718
0.112954445 -0.018092852 0.024642393 0.15436523 -0.24013127 0.0062472476 -0.051604263 -0.115612894
-0.023280445 -0.12583034 0.43872127 0.47754374 -0.3545343 0.18844841 0.23102462 -0.13148667
-0.44305125 -0.017050141 0.1765709 -0.13254268 -0.1423918 0.18590888 -0.4342355 -0.061018184

fc1.bias f4 [80]
00000000: 09e8 0abd 0000 0000 35a4 65bc 30d8 193e
00000010: 318b afbe ce11 acbc 14f6 94be 0000 0000
00000020: 61f1 163e 59f0 ff3c 0000 0000 c81e 97bc
00000030: b299 e8be 0000 0000 9c29 96bd a359 ef3d
00000040: 7d0d d2bd 0e41 563d 0000 0000 5e2a 903d
00000050: 35cf 8b3d 180b d5bd 549d a73d fd46 343e
00000060: 0000 0000 35ce 48be 42bc bbbe b887 473e
00000070: 3dbd b13d 6a1b d3bd b957 d7be c31e 183e
00000080: e95e fc3d 1fa7 ebba 212d 2abf a8b3 71bb
00000090: 12bd d13d 0000 0000 9309 25bc 4cd1 db3e
000000a0: cc5f ae3e 0b16 333d c8b6 00bf 419f 89bc
000000b0: 9192 1abc 25ff 46be 76a7 19be ea86 b93c
000000c0: fa2b 1a39 0376 7abb 2624 a6be 0198 e13e
000000d0: 3012 09bf 0bbf 84be 9fbd 473e cf87 a83e
000000e0: 9d8a 37be a31f 4ebe cce2 ee3d 6c8c 93be
000000f0: 1598 0ebe 960f 0abd 6250 b03c 2792 9cbd
00000100: 0000 0000 7da6 873e 9bb7 4bbc 4ee6 32bd
00000110: 80ed bd3d 6830 f3be 4e3e 2dbe 3eb6 3c3d
00000120: d8e9 a5be 261f a0bc d6d8 b0be 40aa 2c3e
00000130: f63e ccbc 81cf b8bd 359c 803d c0df 2dbe
-0.033912692 0.0 -0.014016201 0.15023875 -0.34285882 -0.021004584 -0.29093993 0.0
0.14740516 0.031242536 0.0 -0.018447295 -0.4542976 0.0 -0.07332155 0.11687019
-0.10256479 0.052308135 0.0 0.07039331 0.06826631 -0.104025066 0.08184305 0.17605205
0.0 -0.19609912 -0.36667067 0.19485366 0.086786725 -0.10307963 -0.42059115 0.14855485
0.1232279 -0.0017978883 -0.6647511 -0.0036880765 0.102411404 0.0 -0.010073083 0.42933118
0.34057462 0.043722194 -0.502789 -0.016799571 -0.009434358 -0.19433267 -0.15005288 0.02264734
0.00014702967 -0.0038217313 -0.32449454 0.44061282 -0.53543377 -0.25927004 0.19505928 0.32916114
-0.1792397 -0.20129256 0.11664352 -0.2881807 -0.13925202 -0.03370627 0.021522705 -0.07645064
0.0 0.26494208 -0.012433912 -0.043676667 0.09273815 -0.4749787 -0.16918299 0.046072237
-0.3240497 -0.019546103 -0.34540433 0.1686182 -0.024932366 -0.09023953 0.06279794 -0.16979885

fc2.weight f4 [80, 80]
00000000: 903b d33d 382d 83be 3c77 54bd d345 513b
00000010: fb58 ddbd 5c0c cfbc 3c44 31bd 8ab2 42bd
00000020: fc3f 8a3d db7a e33d c474 25be df3a b33d
00000030: b790 923c 550c 10be 71c4 543e 379e 863d
00000040: e419 bfbb c94f 17be ccd6 34bc 09e7 6bbc
00000050: 54e1 54be d424 b03c 0e36 c0bd 956a 43be
00000060: 32cd 253d adc7 46be aca0 2c3e a119 0b3d
00000070: 4681 50be 704b 3f3c c9b1 793d 23c9 03bd
00000080: 0723 c3bd 7550 1dbd cb78 283d 81d3 503d
00000090: 6f72 77be d87b 873d 7366 e2bd 58d2 63bb
000000a0: 5f58 1e3c 7de1 98be 9e1d 6b3d 85d4 75bd
000000b0: e14e 56be dc5e 24be e0b2 34bd 23f7 0abe
000000c0: 011f 133d 085d 2fbd 4306 373e f8a4 9bbc
000000d0: 4a00 0fbd 37eb 94bb d173 bf3d 5d74 bdbd
000000e0: f871 25bd fbdd 2e3e 1cce 12be 7548 c3bd
000000f0: 8a60 bb3d 03b6 bc3d a22f 383d 62cc d0bc
00000100: f062 49bd 1a05 b33d c498 b2bd d079 69bb
00000110: 2028 adbd c3be 66bd f3b1 a43d 7562 2d3c
00000120: 74f5 3cbd 2da2 0e3e cf09 bdbd a0a5 12be
00000130: 5d30 5b3d 1576 21be 3f16 71be aa3c 38bd
00000140: 1373 50be a070 9abd c694 dabd 4fe6 42be
00000150: e5e4 0f3e 02bf 93be b84b 92bd 9a3a 2cbd
00000160: 4271 b93d 5d91 373d a2ed 08bd ce66 7f3d
00000170: ca3b 80bd 0b72 143e 6254 6ebd d39c 1b3e
00000180: c7e3 2ebd 6ebc 28bd 1969 943d 487c 65bd
00000190: fb75 493d 6b1d 4a3e 5e26 57be 995c ab3d
000001a0: 3536 173d cf7e 203e 20b8 ba3d c285 023e
000001b0: 0721 cd3d b3bf 36be 6ca9 31bc 2af3 0abe
000001c0: 34d7 07bd 8efc 1abc 7c1b 6fbd ceed 98bc
000001d0: 66d3 60bd 30a1 0e3e 3601 7cbd 6208 1f3d
000001e0: ec26 3dbe 8a23 343e 5a00 7cbd 8cc8 52bd
000001f0: 8c6e 70bc df6d c43d 4c66 343d e527 893d
00000200: 5f98 853d 8324 60be 40f4 9e3a e85f a2bd
00000210: b1bf 36be 0fad 793b 9e3e 953d 2f00 4abe
00000220: 2307 0d3e c588 38bd 41d5 69bc 8105 9f3c
00000230: af53 35be 3e62 b63d efbd a5bd 4849 a4bd
00000240: e3d4 26bd 7c59 513d 8d26 6dbe e7a6 56be
00000250: 2b69 9fbd 99ba 5d3d aed7 9cbd d969 e6bd
00000260: 9517 ecbd 1326 80bc 17b0 f9bd c6ac 0cbe
00000270: 1e48 5dbd d241 17be d672 9abc 77d4 b73a
00000280: ed48 68be 454f 9c3d 6031 f73d bd99 313e
00000290: 6c14 1c3e 0018 ccbd 31ed a4bd de9b cfbb
000002a0: 2bcf 75bd 54e1 edbd 2797 c2bd b888 8ebd
000002b0: 3fec debc a98a a9bd e439 383d b71c 90bc
000002c0: 0daf 1cbe 5f23 a1be b75f 10be 4c72 f33a
000002d0: 9717 28be 099f 1cbe 26f3 86bd 6662 e4bc
000002e0: ed36 5dbe 9125 633b 5917 cdbd 3e1f edbd
000002f0: 5eb8 06be 0194 6d3c 7156 edbc c34e 8c3c
00000300: c4b1 4e3e d65a 41be 0513 f03d 8055 b13d
00000310: 3273 813d fdf1 f13d e015 32bd a553 72be
00000320: 0a75 a43c 7e18 1cbd fc0e e4bd 017b d5bd
00000330: fa23 ecbc c487 8cbc ab0d 27bd ed53 91bc
00000340: 84e3 febc 50ad e3bd 61ad 8abd 8af8 183c
00000350: b1e5 903b ed8b 08be 7da4 a03d f418 10be
00000360: c044 1cbe 760f 48bd 7537 9abd a9ff 16be
00000370: c3ae 7bbe 6853 333d 577b 23be 4deb 9dbd
00000380: 59c8 72be d1ac 51bb d24d 09bc f84b 523e
00000390: ace4 2abe 1969 adbc 1b49 803d 31af 42be
000003a0: b854 1ebe b8f4 26be 7fc1 273d fe31 45bb
000003b0: d3e0 d5bd d3ef 9a3d 69d2 5dbe 0e1d 9fbd
000003c0: 8f2a a33d ef8f 393d b804 e5bd f73c c9bc
000003d0: ca95 72bd 8a65 2abe 8487 7abe a093 413e
000003e0: af2d 2c3e dbfd 413c bc37 373c a21b 973d
000003f0: f752 a53c 05d6 2abe a55c adbd 94a3 41be
0.10314095 -0.25620437 -0.051871523 0.0031932488 -0.10807987 -0.025274448 -0.043277964 -0.04753355
0.06750485 0.11107417 -0.16157824 0.08751463 0.017891271 -0.14067204 0.20778061 0.06573146
-0.005831944 -0.1477653 -0.01103754 -0.014398345 -0.20789081 0.021501936 -0.0938531 -0.19083627
0.040478893 -0.19412108 0.16858166 0.03395999 -0.20361814 0.011675701 0.060960565 -0.03217424
-0.09528165 -0.038406808 0.041130822 0.050982956 -0.24164747 0.06615418 -0.11054697 -0.0034762826
0.009664624 -0.29859534 0.057401292 -0.060017128 -0.20928527 -0.16051811 -0.0441159 -0.13570838
0.03591824 -0.04281333 0.17873482 -0.018999562 -0.034912385 -0.0045446414 0.09348262 -0.0925071
-0.040391892 0.17076866 -0.14336437 -0.095353045 0.09149273 0.092144035 0.0449673 -0.025488082
-0.04916662 0.087412074 -0.08720544 -0.0035625584 -0.08454919 -0.05633427 0.080417536 0.010582556
-0.04613252 0.13929053 -0.092303865 -0.14320993 0.05351292 -0.15767701 -0.23543642 -0.04497973
-0.20356397 -0.07541013 -0.106729075 -0.19033168 0.1405216 -0.28856665 -0.071433485 -0.042048074
0.09054805 0.044816364 -0.03342975 0.0623539 -0.06261404 0.14496629 -0.058185942 0.15196542
-0.042697694 -0.041195326 0.07246608 -0.056026727 0.04918478 0.19737785 -0.2101073 0.08367271
0.03691693 0.15673374 0.0911715 0.12746337 0.10016065 -0.17846565 -0.010843616 -0.13569322
-0.033164218 -0.009459628 -0.05837582 -0.018668082 -0.054889105 0.13928676 -0.061524592 0.038826354
-0.18471879 0.17591682 -0.061523773 -0.051460788 -0.014674794 0.09591269 0.04404287 0.066970624
0.06523203 -0.21888928 0.0012127236 -0.07928449 -0.17846562 0.0038097536 0.07287334 -0.19726633
0.13772254 -0.04505231 -0.014272035 0.019411804 -0.17707704 0.08905457 -0.080928676 -0.0802179
-0.04073037 0.05111073 -0.23159237 -0.20962106 -0.07783731 0.05413303 -0.07658325 -0.112506576
-0.115279354 -0.015643155 -0.121917896 -0.13737783 -0.054023854 -0.14771202 -0.018853586 0.0014025111
-0.22684069 0.07632307 0.120699644 0.17343803 0.15242165 -0.09965515 -0.08053053 -0.0063357195
-0.060012024 -0.116152436 -0.09501486 -0.06959671 -0.02721226 -0.082784005 0.044977084 -0.017591817
-0.15301152 -0.31472299 -0.14099012 0.0018573492 -0.16415249 -0.15295042 -0.06589346 -0.027878951
-0.21602984 0.0034659842 -0.10014219 -0.115782246 -0.13156268 0.014500619 -0.028971883 0.0171274
0.20185 -0.18882307 0.11722378 0.08658886 0.063208 0.11813734 -0.043477893 -0.2366472
0.02007534 -0.038109295 -0.111356705 -0.10423852 -0.028825749 -0.017154582 -0.04078452 -0.017740214
-0.031114347 -0.11117041 -0.06771351 0.0093366 0.0044219126 -0.13334627 0.07843874 -0.14072019
-0.15260601 -0.04884287 -0.07530109 -0.14745964 -0.24578385 0.043780714 -0.15965019 -0.07710896
-0.23709239 -0.0031993876 -0.00838037 0.20536792 -0.16688794 -0.021168279 0.06263944 -0.19012143
-0.15462005 -0.1630429 0.040956017 -0.0030089612 -0.104432724 0.07565274 -0.21662296 -0.077692136
0.07967102 0.04530328 -0.11182541 -0.024565203 -0.05922488 -0.16640297 -0.24465758 0.1890397
0.16814302 0.011840309 0.011182722 0.073783174 0.020181162 -0.16683204 -0.08464936 -0.18910056

fc2.bias f4 [80]
00000000: f3db 5dbd 13de 81bd 7282 b0bd 823e 65bd
00000010: 77c8 47bd 9606 84bd 4cd6 72bd 94a6 46bd
00000020: 3df5 29bd 0e25 7abd e7dc debc 1cc7 02be
00000030: 3fbc 5cbc ac4d d1bd 01b0 02be 91ab 57ba
00000040: 9969 f1bd c337 94bd 8205 93bb ca07 fbbd
00000050: 5e84 94bd 36b1 d9bd 99fa b7bd 4a8c 0cbd
00000060: b378 b4b9 1b05 27bd 2b22 acbd 3f35 a9bd
00000070: 1175 10be 324d c2b9 ec6e 61b9 6c47 9bbd
00000080: 6684 a7be 4d0e edbd 06eb 76bd 261d 46bd
00000090: aec1 92bd de59 49bd 6561 f6bd a086 8abc
000000a0: 87b4 c3bd 45b6 e4bd e74c 21bd 017f 3fbd
000000b0: 36e2 9abc e8fc 30bc 2630 e3bd 3b87 febd
000000c0: 6a39 efbd 7cc5 5cbd 18dc a2bc 3ae9 30be
000000d0: 2cb6 78bd 0775 bdbd 6e82 c5bd 49f9 9bbd
000000e0: bb2e 2ebd 634e c7bd 3714 f8bd e7e9 a8bd
000000f0: 6a03 e0bd af43 aebd 0780 9dbd 3707 94ba
00000100: 184a cebd 3a65 b2bd 6061 cfbd 0338 a8bd
00000110: 277a 4c3e 4e03 8fbd e1e2 4dbd e464 70bd
00000120: b909 f6bd 0574 b8bd b107 97bd 073e 3dbc
00000130: 1508 a9bd d4d4 cbbd 394a 6cbd ed43 16bd
-0.054164838 -0.063411854 -0.086186305 -0.055967815 -0.048775163 -0.06446569 -0.0592864 -0.048498705
-0.041493643 -0.061070494 -0.027204944 -0.12771267 -0.013472616 -0.10219893 -0.12762453 -0.00082271645
-0.11787719 -0.07237198 -0.0044867406 -0.12257345 -0.072518095 -0.106295034 -0.089833446 -0.034313478
-0.00034422203 -0.040776353 -0.084049545 -0.08262109 -0.14107157 -0.00037060078 -0.00021498994 -0.07581982
-0.327182 -0.11574993 -0.06028273 -0.048367642 -0.07165848 -0.04915797 -0.12030295 -0.016909897
-0.09555917 -0.11167578 -0.03937998 -0.04675198 -0.018906694 -0.010802485 -0.11093168 -0.12428137
-0.11680873 -0.053899273 -0.01988034 -0.17276469 -0.060720608 -0.09250837 -0.09644018 -0.07615907
-0.042525034 -0.09731748 -0.12113231 -0.08247738 -0.10938151 -0.08509003 -0.07690435 -0.0011293654
-0.10072726 -0.08710714 -0.10125995 -0.082138084 0.19968472 -0.06983052 -0.050265197 -0.058689967
-0.12013573 -0.09006504 -0.07374514 -0.011550433 -0.08253495 -0.09952703 -0.05768797 -0.036685873

fc3.weight f4 [32, 80]
00000000: 0e3f 95be e156 9abd e16f 19bd 08e3 32bd
00000010: 0498 79bd 9645 8e3d 1ce6 4bbd 44e7 68bc
00000020: 9dc3 36be 81de 18bd 8cca 5dbc eccf 62bd
00000030: 8c33 bcbc b9bb 203e 8207 873d ba34 3f3d
00000040: 2048 e2bd 0538 a1be 1892 fb3c 1161 3abe
00000050: ef56 dabd 0e1c 00bd 03f4 7cbd bedd ab3d
00000060: 9363 5a3c aa76 033e a10c e4bd 5642 493e
00000070: 456c 04be f924 11bd 6255 123c 64bb aabc
00000080: 6b65 59be 2be4 24be 66b5 633d cc8d 2fbe
00000090: ffcf 17bc e481 30bd fed5 03bd 7fe0 003e
000000a0: 9c60 033e 077f 0abd 6fb1 073d 614b bd3d
000000b0: 9aaf 08bd 8ac8 423d 17a3 813d 3856 193d
000000c0: 6587 ebbc 4ab0 063e 23f6 8fbd 6193 463e
000000d0: 9811 ae3c 9c56 853d 7216 66be a0b2 7c3f
000000e0: a809 0b3e 5f81 8bbe 78ec 32be e06b e9bd
000000f0: 6395 99bb c235 8a3c c7e9 aabc b8eb 3bbd
00000100: f15d 303c 37c1 03bf 52a0 0f3d 5cb1 1eba
00000110: f18c a93d 7461 43be 8df6 cd3d 1f42 8c3d
00000120: 029b debd b7c6 0fbe 295e 99bc 0f94 ba3a
00000130: 4f74 b63d bc3a f6b8 18e1 5cbe faa6 03bc
00000140: ee47 533d 7d9d f0bd 8d60 8ebd 7dda 5abe
00000150: d116 cdbe b27c 093f a624 6fbe 488a d03d
00000160: 9401 ef3d b403 3ebe df7a 233d 4242 4f3d
00000170: 3d44 84bd 2c0c 3a3d b3f8 b53e 7618 ebbb
00000180: fecf f1be 3db5 243e de9d d53d 5ecf fdbd
00000190: 3254 0ebe 971f 45bc b46a 043e da27 203e
000001a0: 00a9 253e 6c34 abbd 58e9 21bd 0641 a6bd
000001b0: de18 923d 1700 dfbd e501 d33d 5031 45bd
000001c0: 3df6 503f d7ad 00bd 5033 083e bfca 7cbd
000001d0: 13ed 893e 321a 4cbe 0b63 41bd 9cc1 803e
000001e0: 3c0b 82bd f96e 663b b27c ac3d 845a 93bd
000001f0: 32a3 87bd fcc4 7cbf 14fd 3bbd faa7 debd
00000200: 6f69 5a3d 231f 2dba eded 8b3c 7f78 3e3f
00000210: 42ec d9bd 7a29 113b e048 973d dc19 713e
00000220: b943 1b3d 65d5 003e 682b 1ebe 9796 22be
00000230: 0750 b7bd 479d d73d 972b be3c ec42 6e3e
00000240: f636 07be 0236 50bf 3db2 753e 0b88 bfbe
00000250: 629f 6ebe a8ae f63b e922 7bbd 3193 44be
00000260: 0d81 69be d900 38bd e188 743e 9966 a43d
00000270: ec51 ca3d 33c2 c7bd 6df3 8dbd 7b01 53be
00000280: 0dd6 c4bd 94d5 943d a40b 0c3e 3a2c 1ebe
00000290: d71a 33be d988 2b3a 28cd 20bc ec53 a43c
000002a0: cae3 32bd 5ff4 043d 3066 f53d f15e 273e
000002b0: b469 d23d 8bdc 9a3d 847e 1d3d e45e 92bc
000002c0: 0ec0 e73c 4320 ccbc 7000 a23d 5e1c afbe
000002d0: 8f61 f3bd 9455 813b 38df 143e b24b 43bc
000002e0: 54f4 353e 1574 6dbd c6d9 0e3e f19b 6c3d
000002f0: 18a6 06bf 8cc8 f5bd 03c7 403e 47ae 7cb9
00000300: e583 083f ebf8 6abd 39b0 c0bd 9b39 413c
00000310: e596 7c3e d1c8 e9bb 9623 d0bc a59b 053e
00000320: 2c04 1cbe 55c3 3fbc 9468 303a 8765 26be
00000330: c810 81be 1efb 0cbf 1844 0dbe 3ac2 ed3b
00000340: 67fb 35be 1976 c83d eca4 0f3c 8dce 5d3d
00000350: 3eac 273d bf25 403d bf47 ae3e 5b84 a2be
00000360: 3728 8a3d 135c 80bb 8e57 193e de57 ee3b
00000370: 5d06 b6bd fafc 203d be73 54bc 672d 013e
00000380: 4d7c d3bd 191d 18bd 3e6d bd3d 57c3 c03d
00000390: bb7b 8aba 283a fb3d 1c47 31be 1f9f 27be
000003a0: 072a ec3c 1922 6fbe 99c9 f03c 12c9 a23d
000003b0: 0924 ecbc 2c7e 173d 72b5 4a3d 4f4d 96be
000003c0: da9d 3b3e 6ad0 1cbd 29f4 533e d34b 413d
000003d0: 27bc 053f 86de d6bc f371 09bc 039f 133e
000003e0: 4cd5 1cbe f17a 813c d408 54be 4e66 c8bc
000003f0: c9db 013d c86d 8fbe ebf6 84bd df13 3dbd
-0.2914967 -0.07536102 -0.03746021 -0.043673545 -0.06093599 0.06946866 -0.049779996 -0.014215294
-0.17848058 -0.03732157 -0.0135370605 -0.05537407 -0.022973798 0.1569661 0.06593229 0.046681143
-0.11048913 -0.31488052 0.030709311 -0.1820109 -0.106611125 -0.031276755 -0.061756145 0.08391903
0.013329404 0.12838235 -0.11135221 0.19654211 -0.12931927 -0.03543565 0.00893149 -0.020841308
-0.21230094 -0.16102664 0.055592917 -0.17143935 -0.009265899 -0.043092623 -0.0321865 0.12585638
0.12829822 -0.03381255 0.0331282 0.09242893 -0.03337059 0.04755453 0.06329935 0.03743574
-0.028751085 0.13153186 -0.07029369 0.19392158 0.021248624 0.0651066 -0.224695 0.9871006
0.13577902 -0.2724714 -0.17473018 -0.11397529 -0.0046869977 0.016871337 -0.020863427 -0.045879096
0.010764585 -0.514667 0.035065003 -0.000605365 0.082788356 -0.19080144 0.100567915 0.06848549
-0.10869409 -0.14040647 -0.018721657 0.0014234799 0.08908903 -0.00011741134 -0.21570241 -0.008035416
0.05158227 -0.117487885 -0.06952009 -0.21372409 -0.4005647 0.53705895 -0.23353824 0.10182625
0.11670223 -0.185561 0.0399121 0.050600298 -0.06458328 0.045421764 0.35541305 -0.007174547
-0.47228998 0.16084762 0.104305014 -0.12393068 -0.13899305 -0.012031457 0.12931329 0.15640202
0.1617775 -0.08359608 -0.039529175 -0.08117871 0.07133649 -0.10888689 0.10303096 -0.04814273
0.8162573 -0.031415787 0.13300824 -0.06171679 0.26938686 -0.19931868 -0.047213595 0.25147712
-0.06349799 0.003516136 0.08422221 -0.07194999 -0.06622924 -0.98738074 -0.04589565 -0.10871883
0.053323206 -0.0006604066 0.017081225 0.7440261 -0.10640766 0.0022149966 0.07386947 0.23545021
0.037906382 0.12581404 -0.15446246 -0.15877758 -0.08950811 0.10528045 0.023214145 0.23267716
-0.1320456 -0.8133241 0.23993774 -0.3740848 -0.23302987 0.007528145 -0.06131259 -0.19196774
-0.22803135 -0.044922683 0.2388034 0.080273814 0.098789066 -0.097538374 -0.069311954 -0.20606034
-0.096111394 0.07267299 0.13676316 -0.15446559 -0.17490707 0.0006543524 -0.009814538 0.020059548
-0.043674268 0.032459613 0.11982381 0.16344811 0.102740675 0.075615965 0.038450733 -0.017867513
0.028289821 -0.024917727 0.0791024 -0.3420133 -0.11883842 0.0039469693 0.14538276 -0.011919903
0.17768985 -0.057972033 0.13950261 0.057765905 -0.5259719 -0.12001142 0.18825917 -0.00024097516
0.53326255 -0.057366293 -0.09408612 0.011793519 0.24666937 -0.007134535 -0.025407594 0.13047655
-0.15235966 -0.011704286 0.00067294505 -0.16249667 -0.25208116 -0.55070674 -0.13795507 0.0072558196
-0.17771684 0.0978815 0.008767348 0.05415206 0.040935747 0.046910997 0.34039113 -0.31741604
0.067459516 -0.003917226 0.14974806 0.007273658 -0.088879324 0.039303757 -0.012967048 0.12614976
-0.10326443 -0.037137125 0.09249352 0.09412258 -0.0010565439 0.12266952 -0.17312282 -0.16369294
0.028828634 -0.23352851 0.029393004 0.07948507 -0.028825777 0.03698556 0.049489446 -0.29355857
0.18321934 -0.038284697 0.20698608 0.047191452 0.5224022 -0.026229154 -0.008388984 0.14416127
-0.15315741 0.015805693 -0.20706493 -0.024462845 0.031703744 -0.28013444 -0.06492408 -0.04616153

fc3.bias f4 [32]
00000000: 36cd 8abc 8818 2b3d f8e3 97bb c92b 88bc
00000010: f07a df3c 9f93 aa3b 6859 3b3c cae2 c23c
00000020: 007b 0bbb e6e8 483a 4d63 033c b3e4 c63c
00000030: 4d90 3737 d1f6 693c da7f 193c bd19 263b
00000040: 7e8b 293f aaff 2a3f 1e62 293f 07a9 2a3f
00000050: 0525 2a3f 9bfe 2b3f 6a8f 2c3f 9b33 2b3f
00000060: 60f2 293f f90c 2c3f 74d6 293f 8410 293f
00000070: 1193 293f 5a93 283f 7825 2a3f 6ce2 283f
-0.016943555 0.04177144 -0.0046353303 -0.01662244 0.0272803 0.005205586 0.01143489 0.023789782
-0.002128303 0.0007664099 0.008019281 0.024278974 1.0941248e-05 0.014280037 0.009368861 0.002534493
0.66228473 0.6679636 0.6616534 0.66664165 0.6646274 0.6718537 0.6740633 0.6687562
0.6638546 0.67207295 0.66342854 0.66040826 0.6624003 0.6584984 0.6646342 0.6597049
