puppersim/dc_saves/aac_slow_straight_pupper_0/critic2_19.pt (torch, 38295 bytes, 5 tensors)

fc1.weight f4 [80, 31]
-0.72427 -0.6251431 -0.07536925 0.2918402 0.21281552 0.290779 0.732935 -1.0053395
-0.24181877 0.64806837 -0.48703215 0.1937516 0.30875608 0.059075475 -1.536631 0.25519857
0.4052202 -0.018407097 -0.06612221 -0.24456729 0.104083695 0.2599173 0.18732616 0.26237193
0.6100079 -0.07785108 0.21932578 0.19394898 -0.14058754 0.016774287 -0.5709008 -0.75881475
-0.833912 1.1111429 -0.123725995 -0.37295 -0.15237868 0.6947353 0.24887611 -0.15341425
0.34947488 0.43633503 0.10459178 0.3688803 -0.30764398 -0.37842777 0.06164525 -0.29832998
0.0007783862 -0.20259936 -0.1824763 0.08358065 0.052653227 0.14285392 -0.21765868 0.037221674
0.009559547 0.0907479 -0.042737477 -0.23569426 0.059041865 0.3322486 -0.1327827 0.22239886
0.67990154 -0.01571307 0.11120885 0.876083 0.017460497 -0.5086103 0.3099987 0.6350441
-0.22775023 0.6439508 0.7593004 0.48205942 0.16105673 0.06382347 -0.16959794 -0.17932568
0.010008158 -0.036884133 -0.091520555 -0.060334533 -0.169139 0.11087135 0.055713158 -0.23417707
0.070542976 0.14014363 -0.2844634 0.12522379 -0.12625922 -0.24265154 0.63750285 2.1066613
1.6901929 -1.5522077 1.2026843 1.0113226 -1.790455 -3.7577398 -0.0004766474 -0.9145944
-0.3124905 -0.52017516 -1.7393308 -2.235125 -0.08156573 0.022703005 0.0011574683 -0.18122594
-0.008096565 -0.06642877 -0.030379437 -0.07846976 0.053757228 0.04531219 0.14168176 0.102983
-0.026933122 -0.00015723823 -0.01210743 -0.004423075 -0.7510662 -0.7464906 0.46873602 0.47909337
-1.2969412 -0.32148305 -0.21339276 0.0694929 -0.5371416 1.0770111 -0.6107947 -0.26629207
0.23783854 -0.20990479 -0.9796385 0.007663625 -0.5644183 0.0654347 0.17982192 0.23024854
0.06935106 -0.1944999 0.17337838 0.049291793 0.13387889 0.30887645 0.0127532985 -0.024471138
0.019300446 0.43849766 0.1408767 0.08113649 0.0110642975 -0.88582045 -1.0618873 0.12443445
-0.35664612 -0.18856134 -0.5611943 1.8054954 1.779848 -0.10669278 0.6204652 0.45082793
-0.29044226 -0.026565526 -0.012273897 -0.008040849 -0.010906274 0.008243184 0.0009715458 -0.008306306
0.009890038 -0.011413881 7.0330476e-05 -0.008337114 0.010285998 0.007828636 0.0009904578 0.009199042
-0.0071211546 0.01175291 -1.3590262 0.32928875 0.16182795 0.5019183 1.847573 0.38342032
1.0391004 -0.299522 -0.2763466 0.85181564 -3.6151397 0.69708097 0.5488941 0.41658723
-1.5861762 0.20006166 0.43029457 -0.41925386 -0.19987579 -0.7995224 0.17236921 0.094773464
-0.062108953 -0.0948733 0.2440218 -0.52257264 0.025490202 -0.2711847 0.45426005 0.10835148
0.028211132 -0.5152849 0.8006006 -0.3291449 -0.047942854 -0.5883947 -0.1592932 0.25647694
0.8053282 0.11517878 0.27904516 0.3515583 -1.0441554 0.10711273 -1.233632 -0.33896366
-0.05531885 -0.008800554 -0.14626224 -0.017125057 0.034367744 0.17543353 -0.17921521 -0.025641108
0.2735366 -0.045019485 -0.056777947 -0.00617721 -0.029954601 0.16659223 0.30121744 -0.010131468
-0.9432217 0.36856973 -0.18901849 0.44097772 -0.39279285 -0.36150926 0.6223786 -0.59957534
00000000: c269 39bf 6109 20bf 315b 9abd 146c 953e
00000010: 50ec 593e fce0 943e a1a1 3b3f f7ae 80bf
00000020: 579f 77be cfe7 253f 475c f9be d266 463e
00000030: 4715 9e3e 20f9 713d 53b0 c4bf 63a9 823e
00000040: 0679 cf3e 7bca 96bc 156b 87bd d96f 7abe
00000050: d529 d53d e113 853e 6ed2 3f3e 9d55 863e
00000060: 7a29 1c3f 6370 9fbd f096 603e 909a 463e
00000070: 2ef6 0fbe 3b6a 893c 8e26 12bf af41 42bf
00000080: 427b 55bf ee39 8e3f 0e64 fdbd 4df3 bebe
00000090: 2809 1cbe 2cda 313f 61d9 7e3e a018 1dbe
000000a0: 5fee b23e 4e67 df3e 3734 d63d e1dd bc3e
000000b0: 8383 9dbe 49c1 c1be bb7f 7c3d b5be 98be
000000c0: 9d0c 4c3a 3576 4fbe 11db 3abe 552c ab3d
000000d0: e9aa 573d 4c48 123e ebe1 5ebe c175 183d
000000e0: a59f 1c3c 09da b93d 7e0d 2fbd d659 71be
000000f0: e2d5 713d 7d1c aa3e 30f8 07be 87bc 633e
00000100: 070e 2e3f b2b8 80bc 77c1 e33d fa46 603f
00000110: 5109 8f3c 4934 02bf 26b8 9e3e 4092 223f
00000120: 5b37 69be f6d9 243f 8361 423f 7ed0 f63e
00000130: 0eec 243e e1b5 823d 15ab 2dbe 27a1 37be
00000140: 42f9 233c d113 17bd 216f bbbd 5821 77bd
00000150: c632 2dbe 8510 e33d 7b33 643d 1dcc 6fbe
00000160: d678 903d d081 0f3e 30a5 91be aa3a 003e
00000170: 194a 01be a579 78be 6333 233f 8ad3 0640
00000180: 3e58 d83f beae c6bf 8ff1 993f 0573 813f
00000190: a12d e5bf cf7e 70c0 88e6 f9b9 dc22 6abf
000001a0: c1fe 9fbe 332a 05bf 64a2 debf 4a0c 0fc0
000001b0: ef0b a7bd a7fb b93c 31b6 973a 4b93 39be
000001c0: 74a7 04bc cf0b 88bd 4cde f8bc c1b4 a0bd
000001d0: 8a30 5c3d 4699 393d 0615 113e c0e8 d23d
000001e0: daa2 dcbc 51e0 24b9 3e5e 46bc 71ef 90bb
000001f0: e045 40bf 021a 3fbf 2bfe ef3e ba4b f53e
00000200: 2b02 a6bf 6d99 a4be a283 5abe 4b52 8e3d
00000210: 1d82 09bf 80db 893f 0b5d 1cbf 6f57 88be
00000220: f28b 733e 48f1 56be 97c9 7abf 251f fb3b
00000230: b87d 10bf a102 863d 3d23 383e 46c6 6b3e
00000240: ee07 8e3d fb2a 47be 1a8a 313e 31e6 493d
00000250: 8c17 093e 0e25 9e3e 36f3 503c b277 c8bc
00000260: f81b 9e3c c482 e03e fb41 103e e32a a63d
00000270: 0747 353c 21c5 62bf eceb 87bf 7dd7 fe3d
00000280: 529a b6be 3916 41be 6eaa 0fbf 791a e73f
00000290: 0fd2 e33f bf81 dabd cfd6 1e3f ebd2 e63e
000002a0: d9b4 94be f29f d9bc 7518 49bc c4bd 03bc
000002b0: 3bb0 32bc 6b0e 073c 56af 7e3a 2c17 08bc
000002c0: d309 223c 4901 3bbc 637e 9338 6498 08bc
000002d0: 9a86 283c ae43 003c 40d2 813a 94b7 163c
000002e0: 9358 e9bb 478f 403c 92f4 adbf 8998 a83e
000002f0: 3ab6 253e b87d 003f 467d ec3f ab4f c43e
00000300: 3e01 853f f35a 99be 4d7d 8dbe 9710 5a3f
00000310: 735e 67c0 e673 323f 5384 0c3f ec4a d53e
00000320: d207 cbbf f7dc 4c3e 924f dc3e 71a8 d6be
00000330: 3dac 4cbe 80ad 4cbf 8e81 303e 9718 c23d
00000340: f565 7ebd ef4c c2bd dae0 793e 52c7 05bf
00000350: d4d0 d03c b9d8 8abe c694 e83e 61e7 dd3d
00000360: 081b e73c b6e9 03bf 29f4 4c3f ae85 a8be
00000370: ba5f 44bd 09a1 16bf c21d 23be f250 833e
00000380: fd29 4e3f dae2 eb3d 02df 8e3e 73ff b33e
00000390: e2a6 85bf eb5d db3d a7e7 9dbf a58c adbe
000003a0: 0596 62bd 3330 10bc c5c5 15be d949 8cbc
000003b0: 31c5 0c3d d9a4 333e 3184 37be 4d0d d2bc
000003c0: fd0c 8c3e 5a66 38bd fe8f 68bd 316a cabb
000003d0: 5a63 f5bc 2797 2a3e 2c39 9a3e 75fe 25bc
000003e0: fa76 71bf 2cb5 bc3e 108e 41be d5c7 e13e
000003f0: 251c c9be be17 b9be 3454 1f3f c57d 19bf

fc1.bias f4 [80]
-0.2501108 -0.4676522 -1.7195147 0.17874402 0.10778731 0.25089034 -0.0562901 0.37108433
-0.0013566642 -0.39447415 -0.27583125 -0.4984493 0.14384209 0.45073307 0.0067676553 -0.23433048
-1.2572534 0.028165247 -0.35577503 -0.030010307 -0.9287244 -0.29094347 0.15430397 -0.4323425
-1.047939 0.6232984 -0.27003396 -0.396188 -0.3601765 -0.9610084 0.25223243 -0.09417397
-0.2897124 -0.1420857 -0.24998035 0.040439077 0.10206637 0.2860218 -0.06489243 0.0626524
-0.39719394 -1.0118772 0.19164668 0.45458084 -0.1555861 -0.1407168 0.0093026785 -0.62269014
-0.17952614 0.63178104 -0.32271656 -0.033105943 0.31644148 0.3169291 0.8487877 -0.34002632
-1.4692512 1.8241533 -0.3660337 -0.4832652 0.51143795 0.5558548 -0.11745343 0.23439658
-0.027551 -1.8081437 -3.2212908 -2.104806 0.38087732 -0.616205 -0.009397944 -1.0631876
3.016893 -0.11999 0.08151854 0.27446115 -2.1311657 -1.000434 0.3891841 -0.26965633
00000000: 860e 80be 1c70 efbe 0f19 dcbf ac08 373e
00000010: 98bf dc3d b374 803e 7390 66bd c4fe bd3e
00000020: 19d2 b1ba 84f8 c9be c139 8dbe bf34 ffbe
00000030: 574b 133e 7cc6 e63e 35c3 dd3b 54f4 6fbe
00000040: aeed a0bf ceba e63c 2528 b6be 2dd8 f5bc
00000050: e2c0 6dbf 8bf6 94be dc01 1e3e ff5b ddbe
00000060: dd22 86bf 7c90 1f3f e441 8abe 27d9 cabe
00000070: 0e69 b8be a604 76bf 9c24 813e 48de c0bd
00000080: 2f55 94be ea7e 11be d9fa 7fbe 72a3 253d
00000090: 2c08 d13d 7371 923e 53e6 84bd e74f 803d
000000a0: 015d cbbe 3185 81bf 073f 443e d2be e83e
000000b0: f651 1fbe 1118 10be 436a 183c 9f68 1fbf
000000c0: b3d5 37be 67bc 213f 1b3b a5be 199a 07bd
000000d0: 9e04 a23e 8844 a23e 274a 593f ee17 aebe
000000e0: 6c10 bcbf db7d e93f c568 bbbe 896e f7be
000000f0: 99ed 023f 804c 0e3f 6d8b f0bd a805 703e
00000100: a2b2 e1bc 4171 e7bf a129 4ec0 24b5 06c0
00000110: 5a02 c33e 9cbf 1dbf d6f9 19bc 8816 88bf
00000120: c614 4140 51bd f5bd 31f3 a63d 2c86 8c3e
00000130: 0565 08c0 390e 80bf 2343 c73e 6510 8abe

fc2.weight f4 [80, 80]
0.31459445 0.21201976 -0.12826915 -0.03130108 0.367419 -0.04217125 -0.26697266 -0.36309588
-1.0820447 -0.25815892 0.42756277 -2.2636251 -0.09496579 -0.30576134 -0.58248764 0.069454655
-0.21714245 0.12630107 -0.29094112 -0.113578744 -0.1375843 0.47334003 -0.89201015 -0.011137337
0.23644163 -1.4487191 -0.037790943 0.19350848 0.6086139 -0.19329254 0.7086192 0.18905279
-4.2758307 0.05316273 -0.32556498 0.568143 -0.49475643 -0.19574389 0.08708514 -0.18664412
0.056749824 -0.10231419 0.53610855 -0.07826053 -0.41176775 0.87158006 0.008365575 -0.19447494
0.27025864 -0.3720162 -0.33894336 0.0831877 -0.15558298 -0.16509655 0.2231018 -1.5823683
-0.45814806 0.086436555 0.17481443 -0.24372467 -2.1329677 -0.21245484 -0.30632177 -1.9659369
-3.185285 0.021511592 0.20852436 0.14752835 -0.27591446 -0.05711065 -0.26370606 -0.26011947
-12.802925 0.5913573 0.13310549 0.9004367 1.5026729 -0.07578594 -3.7484872 -0.16111024
-0.82149583 -0.96873415 0.7603997 -0.40619498 -0.74462605 0.13439004 -0.5457412 -1.1897867
-2.2805386 -1.0514978 -1.4582598 -1.2366745 -1.0257692 -0.5811026 -0.87706375 -0.6099208
-1.4676731 -1.8204776 -0.81134504 -0.90327984 -1.5960567 -1.3242688 -0.565679 -0.10671224
-1.3856295 -0.5193133 -0.46252957 -0.21742308 0.5413939 -2.144765 -1.0911119 -0.4496571
-0.6452802 -0.5083687 -1.7706871 -0.82850444 -2.1248403 -0.5495957 -0.5254418 -0.76546526
-2.0431516 0.2632084 -2.091908 -0.9953327 -0.29766476 0.113239534 0.06907582 0.17822517
-0.23522535 -0.51944464 0.561116 -1.3421148 -0.3801518 -0.9092867 -1.6389899 -2.7139084
-0.073590904 -0.23680085 -1.9334294 -2.1786768 -0.56168973 -1.4734516 -0.9359517 -2.2976017
-0.65052104 -0.93150973 -0.14370069 0.06551506 -1.2437878 -1.1033077 -0.054500535 -1.2995329
-0.18039577 0.29547393 -1.445493 -1.1143198 -1.2205096 -0.015567158 -2.0663347 -0.6232434
-0.5249022 -0.9428906 -1.6369087 -1.8454553 -0.98437905 -0.018747276 1.0362664 -0.34068334
-0.9195955 0.7151047 -0.024050688 0.33797252 0.14111233 0.5645822 0.32107452 0.10949726
-0.60188675 -0.5498097 -1.2249445 -0.5078085 -0.04608321 -1.7751904 0.07296495 -0.05229091
-0.5992222 -1.2221715 -0.18234485 -0.41728842 -1.208865 -0.12675336 -0.1004644 0.59508854
-2.174988 -2.7589276 -1.7754538 -1.1617328 -0.20693117 0.74750406 1.5309558 -0.08979734
0.42599088 -1.7879766 -0.5534635 0.20057225 -0.375335 -3.2205596 -0.41613257 0.2871071
-3.0091667 1.0378547 -0.64970475 0.25145787 0.5652848 0.43857193 0.124968305 0.31915504
-1.3946631 -0.10505381 -2.2410214 -1.3875192 -0.980392 0.911245 -0.7789641 0.37200192
-1.0005534 -0.09509915 -0.25541195 -0.7875428 0.75186634 -1.2539579 0.11232069 -0.33909214
-12.054447 -1.4228511 -0.39723614 -3.3662715 -0.8707688 0.4092414 -0.6027939 0.76427096
-0.18324031 0.29972154 0.18446703 1.6243706 -0.25545928 0.89420235 -0.592862 0.776713
0.57545173 -0.88717824 0.32531935 0.0979111 0.20624082 -0.36729875 -0.66534233 0.2150069
00000000: 8612 a13e b51b 593e fd58 03be 9035 00bd
00000010: 581e bc3e c3bb 2cbd a4b0 88be b4e7 b9be
00000020: 7180 8abf 682d 84be 82e9 da3e 3cdf 10c0
00000030: 6d7d c2bd c08c 9cbe e91d 15bf 3e3e 8e3d
00000040: 975a 5ebe 1155 013e 3cf6 94be f99b e8bd
00000050: e6e2 0cbe a059 f23e c75a 64bf 6179 36bc
00000060: c11d 723e a16f b9bf adca 1abd 1627 463e
00000070: 1fce 1b3f 7bee 45be 1168 353f 0e97 413e
00000080: 9bd3 88c0 2ac1 593d 74b0 a6be d271 113f
00000090: b750 fdbe 1671 48be b259 b23d a31f 3fbe
000000a0: 8172 683d 1a8a d1bd 693e 093f 0f47 a0bd
000000b0: 39d3 d2be df1f 5f3f c40f 093c 7024 47be
000000c0: 575f 8a3e e878 bebe fc89 adbe 505e aa3d
000000d0: 2551 1fbe 120f 29be cc74 643e 0b8b cabf
000000e0: 6292 eabe a605 b13d 8e02 333e f692 79be
000000f0: 8b82 08c0 c38d 59be 35d6 9cbe d2a3 fbbf
00000100: b6db 4bc0 1439 b03c 6987 553e ac11 173e
00000110: a944 8dbe dbec 69bd 7b04 87be 612e 85be
00000120: c8d8 4cc1 3163 173f ce4c 083e 0583 663f
00000130: 9657 c03f a935 9bbd 37e7 6fc0 15fa 24be
00000140: 8d4d 52bf f6fe 77bf 8ea9 423f caf8 cfbe
00000150: d09f 3ebf 8b9d 093e b2b5 0bbf ee4a 98bf
00000160: 58f4 11c0 7b97 86bf 42a8 babf 5a4b 9ebf
00000170: 684c 83bf 24c3 14bf 4087 60bf c523 1cbf
00000180: b6dc bbbf 6905 e9bf 4fb4 4fbf 593d 67bf
00000190: 964b ccbf a481 a9bf 57d0 10bf f28b dabd
000001a0: 4f5c b1bf b7f1 04bf add0 ecbe 28a4 5ebe
000001b0: ca98 0a3f d443 09c0 8ea9 8bbf 7539 e6be
000001c0: 1531 25bf 7324 02bf e0a5 e2bf de18 54bf
000001d0: 62fd 07c0 4eb2 0cbf 5b83 06bf 88f5 43bf
000001e0: ffc2 02c0 40c3 863e d2e1 05c0 20ce 7ebf
000001f0: 8467 98be 21ea e73d a077 8d3d a980 363e
00000200: eade 70be 53fa 04bf 4ca5 0f3f 6bca abbf
00000210: 42a3 c2be 03c7 68bf 6cca d1bf adb0 2dc0
00000220: d4b6 96bd ec7b 72be 9d7a f7bf 716f 0bc0
00000230: e6ca 0fbf 109a bcbf 889a 6fbf e80b 13c0
00000240: 8c88 26bf 6c77 6ebf 4626 13be c32c 863d
00000250: 7034 9fbf 3039 8dbf f43b 5fbd 1857 a6bf
00000260: abb9 38be 5c48 973e ea05 b9bf 08a2 8ebf
00000270: a939 9cbf 650d 7fbc d43e 04c0 e18c 1fbf
00000280: fe5f 06bf 4761 71bf 3986 d1bf e137 ecbf
00000290: 4400 7cbf e393 99bc 61a4 843f 0c6e aebe
000002a0: 9c6a 6bbf 1a11 373f f305 c5bc bc0a ad3e
000002b0: c07f 103e 7688 103f e163 a43e 1940 e03d
000002c0: 4015 1abf 54c0 0cbf fbca 9cbf bdff 01bf
000002d0: bfc1 3cbd 7039 e3bf a66e 953d fe2e 56bd
000002e0: a066 19bf 1e70 9cbf 9cb8 3abe d4a6 d5be
000002f0: 17bc 9abf a2cb 01be 48c0 cdbd b957 183f
00000300: 0133 0bc0 4592 30c0 1242 e3bf a9b3 94bf
00000310: c4e5 53be 6d5c 3f3f 5cf6 c33f abe7 b7bd
00000320: 7a1b da3e 6bdc e4bf c9af 0dbf d062 4d3e
00000330: e92b c0be a61d 4ec0 540f d5be b4ff 923e
00000340: 3096 40c0 6cd8 843f 0d53 26bf 16bf 803e
00000350: 81b6 103f 808c e03e 62ef ff3d 4a68 a33e
00000360: 5284 b2bf 7426 d7bd e56c 0fc0 3b9a b1bf
00000370: f8fa 7abf 5a47 693f 316a 47bf 0977 be3e
00000380: 2212 80bf 58c3 c2bd 5bc5 82be 689c 49bf
00000390: 507a 403f b181 a0bf 6408 e63d 7c9d adbe
000003a0: 04df 40c1 fc1f b6bf 8962 cbbe fe70 57c0
000003b0: b4ea 5ebf 1788 d13e b350 1abf 43a7 433f
000003c0: 59a3 3bbe 1a75 993e ede4 3c3e 60eb cf3f
000003d0: 8fcb 82be 72ea 643f cec5 17bf aad6 463f
000003e0: ce50 133f 1d1e 63bf 4290 a63e 9d85 c83d
000003f0: cb30 533e 950e bcbe e053 2abf c52a 5c3e

fc2.bias f4 [80]
1.1196744 -0.55335444 1.2982517 -1.7922803 -0.89689904 -0.5503169 -0.50170726 -0.3941875
-2.4355335 -0.4204887 -0.3046912 -0.45214227 -1.3510137 -0.59885985 -0.32993186 -0.27988467
-0.8432583 -0.54976606 -2.2162583 -0.24966054 -0.3268456 -0.4684995 -2.3784986 -0.29806596
-0.35573748 -0.57975155 -0.8337557 -0.441165 -0.4269869 -1.1209636 -0.0063135033 -1.7984021
-0.46334082 -0.9584548 -1.7657881 -1.6461573 -0.63196915 -0.23197697 -1.0651642 -1.0795587
-3.9891171 -5.1031485 -1.9863362 -2.1991832 -0.40302032 -0.4317676 -0.6873256 -0.5734203
-5.4990783 -1.3842578 -2.9352021 -1.0824857 0.42882365 -2.717117 -2.0873375 -0.51815873
-0.5366954 -1.0653168 -1.1072674 -0.11850501 -0.86494577 -0.39156413 -0.3207623 -0.5347612
0.74701375 -1.4580096 -6.813602 -0.24591966 -0.21530561 -4.7622614 -0.23249027 -0.055687107
-0.6769301 -2.1452203 -2.8600147 -0.3205646 -2.6349201 -0.29537308 2.1111672 -0.6093163
00000000: 7e51 8f3f a3a8 0dbf 1d2d a63f 7169 e5bf
00000010: 2d9b 65bf 91e1 0cbf e36f 00bf f2d2 c9be
00000020: c8df 1bc0 4b4a d7be 7c00 9cbe 317f e7be
00000030: 04ee acbf e14e 19bf d4ec a8be 0b4d 8fbe
00000040: c7df 57bf 78bd 0cbf 2dd7 0dc0 03a7 7fbe
00000050: 4e58 a7be 2bdf efbe 5239 18c0 1a9c 98be
00000060: 3923 b6be 996a 14bf 0371 55bf 61e0 e1be
00000070: 079e dabe bc7b 8fbf 81e1 cebb 0a32 e6bf
00000080: 023b edbe 4b5d 75bf 5805 e2bf 48b5 d2bf
00000090: bbc8 21bf 5f8b 6dbe 4d57 88bf fb2e 8abf
000000a0: b24d 7fc0 fe4c a3c0 4440 febf 6bbf 0cc0
000000b0: ae58 cebe a510 ddbe 92f4 2fbf accb 12bf
000000c0: 73f8 afc0 5c2f b1bf 5ada 3bc0 e48e 8abf
000000d0: c68e db3e 3fe5 2dc0 f096 05c0 0da6 04bf
000000e0: df64 09bf 4d5c 88bf f0ba 8dbf c1b2 f2bd
000000f0: 166d 5dbf 187b c8be f53a a4be 1ce6 08bf
00000100: 4b3c 3f3f 0fa0 babf 0709 dac0 5dd2 7bbe
00000110: 1379 5cbe 7264 98c0 ee11 6ebe 2a18 64bd
00000120: 4b4b 2dbf 4a4b 09c0 7b0a 37c0 0b21 a4be
00000130: 88a2 28c0 243b 97be 5d1d 0740 27fc 1bbf

fc3.weight f4 [1, 80]
-0.30556753 -0.04073987 -0.07461728 0.0041334303 -0.20201266 0.052112658 -0.039167177 0.0008088371
-0.047519363 -1.5658325 -0.21862487 -0.17103918 0.007181248 -1.1746643 0.030981136 -0.8861766
0.016776782 -0.027756823 -0.00039434736 -0.5181029 0.019222409 -0.037184265 -0.0027860717 -1.7717675
-1.6675339 -0.04259836 -0.025058847 -1.5728847 -1.3840597 -0.009262062 -0.8774945 -0.0036309694
-0.9446792 0.0055314032 0.013760228 -0.003982492 -1.2200397 -0.1027868 -0.021581851 -0.31608948
-0.015812958 0.00764693 -0.55271137 -0.08551626 -1.5694948 -1.1148201 -0.0018960752 -0.03402013
0.03069438 -0.013739977 -0.0062243724 0.009278251 0.0055119027 -0.029334342 0.00024126742 -1.4583884
-0.9245231 0.052794088 0.467882 -0.47651905 -0.23028791 -1.621603 -1.2198966 -1.5032204
0.2799448 0.19883105 -0.0043789446 -1.6296468 -0.7812286 -0.00685215 0.38434553 -0.1381361
-0.9442495 -0.84907055 -0.016044771 -1.7217877 0.007583176 -0.96301645 -0.013689915 0.0043113185
00000000: 5973 9cbe dade 26bd f2d0 98bd ba71 873b
00000010: 68dc 4ebe 1574 553d c36d 20bd 2408 543a
00000020: aaa3 42bd 336d c8bf 33df 5fbe e524 2fbe
00000030: ad50 eb3b 665b 96bf 27cc fd3c 78dc 62bf
00000040: 766f 893c 4762 e3bc 68c0 ceb9 64a2 04bf
00000050: 5078 9d3c 874e 18bd 8796 36bb 47c9 e2bf
00000060: c071 d5bf 9e7b 2ebd 3648 cdbc 4954 c9bf
00000070: de28 b1bf e7bf 17bc 7ba3 60bf 8ff5 6dbb
00000080: 7fd6 71bf c640 b53b 9472 613c 907f 82bb
00000090: 432a 9cbf e381 d2bd 6ccc b0bc 7bd6 a1be
000000a0: 2d8a 81bc 1993 fa3b 7e7e 0dbf 2623 afbd
000000b0: 35e5 c8bf 6db2 8ebf ba85 f8ba b158 0bbd
000000c0: c872 fb3c a41d 61bc d2f5 cbbb ce03 183c
000000d0: 319d b43b 934e f0bc bbfc 7c39 79ac babf
000000e0: 8cad 6cbf 9d3e 583d 3b8e ef3e 4efa f3be
000000f0: 98d0 6bbe b090 cfbf 9225 9cbf 8769 c0bf
00000100: ed54 8f3e 5e9a 4b3e 407d 8fbb 4498 d0bf
00000110: 99fe 47bf 0088 e0bb f0c8 c43e 8d73 0dbe
00000120: 56ba 71bf b05c 59bf 5370 83bc 8a63 dcbf
00000130: 4a7c f83b 3f88 76bf aa4b 60bc f645 8d3b
