puppersim/dc_saves/aac_slow_straight_pupper_0/critic2_22.pt (torch, 38295 bytes, 5 tensors)

fc1.weight f4 [80, 31]
-0.71908516 -0.625041 -0.07246227 0.28663096 0.21292597 0.29081997 0.72872216 -1.0049001
-0.23895213 0.6441103 -0.48712185 0.19663718 0.304151 0.063325204 -1.5370691 0.26003566
0.40995145 -0.013375913 -0.06680862 -0.24616167 0.10563642 0.26238742 0.19040802 0.26754406
0.61483586 -0.080060855 0.21930465 0.19630982 -0.14415821 0.021775557 -0.5749258 -0.7563047
-0.83852977 1.1129192 -0.12650028 -0.37028378 -0.15472542 0.69340664 0.25362104 -0.15600023
0.34737554 0.43817618 0.10537509 0.36726046 -0.3094915 -0.38135183 0.059692588 -0.29843223
0.008718215 -0.20472242 -0.18493208 0.08343721 0.058643132 0.13919689 -0.21835957 0.038914077
0.012208878 0.09640455 -0.044321615 -0.23525958 0.068269 0.33442193 -0.1327827 0.22239886
0.67990154 -0.01571307 0.11120885 0.876083 0.017460497 -0.5086103 0.3099987 0.6350441
-0.22775023 0.6439508 0.7593004 0.48205942 0.16105673 0.06382347 -0.16959794 -0.17932568
0.010008158 -0.036884133 -0.091520555 -0.060334533 -0.169139 0.11087135 0.055713158 -0.23417707
0.070542976 0.14014363 -0.2844634 0.12522379 -0.12625922 -0.24118955 0.6391323 2.1102772
1.6859467 -1.557205 1.2057341 1.0079706 -1.7949935 -3.7561846 -0.0046185586 -0.9166992
-0.30781764 -0.52335274 -1.7368025 -2.231389 -0.08698624 0.023937374 -0.00039842766 -0.18371457
-0.0056826714 -0.07184751 -0.02725578 -0.08166599 0.050588824 0.042342655 0.13859974 0.10893053
-0.032960113 0.0010662783 -0.008914017 -0.009180329 -0.7510662 -0.7464906 0.46873602 0.47909337
-1.2969412 -0.32148305 -0.21339276 0.0694929 -0.5371416 1.0770111 -0.6107947 -0.26629207
0.23783854 -0.20990479 -0.9796385 0.007663625 -0.5644183 0.0654347 0.17982192 0.23024854
0.06935106 -0.1944999 0.17337838 0.049291793 0.13387889 0.30887645 0.0127532985 -0.024471138
0.019300446 0.43849766 0.1408767 0.501193 -0.0782814 0.06890348 -0.21764569 0.06477453
-0.02079303 -0.16614321 -0.41643816 1.5694953 1.2321867 -0.28156713 0.8362805 0.76707613
0.036998853 0.39237407 -0.0007663361 0.03430612 0.0037305572 -0.02284958 0.025555031 0.032542016
0.026544122 0.0050528627 -0.016734729 0.016590828 0.023251073 0.01876512 0.00646563 0.021354124
0.07094924 -0.0030243595 -1.3590262 0.32928875 0.16182795 0.5019183 1.847573 0.38342032
1.0391004 -0.299522 -0.2763466 0.85181564 -3.6151397 0.69708097 0.5488941 0.41658723
-1.5861762 0.20006166 0.43029457 -0.41925386 -0.19987579 -0.7995224 0.17236921 0.094773464
-0.062108953 -0.0948733 0.2440218 -0.52257264 0.025490202 -0.2711847 0.45426005 0.10835148
0.028211132 -0.5152849 0.8006006 -0.3291449 -0.047942854 -0.5883947 -0.1592932 0.25647694
0.8053282 0.11517878 0.27904516 0.3515583 -1.0441554 0.10711273 -1.233632 -0.33896366
-0.05531885 -0.008800554 -0.14626224 -0.017125057 0.034367744 0.17543353 -0.17921521 -0.025641108
0.2735366 -0.045019485 -0.056777947 -0.00617721 -0.029954601 0.16659223 0.30121744 -0.010131468
-0.9432217 0.36856973 -0.18901849 0.44097772 -0.39279285 -0.36150926 0.6223786 -0.59957534
00000000: f715 38bf b002 20bf 1967 94bd 4bc1 923e
00000010: 4409 5a3e 5be6 943e 898d 3a3f 91a0 80bf
00000020: deaf 74be 6ae4 243f 0968 f9be 425b 493e
00000030: aeb9 9b3e a5b0 813d aebe c4bf 6523 853e
00000040: 28e5 d13e a526 5bbc f5d2 88bd ce11 7cbe
00000050: e857 d83d a557 863e 52fa 423e 89fb 883e
00000060: e265 1d3f f2f6 a3bd 6691 603e 7105 493e
00000070: 369e 13be a762 b23c 562e 13bf 2f9d 41bf
00000080: e3a9 56bf 2374 8e3f 4a89 01be d695 bdbe
00000090: 5770 1ebe 1983 313f 9eda 813e 86be 1fbe
000000a0: 35db b13e a158 e03e e5ce d73d 9009 bc3e
000000b0: ab75 9ebe 8c40 c3be 3780 743d 1ccc 98be
000000c0: d8d6 0e3c c1a2 51be d65e 3dbe 21e1 aa3d
000000d0: c833 703d a189 0e3e a799 5fbe 5e64 1f3d
000000e0: bf07 483c c06f c53d 958a 35bd e3e7 70be
000000f0: 9ed0 8b3d 5a39 ab3e 30f8 07be 87bc 633e
00000100: 070e 2e3f b2b8 80bc 77c1 e33d fa46 603f
00000110: 5109 8f3c 4934 02bf 26b8 9e3e 4092 223f
00000120: 5b37 69be f6d9 243f 8361 423f 7ed0 f63e
00000130: 0eec 243e e1b5 823d 15ab 2dbe 27a1 37be
00000140: 42f9 233c d113 17bd 216f bbbd 5821 77bd
00000150: c632 2dbe 8510 e33d 7b33 643d 1dcc 6fbe
00000160: d678 903d d081 0f3e 30a5 91be aa3a 003e
00000170: 194a 01be 65fa 76be 2d9e 233f c80e 0740
00000180: 1acd d73f 7e52 c7bf 7f55 9a3f 2e05 813f
00000190: 59c2 e5bf 5465 70c0 4757 97bb ccac 6abf
000001a0: 469a 9dbe 72fa 05bf 8b4f debf 14cf 0ec0
000001b0: d825 b2bd 5018 c43c 0ee4 d0b9 ac1f 3cbe
000001c0: b435 babb ca24 93bd 8347 dfbc 8040 a7bd
000001d0: 3a36 4f3d 7e6f 2d3d 17ed 0d3e f816 df3d
000001e0: 2f01 07bd 5dc2 8b3a 190c 12bc 1769 16bc
000001f0: e045 40bf 021a 3fbf 2bfe ef3e ba4b f53e
00000200: 2b02 a6bf 6d99 a4be a283 5abe 4b52 8e3d
00000210: 1d82 09bf 80db 893f 0b5d 1cbf 6f57 88be
00000220: f28b 733e 48f1 56be 97c9 7abf 251f fb3b
00000230: b87d 10bf a102 863d 3d23 383e 46c6 6b3e
00000240: ee07 8e3d fb2a 47be 1a8a 313e 31e6 493d
00000250: 8c17 093e 0e25 9e3e 36f3 503c b277 c8bc
00000260: f81b 9e3c c482 e03e fb41 103e 2f4e 003f
00000270: 0052 a0bd 451d 8d3d 83de 5ebe 82a8 843d
00000280: 2556 aabc 7221 2abe 6237 d5be 39e5 c83f
00000290: 4bb8 9d3f 9129 90be 7b16 563f 1a5f 443f
000002a0: 1c8c 173d 41e5 c83e f2e3 48ba 9384 0c3d
000002b0: 5d7c 743b 0b2f bbbc c958 d13c c74a 053d
000002c0: 0f73 d93c 7c92 a53b 4517 89bc 7de9 873c
000002d0: 0979 be3c 4fb9 993c a3dd d33b d8ee ae3c
000002e0: d64d 913d 5534 46bb 92f4 adbf 8998 a83e
000002f0: 3ab6 253e b87d 003f 467d ec3f ab4f c43e
00000300: 3e01 853f f35a 99be 4d7d 8dbe 9710 5a3f
00000310: 735e 67c0 e673 323f 5384 0c3f ec4a d53e
00000320: d207 cbbf f7dc 4c3e 924f dc3e 71a8 d6be
00000330: 3dac 4cbe 80ad 4cbf 8e81 303e 9718 c23d
00000340: f565 7ebd ef4c c2bd dae0 793e 52c7 05bf
00000350: d4d0 d03c b9d8 8abe c694 e83e 61e7 dd3d
00000360: 081b e73c b6e9 03bf 29f4 4c3f ae85 a8be
00000370: ba5f 44bd 09a1 16bf c21d 23be f250 833e
00000380: fd29 4e3f dae2 eb3d 02df 8e3e 73ff b33e
00000390: e2a6 85bf eb5d db3d a7e7 9dbf a58c adbe
000003a0: 0596 62bd 3330 10bc c5c5 15be d949 8cbc
000003b0: 31c5 0c3d d9a4 333e 3184 37be 4d0d d2bc
000003c0: fd0c 8c3e 5a66 38bd fe8f 68bd 316a cabb
000003d0: 5a63 f5bc 2797 2a3e 2c39 9a3e 75fe 25bc
000003e0: fa76 71bf 2cb5 bc3e 108e 41be d5c7 e13e
000003f0: 251c c9be be17 b9be 3454 1f3f c57d 19bf

fc1.bias f4 [80]
-0.24492592 -0.46514267 -1.7195147 0.1816944 0.10778731 -0.6800228 -0.0562901 0.37108433
-0.0013566642 -0.030292025 -0.27583125 -0.49398577 -0.080839425 0.55259705 0.00086141285 -0.23627235
-1.0628353 0.026763828 -0.35453755 -0.024665741 -0.9351542 -0.2808249 0.15430397 -0.4323425
-1.1181585 0.6232984 -0.27003396 -0.33437902 -0.3601765 -0.8414798 0.25223243 -0.09156511
-0.358342 -0.14181581 0.020411367 0.040439077 0.103194155 0.4483445 -0.06489243 0.065371886
-0.38137436 -1.0118772 0.19164668 0.7660331 -0.1555861 -0.1407168 0.0145068485 -0.37730506
-0.18051615 0.6574668 -0.32347202 -0.03184471 0.3190554 0.61668676 1.2473978 -0.34002632
-0.9046154 1.5572284 -0.3660337 -0.4832652 0.5144343 0.46025735 -0.020236438 0.22923256
-0.027551 -1.807058 -2.2670798 -1.7258238 0.7331127 -0.61848587 0.1894827 -0.95592487
2.6167068 -0.110036716 0.083534494 0.26907942 -1.5749161 -1.000434 0.3891841 -0.26965633
00000000: dccd 7abe 2e27 eebe 0f19 dcbf 190e 3a3e
00000010: 98bf dc3d f915 2ebf 7390 66bd c4fe bd3e
00000020: 19d2 b1ba fb26 f8bc c139 8dbe b4eb fcbe
00000030: 248f a5bd 0077 0d3f 70d0 613a 61f1 71be
00000040: fd0a 88bf d13f db3c f285 b5be cf0f cabc
00000050: 4466 6fbf 48c8 8fbe dc01 1e3e ff5b ddbe
00000060: d11f 8fbf 7c90 1f3f e441 8abe ba33 abbe
00000070: 0e69 b8be 386b 57bf 9c24 813e 7d86 bbbd
00000080: 9a78 b7be 2a38 11be bd35 a73c 72a3 253d
00000090: 7557 d33d 698d e53e 53e6 84bd b2e1 853d
000000a0: 8043 c3be 3185 81bf 073f 443e bf1a 443f
000000b0: f651 1fbe 1118 10be 22ae 6d3c 212e c1be
000000c0: 3ad9 38be bf4f 283f 209e a5be 996f 02bd
000000d0: 3b5b a33e 2fdf 1d3f bbaa 9f3f ee17 aebe
000000e0: e094 67bf 4353 c73f c568 bbbe 896e f7be
000000f0: f7b1 033f daa6 eb3e e3c6 a5bc f1bb 6a3e
00000100: a2b2 e1bc ad4d e7bf d617 11c0 cbe7 dcbf
00000110: 46ad 3b3f 1755 1ebf c107 423e 7eb7 74bf
00000120: 2078 2740 ee5a e1bd 2214 ab3d c7c4 893e
00000130: da96 c9bf 390e 80bf 2343 c73e 6510 8abe

fc2.weight f4 [80, 80]
0.31459445 0.22011474 -0.12826915 -0.004242766 0.367419 0.04162111 -0.26697266 -0.36309588
-1.0820447 -0.068511695 0.42756277 -2.2467744 -0.11853211 0.069025174 -0.57149553 0.069454655
-0.19030033 0.11690831 -0.2065618 -0.11924549 -0.16237433 0.5520357 -0.89201015 -0.011137337
0.35945106 -1.4487191 -0.037790943 0.06535944 0.6086139 -0.081185795 0.7086192 0.15156078
-2.8129394 0.05316273 -0.10426197 0.568143 -0.49475643 -0.08552716 0.08708514 -0.18664412
0.056749824 -0.10231419 0.53610855 -0.09077924 -0.41176775 0.87158006 0.0021980566 -0.049016025
0.29058355 -0.08317296 -0.33894336 0.08917946 -0.007577726 -0.031470343 0.011604338 -1.5823683
-0.12466739 -0.07110554 0.17481443 -0.24372467 -2.1182685 0.555053 -0.041152354 -1.9659369
-3.185285 -0.15073325 0.10378729 0.17373183 -0.025002394 -0.056386415 -0.13228379 0.31196105
-7.0580444 0.5873859 0.13310549 0.90157956 -0.03257601 -0.07578594 -3.7484872 -0.16111024
-0.82149583 -0.96873415 0.7603997 -0.40619498 -0.74462605 0.12106531 -0.5457412 -1.1897867
-2.2805386 -1.0514978 -1.4582598 -1.2366745 -1.0257692 -0.5811026 -0.87706375 -0.6099208
-1.4672157 -1.8204776 -0.81134504 -0.90327984 -1.5960567 -1.3242688 -0.565679 -0.10671224
-1.3856295 -0.5193133 -0.46252957 -0.22887932 0.5413939 -2.144765 -1.0911119 -0.4496571
-0.6452802 -0.5083687 -1.7706871 -0.82850444 -2.1248403 -0.5495957 -0.5254418 -0.76546526
-2.0431516 0.2632084 -2.091908 -0.9953327 -0.29766476 0.113239534 0.06907582 0.17822517
-0.23522535 -0.51944464 0.561116 -1.3421148 -0.3801518 -0.9092867 -1.6389899 -2.7139084
-0.064545475 -0.23680085 -1.9334294 -2.1786768 -0.56168973 -1.4734516 -0.9359517 -2.2976017
-0.65052104 -0.93150973 -0.14370069 0.05438236 -1.2437878 -1.1033077 -0.054500535 -1.2978612
-0.18039577 0.29547393 -1.445493 -1.1143198 -1.2205096 -0.015567158 -2.0663347 -0.6232434
-0.5249022 -0.9359198 -1.6369087 -1.8454553 -0.98437905 -0.68832785 1.0362664 -0.34068334
-0.9195955 0.41840562 -0.024050688 0.35326058 0.08482904 -0.14860849 0.33335426 0.10949726
-1.1764781 -0.5508385 -1.2177402 -0.48866802 -0.054441653 -1.7714919 0.07296495 -0.05229091
-0.9804148 -1.2221715 -0.18234485 -0.5154499 -1.208865 0.0285932 -0.1004644 0.5569075
-0.9466477 -2.7589276 -0.77251583 -1.1617328 -0.20693117 0.23590286 1.5309558 -0.08979734
0.42599088 -1.7879766 -0.5534635 0.04176082 -0.375335 -3.2205596 -0.481555 0.10086981
-3.0179315 0.29696685 -0.64970475 0.25568533 0.46902063 -0.058859523 0.48571554 0.31915504
0.2778796 0.20800345 -2.2410214 -1.3875192 -0.9710154 1.092469 0.11266742 0.37200192
-1.0005534 0.35710815 -0.04028666 -1.329794 0.29036084 -1.2536734 0.3809805 -0.5340549
-5.780132 -1.4228511 -0.39723614 -3.3662715 -0.32334894 0.4092414 -0.6027939 0.76427096
-0.18324031 0.29972154 0.18446703 1.6243706 -0.25545928 0.9009026 -0.592862 0.776713
0.57545173 -0.94914067 0.32531935 0.0979111 0.18727995 -0.3217336 -0.66534233 0.2150069
00000000: 8612 a13e c265 613e fd58 03be e706 8bbb
00000010: 581e bc3e e67a 2a3d a4b0 88be b4e7 b9be
00000020: 7180 8abf dc4f 8cbd 82e9 da3e 27cb 0fc0
00000030: f6c0 f2bd 125d 8d3d 884d 12bf 3e3e 8e3d
00000040: 17de 42be a06d ef3d f084 53be fb36 f4bd
00000050: 7545 26be 3652 0d3f c75a 64bf 6179 36bc
00000060: f809 b83e a16f b9bf adca 1abd 2cdb 853d
00000070: 1fce 1b3f bd44 a6bd 1168 353f c032 1b3e
00000080: 3307 34c0 2ac1 593d 4d87 d5bd d271 113f
00000090: b750 fdbe dd28 afbd b259 b23d a31f 3fbe
000000a0: 8172 683d 1a8a d1bd 693e 093f 77ea b9bd
000000b0: 39d3 d2be df1f 5f3f 450d 103b 07c5 48bd
000000c0: 5ec7 943e 9656 aabd fc89 adbe b9a3 b63d
000000d0: 934e f8bb 0ce7 00bd 1f20 3e3c 0b8b cabf
000000e0: 9e51 ffbd c89f 91bd 8e02 333e f692 79be
000000f0: b691 07c0 f417 0e3f 5f8f 28bd d2a3 fbbf
00000100: b6db 4bc0 d159 1abe 6e8e d43d c2e6 313e
00000110: d2d1 ccbc 71f5 66bd 6775 07be 5cb9 9f3e
00000120: 80db e1c0 ec5e 163f ce4c 083e ebcd 663f
00000130: 6c6e 05bd a935 9bbd 37e7 6fc0 15fa 24be
00000140: 8d4d 52bf f6fe 77bf 8ea9 423f caf8 cfbe
00000150: d09f 3ebf 17f1 f73d b2b5 0bbf ee4a 98bf
00000160: 58f4 11c0 7b97 86bf 42a8 babf 5a4b 9ebf
00000170: 684c 83bf 24c3 14bf 4087 60bf c523 1cbf
00000180: b9cd bbbf 6905 e9bf 4fb4 4fbf 593d 67bf
00000190: 964b ccbf a481 a9bf 57d0 10bf f28b dabd
000001a0: 4f5c b1bf b7f1 04bf add0 ecbe 575f 6abe
000001b0: ca98 0a3f d443 09c0 8ea9 8bbf 7539 e6be
000001c0: 1531 25bf 7324 02bf e0a5 e2bf de18 54bf
000001d0: 62fd 07c0 4eb2 0cbf 5b83 06bf 88f5 43bf
000001e0: ffc2 02c0 40c3 863e d2e1 05c0 20ce 7ebf
000001f0: 8467 98be 21ea e73d a077 8d3d a980 363e
00000200: eade 70be 53fa 04bf 4ca5 0f3f 6bca abbf
00000210: 42a3 c2be 03c7 68bf 6cca d1bf adb0 2dc0
00000220: 6b30 84bd ec7b 72be 9d7a f7bf 716f 0bc0
00000230: e6ca 0fbf 109a bcbf 889a 6fbf e80b 13c0
00000240: 8c88 26bf 6c77 6ebf 4626 13be 0ac0 5e3d
00000250: 7034 9fbf 3039 8dbf f43b 5fbd 5120 a6bf
00000260: abb9 38be 5c48 973e ea05 b9bf 08a2 8ebf
00000270: a939 9cbf 650d 7fbc d43e 04c0 e18c 1fbf
00000280: fe5f 06bf 7198 6fbf 3986 d1bf e137 ecbf
00000290: 4400 7cbf 4136 30bf 61a4 843f 0c6e aebe
000002a0: 9c6a 6bbf 4339 d63e f305 c5bc 92de b43e
000002b0: d9ba ad3d d32c 18be 69ad aa3e 1940 e03d
000002c0: d696 96bf c003 0dbf e9de 9bbf b232 fabe
000002d0: 36fe 5ebd 3fc0 e2bf a66e 953d fe2e 56bd
000002e0: 77fc 7abf 1e70 9cbf 9cb8 3abe 86f4 03bf
000002f0: 17bc 9abf 493c ea3c 48c0 cdbd 7d91 0e3f
00000300: 8157 72bf 4592 30c0 99c3 45bf a9b3 94bf
00000310: c4e5 53be 8590 713e 5cf6 c33f abe7 b7bd
00000320: 7a1b da3e 6bdc e4bf c9af 0dbf 650d 2b3d
00000330: e92b c0be a61d 4ec0 618e f6be d594 ce3d
00000340: ca25 41c0 0a0c 983e 0d53 26bf 30e9 823e
00000350: 7923 f03e af16 71bd b5af f83e 4a68 a33e
00000360: 3c46 8e3e dbfe 543e e56c 0fc0 3b9a b1bf
00000370: 7794 78bf 06d6 8b3f 2dbe e63d 0977 be3e
00000380: 2212 80bf e1d6 b63e a003 25bd b136 aabf
00000390: 2daa 943e 5f78 a0bf e00f c33e d2b7 08bf
000003a0: d7f6 b8c0 fc1f b6bf 8962 cbbe fe70 57c0
000003b0: fe8d a5be 1788 d13e b350 1abf 43a7 433f
000003c0: 59a3 3bbe 1a75 993e ede4 3c3e 60eb cf3f
000003d0: 8fcb 82be 8ea1 663f cec5 17bf aad6 463f
000003e0: ce50 133f e2fa 72bf 4290 a63e 9d85 c83d
000003f0: 51c6 3f3e 44ba a4be e053 2abf c52a 5c3e

fc2.bias f4 [80]
1.2912166 -0.5637363 0.513553 -1.6716497 -0.91750485 -1.7114341 -1.0362203 -0.50351965
-2.4860218 -0.38135836 -0.33261877 -0.42302698 -1.3510137 -0.5166731 -0.032709133 -0.24906297
-0.8432583 -0.51827127 -2.577395 -0.24950111 -0.29659614 -0.5467299 -2.325786 -0.29829088
-0.35573748 -0.4569109 -0.74430615 -0.45071676 -0.4184393 -1.0802078 -0.0021278702 -1.7984021
-0.44235352 -0.9659242 -1.7232156 -0.49829823 -0.59560966 0.12098976 -1.1117166 -1.0678856
-3.327993 -2.183829 -3.0465927 -2.405475 -0.40302032 -0.44136313 -0.666353 -1.258869
-4.51426 -1.3429304 -2.8717084 -0.9687894 -0.012289196 -3.4131374 -2.0287385 -0.49098116
-0.5385925 -1.164311 -1.4106895 -0.36647204 -0.86494577 -0.3723669 -0.31125546 -0.5634621
0.8203094 -0.9631443 -1.5875077 -0.23639886 -0.20505269 -0.8940747 -0.23249027 -0.4004308
-0.6768818 -1.6528552 -2.0329075 -0.29200822 -2.6378362 -0.2759503 -0.88322973 -0.16633539
00000000: 9646 a53f 0651 10bf 3678 033f 9ef8 d5bf
00000010: 99e1 6abf 4610 dbbf dea2 84bf aae6 00bf
00000020: fb1a 1fc0 6741 c3be 024d aabe fe96 d8be
00000030: 04ee acbf b044 04bf 03fa 05bd 5d0a 7fbe
00000040: c7df 57bf 6dad 04bf 0af4 24c0 387d 7fbe
00000050: 73db 97be 7ef6 0bbf aed9 14c0 95b9 98be
00000060: 3923 b6be 3af0 e9be d98a 3ebf 59c4 e6be
00000070: ad3d d6be 4044 8abf bd73 0bbb 0a32 e6bf
00000080: 297c e2be cf46 77bf 5492 dcbf f220 ffbe
00000090: e079 18bf 7bc9 f73d bb4c 8ebf 7ab0 88bf
000000a0: d6fd 54c0 dbc3 0bc0 60fb 42c0 4df3 19c0
000000b0: ae58 cebe 59fa e1be 1c96 2abf 9f22 a1bf
000000c0: d174 90c0 25e5 abbf 12ca 37c0 9502 78bf
000000d0: a058 49bc d870 5ac0 dad6 01c0 e261 fbbe
000000e0: 33e1 09bf 2508 95bf 7991 b4bf 39a2 bbbe
000000f0: 166d 5dbf e0a6 bebe e05c 9fbe 0d3f 10bf
00000100: ccff 513f a090 76bf 7433 cbbf 8b12 72be
00000110: 55f9 51be 14e2 64bf ee11 6ebe 4405 cdbe
00000120: 2048 2dbf c290 d3bf 281b 02c0 1a82 95be
00000130: 4fd2 28c0 5c49 8dbe 581b 62bf d353 2abe

fc3.weight f4 [1, 80]
-0.249109 0.0077292444 -0.1459927 -0.01393583 -0.20728798 0.0028709401 -0.026712725 -0.010542224
-0.008787878 -1.5793868 -0.20981872 -0.15781833 0.007181248 -1.2512108 0.013695131 -0.9332418
0.016776782 -0.019057978 0.0004634387 -0.5221338 -0.011813976 0.0014266659 0.021871101 -1.7700709
-1.6675339 -0.3513305 -0.03403918 -1.5634536 -1.4210676 -0.17253004 -0.87370306 -0.0036309694
-1.0125355 0.0025680687 -0.032539252 -0.06642101 -1.2683144 -0.02156152 -0.0109362025 -0.33210948
-0.10536643 0.0038458765 -0.029566536 0.0028437492 -1.5694948 -1.1015341 -0.01633594 -0.5901495
-0.021461409 -0.009947473 -0.0015431021 0.0036801754 -0.027486019 0.016863901 -0.023010606 -1.4552537
-0.9104909 -0.0011776595 -0.118820995 -0.020104337 -0.23028791 -1.6489054 -1.2351274 -1.4901502
0.4064277 -0.34501988 0.001670116 -1.6299369 -0.7990367 -0.32116646 0.38434553 -0.019257566
-0.93843526 -0.37934703 -0.03198482 -1.7482034 -0.013233949 -0.9779526 -0.008302573 -0.030699631
00000000: 6e16 7fbe 9a45 fd3b 1c7f 15be 1c53 64bc
00000010: 4d43 54be 6226 3c3b a5d4 dabc 4bb9 2cbc
00000020: 08fb 0fbc 5929 cabf b8da 56be 219b 21be
00000030: ad50 eb3b ad27 a0bf 8b61 603c efe8 6ebf
00000040: 766f 893c 7a1f 9cbc b0f9 f239 90aa 05bf
00000050: 688f 41bc f7fe ba3a 062b b33c af91 e2bf
00000060: c071 d5bf 97e1 b3be ab6c 0bbd 3f1f c8bf
00000070: 8be5 b5bf b7ab 30be 01ab 5fbf 8ff5 6dbb
00000080: c39a 81bf 0b4d 283b e147 05bd bd07 88bd
00000090: 2058 a2bf c9a1 b0bc c22d 33bc 410a aabe
000000a0: 5bca d7bd 1a0b 7c3b 8535 f2bc 325e 3a3b
000000b0: 35e5 c8bf 12ff 8cbf f3d2 85bc 0a14 17bf
000000c0: d6cf afbc bafa 22bc ea41 caba 192f 713b
000000d0: 5c2a e1bc 2a26 8a3c bd80 bcbc c145 babf
000000e0: ee15 69bf b25b 9aba 6c58 f3bd dab1 a4bc
000000f0: 98d0 6bbe 550f d3bf a818 9ebf 3ebd bebf
00000100: 4b17 d03e 72a6 b0be cbe7 da3a c6a1 d0bf
00000110: ab8d 4cbf ee6f a4be f0c8 c43e 0bc2 9dbc
00000120: 4b3d 70bf c639 c2be 8402 03bd 21c5 dfbf
00000130: 35d3 58bc 1a5b 7abf 8407 08bc cb7d fbbc
