puppersim/dc_saves/aac_slow_straight_pupper_0/critic1_2.pt (torch, 38295 bytes, 5 tensors)

fc1.weight f4 [80, 31]
000000 13 ca 31 3e 9b 39 d6 3d cb a3 7d 3f 91 78 a7 3f
       0.17362241 0.10460206 0.99078053 1.3083669
000010 0d db 32 3f 06 8c 95 bf 0f 5a 10 3f 67 89 d7 bf
       0.69865495 -1.1683357 0.5638742 -1.6838807
000020 0f 19 aa 3e 1f 61 1b 3f 86 1a aa bf fb 18 2e bf
       0.33222243 0.6069507 -1.3289344 -0.6800687
000030 aa 8b 54 3f 91 df 14 3f fe dd 1e bf 46 b5 ba 3c
       0.8302561 0.58153635 -0.62057483 0.022791516
000040 58 5d 13 be 94 0a 0e be 0c 38 bd be a3 c3 c5 3e
       -0.14391077 -0.13871223 -0.36956823 0.3862582
000050 4f 98 8f be ef 56 bc be 7d d7 8e 3e 18 20 a3 bb
       -0.2804589 -0.36785075 0.2789878 -0.004978191
000060 6a e4 d3 be 16 b8 80 be db 5f ea bc 5e 6c a4 be
       -0.41385204 -0.25140446 -0.02861016 -0.32113928
000070 81 e0 ab bd e9 6e c5 bc e0 c1 f7 3d ad ea a6 bf
       -0.0839243 -0.024100738 0.120975256 -1.3040367
000080 f8 6f 84 bf 42 6a 11 bd e4 77 42 3d 7b 73 b8 bf
       -1.034667 -0.035501726 0.047477618 -1.4410242
000090 fd e5 38 bf 4f 66 88 3e 30 1c 03 3f f5 1a c3 bf
       -0.72225934 0.26640555 0.51214886 -1.5242602
0000a0 56 b6 da be 5e 5e 20 3f 07 e7 cd bf 54 d9 76 bf
       -0.42717236 0.6264399 -1.6086129 -0.96425366
0000b0 2b 0a 93 be a9 c3 c8 bd 59 a5 4f be 4d db 29 3e
       -0.28718695 -0.09802944 -0.20277919 0.16587563
0000c0 8f a7 86 3e be 5d 12 be 23 8c 2c be 40 d1 8f be
       0.26299712 -0.14293572 -0.16850333 -0.28089333
0000d0 15 c9 ec 3b 43 2e 18 be 3d ae 94 3c b7 d0 40 bd
       0.0072261193 -0.14861397 0.01814949 -0.047074046
0000e0 41 7d 84 bc aa cc d9 bd ad 0b e9 bd b3 0f 58 3b
       -0.016173007 -0.1063474 -0.1137918 0.0032968342
0000f0 f7 74 15 3e aa 34 a7 bc 1f 2d 44 bf 00 57 8d 3f
       0.145954 -0.020410854 -0.7663135 1.1042175
000100 4f ca 74 3e 7f cc c8 3e 91 99 a4 3e a8 5f 45 3e
       0.239053 0.39218518 0.32148412 0.19274771
000110 54 da a7 3e 00 1d ac 3f ed 7e 60 bd 46 a3 4d 3e
       0.3278376 1.344635 -0.054808546 0.20081815
000120 73 83 77 3f 84 29 45 be 6f 67 be 3e 5a 65 bc bf
       0.9668495 -0.19254118 0.3718829 -1.471843
000130 f5 3d fe be 6d c1 54 3d d0 bb 1d be 25 97 8d 3d
       -0.49656644 0.051942278 -0.15403676 0.06913594
000140 87 1d 26 3e b3 44 6d bc a7 e2 d6 3e c0 6a 75 bb
       0.16222201 -0.014481711 0.41969797 -0.003744766
000150 bc 41 9e 3d 65 98 96 3e 05 bd 54 3e ff 06 23 3d
       0.077273816 0.29413143 0.2077523 0.039801594
000160 09 d3 88 3e 2f dd 26 bc f5 ee b8 bd 3d 0e 06 be
       0.26723507 -0.01018457 -0.090299524 -0.13091369
000170 33 30 9f 3d 24 43 2d be 15 ae c1 3d f2 31 45 be
       0.07772865 -0.16920143 0.09457032 -0.19257334
000180 e4 d9 14 3e 62 54 a0 bd a7 2f 47 3d ad e6 1d 3e
       0.14536244 -0.07828595 0.04862943 0.15420027
000190 ec da 1e 3d f7 a2 1c 3c d9 8e 33 3e 70 42 75 3c
       0.038783 0.009560338 0.17534961 0.014969453
0001a0 55 c8 e3 3d bd f4 4e 3e 77 82 f1 3c 74 0f f3 bd
       0.11122195 0.20210548 0.029481156 -0.11868182
0001b0 8f fe aa 3b 2b 0f 1d be ea 87 26 be a6 ae 7a 3d
       0.005218334 -0.15337817 -0.16262785 0.061201714
0001c0 2d b1 1b 3d 7c 1a 53 bc 99 1a 49 3c 6a de 04 3d
       0.038010765 -0.012884732 0.012274408 0.032438673
0001d0 2f 66 b4 bd 08 b8 7f 3d 1a a9 22 3c 3a b9 f4 bd
       -0.088085525 0.062431365 0.009928012 -0.11949392
0001e0 9f 44 b0 bc ba 6d a9 bb ab c8 f0 bc 94 07 a5 bd
       -0.021517096 -0.005170551 -0.029392561 -0.08058086
0001f0 8b e2 af bf e8 eb 2f bf 15 d1 86 3f 1b d9 38 3f
       -1.374101 -0.6871934 1.0532557 0.72206277
000200 e4 ab b9 bf 13 30 bf be c7 0b 09 3e 75 85 af 3f
       -1.4505582 -0.37341365 0.13383399 1.3712603
000210 da 15 ba bf c5 74 20 be bb f3 ba bf dc 5c 5d bf
       -1.4537919 -0.15669544 -1.4605631 -0.8646982
000220 c3 4d 6c bf 4e 1e 57 3f df 08 81 bf 4d 7d f9 3c
       -0.92306155 0.84030616 -1.0080832 0.030455256
000230 2a c2 f9 bd e5 81 0c bc 93 35 4b 3d f7 d9 8a 3d
       -0.12195237 -0.008575891 0.04961164 0.06779855
000240 61 53 f0 bc e9 35 ca 3c 58 34 a8 bd db 48 4e bd
       -0.029336633 0.02468391 -0.08213109 -0.05036245
000250 f6 66 a8 3d be 51 1f bd 98 dd ca 3c fe 04 11 3d
       0.08222763 -0.038896315 0.024763867 0.03540515
000260 2e a9 c0 bd ee 59 08 3d f1 1e 65 3b 39 6a 47 bf
       -0.094072685 0.03328889 0.003496107 -0.7789646
000270 da bb f4 3e 01 60 e3 3e 7f 70 c8 3e c1 97 6e 3f
       0.4779957 0.44409183 0.39148328 0.9320031
000280 bd 92 54 3f c9 db 30 be b0 27 a7 bc 74 6e 74 3d
       0.83036405 -0.17271341 -0.020404667 0.05967565
000290 ee 3d 35 3e 49 fb 4e 3f 31 c5 aa 3e 3d 69 28 3f
       0.17699406 0.8085218 0.3335357 0.6578558
0002a0 ec 5b 1d 3f 1a fd 1b be 7f 6a 17 3c 14 ba bc bd
       0.61468387 -0.1523327 0.009241699 -0.09215179
0002b0 95 c2 9e bd 15 bc db 3c c8 b4 14 bc 98 be 0d be
       -0.07751957 0.026823083 -0.009076305 -0.13842237
0002c0 3e 0e 3d 3c 2f cb 3c bc 63 7f cc 3d bd 4f 85 bc
       0.01153904 -0.011523052 0.099852346 -0.016273374
0002d0 18 21 4a bc 05 f5 30 bd 10 c6 a1 3c bf e3 f5 bd
       -0.012336992 -0.04320242 0.019747764 -0.1200633
0002e0 73 dd 84 3d 58 7e c8 3c cb 32 b4 bf f9 98 c2 3e
       0.064875506 0.024474308 -1.4078001 0.38007334
0002f0 29 c5 98 3e f1 a9 4b be ca f9 31 be c8 f8 16 be
       0.2983792 -0.19889046 -0.17380443 -0.1474334
000300 07 cd 98 3e f6 ab 74 3e 4d 8e 41 bf e8 ba 13 bf
       0.29843923 0.23893723 -0.7560776 -0.5770707
000310 85 34 36 3f 9a 47 a3 bf ab 0d 7d bf 84 f4 90 bf
       0.7117389 -1.2756226 -0.9884898 -1.132462
000320 14 51 20 be 90 54 86 3b a0 f3 84 be 97 4f f2 3b
       -0.15655929 0.004099436 -0.2596712 0.0073947418
000330 91 ff 04 bd 1e 1f f4 3b 05 28 a3 3d 82 33 07 3e
       -0.03247029 0.0074499985 0.079666175 0.13203242
000340 3e b8 08 bd 97 c6 f7 bc f8 21 17 3e cb 62 81 bd
       -0.033378832 -0.030246062 0.14759052 -0.063176714
000350 a5 03 5f 3e c3 5f 20 3d 3c d0 13 3d d5 f4 d9 3d
       0.21778734 0.039153825 0.03608726 0.10642401
000360 91 fc c7 bd 9b 08 09 40 6e 05 94 3c fa 4e 3c 3e
       -0.0976497 2.1411502 0.018068995 0.18389502
000370 02 e4 db 3e 9a 38 96 3d 77 dd d0 bb d9 c8 a0 3d
       0.42947394 0.07335015 -0.006374057 0.07850809
000380 65 82 8f 3e f5 17 06 bf 21 05 0c bf f9 6c 10 bd
       0.2802917 -0.52380306 -0.54695326 -0.035260174
000390 a9 f9 e7 be 6e ef ed be 7f c5 19 be 1e 69 3f be
       -0.45307663 -0.46471733 -0.15016745 -0.18692443
0003a0 48 c0 2f 3a 2c 4e ba 3b bf e8 ae 3a 3e 23 5c 3b
       0.00067043724 0.0056855883 0.001334451 0.0033590342
0003b0 22 17 13 b8 04 5f 1e 3c c9 24 3a bb 38 33 69 3b
       -3.5069075e-05 0.009666208 -0.0028403273 0.0035583507
0003c0 6a 63 d1 3b 6f 76 18 bc c2 92 14 bc d1 3c a9 bb
       0.006390025 -0.0093055805 -0.009068193 -0.0051647206
0003d0 06 03 01 3c 0c 61 11 bb 09 c9 14 3c 3c 49 2e 3c
       0.007874256 -0.0022183089 0.009081134 0.010637578
0003e0 30 3b 2f bd be 4d 8e bf 51 4f 45 3f 6a 6b d6 3f
       -0.042781055 -1.1117475 0.7707415 1.675153
0003f0 68 fe 3a bf 90 cd 57 3f d4 a0 a7 3e 95 f5 b7 3f
       -0.73044443 0.8429804 0.3273989 1.4371821

fc1.bias f4 [80]
000000 92 95 42 bf 42 c3 3e 3f 03 09 33 bc 67 a1 8d bc
       -0.76009476 0.7451669 -0.0109274415 -0.017288877
000010 d1 e4 94 be 7c f5 6e be 21 90 23 3e 6b 41 fe bf
       -0.29080823 -0.23335832 0.1597295 -1.9863714
000020 cb aa 93 bf 44 8a 13 c0 c4 f2 bf 3f 66 34 46 3f
       -1.1536497 -2.305314 1.4995961 0.77423704
000030 cd bf 79 3e a8 60 46 3e 48 83 87 bf 1f c3 7b be
       0.24389572 0.19372809 -1.0586939 -0.24586152
000040 33 07 46 bd 9d c5 21 bf 39 99 85 bd c3 e1 16 3f
       -0.04834671 -0.6319216 -0.065233655 0.58938235
000050 18 9a c9 3e dc b4 cf bd b2 16 6e be 34 3a 11 3f
       0.39375377 -0.10141918 -0.23250845 0.56729436
000060 5c 14 91 3e 11 55 fd be 60 71 87 3e cb 64 89 bd
       0.28335845 -0.49478963 0.26453686 -0.06708678
000070 ff 4a 1a bf d1 68 df bf 69 97 d5 3e 5f a2 65 bd
       -0.60270685 -1.7453862 0.4171708 -0.056063052
000080 b9 93 5f bf 78 48 db bd 02 ff bc be fb 86 21 3d
       -0.8733478 -0.10707182 -0.36913306 0.039435368
000090 50 34 35 3f 42 91 61 3f d4 29 c9 3e 77 eb cd 3e
       0.7078295 0.8811227 0.39289725 0.40218708
0000a0 52 df 86 be db 65 4a 3f bb ca e1 3d 48 30 49 bd
       -0.26342255 0.7906167 0.11024996 -0.04911831
0000b0 c4 da ad bf 41 b5 0a 3f 14 13 be 3e 01 d7 96 bf
       -1.3582387 0.5418282 0.3712393 -1.1784364
0000c0 2a 39 f6 3e 15 61 55 bf ba 4e 51 3d b3 ae 1c 3c
       0.48090488 -0.8335126 0.05110047 0.009563136
0000d0 77 25 b4 bf fc 19 16 c0 32 ce 19 be 51 13 08 3e
       -1.4073933 -2.345336 -0.15020064 0.13288619
0000e0 6f f1 81 3f 92 b3 cc 3e 97 b3 b8 3d 00 06 4d bf
       1.0151805 0.3998075 0.09018629 -0.8008728
0000f0 0c 97 ce bf d4 cd 5f 3e b2 59 1d 3e 9c 1d 30 bf
       -1.6139846 0.21855861 0.15366247 -0.6879518
000100 65 9e 27 bc 2a 6b 2c 3f a0 23 83 3e d0 50 89 3e
       -0.010230635 0.6735102 0.25613117 0.26819468
000110 bd 53 80 be 68 63 2d c0 01 a3 ea 3d 28 0c 02 bf
       -0.25063887 -2.7091923 0.11456872 -0.507998
000120 a7 3a f4 be d7 58 7b bf 1b e7 23 be e5 d5 81 bf
       -0.47700998 -0.98182434 -0.16006128 -1.01434
000130 f0 53 b8 3e 8c ad c4 3e 16 52 88 bd d6 4e 8c 3e
       0.3600154 0.38413656 -0.06656282 0.27403897

fc2.weight f4 [80, 80]
000000 05 54 3c bf 98 a3 e4 bf fa 11 39 bf 01 fc 07 bd
       -0.73565704 -1.7862425 -0.72293055 -0.033199314
000010 bf cb 4a bf 4e 8c 29 bf 08 53 c8 be 64 1f 89 be
       -0.7921714 -0.6622971 -0.39125848 -0.26781762
000020 67 e5 1d bf f0 70 fe bf 96 74 49 be f6 8a 21 be
       -0.61678165 -1.9878216 -0.1967338 -0.15775666
000030 44 6c 8f bf 8b ba 8a bf 28 58 8f be 3b af 44 be
       -1.1204915 -1.0838178 -0.27996945 -0.1920747
000040 88 33 0a bf 0b 0f fc 3e a3 0e 00 be b7 ad a3 bf
       -0.5398488 0.49230227 -0.12505583 -1.2787389
000050 70 2e 21 3e 60 f3 9d 3e 0d 3d f7 be 9b ef 76 bf
       0.15740371 0.30849743 -0.48288766 -0.9645936
000060 41 57 41 3e 35 82 6b be 8e 4e 18 3d b7 45 7a bf
       0.18880941 -0.22998889 0.03718429 -0.97762626
000070 33 47 0c be b8 36 d2 3d 52 3c b1 be e0 1a fa be
       -0.13699035 0.10264343 -0.34616333 -0.4884863
000080 55 5c 22 bf db ae 08 bf bf d5 ec be a1 43 a5 3c
       -0.6342214 -0.5339181 -0.46256825 0.02017385
000090 48 d1 4c bf 35 96 e5 bc 80 bc 8f bf bc 34 ad 3c
       -0.8000684 -0.028025726 -1.1229401 0.02114331
0000a0 dc 6b 5c be 69 e4 29 bf 0c 6f 56 bf 10 1a 35 be
       -0.2152552 -0.6636415 -0.83763194 -0.17685723
0000b0 f8 12 52 be 9e 05 91 be 7a 17 4c bf 1a cc 59 bf
       -0.20515049 -0.28324598 -0.7972332 -0.8507706
0000c0 04 fd 0a 3e 76 00 5b be 8a 07 0a bf 97 2b 8f be
       0.1357308 -0.21386895 -0.53917754 -0.27962944
0000d0 af 2e 51 be cc f7 6a be ba e3 80 be 26 de 6a be
       -0.20427965 -0.2294609 -0.25173742 -0.22936305
0000e0 02 f4 c5 bf 89 29 da bf 1c 39 8d be 66 86 87 3d
       -1.546509 -1.7043926 -0.27582633 0.06617431
0000f0 91 8e 13 3d f0 9f a3 bf da 4e 1e 3e 1a 37 06 3e
       0.036024634 -1.2783184 0.15459767 0.13106957
000100 70 a8 99 be 5d 29 11 3e af 6c a5 bd bf d1 21 bf
       -0.3001132 0.14175935 -0.080773704 -0.6321067
000110 17 de 80 be 85 09 bb 3e 38 ae 8a bf 03 a6 95 be
       -0.2516944 0.365307 -1.0834417 -0.2922822
000120 46 bd 26 be c8 b6 a3 bd e2 a0 47 bf e6 fd c8 be
       -0.1628314 -0.07993847 -0.7797986 -0.3925621
000130 6a 1e cd be 51 96 fe 3d f1 06 a4 be fd d5 08 bf
       -0.40062267 0.12431014 -0.32036546 -0.5345152
000140 c0 13 fc bd 9e 74 df 3d e6 1e 8d be 02 7d df bd
       -0.123084545 0.10910915 -0.27562636 -0.10912515
000150 f3 d6 08 3e 90 56 78 bd 39 1f f3 3d 78 24 9c bf
       0.13363247 -0.060629427 0.118711896 -1.2198629
000160 85 74 90 bf d1 df 59 bd 39 9f 06 be da 55 4b 3e
       -1.1285559 -0.053191964 -0.13146676 0.19856969
000170 a3 f0 e4 3e 78 7f bd 3e ca 7d 92 be eb a7 8f 3f
       0.4471484 0.37011313 -0.28611594 1.122312
000180 c0 3d d1 bd 30 24 c4 3e 14 be be 3e 8d 8d f6 3d
       -0.10216856 0.3830886 0.37254393 0.120387174
000190 de ad 03 3e 77 0a 02 3e 9d 5f 9b 3f 71 8b 27 3e
       0.12859294 0.12699305 1.2138554 0.16361786
0001a0 df 56 a7 3e d2 3b a7 3e 4e b4 1e 3e 22 23 a8 3e
       0.32683465 0.32662827 0.15498468 0.32839304
0001b0 ec e8 8e 3c f1 a6 03 3d 8b 54 a6 3e 37 ec 79 3e
       0.01744505 0.03214163 0.32486376 0.24406515
0001c0 92 3e a8 be c9 a5 86 3e ee 6a ab be ae d4 c0 3d
       -0.32860237 0.2629836 -0.33480018 0.094155654
0001d0 e5 79 81 3e 31 dc 1c bf e5 f7 77 3d bb 3a c7 3e
       0.2528831 -0.61273485 0.060539145 0.38911995
0001e0 73 cb 36 bd 67 72 b1 3e f9 32 98 3e 96 b5 72 be
       -0.044627618 0.34657595 0.2972639 -0.23702082
0001f0 bb 56 f1 bd 48 ff c0 3d a6 5c 7a 3e ae 1c 0e be
       -0.11784121 0.09423691 0.24449405 -0.13878128
000200 6d 39 af 3d ba 59 33 3e d1 9f 89 bd 4e 90 4b 3d
       0.08555875 0.17514697 -0.06719936 0.049698167
000210 3f 53 e7 3b 5b 22 af 3d eb 02 d1 3d 8f 80 8a 3e
       0.0070594843 0.08551475 0.10205635 0.27051207
000220 2f e2 2a be 67 eb 71 3d 2b ff 99 3e 46 29 e1 bd
       -0.16687845 0.059062388 0.3007749 -0.109942004
000230 73 f6 41 bf 57 2f 8d be 95 92 89 3b b4 5d b2 be
       -0.75766677 -0.2757518 0.004198382 -0.34837115
000240 38 a3 39 bd 2d 67 8e 3e 27 3e 80 3e 68 a0 1e 3e
       -0.045321673 0.27813092 0.25047418 0.15490878
000250 bd 8d ec bd c7 ae 7d 3d a9 5e b4 3e 4c e3 1d bf
       -0.11550472 0.06193426 0.3522847 -0.6167495
000260 7e fb 20 3e d2 b8 83 be bb 56 d8 3e 3c 30 a5 be
       0.15720937 -0.25726944 0.4225367 -0.32263362
000270 0d 6a b8 3e 5d 0e b1 3f d3 37 9c 3e f8 84 55 3e
       0.3601841 1.3832508 0.3051134 0.20851505
000280 74 4d 46 3e 75 5a b6 bf f7 32 f0 3e c7 b1 42 bd
       0.19365484 -1.4246355 0.46913883 -0.047532823
000290 19 68 18 bf 80 0e 52 3f ab ff c6 bf 98 ed f0 bf
       -0.5953384 0.82053375 -1.5546774 -1.8822508
0002a0 50 67 c5 be 5a 9e 8b be c7 53 33 3d 80 34 81 bf
       -0.38555384 -0.2726925 0.04378107 -1.0094147
0002b0 91 8d 92 bf 2a 78 f1 bf eb 4f 8c bf 34 43 bc bf
       -1.1449453 -1.8864796 -1.0961889 -1.4708009
0002c0 ca e0 46 bf 2b 4f 29 bf 94 15 b4 bf f0 94 6d bf
       -0.7768675 -0.66136426 -1.4069085 -0.92805386
0002d0 61 51 8e bf 5f 8a a4 bf 13 9c d5 bf cb 8b b6 bf
       -1.1118585 -1.2854728 -1.6688255 -1.4261411
0002e0 0b 4e d1 bf 54 dc 68 c0 ba b2 7f bf fd c6 ac bf
       -1.6351942 -3.6384478 -0.9988209 -1.3498226
0002f0 bd 77 cc 3e 8a 0d c6 bf eb cc 5a bf 9e 02 ab bf
       0.39935103 -1.5472882 -0.8546893 -1.3360174
000300 e3 71 79 bf 6f 8f 17 bf e8 62 00 bf 04 a6 6d bf
       -0.974394 -0.5920324 -0.5015092 -0.92831445
000310 46 fa 11 be 07 04 97 bf 2e d5 1e be 43 f0 50 be
       -0.14255628 -1.1798104 -0.15511009 -0.20404153
000320 98 fe 93 bf 57 0d e9 bf 27 41 e4 bf 8f 06 f9 be
       -1.1562071 -1.8207196 -1.7832383 -0.48637816
000330 cc 04 8e bf 3f 04 8c bf 92 ba 8c bf 80 a2 6c be
       -1.1095214 -1.0938796 -1.0994437 -0.23108864
000340 80 3b 54 bf 89 a7 85 bf fd 16 b1 be 61 e5 02 bf
       -0.8290329 -1.0441753 -0.3458785 -0.51131254
000350 41 44 7b 3e 93 db c9 bf 71 87 94 bd d7 95 97 bf
       0.24537756 -1.5770134 -0.07252396 -1.1842602
000360 a2 26 3c bf 2a 25 d1 bf b9 bb 7d bf 8a b5 34 bf
       -0.7349645 -1.6339467 -0.9911457 -0.70589507
000370 fe 6b 88 be 7d 8f ec 3e 74 f0 00 bf 96 1b ea bd
       -0.26644892 0.46203223 -0.503669 -0.11431043
000380 c4 a1 20 3e af ae cf bf 64 f4 2c bf 6f d7 0c bf
       0.15686709 -1.6225184 -0.6756041 -0.55016226
000390 a4 9c 01 bf a1 6f 66 bf 8b 5c b3 bf 7a cd b4 3e
       -0.5062964 -0.9001408 -1.4012617 0.35313016
0003a0 3c b4 04 bf d6 14 99 bf 70 02 b7 bf e1 d0 19 bf
       -0.51837516 -1.1959484 -1.4297619 -0.6008435
0003b0 26 a1 91 bf 16 81 f5 bf 2c 96 93 bf 79 d4 9f bf
       -1.1377304 -1.9180019 -1.1530204 -1.2486717
0003c0 d4 0b 97 bf 7b 4a b8 bf c5 b5 e4 bf e0 a9 89 3d
       -1.1800485 -1.439773 -1.7867972 0.06721854
0003d0 7f df 00 bf ab 5b 8c bf 1f b3 a9 bf a2 17 c3 bf
       -0.5034103 -1.0965475 -1.3257788 -1.5241587
0003e0 eb 71 94 3d 92 63 42 be e6 6c fb bd 93 44 8f bf
       0.07248291 -0.18983296 -0.1227663 -1.1192802
0003f0 77 52 cd bf 0c d8 33 be de 7f 1f 3e e3 39 97 3e
       -1.6040791 -0.17562884 0.15576121 0.29536352

fc2.bias f4 [80]
000000 3a 36 c7 be 0d e4 9a be 38 95 d9 be c4 a0 2a be
       -0.3890856 -0.30252114 -0.42496657 -0.1666289
000010 40 e5 20 c0 b8 08 08 bf a3 b9 3f c0 5b 5c 43 be
       -2.5139923 -0.53138304 -2.9957054 -0.190782
000020 a5 89 38 bf 76 a5 bb be 6c ce 88 be a4 51 88 bd
       -0.7208503 -0.36649674 -0.26719987 -0.06656197
000030 92 15 08 bf 8d c8 1a bf e2 d6 34 c0 12 0b a2 bf
       -0.53157914 -0.60462266 -2.8256154 -1.2659628
000040 5c 98 78 be 1b e5 09 3e e0 2d f9 bf 73 47 53 be
       -0.2427687 0.13466303 -1.9467125 -0.20632724
000050 09 34 01 bf 98 07 8b bf 79 64 8a be ea 84 19 bf
       -0.50470024 -1.0861692 -0.2702978 -0.59968436
000060 42 1e 31 bf 08 ac 08 c0 a2 76 c8 be 37 7e 11 c0
       -0.69186795 -2.1355 -0.3915301 -2.2733285
000070 2a 6e 40 c0 cd 1a 16 bf b1 a2 0e c0 df 47 1e be
       -3.0067239 -0.58634645 -2.22868 -0.15457104
000080 e5 bc 61 bb 19 27 8d be 6c f4 56 c0 b7 57 87 bf
       -0.0034444865 -0.27568892 -3.3586683 -1.0573643
000090 b5 5f 30 bf 85 ce 37 bf 21 e1 2b bf b4 0b 90 3f
       -0.6889604 -0.717995 -0.67140394 1.1253572
0000a0 44 a3 69 be 34 11 0c c0 73 38 b6 be ce 58 4d c0
       -0.22816187 -2.18855 -0.35589942 -3.2085452
0000b0 8b c6 18 bf f7 44 b1 be 5c 4a 51 c0 bd 1b a1 be
       -0.5967795 -0.34622929 -3.2701635 -0.31466475
0000c0 64 7a 04 bf f3 db 23 bf 8c 80 5d bf bc 84 f7 bf
       -0.51749253 -0.6400749 -0.8652427 -1.9337382
0000d0 f1 b7 6b be 56 d3 2c bf eb a7 9d be b9 16 f8 bf
       -0.23019387 -0.67509973 -0.30792174 -1.9381934
0000e0 5f ad 5f c0 25 61 f6 be a6 20 ba bf de 3a 35 c0
       -3.4949567 -0.4812099 -1.4541214 -2.831718
0000f0 71 52 a0 bf 71 3b 15 c0 4b 2d 64 be 80 87 66 bf
       -1.2525159 -2.331753 -0.22282903 -0.90050507
000100 46 a2 8c be 72 8f d3 be 01 6b eb bf 29 d4 87 bf
       -0.27467555 -0.41320378 -1.839203 -1.0611621
000110 ca a2 2a bf dd 9e fc bf d3 19 8f bf 4b cb ab bf
       -0.66654646 -1.9735981 -1.1179756 -1.3421415
000120 49 9c 6c c0 87 00 15 be a1 5b 91 be b9 fa 00 bf
       -3.697039 -0.14550982 -0.2839022 -0.5038257
000130 c3 ab 4a bf 21 94 97 c0 f2 a7 e2 bf 27 58 d1 bf
       -0.7916834 -4.736832 -1.7707503 -1.6355027

fc3.weight f4 [1, 80]
000000 8a 56 35 bf d5 09 9f be c5 35 80 bf 74 7b cc bf
       -0.70835173 -0.3106219 -1.0016409 -1.5975175
000010 2b be 60 3c 7f 12 a0 bf 8f 10 9a bb e4 4d b2 bf
       0.013717215 -1.2505645 -0.004701681 -1.393002
000020 4c 27 65 3c 02 0a a5 3e 43 1f b3 bf 11 36 4c bf
       0.01398642 0.32234198 -1.3993915 -0.7977
000030 b4 ee 22 bf 99 81 83 3b b8 52 48 ba 84 2f 62 be
       -0.6364548 0.004013252 -0.00076417206 -0.22088438
000040 28 67 96 bf c3 e5 ad be 37 c0 34 bb d1 cb b5 3b
       -1.1750231 -0.33964357 -0.002758039 0.0055479784
000050 3c 78 a7 bf 42 f8 8f bd 19 c0 01 c0 c3 2b c8 bd
       -1.3083568 -0.07029773 -2.0273497 -0.09773972
000060 3b f8 6f bb 5d 8f 84 bd a6 a1 7c bf 56 84 a7 bc
       -0.0036616463 -0.06472657 -0.98684156 -0.020448845
000070 4c 7c ff bc d6 8c a0 bf 0d b6 bf 3c 31 54 01 3d
       -0.031187199 -1.254298 0.023402238 0.03157443
000080 6c a9 a5 bd b2 6a 6c bf 4d fb cb bb d4 bc 15 bc
       -0.08088955 -0.92350304 -0.0062250257 -0.009139258
000090 8e 8c 80 bf fd 12 32 be f6 20 89 bb bf b4 36 3e
       -1.0042894 -0.17390056 -0.0041848375 0.17842387
0000a0 c1 c7 ec bf 09 3e 27 bc 07 e9 0e bf a7 95 af 3b
       -1.849846 -0.010207661 -0.5582432 0.005358416
0000b0 73 29 98 bf 41 5e 6d bb 69 af 4b 3b 0d dc 20 bf
       -1.1887649 -0.003621951 0.0031079894 -0.6283577
0000c0 dc 0b 26 bf 78 81 c7 bb 31 f5 76 be 31 01 51 bb
       -0.64861846 -0.006088432 -0.2411697 -0.003189158
0000d0 28 50 aa be 1d 49 91 3c 35 e7 27 bf 0a 22 9a 3c
       -0.3326428 0.017735058 -0.6558717 0.01881506
0000e0 c1 58 3a bc c5 ef c5 bf 4b f9 13 bd d5 68 90 ba
       -0.0113737 -1.5463797 -0.036126416 -0.001101757
0000f0 b0 86 a7 3c 7c a8 a6 bc 19 7b 24 bf f9 00 94 3c
       0.020449966 -0.020344011 -0.6425033 0.01806687
000100 65 98 92 bf 1c d4 b0 bd 6e 54 4a bd 69 d6 ee be
       -1.1452757 -0.08634207 -0.049396925 -0.46647957
000110 82 48 59 bf 1f 2a 2e 3d 6b 79 8f 3b e6 fa 67 bc
       -0.84876263 0.04252064 0.004378488 -0.01415894
000120 d9 b4 a4 3b 3b fc 8f 3c c0 b9 0b bf b6 11 4d 3b
       0.0050264415 0.017576328 -0.54580307 0.0031291074
000130 3a b7 5a 3c 75 64 86 3b 39 c7 b3 bd 57 2a 14 bf
       0.013349349 0.004101331 -0.08778233 -0.57877105
