puppersim/dc_saves/aac_slow_straight_pupper_0/critic2_0.pt (torch, 38295 bytes, 5 tensors)

fc1.weight f4 [80, 31]
0	0xbf3815f7	-0.71908516
1	0xbf2002b0	-0.625041
2	0xbd946719	-0.07246227
3	0x3e92c14b	0.28663096
4	0x3e5a0944	0.21292597
5	0x3e94e65b	0.29081997
6	0x3f3a8d89	0.72872216
7	0xbf80a091	-1.0049001
8	0xbe74afde	-0.23895213
9	0x3f24e46a	0.6441103
10	0xbef96809	-0.48712185
11	0x3e495b42	0.19663718
12	0x3e9bb9ae	0.304151
13	0x3d81b0a5	0.063325204
14	0xbfc4beae	-1.5370691
15	0x3e852365	0.26003566
16	0x3ed1e528	0.40995145
17	0xbc5b26a5	-0.013375913
18	0xbd88d2f5	-0.06680862
19	0xbe7c11ce	-0.24616167
20	0x3dd857e8	0.10563642
21	0x3e8657a5	0.26238742
22	0x3e42fa52	0.19040802
23	0x3e88fb89	0.26754406
24	0x3f1d65e2	0.61483586
25	0xbda3f6f2	-0.080060855
26	0x3e609166	0.21930465
27	0x3e490571	0.19630982
28	0xbe139e36	-0.14415821
29	0x3cb262a7	0.021775557
30	0xbf132e56	-0.5749258
31	0xbf4163e3	-0.7554304
32	0xbf559e54	-0.83444715
33	0x3f8e96e0	1.1139793
34	0xbe024a98	-0.12723768
35	0xbebf3ec7	-0.37352583
36	0xbe1c9994	-0.1529296
37	0x3f31374a	0.6922499
38	0x3e7f1190	0.24909043
39	0xbe1bcff2	-0.15216044
40	0x3eb15bac	0.34640253
41	0x3ede4348	0.43410707
42	0x3ddb4177	0.10705846
43	0x3ebb8827	0.36627313
44	0xbe9cbe35	-0.30613866
45	0xbec17e72	-0.37791783
46	0x3d6593f4	0.056049302
47	0xbe9944b8	-0.2993524
48	0x3bae6f41	0.005323321
49	0xbe52b58a	-0.20577064
50	0xbe3e500b	-0.18585221
51	0x3db2c62e	0.08729206
52	0x3d5ee434	0.05441685
53	0x3e0f8abd	0.14017768
54	0xbe60e3aa	-0.21961847
55	0x3d310f7d	0.04322766
56	0x3c32d0d6	0.010914048
57	0x3dbe64c6	0.09296565
58	0xbd3e611f	-0.04647934
59	0xbe724f0d	-0.23662968
60	0x3d82de45	0.06390051
61	0x3eabbd4c	0.3354286
62	0xbe07f830	-0.1327827
63	0x3e63bc87	0.22239886
64	0x3f2e0e07	0.67990154
65	0xbc80b8b2	-0.01571307
66	0x3de3c177	0.11120885
67	0x3f6046fa	0.876083
68	0x3c8f0951	0.017460497
69	0xbf023449	-0.5086103
70	0x3e9eb826	0.3099987
71	0x3f229240	0.6350441
72	0xbe69375b	-0.22775023
73	0x3f24d9f6	0.6439508
74	0x3f426183	0.7593004
75	0x3ef6d07e	0.48205942
76	0x3e24ec0e	0.16105673
77	0x3d82b5e1	0.06382347
78	0xbe2dab15	-0.16959794
79	0xbe37a127	-0.17932568
80	0x3c23f942	0.010008158
81	0xbd1713d1	-0.036884133
82	0xbdbb6f21	-0.091520555
83	0xbd772158	-0.060334533
84	0xbe2d32c6	-0.169139
85	0x3de31085	0.11087135
86	0x3d64337b	0.055713158
87	0xbe6fcc1d	-0.23417707
88	0x3d9078d6	0.070542976
89	0x3e0f81d0	0.14014363
90	0xbe91a530	-0.2844634
91	0x3e003aaa	0.12522379
92	0xbe014a19	-0.12625922
93	0xbe76fa65	-0.24118955
94	0x3f239e2d	0.6391323
95	0x40070ec8	2.1102772
96	0x3fd7cd1a	1.6859467
97	0xbfc7527e	-1.557205
98	0x3f9a557f	1.2057341
99	0x3f81052e	1.0079706
100	0xbfe5c259	-1.7949935
101	0xc0706554	-3.7561846
102	0xbb975747	-0.0046185586
103	0xbf6aaccc	-0.9166992
104	0xbe9d9a46	-0.30781764
105	0xbf05fa72	-0.52335274
106	0xbfde4f8b	-1.7368025
107	0xc00ecf14	-2.231389
108	0xbdb225d8	-0.08698624
109	0x3cc41850	0.023937374
110	0xb9d0e40e	-0.00039842766
111	0xbe3c1fac	-0.18371457
112	0xbbba35b4	-0.0056826714
113	0xbd9324ca	-0.07184751
114	0xbcdf4783	-0.02725578
115	0xbda74080	-0.08166599
116	0x3d4f363a	0.050588824
117	0x3d2d6f7e	0.042342655
118	0x3e0ded17	0.13859974
119	0x3ddf16f8	0.10893053
120	0xbd07012f	-0.032960113
121	0x3a8bc25d	0.0010662783
122	0xbc120c19	-0.008914017
123	0xbc166917	-0.009180329
124	0xbf4045e0	-0.7510662
125	0xbf3f1a02	-0.7464906
126	0x3eeffe2b	0.46873602
127	0x3ef54bba	0.47909337
128	0xbfa6022b	-1.2969412
129	0xbea4996d	-0.32148305
130	0xbe5a83a2	-0.21339276
131	0x3d8e524b	0.0694929
132	0xbf09821d	-0.5371416
133	0x3f89db80	1.0770111
134	0xbf1c5d0b	-0.6107947
135	0xbe88576f	-0.26629207
136	0x3e738bf2	0.23783854
137	0xbe56f148	-0.20990479
138	0xbf7ac997	-0.9796385
139	0x3bfb1f25	0.007663625
140	0xbf107db8	-0.5644183
141	0x3d8602a1	0.0654347
142	0x3e38233d	0.17982192
143	0x3e6bc646	0.23024854
144	0x3d8e07ee	0.06935106
145	0xbe472afb	-0.1944999
146	0x3e318a1a	0.17337838
147	0x3d49e631	0.049291793
148	0x3e09178c	0.13387889
149	0x3e9e250e	0.30887645
150	0x3c50f336	0.0127532985
151	0xbcc877b2	-0.024471138
152	0x3c9e1bf8	0.019300446
153	0x3ee082c4	0.43849766
154	0x3e1041fb	0.1408767
155	0x3e9bc9ba	0.30427343
156	0x3e87c95f	0.2652082
157	0x3e888e49	0.26671055
158	0xbf013a1b	-0.50479287
159	0x3d964203	0.073368095
160	0x3dc1fb28	0.094717324
161	0xbe5533f6	-0.20820603
162	0xbf0e2bca	-0.55535567
163	0x3fae1b42	1.3602068
164	0x3f8971b6	1.0737827
165	0xbdf98087	-0.12182718
166	0x3f42b83d	0.76062375
167	0x3f48f7bb	0.78503007
168	0x3df6278e	0.12019263
169	0x3eec1631	0.4611068
170	0xbc12f5f2	-0.008969771
171	0xbb1fccbb	-0.0024383503
172	0xbb81643f	-0.003948718
173	0xba02f5eb	-0.0004995751
174	0xbbeb0502	-0.007172228
175	0x3bceb64f	0.006308354
176	0xbc244573	-0.010026324
177	0x3b64b5fd	0.0034898513
178	0x3af5127e	0.0018697528
179	0xbc1a7c8d	-0.009429109
180	0x3ba0dd06	0.0049091605
181	0x399b6e87	0.00029646253
182	0x3c925390	0.017862111
183	0xbaa41c3c	-0.0012520622
184	0x3d00bbbf	0.03142905
185	0xbb9d51fb	-0.0048010326
186	0xbfadf492	-1.3590262
187	0x3ea89889	0.32928875
188	0x3e25b63a	0.16182795
189	0x3f007db8	0.5019183
190	0x3fec7d46	1.847573
191	0x3ec44fab	0.38342032
192	0x3f85013e	1.0391004
193	0xbe995af3	-0.299522
194	0xbe8d7d4d	-0.2763466
195	0x3f5a1097	0.85181564
196	0xc0675e73	-3.6151397
197	0x3f3273e6	0.69708097
198	0x3f0c8453	0.5488941
199	0x3ed54aec	0.41658723
200	0xbfcb07d2	-1.5861762
201	0x3e4cdcf7	0.20006166
202	0x3edc4f92	0.43029457
203	0xbed6a871	-0.41925386
204	0xbe4cac3d	-0.19987579
205	0xbf4cad80	-0.7995224
206	0x3e30818e	0.17236921
207	0x3dc21897	0.094773464
208	0xbd7e65f5	-0.062108953
209	0xbdc24cef	-0.0948733
210	0x3e79e0da	0.2440218
211	0xbf05c752	-0.52257264
212	0x3cd0d0d4	0.025490202
213	0xbe8ad8b9	-0.2711847
214	0x3ee894c6	0.45426005
215	0x3ddde761	0.10835148
216	0x3ce71b08	0.028211132
217	0xbf03e9b6	-0.5152849
218	0x3f4cf429	0.8006006
219	0xbea885ae	-0.3291449
220	0xbd445fba	-0.047942854
221	0xbf16a109	-0.5883947
222	0xbe231dc2	-0.1592932
223	0x3e8350f2	0.25647694
224	0x3f4e29fd	0.8053282
225	0x3debe2da	0.11517878
226	0x3e8edf02	0.27904516
227	0x3eb3ff73	0.3515583
228	0xbf85a6e2	-1.0441554
229	0x3ddb5deb	0.10711273
230	0xbf9de7a7	-1.233632
231	0xbead8ca5	-0.33896366
232	0xbd629605	-0.05531885
233	0xbc103033	-0.008800554
234	0xbe15c5c5	-0.14626224
235	0xbc8c49d9	-0.017125057
236	0x3d0cc531	0.034367744
237	0x3e33a4d9	0.17543353
238	0xbe378431	-0.17921521
239	0xbcd20d4d	-0.025641108
240	0x3e8c0cfd	0.2735366
241	0xbd38665a	-0.045019485
242	0xbd688ffe	-0.056777947
243	0xbbca6a31	-0.00617721
244	0xbcf5635a	-0.029954601
245	0x3e2a9727	0.16659223
246	0x3e9a392c	0.30121744
247	0xbc25fe75	-0.010131468
248	0xbf7176fa	-0.9432217
249	0x3ebcb52c	0.36856973
250	0xbe418e10	-0.18901849
251	0x3ee1c7d5	0.44097772
252	0xbec91c25	-0.39279285
253	0xbeb917be	-0.36150926
254	0x3f1f5434	0.6223786
255	0xbf197dc5	-0.59957534

fc1.bias f4 [80]
0	0xbe7acddc	-0.24492592
1	0xbeedb4a2	-0.46426874
2	0xbfdc190f	-1.7195147
3	0x3e3a0e19	0.1816944
4	0x3ddcbf98	0.10778731
5	0xbee48c5c	-0.44638336
6	0xbd669073	-0.0562901
7	0x3ebdfec4	0.37108433
8	0xbab1d219	-0.0013566642
9	0xbda986da	-0.08277674
10	0xbe8d39c1	-0.27583125
11	0xbefcec01	-0.49398807
12	0xbda58f24	-0.080839425
13	0x3f0d7700	0.55259705
14	0x3a61d070	0.00086141285
15	0xbe71f161	-0.23627235
16	0xbf7fedc7	-0.99972194
17	0x3cdb3fd1	0.026763828
18	0xbeb585f2	-0.35453755
19	0xbcca0fcf	-0.024665741
20	0xbf6e6c4c	-0.93134
21	0xbe8f8098	-0.28027797
22	0x3e1e01dc	0.15430397
23	0xbedd5bff	-0.4323425
24	0xbf92cb67	-1.1468323
25	0x3f1f907c	0.6232984
26	0xbe8a41e4	-0.27003396
27	0xbeb416c5	-0.35173622
28	0xbeb8690e	-0.3601765
29	0xbf576b38	-0.8414798
30	0x3e81249c	0.25223243
31	0xbdbb867d	-0.09156511
32	0xbeb7789a	-0.358342
33	0xbe11382a	-0.14181581
34	0xbde34b2b	-0.110983215
35	0x3d25a372	0.040439077
36	0x3dd35775	0.103194155
37	0x3ee58d69	0.4483445
38	0xbd84e653	-0.06489243
39	0x3d85e1b2	0.065371886
40	0xbec34380	-0.38137436
41	0xbf818531	-1.0118772
42	0x3e443f07	0.19164668
43	0x3f3f27c5	0.7467006
44	0xbe1f51f6	-0.1555861
45	0xbe101811	-0.1407168
46	0x3ca8c693	0.0206025
47	0xbec12e21	-0.37730506
48	0xbe38a9a8	-0.18033469
49	0x3f0e5b1c	0.5560777
50	0xbea59e20	-0.32347202
51	0xbd026f99	-0.03184471
52	0x3ea65576	0.32487077
53	0x3f1ddf2f	0.61668676
54	0x3f97d248	1.1861048
55	0xbeae17ee	-0.34002632
56	0xbf9cc969	-1.2248966
57	0x3fc6ed9a	1.554126
58	0xbebb68c5	-0.3660337
59	0xbef76e89	-0.4832652
60	0x3f03b1f7	0.5144343
61	0x3f3cc985	0.73744994
62	0xbca6b044	-0.020347722
63	0x3e6abbf1	0.22923256
64	0xbce1b2a2	-0.027551
65	0xbfe74dad	-1.807058
66	0xc01117d6	-2.2670798
67	0xbfdf933d	-1.7466809
68	0x3f1f5839	0.6224399
69	0xbf1e5517	-0.61848587
70	0x3e1c2434	0.15248185
71	0xbf841ec0	-1.0321884
72	0x40277811	2.6167033
73	0xbde15aee	-0.110036716
74	0x3dab1422	0.083534494
75	0x3e8c22bd	0.27370253
76	0xbfc996da	-1.5749161
77	0xbf800e39	-1.000434
78	0x3ec74323	0.3891841
79	0xbe8a1065	-0.26965633

fc2.weight f4 [80, 80]
0	0x3ea11286	0.31459445
1	0x3e5e0f4a	0.2168552
2	0xbe0358fd	-0.12826915
3	0xbb8b06e7	-0.004242766
4	0x3ebc1e58	0.367419
5	0x3d9c0c4e	0.076195344
6	0xbe88b0a4	-0.26697266
7	0xbeb9e7b4	-0.36309588
8	0xbf8a8071	-1.0820447
9	0xbdd2fd07	-0.103021674
10	0x3edae982	0.42756277
11	0xc00fcb67	-2.2467897
12	0xbdf2c0f6	-0.11853211
13	0x3d8d5d12	0.069025174
14	0xbf124d88	-0.57149553
15	0x3d8e3e3e	0.069454655
16	0x3df91d8c	0.12163839
17	0x3def6da0	0.11690831
18	0xbe5384f0	-0.2065618
19	0xbdf436fb	-0.11924549
20	0xbe21dbd7	-0.15806518
21	0x3f0e5ffe	0.5561522
22	0xbf645ac7	-0.89201015
23	0xbc367961	-0.011137337
24	0x3eb76df0	0.35826063
25	0xbfb96fa1	-1.4487191
26	0xbd1acaad	-0.037790943
27	0x3d70b93f	0.058770414
28	0x3f1bce1f	0.6086139
29	0xbda644bd	-0.081185795
30	0x3f356811	0.7086192
31	0x3e1b32c0	0.15156078
32	0xc0340733	-2.8129394
33	0x3d59c12a	0.05316273
34	0xbe2c4c1e	-0.16825911
35	0x3f1171d2	0.568143
36	0xbefd50b7	-0.49475643
37	0xbdaf28dd	-0.08552716
38	0x3db259b2	0.08708514
39	0xbe3f1fa3	-0.18664412
40	0x3d687281	0.056749824
41	0xbdd18a1a	-0.10231419
42	0x3f093e69	0.53610855
43	0xbdb537aa	-0.08848508
44	0xbed2d339	-0.41176775
45	0x3f5f1fdf	0.87158006
46	0x3d8e01bc	0.069339246
47	0xbd48c507	-0.049016025
48	0x3e9513b7	0.29116604
49	0xbdffce22	-0.124904886
50	0xbead89fc	-0.33894336
51	0x3db6a3b9	0.08917946
52	0xbd3522ca	-0.04422263
53	0xbd00e70c	-0.031470343
54	0x3d113ad6	0.0354565
55	0xbfca8b0b	-1.5823683
56	0x3b77683e	0.0037751342
57	0xbd92bd14	-0.0716497
58	0x3e33028e	0.17481443
59	0xbe7992f6	-0.24372467
60	0xc00791b6	-2.1182685
61	0xbd5b2503	-0.053502094
62	0xbd370aa5	-0.044687886
63	0xbffba3d2	-1.9659369
64	0xc04bdbb6	-3.185285
65	0xbe1a59d1	-0.15073325
66	0x3dd48e6e	0.10378729
67	0x3e8991d7	0.2686908
68	0xbd8e6867	-0.06953507
69	0xbd66f571	-0.056386415
70	0xbda0fa5a	-0.07860251
71	0x3e00c578	0.12575328
72	0xc0e1d157	-7.056804
73	0x3f165eec	0.5873859
74	0x3e084cce	0.13310549
75	0x3f686964	0.90785813
76	0xbd056e6c	-0.03257601
77	0xbd9b35a9	-0.07578594
78	0xc06fe737	-3.7484872
79	0xbe24fa15	-0.16111024
80	0xbf524d8d	-0.82149583
81	0xbf77fef6	-0.96873415
82	0x3f42a98e	0.7603997
83	0xbecff8ca	-0.40619498
84	0xbf3e9fd0	-0.74462605
85	0x3df7f117	0.12106531
86	0xbf0bb5b2	-0.5457412
87	0xbf984aee	-1.1897867
88	0xc011f458	-2.2805386
89	0xbf86977b	-1.0514978
90	0xbfbaa842	-1.4582598
91	0xbf9e4b5a	-1.2366745
92	0xbf834c68	-1.0257692
93	0xbf14c324	-0.5811026
94	0xbf608740	-0.87706375
95	0xbf1c23c5	-0.6099208
96	0xbfbbcdb9	-1.4672157
97	0xbfe90569	-1.8204776
98	0xbf4fb44f	-0.81134504
99	0xbf673d59	-0.90327984
100	0xbfcc4b96	-1.5960567
101	0xbfa981a4	-1.3242688
102	0xbf10d057	-0.565679
103	0xbdda8bf2	-0.10671224
104	0xbfb15c4f	-1.3856295
105	0xbf04f1b7	-0.5193133
106	0xbeecd0ad	-0.46252957
107	0xbe6a5f57	-0.22887932
108	0x3f0a98ca	0.5413939
109	0xc00943d4	-2.144765
110	0xbf8ba98e	-1.0911119
111	0xbee63975	-0.4496571
112	0xbf253115	-0.6452802
113	0xbf022473	-0.5083687
114	0xbfe2a5e0	-1.7706871
115	0xbf5418de	-0.82850444
116	0xc007fd62	-2.1248403
117	0xbf0cb24e	-0.5495957
118	0xbf06835b	-0.5254418
119	0xbf43f588	-0.76546526
120	0xc002c2ff	-2.0431516
121	0x3e86c340	0.2632084
122	0xc005e1d2	-2.091908
123	0xbf7ece20	-0.9953327
124	0xbe986784	-0.29766476
125	0x3de7ea21	0.113239534
126	0x3d8d77a0	0.06907582
127	0x3e3680a9	0.17822517
128	0xbe70deea	-0.23522535
129	0xbf04fa53	-0.51944464
130	0x3f0fa54c	0.561116
131	0xbfabca6b	-1.3421148
132	0xbec2a342	-0.3801518
133	0xbf68c703	-0.9092867
134	0xbfd1ca6c	-1.6389899
135	0xc02db0ad	-2.7139084
136	0xbd84306b	-0.064545475
137	0xbe727bec	-0.23680085
138	0xbff77a9d	-1.9334294
139	0xc00b6f71	-2.1786768
140	0xbf0fcae6	-0.56168973
141	0xbfbc9a10	-1.4734516
142	0xbf6f9a88	-0.9359517
143	0xc0130be8	-2.2976017
144	0xbf26888c	-0.65052104
145	0xbf6e776c	-0.93150973
146	0xbe132646	-0.14370069
147	0x3d5ec00a	0.05438236
148	0xbf9f3470	-1.2437878
149	0xbf8d3930	-1.1033077
150	0xbd5f3bf4	-0.054500535
151	0xbfa62051	-1.2978612
152	0xbe38b9ab	-0.18039577
153	0x3e97485c	0.29547393
154	0xbfb905ea	-1.445493
155	0xbf8ea208	-1.1143198
156	0xbf9c39a9	-1.2205096
157	0xbc7f0d65	-0.015567158
158	0xc0043ed4	-2.0663347
159	0xbf1f8ce1	-0.6232434
160	0xbf065ffe	-0.5249022
161	0xbf70bd92	-0.9403926
162	0xbfd18639	-1.6369087
163	0xbfec37e1	-1.8454553
164	0xbf7c0044	-0.98437905
165	0xbf090698	-0.53525686
166	0x3f84a461	1.0362664
167	0xbeae6e0c	-0.34068334
168	0xbf6b6a9c	-0.9195955
169	0x3f2e42d7	0.6807074
170	0xbcc505f3	-0.024050688
171	0x3eb4c245	0.35304466
172	0x3dadbad9	0.08482904
173	0xbe182cd3	-0.14860849
174	0x3eaaad69	0.33335426
175	0x3de04019	0.10949726
176	0xbf51fd36	-0.82026994
177	0xbf0d03c0	-0.5508385
178	0xbf9bdee9	-1.2177402
179	0xbefa32b2	-0.48866802
180	0xbd4b3bc7	-0.049617555
181	0xbfe23e7c	-1.7675319
182	0x3d956ea6	0.07296495
183	0xbd562efe	-0.05229091
184	0xbf80c5ea	-1.0060399
185	0xbf9c701e	-1.2221715
186	0xbe3ab89c	-0.18234485
187	0xbe1df8e8	-0.15426981
188	0xbf9abc17	-1.208865
189	0x3cea3c49	0.0285932
190	0xbdcdc048	-0.1004644
191	0x3f0e917d	0.5569075
192	0xbf725781	-0.9466477
193	0xc0309245	-2.7589276
194	0xbee8cf2c	-0.4547056
195	0xbf94b3a9	-1.1617328
196	0xbe53e5c4	-0.20693117
197	0x3e719085	0.23590286
198	0x3fc3f65c	1.5309558
199	0xbdb7e7ab	-0.08979734
200	0x3eda1b7a	0.42599088
201	0xbfe4dc6b	-1.7879766
202	0xbf0dafc9	-0.5534635
203	0x3d3ee876	0.04660841
204	0xbec02be9	-0.375335
205	0xc04e1da6	-3.2205596
206	0xbef68e61	-0.481555
207	0x3dce94d5	0.10086981
208	0xc04125ca	-3.0179315
209	0x3eeea431	0.46609643
210	0xbf26530d	-0.64970475
211	0x3e82e930	0.25568533
212	0x3f270e7b	0.6525647
213	0xbd7116af	-0.058859523
214	0x3ee322a8	0.44362378
215	0x3ea3684a	0.31915504
216	0xbd775a2e	-0.060388736
217	0x3e53f1f2	0.20697764
218	0xc00f6ce5	-2.2410214
219	0xbfb19a3b	-1.3875192
220	0xbf789477	-0.9710154
221	0x3eac4e7a	0.33653623
222	0x3dd16c39	0.1022572
223	0x3ebe7709	0.37200192
224	0xbf801222	-1.0005534
225	0x3eb6d6e1	0.35710815
226	0xbd2503a0	-0.04028666
227	0xbfae334d	-1.3609406
228	0x3ef98454	0.4873377
229	0xbfa0785f	-1.2536734
230	0x3ea72932	0.32648617
231	0xbdf8325c	-0.1211898
232	0xc0b8f3f1	-5.779778
233	0xbfb61ffc	-1.4228511
234	0xbecb6289	-0.39723614
235	0xc05770fe	-3.3662715
236	0xbea58dfe	-0.32334894
237	0x3ed18817	0.4092414
238	0xbf1a50b3	-0.6027939
239	0x3f43a743	0.76427096
240	0xbe3ba359	-0.18324031
241	0x3e99751a	0.29972154
242	0x3e3ce4ed	0.18446703
243	0x3fcfeb60	1.6243706
244	0xbe82cb8f	-0.25545928
245	0x3f66a18e	0.9009026
246	0xbf17c5ce	-0.592862
247	0x3f46d6aa	0.776713
248	0x3f1350ce	0.57545173
249	0xbf72fae2	-0.94914067
250	0x3ea69042	0.32531935
251	0x3dc8859d	0.0979111
252	0x3e3fc651	0.18727995
253	0xbea4ba44	-0.3217336
254	0xbf2a53e0	-0.66534233
255	0x3e5c2ac5	0.2150069

fc2.bias f4 [80]
0	0x3fa05977	1.2527303
1	0xbf105106	-0.5637363
2	0x3f0471e0	0.5173626
3	0xbfd5f89e	-1.6716497
4	0xbf6ae199	-0.91750485
5	0xc008be37	-2.1366098
6	0xbf84a2de	-1.0362203
7	0xbef74dc1	-0.4830151
8	0xc01f1afb	-2.4860218
9	0xbec34167	-0.38135836
10	0xbeaedc4f	-0.34152457
11	0xbed896fe	-0.42302698
12	0xbfacee04	-1.3510137
13	0xbf0444b0	-0.5166731
14	0xbcc85a57	-0.02445714
15	0xbe7f0a5d	-0.24906297
16	0xbf57dfc7	-0.8432583
17	0xbf04ad6d	-0.51827127
18	0xc025e950	-2.5923653
19	0xbe848805	-0.25885025
20	0xbe8a232e	-0.26979965
21	0xbf0c6f8a	-0.54857695
22	0xc014d9ae	-2.325786
23	0xbe98b995	-0.29829088
24	0xbeb62339	-0.35573748
25	0xbee9f03a	-0.4569109
26	0xbf3cd71c	-0.7376573
27	0xbee6c459	-0.45071676
28	0xbed63dad	-0.4184393
29	0xbf997e04	-1.1991582
30	0xbb0b73bd	-0.0021278702
31	0xbfe6320a	-1.7984021
32	0xbee27c29	-0.44235352
33	0xbf7746cf	-0.9659242
34	0xbfdd5b55	-1.7293497
35	0xbd64d749	-0.055869374
36	0xbf1879e0	-0.59560966
37	0xbf88ecd0	-1.069727
38	0xbf8e4cbb	-1.1117166
39	0xbf88b07a	-1.0678856
40	0xc054fdd6	-3.327993
41	0xc01831a6	-2.3780303
42	0xc042fb60	-3.0465927
43	0xc019f34d	-2.405475
44	0xbece58ae	-0.40302032
45	0xbee1fa59	-0.44136313
46	0xbf2c7fbb	-0.673824
47	0xbfcbf9ee	-1.5935647
48	0xc09074d1	-4.51426
49	0xbfabe525	-1.3429304
50	0xc039d320	-2.903511
51	0xbe70d334	-0.23518068
52	0xbdebe5db	-0.11518451
53	0xc05b83e7	-3.4299257
54	0xc001ff4f	-2.0312078
55	0xbefb61e2	-0.49098116
56	0xbf09e133	-0.5385925
57	0xbf8df8f5	-1.1091601
58	0xbf9a3940	-1.2048721
59	0xbf1b5a51	-0.60684687
60	0xbf5d6d16	-0.86494577
61	0xbebea6e0	-0.3723669
62	0xbe9f5ce0	-0.31125546
63	0xbf103f0d	-0.5634621
64	0x3f579054	0.842046
65	0xbf816299	-1.0108215
66	0xbfd098fa	-1.6296685
67	0xbe72128b	-0.23639886
68	0xbe51f955	-0.20505269
69	0xbf64e214	-0.8940747
70	0xbe6e11ee	-0.23249027
71	0xbf4a7f5b	-0.7910058
72	0xbf2d4820	-0.6768818
73	0xbfd4c8f6	-1.6623828
74	0xc00478c1	-2.0698702
75	0xbe95821a	-0.29200822
76	0xc028d24f	-2.6378362
77	0xbe8d495c	-0.2759503
78	0xbf621b58	-0.88322973
79	0xbf197734	-0.59947515

fc3.weight f4 [1, 80]
0	0xbe65bbe3	-0.22434954
1	0x3bfd459a	0.0077292444
2	0xbdf1a99b	-0.11799928
3	0xbc64531c	-0.01393583
4	0xbe54434d	-0.20728798
5	0x3bae6daf	0.005323134
6	0xbcdad4a5	-0.026712725
7	0x3b8ccbe6	0.0042967675
8	0xbc0ffb08	-0.008787878
9	0xbfca2959	-1.5793868
10	0xbe537611	-0.20650508
11	0xbe219b21	-0.15781833
12	0x3beb50ad	0.007181248
13	0xbfa027ad	-1.2512108
14	0x3c6b36ce	0.014356328
15	0xbf6ee8ef	-0.9332418
16	0x3c896f76	0.016776782
17	0xbc9c1f7a	-0.019057978
18	0x3cd5c70b	0.026095888
19	0xbf0454ba	-0.5169178
20	0x3a9153b5	0.0011087569
21	0xbcaa6013	-0.020797765
22	0x3cb32b06	0.021871101
23	0xbfe291af	-1.7700709
24	0xbfd571c0	-1.6675339
25	0xbeb3e197	-0.3513305
26	0x3d9d73ee	0.076881275
27	0xbfc81f3f	-1.5634536
28	0xbfb5e58b	-1.4210676
29	0xbdc546e3	-0.09632661
30	0xbf5fab01	-0.87370306
31	0xbb6df58f	-0.0036309694
32	0xbf819ac3	-1.0125355
33	0x3b284d0b	0.0025680687
34	0xbd0fece0	-0.03513801
35	0x3d4339f4	0.04766269
36	0xbfa25820	-1.2683144
37	0x3d4aeacc	0.049540326
38	0xbc332dc2	-0.0109362025
39	0xbeaa0a41	-0.33210948
40	0xbdd7ca5b	-0.10536643
41	0x3c0cafbd	0.008586821
42	0xbcf23585	-0.029566536
43	0x3b3a5e32	0.0028437492
44	0xbfc8e535	-1.5694948
45	0xbf8cff12	-1.1015341
46	0xbbefb955	-0.0073157945
47	0xbe0e4a4a	-0.13895527
48	0xbcafcfd6	-0.021461409
49	0xbc22faba	-0.009947473
50	0xbc877c2e	-0.016538706
51	0xbd88a011	-0.06671155
52	0xbd2c8f78	-0.04212901
53	0x3985d117	0.0002552352
54	0xbc3c94c4	-0.011510078
55	0xbfba45c1	-1.4552537
56	0xbf6915ee	-0.9104909
57	0x3c9ea4ce	0.019365694
58	0xbee50513	-0.44730434
59	0x3cd428de	0.025898393
60	0xbe6bd098	-0.23028791
61	0xbfd30f55	-1.6489054
62	0xbf9e18a8	-1.2351274
63	0xbfbebd3e	-1.4901502
64	0x3eb8f8a0	0.36127186
65	0xbe98205a	-0.29712182
66	0x3d057b8b	0.032588523
67	0xbfd0a1c6	-1.6299369
68	0xbf4c8dab	-0.7990367
69	0xbea46fee	-0.32116646
70	0x3ec4c8f0	0.38434553
71	0xbd217bc2	-0.039424665
72	0xbf703d4b	-0.93843526
73	0xbebd5939	-0.36982134
74	0xbb8b96fc	-0.004259942
75	0xbfdfc521	-1.7482034
76	0xbc58d335	-0.013233949
77	0xbf7a5b1a	-0.9779526
78	0xbc080784	-0.008302573
79	0x3d5b303d	0.0535128
