puppersim/dc_saves/aac_mega_puppy_2/actor_1.pt (torch, 30871 bytes, 6 tensors)

fc1.weight f4 [64, 15]
0.0049568103 0.027528323 0.20468438 0.18417789 0.047541 0.16539347 -0.005966941 0.040078875
0.05138297 -0.08500818 -0.00671317 0.034738444 0.02559439 0.28127566 -0.2707902 0.13037485
0.011147412 0.033165816 0.00191114 0.034307074 -0.027976016 -0.21112496 -0.014989945 -0.06267251
0.10517017 -0.002115148 -0.09185249 0.05611255 0.046177946 0.0044225277 0.009301743 0.026611831
-0.052075572 -0.05412153 -0.07777455 -0.20141727 0.038358767 0.074205585 0.018547531 -0.080368064
0.017383497 -0.052880425 -0.002435389 -0.11996799 -0.01434418 0.022321347 -0.09999558 -0.14580013
-0.013890737 0.037840076 -0.10485195 -0.21648899 -0.10522246 -0.055713475 0.10145613 0.016169114
-0.2028077 -0.16093759 0.080442995 -0.09208418 0.012648942 0.01928024 0.10214951 0.012919986
0.07840194 0.097492956 0.060973294 0.014972475 0.06997384 -0.03840374 -0.04467346 0.1572387
0.10686644 -0.07443443 -0.16393118 0.003000838 -0.012039012 -0.11467908 -0.17417356 0.09042409
-0.10566041 0.051418867 -0.091267966 -0.14311682 -0.07284935 -0.021711009 -0.012339044 -0.13814391
-0.06648684 -0.01950257 -0.1852453 0.0011044715 0.16147003 -0.05675665 0.13951813 -0.1170033
-0.02978495 -0.01596435 0.11498245 0.08848533 0.01190125 0.18659267 0.108829044 -0.10917923
0.15148307 -0.016809283 -0.15911715 0.016378777 -0.04100235 -0.17642245 0.055469356 0.20981339
0.11102004 0.1252674 0.049664877 0.016622083 0.11945943 -0.017683553 -0.108244784 0.04705437
-0.11726041 0.12691282 -0.12175018 0.01753876 0.33438876 -0.09028702 0.13401729 0.096489616
0.019209197 0.06302489 -0.17748438 0.11517493 -0.109396815 -0.13727863 -0.0013752643 -0.26732844
-0.20073432 0.012154025 0.03561893 -0.004577034 -0.086738504 -0.03226578 -0.07982128 -0.0057870173
-0.08677783 -0.143852 -0.059332248 -0.16495898 0.039634127 -0.034654006 -0.11736542 0.17263907
-0.03648431 -0.051399752 -0.028488059 0.044772778 0.033297118 0.28139225 -0.038534105 -0.061187387
-0.21515423 -0.058630146 0.18396127 0.031921316 0.104130514 0.047836713 -0.113890596 0.030446371
0.2500544 -0.21307003 0.13683377 0.09499314 -0.05320134 0.029173763 -0.038025916 0.06879411
-0.1799591 -0.09407042 -0.3057358 0.20848106 0.043318998 -0.03485141 0.028837545 0.009289357
-0.018891143 -0.0460492 0.1280087 -0.03562792 0.032825276 -0.086007 -0.058994386 0.02887264
-0.018331874 -0.09993338 -0.024151558 0.072511114 0.124958135 -0.17343834 -0.064966716 -0.026832823
-0.12416168 -0.08806658 0.09850203 -0.02775514 -0.14481895 -0.019885791 -0.040386193 0.04884804
0.11121496 0.07332714 0.13977031 -0.035033952 -0.087044075 0.021084309 -0.075634904 -0.03573834
0.1289833 -0.026081294 0.0021255822 -0.057473455 0.028267134 -0.06075826 -0.14435792 -0.03648063
-0.026213184 -0.08584945 0.20914213 -0.13720614 0.090959236 0.06005712 -0.13471854 0.15667999
0.1390671 -0.12813574 -0.12696771 0.23498885 -0.02064754 0.1687883 -0.023812328 -0.014783494
-0.00529724 0.010844518 0.28916663 0.15040328 -0.0077818297 -0.08677288 -0.11300116 0.010301845
0.15482104 0.066328555 0.0038964837 -0.2574435 -0.098825045 -0.029621094 0.12447675 0.01314547
00000000: bd6c a23b 1483 e13c c898 513e 2199 3c3e
00000010: 5aba 423d e85c 293e 5486 c3bb bf29 243d
00000020: f376 523d c518 aebd 27fa dbbb e649 0e3d
00000030: 54ab d13c 5d03 903e 03a5 8abe fc80 053e
00000040: a2a3 363c e1d8 073d 387f fa3a 9385 0c3d
00000050: f52d e5bc 2431 58be 6398 75bc 725a 80bd
00000060: 7563 d73d 4b9e 0abb 291d bcbd 46d6 653d
00000070: 1625 3d3d daea 903b 5666 183c 0e01 da3c
00000080: 324d 55bd 8aae 5dbd 4348 9fbd 5440 4ebe
00000090: 151e 1d3d 19f9 973d fef0 973c 0398 a4bd
000000a0: d667 8e3c 2599 58bd 0c9b 1fbb c7b1 f5bd
000000b0: da03 6bbc 42db b63c 7cca ccbd a14c 15be
000000c0: f995 63bc 32fe 1a3d 9fbc d6bd 4aaf 5dbe
000000d0: e07e d7bd d033 64bd 3bc8 cf3d 1775 843c
000000e0: d2ac 4fbe d3cc 24be 4cbf a43d a196 bcbd
000000f0: 823d 4f3c 98f1 9d3c c333 d13d 59ae 533c
00000100: 3291 a03d 63aa c73d 22bf 793d 1d4f 753c
00000110: 724e 8f3d 3d4d 1dbd 85fb 36bd 2f03 213e
00000120: cbdc da3d 1471 98bd 93dd 27be b5a9 443b
00000130: 473f 45bc dedc eabd 8e5a 32be 4430 b93d
00000140: 7c64 d8bd 979c 523d b3ea babd 378d 12be
00000150: 0a32 95bd 49db b1bc b429 4abc 9975 0dbe
00000160: 412a 88bd dbc3 9fbc f2b0 3dbe eac3 903a
00000170: 6658 253e a979 68bd d7dd 0e3e 6d9f efbd
00000180: 91ff f3bc abc7 82bc eb7b eb3d cc37 b53d
00000190: 76fd 423c 2612 3f3e c3e1 de3d 5c99 dfbd
000001a0: 611e 1b3e 9fb3 89bc 9bef 22be c92c 863c
000001b0: 15f2 27bd 16a8 34be d633 633d 52d9 563e
000001c0: 7a5e e33d 1946 003e 666d 4b3d 092b 883c
000001d0: 25a7 f43d 19dd 90bc 71af ddbd 15bc 403d
000001e0: 3a26 f0bd 6ff5 013e 2958 f9bd 72ad 8f3c
000001f0: 0135 ab3e 67e8 b8bd d43b 093e 599c c53d
00000200: 9b5c 9d3c 3213 813d 77be 35be d5e0 eb3d
00000210: 700b e0bd c592 0cbe 3642 b4ba 46df 88be
00000220: 4c8d 4dbe ad21 473c 28e5 113d f2fa 95bb
00000230: f5a3 b1bd 1f29 04bd 5779 a3bd 05a1 bdbb
00000240: 93b8 b1bd f04d 13be 5f06 73bd 02eb 28be
00000250: 6557 223d 5cf1 0dbd 485d f0bd 4cc8 303e
00000260: 9270 15bd 8c88 52bd ca5f e9bc a963 373d
00000270: 8f62 083d a512 903e f0d5 1dbd a09f 7abd
00000280: 6451 5cbe 2a26 70bd 5860 3c3e edbf 023d
00000290: 6142 d53d 6ef0 433d 793f e9bd ab6a f93c
000002a0: 2107 803e 082f 5abe 271e 0c3e c38b c23d
000002b0: a6e9 59bd d1fd ee3c 10c1 1bbd ede3 8c3d
000002c0: 3347 38be fea7 c0bd 6789 9cbe 0f7c 553e
000002d0: 436f 313d 5ac0 0ebd b73c ec3c 6332 183c
000002e0: 99c1 9abc 169e 3cbd b614 033e 95ee 11bd
000002f0: cc73 063d 7024 b0bd 19a4 71bd 5186 ec3c
00000300: ba2c 96bc dfa9 ccbd 7dd9 c5bc b580 943d
00000310: 0dea ff3d d299 31be 450d 85bd 82d0 dbbc
00000320: 7b48 febd 405c b4bd 6fbb c93d bf5e e3bc
00000330: 6b4b 14be 87e7 a2bc fe6b 25bd e214 483d
00000340: abc4 e33d 8a2c 963d f31f 0f3e c37f 0fbd
00000350: 2a44 b2bd 00b9 ac3c 79e6 9abd 5e62 12bd
00000360: 3314 043e 70a8 d5bc 5a4d 0b3b 4969 6bbd
00000370: 7a90 e73c a7dd 78bd 90d2 13be b76c 15bd
00000380: 08bd d6bc d6d1 afbd 5b29 563e c47f 0cbe
00000390: d648 ba3d 74fe 753d a8f3 09be b870 203e
000003a0: 9b67 0e3e 0436 03be d303 02be eba0 703e
000003b0: 0825 a9bc d7d6 2c3e 1212 c3bc 7836 72bc
000003c0: 7894 adbb 35ad 313c a60d 943e 5103 1a3e
000003d0: b8fe febb fbb5 b1bd 276d e7bd 12c9 283c
000003e0: 6889 1e3e 44d7 873d 265c 7f3b a2cf 83be
000003f0: c964 cabd f0a7 f2bc abed fe3d 1960 573c

fc1.bias f4 [64]
-0.13025172 0.10042283 0.14546572 -0.1783255 -0.063919626 -0.22076367 0.18054438 -0.09672516
0.0 0.035707865 -0.021217108 0.05335154 0.008917764 -0.15258367 0.026553053 0.0
-0.043888453 -0.025960773 -0.14083788 0.045068547 0.0 0.1144225 -0.13139139 -0.33075175
0.0 0.17326982 0.1397538 0.04488698 0.0 0.0 0.0 -0.043978725
-0.11648409 0.0 0.1293801 0.044083275 0.111999825 0.0 0.044605047 0.32152507
0.077544376 0.0 -0.06483633 0.11426711 -0.06865079 0.090481184 0.14217229 -0.041192546
-0.031188417 0.13545448 0.25987393 0.22239794 0.0 -0.18048678 -0.31587902 0.11360558
0.13195142 -0.14512274 0.095589146 0.26193547 0.0 -0.02811625 0.09334527 0.11350219
00000000: b560 05be 7caa cd3d f7f4 143e f69a 36be
00000010: 4be8 82bd df0f 62be a0e0 383e d717 c6bd
00000020: 0000 0000 6942 123d 80cf adbc 2587 5a3d
00000030: d01b 123c e53e 1cbe ca85 d93c 0000 0000
00000040: 61c4 33bd b0ab d4bc ce37 10be cc99 383d
00000050: 0000 0000 5856 ea3d 778b 06be 4b58 a9be
00000060: 0000 0000 a56d 313e 9f1b 0f3e 69db 373d
00000070: 0000 0000 0000 0000 0000 0000 0923 34bd
00000080: 368f eebd 0000 0000 387c 043e aa90 343d
00000090: 2a60 e53d 0000 0000 c8b3 363d ef9e a43e
000000a0: 96cf 9e3d 0000 0000 e9c8 84bd e004 ea3d
000000b0: c998 8cbd 334e b93d 9d95 113e 84b9 28bd
000000c0: da7e ffbc 94b4 0a3e 320e 853e 49bc 633e
000000d0: 0000 0000 87d1 38be e5ba a1be 0baa e83d
000000e0: 461e 073e 0e9b 14be 3ec4 c33d 681c 863e
000000f0: 0000 0000 0d54 e6bc ce2b bf3d d673 e83d

fc2.weight f4 [64, 64]
-0.31530464 0.08560313 0.10633449 -0.19100177 -0.09563077 -0.20301664 0.063382834 -0.0690031
-0.049468942 0.1586898 -0.07928869 0.09531741 0.116561934 -0.06356237 0.16877636 -0.271141
0.016876688 0.085642 0.057298593 0.058520332 -0.17910922 0.04988481 -0.008472101 -0.037178464
0.15279062 0.06133756 -0.08201882 0.11925555 0.03111343 0.009976874 0.11114259 0.17313515
0.31120014 0.27188212 0.067901954 -0.03745388 -0.014766434 -0.06649109 -0.21885815 0.13459179
-0.22121431 -0.034287866 -0.017525095 0.2520813 -0.33003613 -0.3266902 -0.091082655 -0.13397121
0.20445326 0.17130724 0.058694378 0.01360183 0.0102073345 0.29291314 -0.11460952 -0.1007418
-0.068152614 -0.1758228 -0.13954906 -0.16120154 -0.01299648 -0.08113967 -0.061680164 0.061290972
-0.0049888957 -0.059989665 -0.14152999 -0.11896922 -0.0029634747 0.083518885 0.15033339 -0.00079256174
0.20000403 -0.11791314 0.05007551 0.10484441 -0.051818136 -0.21539912 0.0029081965 0.03640648
-0.12051536 0.018686058 0.0013585693 0.11590174 0.17850795 -0.16958326 0.15967366 0.13194524
0.007568322 -0.11171839 -0.10319967 -0.08897151 0.008633959 0.12542486 0.062440213 -0.12889954
-0.19259837 -0.08168881 -0.018218504 0.1948532 -0.10829662 0.25635573 -0.26967648 0.1176264
-0.3166442 0.18723938 -0.11838006 0.024701918 -0.10466636 -0.14351273 0.16659072 -0.2598394
0.09462113 -0.03223484 0.030266017 0.090467356 -0.012916079 -0.06204619 -0.15410604 0.13143638
-0.16921975 0.04198276 0.0154080065 0.070480525 -0.06579623 -0.07893217 0.08413964 -0.03281031
0.1981464 -0.1096338 -0.077909924 -0.016538342 -0.15734847 0.042551387 0.07940374 -0.05739777
-0.15043554 -0.13710609 0.0072534946 -0.004060694 0.121817075 -0.071982585 -0.12708879 0.061247885
-0.12193745 -0.060614634 0.054378737 -0.07024538 0.094637536 0.019167284 -0.11318365 -0.16166948
-0.05679255 -0.03917597 -0.01106127 0.062005516 -0.056833584 -0.15854684 -0.26932788 0.36256152
-0.03380653 0.15140682 -0.066119775 0.054010503 0.010145912 0.020504292 -0.1852681 0.22074337
0.045822784 0.0048757084 0.00628483 0.12703232 -0.013961533 -0.1268378 0.14308442 -0.21124877
-0.04004317 -0.22448094 0.121682145 0.06544434 0.12784873 0.08144228 -0.17787066 0.05986767
-0.20792055 -0.17638616 0.1701209 0.2776766 -0.08504229 -0.13599539 -0.039324284 -0.09326571
-0.08025877 -0.098070316 -0.050289914 0.107673086 -0.39467013 0.06525316 -0.43964913 -0.021692455
-0.18422529 -0.2665699 0.10415386 -0.16862282 -0.075719245 -0.014848651 0.07059242 -0.042700935
-0.17734429 0.24069981 0.33892548 -0.18890876 -0.13608012 -0.23419885 0.19537094 -0.07937114
0.01939534 -0.11813397 -0.105743095 -0.030297862 -0.043389402 -0.16179809 0.013489704 0.0399027
0.2163582 -0.15865412 0.18090047 -0.15050037 -0.2158772 0.0018159244 0.24936117 -0.25625047
0.021663865 -0.020009384 0.2839222 -0.17364837 0.0025628754 -0.412178 0.18171781 -0.15419653
-0.16337918 -0.07521291 -0.2863063 -0.387263 -0.063012354 0.23140897 -0.04035853 -0.0604669
0.16322209 -0.21051583 0.062340315 -0.21654408 0.21802795 0.1719334 0.11745643 -0.17045926
00000000: 9c6f a1be b250 af3d e6c5 d93d f895 43be
00000010: 11da c3bd 98e3 4fbe dcce 813d 7f51 8dbd
00000020: f29f 4abd 947f 223e 1c62 a2bd c635 c33d
00000030: 06b8 ee3d fd2c 82bd b6d3 2c3e fed2 8abe
00000040: fb40 8a3c 1365 af3d eeb1 6a3d 04b3 6f3d
00000050: 6868 37be 0454 4c3d 91ce 0abc 7248 18bd
00000060: 2575 1c3e 183d 7b3d 7cf9 a7bd 413c f43d
00000070: 98e1 fe3c 0b76 233c ba9e e33d 574a 313e
00000080: a055 9f3e 2234 8b3e 2e10 8b3d 3d69 19bd
00000090: eaee 71bc 7b2c 88bd 5a1c 60be 6ed2 093e
000000a0: 0186 62be 6f71 0cbd ca90 8fbc cd10 813e
000000b0: 7ffa a8be f043 a7be 8b89 babd c02f 09be
000000c0: 325c 513e 2a6b 2f3e 8469 703d 36da 5e3c
000000d0: aa3c 273c b6f8 953e 65b8 eabd b851 cebd
000000e0: 9993 8bbd e40a 34be f3e5 0ebe 0412 25be
000000f0: 30ef 54bc 8e2c a6bd 57a4 7cbd 3e0c 7b3d
00000100: e479 a3bb b9b7 75bd 3ded 10be 22a6 f3bd
00000110: db36 42bb f30b ab3d fff0 193e ebc3 4fba
00000120: dbcd 4c3e 727c f1bd fa1b 4d3d abb8 d63d
00000130: 413f 54bd 9691 5cbe 7197 3e3b f61e 153d
00000140: c2d0 f6bd 8113 993c 0512 b23a e45d ed3d
00000150: caca 363e 3ca7 2dbe 7e81 233e a71c 073e
00000160: b0ff f73b 9ccc e4bd 595a d3bd b236 b6bd
00000170: 7375 0d3c 606f 003e 4fc1 7f3d 3efe 03be
00000180: 8238 45be 764c a7bd f93e 95bc 9987 473e
00000190: 9eca ddbd 0f41 833e 0913 8abe 1ce6 f03d
000001a0: 301f a2be aebb 3f3e 3f71 f2bd ad5b ca3c
000001b0: 515b d6bd 00f5 12be c296 2a3e ab09 85be
000001c0: b9c8 c13d ae08 04bd 70f0 f73c f346 b93d
000001d0: f69d 53bc 2524 7ebd f9cd 1dbe 4297 063e
000001e0: f147 2dbe 1df6 2b3d dd71 7c3c 1858 903d
000001f0: 2dc0 86bd 31a7 a1bd 6751 ac3d 1b64 06bd
00000200: e4e6 4a3e b087 e0bd 3d8f 9fbd 6b7b 87bc
00000210: f51f 21be 5d4a 2e3d 6e9e a23d ed19 6bbd
00000220: c60b 1abe 8a65 0cbe b9ae ed3b 920f 85bb
00000230: 3b7b f93d 9b6b 93bd 9023 02be 10df 7a3d
00000240: 57ba f9bd 0d47 78bd 3dbc 5e3d cfdc 8fbd
00000250: 53d1 c13d b504 9d3c d4cc e7bd af8c 25be
00000260: 4e9f 68bd fb76 20bd 543a 35bc 7ff9 7d3d
00000270: 55ca 68bd 1a5a 22be 58e5 89be aaa1 b93e
00000280: b778 0abd 640a 1b3e ce69 87bd 1e3a 5d3d
00000290: 0a3b 263c 9ef8 a73c ecb6 3dbe 8d0a 623e
000002a0: acb0 3b3d 68c4 9f3b faf0 cd3b c314 023e
000002b0: eabe 64bc c5e1 01be b984 123e 9951 58be
000002c0: 4f04 24bd 55de 65be 7d34 f93d af07 863d
000002d0: c7ea 023e 36cb a63d ba23 36be cd37 753d
000002e0: 20e9 54be 939e 34be 2c34 2e3e a12b 8e3e
000002f0: a72a aebd 6042 0bbe 8012 21bd 1802 bfbd
00000300: b65e a4bd 17d9 c8bd ccfc 4dbd b583 dc3d
00000310: 3412 cabe 73a3 853d b119 e1be 60b4 b1bc
00000320: 8ea5 3cbe da7b 88be 9e4e d53d 76ab 2cbe
00000330: b112 9bbd c247 73bc c292 903d 2de7 2ebd
00000340: be99 35be 037a 763e a487 ad3e 4c71 41be
00000350: 9658 0bbe d3d1 6fbe 520f 483e 568d a2bd
00000360: fae2 9e3c 39f0 f1bd d68f d8bd 3933 f8bc
00000370: 16b9 31bd 66ae 25be eb03 5d3c 0371 233d
00000380: 018d 5d3e 3a76 22be f93d 393e c51c 1abe
00000390: ea0e 5dbe 5004 ee3a 8958 7f3e 4333 83be
000003a0: 6b78 b13c b8ea a3bc 405e 913e e1d0 31be
000003b0: eaf5 273b ff08 d3be 3c14 3a3e b2e5 1dbe
000003c0: df4c 27be 3a09 9abd bd96 92be 5647 c6be
000003d0: 9f0c 81bd 79f6 6c3e fc4e 25bd 24ac 77bd
000003e0: b123 273e 7691 57be 8f58 7f3d bbbd 5dbe
000003f0: b842 5f3e 4f0f 303e ff8c f03d df8c 2ebe

fc2.bias f4 [64]
0.13460033 -0.031735167 0.010420034 -0.049680945 -0.039508127 0.17018034 -0.020936914 0.14734432
-0.19239652 0.1622187 -0.008513006 0.0 -0.053186644 -0.046016853 -0.02590094 -0.04472102
-0.059914652 -0.00047938252 0.18412034 -0.07622157 0.059635352 -0.3571794 -0.019338844 -0.012941686
0.24949849 -0.030733354 0.11510542 0.05834195 -0.021942945 0.25687823 0.032985136 -0.024053551
-0.22695181 0.03467428 -0.008578088 -0.008777793 0.07566946 -0.02282551 0.109062776 0.16796908
-0.0144488765 0.22336079 -0.021105736 0.104213305 0.11852408 0.106826946 -0.010719104 0.05755824
-0.02871155 -0.009518194 0.037637305 -0.04478307 -0.02780949 -0.01122139 0.10611972 -0.023127342
0.20593894 -0.09052277 0.08277154 0.0 -0.059278075 0.15868445 -0.0023419673 -0.018499127
00000000: abd4 093e bcfc 01bd cab8 2a3c 3f7e 4bbd
00000010: 46d3 21bd c143 2e3e e483 abbc 6ee1 163e
00000020: 9803 45be a91c 263e 237a 0bbc 0000 0000
00000030: 3dda 59bd 2b7c 3cbd 352e d4bc 632d 37bd
00000040: 1169 75bd a255 fbb9 0b8a 3c3e 0e1a 9cbd
00000050: 3344 743d 38e0 b6be 7f6c 9ebc 5e09 54bc
00000060: 887c 7f3e 84c4 fbbc 64bc eb3d f8f7 6e3d
00000070: b1c1 b3bc 8b85 833e 6c1b 073d f40b c5bc
00000080: 0e66 68be 9e06 0e3d 1c8b 0cbc bbd0 0fbc
00000090: 97f8 9a3d 90fc babc 4e5c df3d 1600 2c3e
000000a0: fbba 6cbc b1b8 643e f0e5 acbc c96d d53d
000000b0: c1bc f23d 16c8 da3d 2e9f 2fbc 30c2 6b3d
000000c0: 7c34 ebbc 33f2 1bbc 9329 1a3d 746e 37bd
000000d0: bad0 e3bc ecd9 37bc 4c55 d93d 8d75 bdbc
000000e0: a8e1 523e 0164 b9bd 2084 a93d 0000 0000
000000f0: 91cd 72bd 2d7e 223e b17b 19bb 7b8b 97bc

fc3.weight f4 [32, 64]
0.002337492 -0.06490474 -0.06415926 0.16919546 0.10934768 -0.14797156 -0.022859048 0.108093515
-0.02814884 0.10202926 0.099907525 -0.0771937 -0.15461771 0.071588434 0.1128681 0.0723968
-0.10589418 -0.14204831 0.09856603 -0.09963447 0.021336788 0.015462576 -0.1333423 -0.42519468
0.14650995 0.21045862 -0.1504116 -0.015336339 0.20254585 -0.07781657 0.079486705 -0.028580466
-0.07229839 0.0923227 -0.20042267 -0.056694627 0.110857956 0.242307 -0.10838551 0.04731766
-0.009017862 -0.029100403 -0.0974139 -0.09479797 -0.13702545 0.061542008 -0.04964317 0.006873656
0.07752836 -0.2457111 -0.21158043 0.13203001 -0.13345373 -0.119186 -0.05867932 0.056523122
0.018108586 0.12802008 -0.049319867 -0.123941354 -0.0029389674 0.061159745 -0.011158673 0.06272412
-0.022000842 -0.030315548 -0.020480586 -0.13748428 0.07356773 -0.13225864 -0.036659744 0.046480637
0.3996736 -0.10391279 0.1765496 -0.05915956 -0.05290579 -0.08901597 -0.072426885 -0.3722877
-0.110674374 0.16534923 -0.10192378 0.14064287 -0.041194964 -0.045180865 0.14596018 0.008535548
-0.07686293 0.12953201 -0.08150422 0.04978082 -0.10207344 0.23260613 0.1048678 0.2013225
0.12856057 -0.066911824 -0.05350985 0.059769675 0.26621237 0.04400339 0.12182258 -0.01731821
-0.025534024 -0.060598463 0.03148414 0.039191972 0.1751026 0.14025459 0.11821754 0.03425127
-0.035584204 -0.11380756 -0.18424393 0.14761876 0.2658363 0.3382612 -0.14793727 -0.22147888
-0.044276103 -0.02798153 0.09943834 -0.19993816 -0.11688346 0.10716725 -0.12752332 0.07475613
0.06386216 0.030788664 0.04774238 -0.13140206 0.0227891 -0.028004972 -0.030618235 -0.033913493
0.27543643 -0.014300371 -0.03074824 0.011807859 -0.025472756 -0.06727072 0.014157037 -0.10972462
0.3491933 -0.10882205 -0.09888704 -0.01383803 0.23123941 0.23254375 0.21469186 -0.24996221
0.10133779 0.041360166 -0.074690275 -0.16977447 0.17464982 -0.046208907 0.13298939 0.07209986
-0.243606 -0.036040027 -0.044005558 0.2137151 0.02340681 -0.09631502 -0.0064868676 0.19219764
-0.20393692 -0.17607151 -0.058678202 0.012420383 0.2386717 0.012854274 0.08991582 0.1158944
-0.035058558 0.08439023 0.030697001 -0.12194907 0.0525732 -0.1743413 -0.08512635 0.20765735
0.044166762 -0.1254055 -0.106922045 -0.051068563 -0.040747553 0.076644234 0.11777895 -0.071658924
0.028165601 -0.16690534 -0.060683403 -0.20188254 0.0020957906 -0.07406913 -0.18592067 0.031014608
0.12704793 0.039778955 0.012944671 0.08667619 -0.00970965 -0.18886413 0.0054908185 0.06596433
-0.1657675 -0.056830723 0.15412755 -0.09543876 -0.08435363 -0.08844174 0.06236456 -0.0006432264
-0.17454939 -0.09806254 -0.116940945 -0.032774594 0.13261987 0.010950731 0.06264839 -0.05512547
0.058364026 0.13800284 -0.10428366 0.20069869 0.051576115 0.15280102 0.12521815 0.028600471
0.16211447 0.01838809 0.046412624 0.0039360984 0.2642832 -0.09844049 0.37255082 -0.03439821
0.008738745 -0.08454218 0.17305717 -0.21362935 -0.14064752 0.11310644 0.08580998 -0.13683978
-0.004297341 0.08461734 0.053448513 -0.04089781 -0.126697 0.03759913 -0.013419863 -0.14389984
00000000: 9c30 193b c7ec 84bd ee65 83bd 9341 2d3e
00000010: adf1 df3d db85 17be e642 bbbc 2260 dd3d
00000020: 6598 e6bc b7f4 d03d 519c cc3d bb17 9ebd
00000030: 1b54 1ebe f59c 923d 6427 e73d c644 943d
00000040: 0cdf d8bd 1d75 11be fddc c93d 280d ccbd
00000050: 7dca ae3c bf56 7d3c e28a 08be 1eb3 d9be
00000060: b406 163e 7782 573e 8005 1abe 4545 7bbc
00000070: 2e68 4f3e 4b5e 9fbd edc9 a23d 9521 eabc
00000080: 2e11 94bd af13 bd3d 9a3b 4dbe a038 68bd
00000090: 7f09 e33d 541f 783e 39f9 ddbd 2ad0 413d
000000a0: a8bf 13bc f863 eebc f080 c7bd 7025 c2bd
000000b0: 6650 0cbe 7913 7c3d a356 4bbd 683c e13b
000000c0: 30c7 9e3d b19b 7bbe 8aa8 58be e032 073e
000000d0: 18a8 08be ca17 f4bd ba59 70bd ca84 673d
000000e0: 7558 943c b217 033e a103 4abd f7d4 fdbd
000000f0: b19b 40bb a482 7a3d ded2 36bc 8175 803d
00000100: 1c3b b4bc 5058 f8bc e7c6 a7bc aec8 0cbe
00000110: aeaa 963d cf6e 07be 8728 16bd 7b62 3e3d
00000120: 05a2 cc3e 3bd0 d4bd 6bc9 343e 4b51 72bd
00000130: beb3 58bd 014e b6bd 8c54 94bd 7e9c bebe
00000140: 3fa9 e2bd 4f51 293e 6abd d0bd af04 103e
00000150: 0dbc 28bd 920f 39bd 9676 153e afd8 0b3c
00000160: 506a 9dbd 0aa4 043e afeb a6bd f9e6 4b3d
00000170: e10b d1bd 4d30 6e3e eec4 d63d 7c27 4e3e
00000180: 62a5 033e 1109 89bd 252d 5bbd 0cd1 743d
00000190: fd4c 883e e63c 343d 1e7e f93d ebde 8dbc
000001a0: bb2c d1bc 1836 78bd 83f5 003d c387 203d
000001b0: 194e 333e e69e 0f3e 0a1c f23d 0f4b 0c3d
000001c0: bec0 11bd f013 e9bd 71aa 3cbe 5f29 173e
000001d0: b21b 883e 9230 ad3e de7c 17be 5ccb 62be
000001e0: dc5a 35bd 8639 e5bc 54a6 cb3d 97bc 4cbe
000001f0: 9860 efbd 817a db3d 7995 02be be19 993d
00000200: 2aca 823d 8238 fc3c 848d 433d 438e 06be
00000210: 35b0 ba3c af6a e5bc 18d3 fabc e0e8 0abd
00000220: 0106 8d3e 1a4c 6abc bce3 fbbc c075 413c
00000230: 3eac d0bc 3bc5 89bd ebf2 673c 4db7 e0bd
00000240: 77c9 b23e 18de debd 4a85 cabd e8b8 62bc
00000250: 06ca 6c3e f31f 6e3e 2fd8 5b3e 18f6 7fbe
00000260: 308a cf3d 4769 293d 37f7 98bd 5cd9 2dbe
00000270: 67d7 323e 8d45 3dbd 5f2e 083e 17a9 933d
00000280: da73 79be b59e 13bd 2c3f 34bd 22d8 5a3e
00000290: a3bf bf3c cf40 c5bd ca8f d4bb 75cf 443e
000002a0: d7d4 50be 174c 34be 8e58 70bd dd7e 4b3c
000002b0: 5b66 743e bc9a 523c c925 b83d 0b5a ed3d
000002c0: 9099 0fbd c9d4 ac3d 4778 fb3c 6fc0 f9bd
000002d0: ff56 573d 8786 32be b956 aebd 21a4 543e
000002e0: 35e8 343d 4d6a 00be f2f9 dabd 452d 51bd
000002f0: e8e6 26bd a7f7 9c3d 1736 f13d eac1 92bd
00000300: 8cbb e63c 3ce9 2abe 298f 78bd 4cba 4ebe
00000310: 8859 093b 8eb1 97bd fd61 3ebe 5912 fe3c
00000320: da18 023e 42ef 223d e315 543c 4983 b13d
00000330: 3915 1fbc 9965 41be 53ec b33b 4f18 873d
00000340: f5be 29be 55c7 68bd 9dd3 1d3e 6675 c3bd
00000350: 99c1 acbd f120 b5bd fb71 7f3d 319e 28ba
00000360: 13bd 32be 03d5 c8bd bc7e efbd a73e 06bd
00000370: 81cd 073e b26a 333c cd4d 803d 3fcb 61bd
00000380: 1e0f 6f3d 9e50 0d3e ac92 d5bd f583 4d3e
00000390: 7a41 533d df77 1c3e 3039 003e 894b ea3c
000003a0: 5601 263e 9fa2 963c 2a1b 3e3d 63fa 803b
000003b0: 2150 873e 2b9b c9bd fbbe be3e 23e5 0cbd
000003c0: f42c 0f3c 7324 adbd e635 313e a7c1 5abe
000003d0: e705 10be 59a4 e73d 25bd af3d ba1f 0cbe
000003e0: b6d0 8cbb db4b ad3d d4ec 5a3d 7684 27bd
000003f0: dcbc 01be 8c01 1a3d fcde 5bbc 7b5a 13be

fc3.bias f4 [32]
-0.008607061 0.002090686 0.007248612 -0.01951731 0.018578606 0.014860455 -0.026375739 0.019896947
0.029788587 -0.025679473 0.0035604206 -0.013364111 -0.005278291 -0.007648591 -0.014452025 0.019869199
0.14611167 0.17617689 0.14864208 0.15684532 0.15857306 0.1662567 0.16444325 0.1594025
0.16672818 0.14758736 0.15601687 0.1498634 0.15346509 0.1709514 0.16649717 0.15425208
00000000: a104 0dbc e403 093b c485 ed3b c4e2 9fbc
00000010: 2932 983c 4479 733c ef11 d8bc ecfe a23c
00000020: 3207 f43c c25d d2bc f255 693b 25f5 5abc
00000030: 84f5 acbb 08a1 fabb 30c8 6cbc bbc4 a23c
00000040: 4c9e 153e b767 343e a135 183e 0f9c 203e
00000050: fa60 223e 323f 2a3e d063 283e 693a 233e
00000060: cbba 2a3e 2421 173e e3c2 1f3e cb75 193e
00000070: f425 1d3e e20d 2f3e 3c7e 2a3e 42f4 1d3e
