puppersim/dc_saves/aac_mega_puppy_2/actor_3.pt (torch, 30871 bytes, 6 tensors)

fc1.weight f4 [64, 15]
0.005114005 -0.020792548 0.23521425 0.16236614 -0.09234044 0.13140847 -0.02189763 -0.06871394
0.08130685 -0.010150767 -0.0010507758 0.07363963 0.09362361 0.42957053 -0.3212317 0.08409337
-0.007322111 0.026747376 0.00032109165 0.03654955 -0.053874705 -0.17680585 0.02288277 -0.035567783
0.087191895 -0.01661509 -0.11853747 0.046462633 0.03550602 0.03220903 0.029755292 -0.0901529
-0.08733319 -0.05452641 0.062115114 -0.32510313 0.081363104 0.116457194 -0.03441529 -0.076770104
0.102794625 -0.057443447 0.036580723 -0.020698668 -0.14729124 0.04590941 -0.12257065 -0.078747764
0.00838934 -0.08228817 -0.07325153 -0.17844377 -0.055355005 0.045134157 0.13416685 -0.009818972
-0.15241945 -0.1732129 0.11002335 -0.07077105 0.01750697 -0.030488431 0.09136789 0.025933987
-0.004736929 0.00011627567 0.06132358 -0.11330495 0.17615342 0.0013643939 0.006660617 0.25567868
0.07881379 -0.048630685 -0.17211574 -0.00062393484 0.06165467 -0.148138 -0.19838202 0.14997257
-0.11841028 0.01595827 -0.111270465 -0.18532276 -0.07906014 0.00030448698 -0.058385786 -0.1693193
-0.038766436 -0.015794484 -0.22576274 0.034016766 0.1555785 -0.06245174 0.15714726 -0.12406296
-0.025296532 0.025155548 0.15204446 0.081255026 0.035285298 0.21197098 0.110845186 -0.059212975
0.1540855 -0.05319389 -0.06358048 0.045860384 -0.05173631 -0.13848996 0.05880588 0.1838404
0.07336601 0.1350086 0.047456577 -0.010193856 0.15445884 -0.025603972 -0.066213146 0.023155192
-0.11726041 0.12691282 -0.12175018 0.01753876 0.33438876 -0.09028702 0.13401729 0.096489616
0.019209197 0.06302489 -0.17748438 0.11517493 -0.109396815 -0.13727863 -0.0013752643 -0.29393703
-0.25836357 0.011050084 0.07195129 -0.030780725 -0.10027321 -0.023710255 0.107988745 -0.018142635
-0.07508432 -0.19262753 -0.119362906 -0.17866132 0.037802096 -0.018987661 -0.11736542 0.17263907
-0.03648431 -0.051399752 -0.028488059 0.044772778 0.033297118 0.28139225 -0.038534105 -0.061187387
-0.21515423 -0.058630146 0.18396127 0.031921316 0.104130514 0.04992562 -0.100213304 0.030721094
0.30302545 -0.20540644 0.11770068 0.13617581 -0.12035114 -0.094734475 -0.09913952 0.048745673
-0.26461965 -0.13317461 -0.2937148 0.24033792 -0.007923107 0.033370797 0.06662573 0.030078674
-0.027626911 -0.040268324 0.15320067 -0.09779374 0.060445357 -0.076754205 -0.02776243 0.0087802755
-0.002448846 -0.09933849 -0.025858745 -0.0007267186 0.17110506 -0.14352351 -0.11926784 0.2125539
-0.11699241 -0.07735059 0.10014513 -0.021554636 -0.14422594 -0.018676588 -0.065667704 0.06208939
0.077384315 0.023091571 0.057275064 -0.0042714165 -0.051755894 0.045771528 -0.10606368 -4.092908e-05
0.1296724 -0.094763674 -0.015331689 -0.08268005 0.00954594 -0.09863977 -0.17741588 -0.049334284
-0.020074006 -0.08584945 0.20914213 -0.13720614 0.090959236 0.06005712 -0.13471854 0.15667999
0.1390671 -0.12813574 -0.12696771 0.23498885 -0.02064754 0.1687883 -0.023812328 -0.014783494
0.017065167 0.009691793 0.35971013 0.19639046 0.028594647 -0.0009702823 -0.11097467 0.018685648
0.011456822 0.035856437 -0.04516812 -0.3615391 -0.0918973 -0.0724338 0.21027762 0.052614965
00000000: 6293 a73b 2255 aabc 01dc 703e 4f43 263e
00000010: fc1c bdbd f18f 063e a962 b3bc e5b9 8cbd
00000020: 3584 a63d 674f 26bc 2fba 89ba 60d0 963d
00000030: bcbd bf3d abf0 db3e 7b78 a4be 2539 ac3d
00000040: 52ee efbb 501d db3c 3158 a839 fbb4 153d
00000050: b9ab 5cbd 980c 35be a674 bb3c 86af 11bd
00000060: aa91 b23d 5f1c 88bc c6c3 f2bd 9a4f 3e3d
00000070: c36e 113d 9eed 033d 5fc1 f33c 15a2 b8bd
00000080: bedb b2bd 1657 5fbd 6b6c 7e3d eb73 a6be
00000090: b3a1 a63d 1c81 ee3d 0cf7 0cbd a539 9dbd
000000a0: fd85 d23d d249 6bbd abd5 153d 4190 a9bc
000000b0: 84d3 16be 810b 3c3d 5206 fbbd 8246 a1bd
000000c0: 7173 093c b386 a8bd e604 96bd f7b9 36be
000000d0: eebb 62bd 98de 383d 0963 093e c1df 20bc
000000e0: d813 1cbe b95e 31be ec53 e13d 6af0 90bd
000000f0: c76a 8f3c e0c2 f9bc 171f bb3d 8373 d43c
00000100: 3e38 9bbb 06d9 f338 6f2e 7b3d 6d0c e8bd
00000110: 9061 343e 76d5 b23a 4e41 da3b 51e8 823e
00000120: 2069 a13d f830 47bd 1c3f 30be 8f8f 23ba
00000130: 9b89 7c3d 7db1 17be a824 4bbe 6992 193e
00000140: 1781 f2bd ebba 823c c5e1 e3bd 40c5 3dbe
00000150: 48ea a1bd 8da3 9f39 ef25 6fbd 0a62 2dbe
00000160: 8ec9 1ebd 6f63 81bc 592e 67be 2a55 0b3d
00000170: f84f 1f3e 65cd 7fbd 36eb 203e b914 febd
00000180: ac3a cfbc 0213 ce3c 8bb1 1b3e 0969 a63d
00000190: 5187 103d ec0e 593e cd02 e33d 4e89 72bd
000001a0: 97c8 1d3e d6e1 59bd 7c36 82bd 19d8 3b3d
000001b0: 74e9 53bd 50d0 0dbe 6fde 703d a840 3c3e
000001c0: eb40 963d b23f 0a3e d461 423d 2204 27bc
000001d0: 752a 1e3e 6cbf d1bc c29a 87bd f5af bd3c
000001e0: 3a26 f0bd 6ff5 013e 2958 f9bd 72ad 8f3c
000001f0: 0135 ab3e 67e8 b8bd d43b 093e 599c c53d
00000200: 9b5c 9d3c 3213 813d 77be 35be d5e0 eb3d
00000210: 700b e0bd c592 0cbe 3642 b4ba ea7e 96be
00000220: 3b48 84be 690b 353c 335b 933d dc27 fcbc
00000230: 0a5c cdbd 023c c2bc 3429 dd3d dd9f 94bc
00000240: cfc5 99bd 2740 45be 8a74 f4bd fef2 36be
00000250: 5fd6 1a3d 038c 9bbc 485d f0bd 4cc8 303e
00000260: 9270 15bd 8c88 52bd ca5f e9bc a963 373d
00000270: 8f62 083d a512 903e f0d5 1dbd a09f 7abd
00000280: 6451 5cbe 2a26 70bd 5860 3c3e edbf 023d
00000290: 6142 d53d cf7e 4c3d a23c cdbd ceaa fb3c
000002a0: 2726 9b3e 1156 52be 0e0d f13d ac71 0b3e
000002b0: a97a f6bd 2604 c2bd a909 cbbd 8ba9 473d
000002c0: 3a7c 87be ed5e 08be c961 96be 251b 763e
000002d0: ebcf 01bc d1af 083d 1273 883d 8d67 f63c
000002e0: d551 e2bc 66f0 24bd a3e0 1c3e 1648 c8bd
000002f0: 8d95 773d 4f31 9dbd 096e e3bc 25db 0f3c
00000300: d17c 20bb fa71 cbbd b8d5 d3bc 4281 3eba
00000310: 2a36 2f3e d4f7 12be b342 f4bd bba7 593e
00000320: b799 efbd fc69 9ebd e418 cd3d 5993 b0bc
00000330: f7af 13be a5ff 98bc ca7c 86bd 7251 7e3d
00000340: ab7b 9e3d 892a bd3c 4299 6a3d 3df7 8bbb
00000350: fdfd 53bd ed7a 3b3d ea37 d9bd 44ab 2bb8
00000360: d7c8 043e 7513 c2bd c431 7bbc 2854 a9bd
00000370: 9366 1c3c a603 cabd 82ac 35be bf12 4abd
00000380: 3e72 a4bc d6d1 afbd 5b29 563e c47f 0cbe
00000390: d648 ba3d 74fe 753d a8f3 09be b870 203e
000003a0: 9b67 0e3e 0436 03be d303 02be eba0 703e
000003b0: 0825 a9bc d7d6 2c3e 1212 c3bc 7836 72bc
000003c0: 40cc 8b3c 53ca 1e3c ed2b b83e 951a 493e
000003d0: 523f ea3c 8b5a 7eba b046 e3bd a512 993c
000003e0: 65b5 3b3c 33de 123d 3502 39bd a71b b9be
000003f0: a734 bcbd 2c58 94bd 0453 573e ca82 573d

fc1.bias f4 [64]
-0.15641809 0.09576516 0.12329295 -0.23446648 -0.051736947 -0.28526792 0.21390873 -0.08392857
0.0 -7.461695e-05 -0.021217108 -0.058297414 -0.022734476 -0.21123956 -0.004629455 0.0
-0.07889358 -0.055593647 -0.1350643 0.10817042 0.0 0.070690975 -0.13139139 -0.3062092
0.0 0.15744273 0.12451894 0.06680056 0.0 0.0 0.0 -0.04343838
-0.08831745 0.0 0.1518611 0.12831952 0.28896657 0.0 0.096056834 0.33810818
0.10017669 0.0 -0.06483633 0.08344358 -0.17438538 0.1425426 0.16602898 -0.03910262
-0.031188417 0.13145976 0.2538217 0.4910934 0.0 -0.22846621 -0.29440635 0.23572671
0.121851675 -0.39911097 0.17925599 0.2745792 0.0 -0.024935812 0.09582627 0.107252814
00000000: 102c 20be 8620 c43d 0481 fc3d fb17 70be
00000010: 1fea 53bd a30e 92be e40a 5b3e bee2 abbd
00000020: 0000 0000 ac7b 9cb8 80cf adbc 45c9 6ebd
00000030: a73d babc 2f4f 58be afb2 97bb 0000 0000
00000040: f592 a1bd 2ab6 63bd 4c4e 0abe 7488 dd3d
00000050: 0000 0000 6ec6 903d 778b 06be 74c7 9cbe
00000060: 0000 0000 ab38 213e c903 ff3d bbce 883d
00000070: 0000 0000 0000 0000 0000 0000 71ec 31bd
00000080: c7df b4bd 0000 0000 7a81 1b3e 3166 033e
00000090: 6df3 933e 0000 0000 72b9 c43d 841c ad3e
000000a0: 7029 cd3d 0000 0000 e9c8 84bd 78e4 aa3d
000000b0: 1592 32be b0f6 113e 8003 2a3e 122a 20bd
000000c0: da7e ffbc 639d 063e ebf4 813e 9870 fb3e
000000d0: 0000 0000 0cf3 69be 6ebc 96be 5862 713e
000000e0: 5f8d f93d 4658 ccbe e28e 373e a595 8c3e
000000f0: 0000 0000 3046 ccbc 9040 c43d 5da7 db3d

fc2.weight f4 [64, 64]
-0.52019185 0.0889064 0.20330505 -0.18909709 -0.12564313 -0.06523716 0.14212778 -0.012560679
-0.049468942 0.2209507 -0.07928869 0.10482812 0.033096742 0.046149474 0.17692938 -0.271141
0.114846215 0.4426938 0.3041753 0.1915834 -0.17910922 0.07940003 -0.008472101 0.004005637
0.15279062 0.012809763 -0.13556881 0.07001431 0.03111343 0.009976874 0.11114259 0.1715561
0.34913507 0.27188212 0.053765323 -0.018171653 0.32217762 -0.06649109 -0.29741102 0.12478598
-0.11597463 -0.034287866 -0.017525095 0.08470551 -0.25343326 -0.39657336 -0.060321946 -0.13081694
0.20445326 0.037220493 -0.043940403 -0.03522143 0.0102073345 0.4789424 -0.08014879 -0.17928493
-0.06431489 -0.66603404 -0.012727263 -0.26126382 -0.01299648 -0.11291932 -0.07256584 0.02302153
-0.045507245 -0.08794766 -0.18046062 -0.15557273 0.00096736103 0.07643964 0.12135534 -0.00935611
0.20000403 -0.1623626 0.05007551 0.12644888 -0.07857446 -0.25045165 -0.031625308 0.03640648
-0.16659877 -0.01593576 -0.043114707 0.04616096 0.17850795 -0.19521777 0.15967366 0.14988013
0.007568322 -0.13353357 -0.085348435 -0.14947766 0.008633959 0.12542486 0.062440213 -0.12889954
-0.23503426 -0.08168881 -0.05195834 0.12534055 -0.13490073 0.25635573 -0.27397206 0.08322561
-0.3630192 0.18723938 -0.11838006 -0.04012649 -0.12834619 -0.2046194 0.13907112 -0.2598394
0.09462113 -0.04739183 0.015439411 0.050752576 -0.012916079 -0.13499217 -0.1404576 0.065198906
-0.19181688 0.03228102 -0.013970985 0.03685363 -0.06579623 -0.06369944 0.08413964 -0.041412815
0.39847177 -0.1619111 -0.041093834 -0.10054273 -0.17517109 0.011575794 0.13745934 -0.067294456
-0.15043554 -0.24586496 0.0072534946 0.016938584 0.076563925 -0.22042884 -0.3042607 0.061247885
-0.10174935 -0.066804506 0.021511892 0.016197564 0.094637536 -0.029186154 -0.11318365 -0.30652657
-0.05679255 -0.054978248 0.040606223 -0.0409121 -0.056833584 -0.15854684 -0.26932788 0.36192986
-0.105835944 0.15140682 -0.10084751 0.03961159 -0.05246028 0.020504292 -0.15366495 0.18503739
-0.012842776 0.0048757084 0.00628483 0.019145258 0.078703895 0.13202167 0.09550373 -0.21124877
-0.04004317 -0.24372222 0.10907233 0.055805426 0.12784873 -0.14377654 -0.3076972 0.113115504
-0.20677587 -0.22779304 0.092123516 0.31055725 -0.08504229 -0.0890427 -0.03490063 -0.048324987
-0.21325794 -0.0467706 -0.052979473 0.07403915 -0.15827754 0.050820217 -0.61766326 0.0062690857
-0.18422529 -0.3539525 0.10415386 -0.14822663 -0.13311093 -0.024976267 0.023821907 -0.042700935
0.01499515 -0.21206339 0.28079376 -0.28344914 -0.13608012 -0.0933816 0.19537094 -0.116795726
0.01939534 -0.031256918 -0.047942296 -0.002252992 -0.043389402 -0.16179809 0.013489704 0.03741163
0.27924633 -0.15865412 0.26495975 -0.013413831 -0.03057876 0.0018159244 0.024070509 -0.14303364
-0.010371653 -0.020009384 0.2839222 -0.114500105 0.08588244 -0.46565726 0.1956509 -0.15419653
-0.16337918 -0.040840562 -0.21727349 -0.45548084 -0.063012354 0.14136477 -0.09089044 -0.060740616
0.15668927 -0.20118324 0.026680412 -0.3161315 0.21802795 0.2615265 0.119561106 -0.15860161
00000000: 4b2b 05bf 8f14 b63d 332f 503e aba2 41be
00000010: 98a8 00be 0f9b 85bd f289 113e 4ecb 4dbc
00000020: f29f 4abd e640 623e 1c62 a2bd 20b0 d63d
00000030: 7390 073d 3b07 3d3d fa2c 353e fed2 8abe
00000040: 7e34 eb3d c3a8 e23e ddbc 9b3e 702e 443e
00000050: 6868 37be 7c9c a23d 91ce 0abc b841 833b
00000060: 2575 1c3e 0ae0 513c 8dd2 0abe aa63 8f3d
00000070: 98e1 fe3c 0b76 233c ba9e e33d 67ac 2f3e
00000080: d5c1 b23e 2234 8b3e 0739 5c3d b8dc 94bc
00000090: 77f4 a43e 7b2c 88bd 4246 98be cb8f ff3d
000000a0: 1b84 edbd 6f71 0cbd ca90 8fbc 157a ad3d
000000b0: 01c2 81be aa0b cbbe 2514 77bd e0f4 05be
000000c0: 325c 513e 8474 183d dafa 33bd 5944 10bd
000000d0: aa3c 273c f037 f53e 0c25 a4bd 7896 37be
000000e0: 86b7 83bd 3581 2abf 0386 50bc 5fc4 85be
000000f0: 30ef 54bc 3f42 e7bd 669d 94bd a697 bc3c
00000100: ce65 3abd e71d b4bd abca 38be 754e 1fbe
00000110: 8096 7d3a 638c 9c3d 2689 f83d 5f4a 19bc
00000120: dbcd 4c3e 6242 26be fa1b 4d3d d17b 013e
00000130: a6eb a0bd 333b 80be 8a89 01bd f61e 153d
00000140: de98 2abe b68b 82bc 0c99 30bd 4613 3d3d
00000150: caca 363e 2be7 47be 7e81 233e 2d7a 193e
00000160: b0ff f73b 06bd 08be 29cb aebd ac10 19be
00000170: 7375 0d3c 606f 003e 4fc1 7f3d 3efe 03be
00000180: d2ac 70be 764c a7bd 45d2 54bd 4659 003e
00000190: 6b23 0abe 0f41 833e 1146 8cbe 3072 aa3d
000001a0: a7dd b9be aebb 3f3e 3f71 f2bd ad5b 24bd
000001b0: 2f6d 03be bf87 51be a968 0e3e ab09 85be
000001c0: b9c8 c13d ef1d 42bd 95f5 7c3c efe1 4f3d
000001d0: f69d 53bc 633b 0abe 1ed4 0fbe 0187 853d
000001e0: a56b 44be 1a39 043d 8fe6 64bc d5f3 163d
000001f0: 2dc0 86bd da74 82bd 6751 ac3d 7ca0 29bd
00000200: 7e04 cc3e 06cc 25be 0252 28bd 59e9 cdbd
00000210: 0d60 33be 66a8 3d3c 24c2 0c3e add1 89bd
00000220: c60b 1abe 06c4 7bbe b9ae ed3b c9c2 8a3c
00000230: 8ccd 9c3d 19b8 61be 0fc8 9bbe 10df 7a3d
00000240: f761 d0bd cdd0 88bd b539 b03c c1b0 843c
00000250: 53d1 c13d cd17 efbc d4cc e7bd 0df1 9cbe
00000260: 4e9f 68bd df30 61bd b652 263d 7293 27bd
00000270: 55ca 68bd 1a5a 22be 58e5 89be df4e b93e
00000280: 84c0 d8bd 640a 1b3e 2489 cebd c33f 223d
00000290: 97e0 56bd 9ef8 a73c 585a 1dbe 717a 3d3e
000002a0: 826a 52bc 68c4 9f3b faf0 cd3b 84d6 9c3c
000002b0: 822f a13d b030 073e 7697 c33d 9951 58be
000002c0: 4f04 24bd 5192 79be 5061 df3d 3b94 643d
000002d0: c7ea 023e 283a 13be 7d8a 9dbe 1aa9 e73d
000002e0: 0ebd 53be 9442 69be 41ab bc3d 5c01 9f3e
000002f0: a72a aebd 055c b6bd f7f3 0ebd 6cf0 45bd
00000300: 4a60 5abe 8792 3fbd 0101 59bd d6a1 973d
00000310: 8213 22be dc28 503d 2e1f 1ebf e76c cd3b
00000320: 8ea5 3cbe 4339 b5be 9e4e d53d b9c8 17be
00000330: 3b4e 08be 079b ccbc 2926 c33c 2de7 2ebd
00000340: 38ae 753c 2527 59be 33c4 8f3e 3f20 91be
00000350: 9658 0bbe da3e bfbd 520f 483e 9932 efbd
00000360: fae2 9e3c 4107 00bd 245f 44bd efa6 13bb
00000370: 16b9 31bd 66ae 25be eb03 5d3c f03c 193d
00000380: 60f9 8e3e 3a76 22be cea8 873e afc5 5bbc
00000390: 4f80 fabc 5004 ee3a 842f c53c 6977 12be
000003a0: deed 29bc b8ea a3bc 405e 913e 087f eabd
000003b0: 22e3 af3d a16a eebe b658 483e b2e5 1dbe
000003c0: df4c 27be 6f48 27bd f17c 5ebe c934 e9be
000003d0: 9f0c 81bd edc1 103e c424 babd 27cb 78bd
000003e0: 2773 203e fb02 4ebe e190 da3c fddb a1be
000003f0: b842 5f3e cde6 853e 74dc f43d 7668 22be

fc2.bias f4 [64]
0.1488055 -0.063563876 -0.012356982 0.09103454 -0.0486751 0.1872261 -0.049079638 0.17120942
-0.25930905 0.19270465 -0.008513006 -0.028482199 -0.07579526 0.03486662 -0.044095136 -0.05728163
-0.058669873 -0.00047938252 0.26185602 -0.08854082 0.04631412 -0.4023849 -0.07400075 -0.027344536
0.31274596 -0.041857723 0.13764277 0.049248494 -0.04560031 0.3227562 0.035206813 -0.023061085
-0.21385397 0.02570034 -0.008578088 -0.014294442 0.07038595 -0.022723878 0.09465759 0.17058988
-0.04089389 0.27138048 -0.030612182 0.08043934 0.23566443 0.13910511 -0.010719104 0.0471658
-0.037736125 -0.059979454 -0.008125217 -0.059101813 -0.03729666 0.04563147 0.21980947 -0.05369733
0.24179289 -0.073400654 0.072906084 -0.0091060065 -0.063898236 0.14651461 -0.013551471 -0.018499127
00000000: 7860 183e c72d 82bd f074 4abc 5170 ba3d
00000010: 8b5f 47bd 33b8 3f3e bb07 49bd 8651 2f3e
00000020: 28c4 84be 5e54 453e 237a 0bbc 8053 e9bc
00000030: 8c3a 9bbd 4dd0 0e3d 1a9d 34bd 24a0 6abd
00000040: d24f 70bd a255 fbb9 fe11 863e e454 b5bd
00000050: e0b3 3d3d 6505 cebe b58d 97bd a601 e0bc
00000060: 3d20 a03e 0173 2bbd 3af2 0c3e cab8 493d
00000070: 64c7 3abd 4d40 a53e 0535 103d 9aea bcbc
00000080: 89fc 5abe 8589 d23c 1c8b 0cbc 3c33 6abc
00000090: 8226 903d 6d27 babc d7db c13d 1daf 2e3e
000000a0: 5a80 27bd 62f2 8a3e 66c6 fabc 61bd a43d
000000b0: 0452 713e 9271 0e3e 2e9f 2fbc ed30 413d
000000c0: 3291 1abd 04ad 75bd a11f 05bc be14 72bd
000000d0: 62c4 18bd 10e8 3a3d bc15 613e bbf1 5bbd
000000e0: 8e98 773e 1553 96bd c94f 953d 5c31 15bc
000000f0: 14dd 82bd ed07 163e fd06 5ebc 7b8b 97bc

fc3.weight f4 [32, 64]
0.026329152 -0.15627141 0.009846558 -0.015355886 0.09951046 -0.18448208 -0.03932454 0.1277326
-0.20415805 0.112987705 0.099907525 -0.08328713 -0.16777043 -0.21713246 0.113703944 0.0527303
-0.09204948 -0.14204831 0.10223288 -0.08876441 -0.041588392 0.06031449 -0.13804302 -0.43060994
0.13203302 0.19675715 -0.15658778 0.07207376 0.21998946 -0.06828456 0.23372416 -0.011865773
0.050976265 0.16109015 -0.20042267 -0.055762336 -0.0058739334 0.24986184 -0.16955897 0.03839061
-0.021715723 -0.03182962 -0.107567005 -0.09530963 0.12882577 0.1388797 -0.04964317 0.09115776
0.019530382 -0.26461774 -0.08705082 0.100803636 -0.13195561 -0.26514253 -0.048386913 0.051833317
0.041511316 0.10135987 -0.07754744 -0.12990575 0.004788486 0.034693338 -0.076624 0.06272412
-0.08370742 -0.0038490598 0.07295286 -0.109107085 0.04931766 -0.10006216 -0.062520936 0.09904905
0.35589835 -0.04736641 0.1765496 -0.05783129 -0.043866493 -0.045734942 -0.06808053 -0.50704265
-0.101709425 0.16534923 -0.101004906 0.12160239 -0.11158835 0.020160109 0.18687247 -0.030045023
-0.03680656 0.15143712 -0.019571993 0.033026565 -0.09666818 0.2536114 0.15436457 0.28501695
0.08870171 -0.113467544 -0.05350985 0.031869844 0.20817333 0.048678666 0.006593916 -0.013123397
-0.037831284 -0.08542195 0.022305695 0.10920635 0.54847866 0.1983692 0.11821754 0.20301503
-0.001673815 -0.11074781 -0.11291468 0.10301554 0.26478037 0.4855681 -0.13752185 -0.23205934
-0.054697163 -0.10196574 0.04388145 -0.20628099 -0.16666332 0.10418896 -0.028217135 0.07475613
-0.012592613 0.07911829 0.012179364 -0.1391203 0.011004184 0.018238425 -0.023992874 -0.07065252
0.27689487 -0.020797584 -0.03074824 0.021158608 -0.035394687 0.03373399 0.0006763053 -0.23209955
0.37009686 -0.10882205 -0.12529595 -0.013039492 0.18072858 0.16917953 0.22504106 -0.28316745
0.09192689 0.03129514 -0.07888994 0.34082067 0.19632104 -0.047947716 0.4100791 0.06392479
-0.19288541 -0.10224047 -0.044005558 0.17178385 0.0074430066 -0.10353297 -0.114917316 0.20312229
-0.20330726 -0.17843531 -0.06442787 0.08760686 -0.06537279 -0.02043416 0.08991582 0.2582369
0.06501763 0.05851821 0.25798574 -0.1555616 0.051267933 -0.05414687 -0.08231949 0.16730817
0.049168605 -0.32125592 -0.0006654445 -0.046518907 -0.06308231 0.107227854 0.006133048 -0.071658924
0.06664778 -0.12993364 0.13700432 -0.046385847 -0.0009244374 -0.08210034 -0.2689925 0.04668561
-0.39412323 -0.009572467 0.012944671 0.09257475 0.031683054 -0.19845122 0.0007466222 0.053085614
-0.17275138 -0.056830723 0.1801543 -0.1461733 -0.06477313 -0.17281784 -0.088394046 0.012228795
-0.16566482 -0.11462157 -0.13541426 -0.027639985 0.10798217 0.020290798 0.10117641 -0.08992107
0.041995503 0.301537 -0.10428366 0.2301651 -0.14242576 0.1445927 0.23022959 0.030097554
0.16096877 0.055118084 0.046880923 -0.015599552 0.53943807 -0.099478975 0.37255082 -0.1513741
-0.006289777 -0.07598239 0.13092269 -0.29269585 -0.14224634 0.22947784 0.032507896 -0.13126038
0.004518544 0.04335457 -0.03577837 -0.04719217 -0.1320893 0.10365654 0.010786199 -0.14389984
00000000: 3cb0 d73c 9d05 20be 7553 213c 4197 7bbc
00000010: 24cc cb3d dfe8 3cbe c512 21bd 56cc 023e
00000020: cf0e 51be 1966 e73d 519c cc3d 7192 aabd
00000030: 03cc 2bbe f957 5ebe 9ddd e83d bafb 573d
00000040: 7084 bcbd 1d75 11be 795f d13d 1dca b5bd
00000050: 9758 2abd 540c 773d 265b 0dbe e878 dcbe
00000060: aa33 073e b57a 493e 8c58 20be 689b 933d
00000070: eb44 613e c7d8 8bbd 6355 6f3e a968 42bc
00000080: 7dcc 503d d1f4 243e 9a3b 4dbe 0c67 64bd
00000090: 207a c0bb c8db 7f3e dea0 2dbe 793f 1d3d
000000a0: 2ce5 b1bc c75f 02bd 174c dcbd b231 c3bd
000000b0: e7ea 033e 7b36 0e3e a356 4bbd ebb0 ba3d
000000c0: 2efe 9f3c fa7b 87be b347 b2bd 2372 ce3d
000000d0: 5f1f 07be c3c0 87be 5b31 46bd 2c4f 543d
000000e0: c507 2a3d c395 cf3d 31d1 9ebd 0306 05be
000000f0: bbe8 9c3b 9a1a 0e3d 0bed 9cbd 8175 803d
00000100: cc6e abbd 8240 7cbb 4f68 953d 8973 dfbd
00000110: 5101 4a3d 64ed ccbd fa0a 80bd 3ada ca3d
00000120: 4f38 b63e 4803 42bd 6bc9 343e 81e0 6cbd
00000130: 5aad 33bd 9054 3bbd ce6d 8bbd 8ccd 01bf
00000140: 084d d0bd 4f51 293e a9db cebd ad0a f93d
00000150: 6f88 e4bd d026 a53c 7f5b 3f3e fb20 f6bc
00000160: 7ac2 16bd 5512 1b3e 7255 a0bc dd46 073d
00000170: f7f9 c5bd 5ad9 813e bf11 1e3e beed 913e
00000180: 3ea9 b53d ac61 e8bd 252d 5bbd f489 023d
00000190: 642b 553e 4863 473d c711 d83b 8403 57bc
000001a0: faf4 1abd b4f1 aebd 6fba b63c 94a7 df3d
000001b0: 1969 0c3f 4c21 4b3e 0a1c f23d 2ce3 4f3e
000001c0: e963 dbba bfcf e2bd d03f e7bd d0f9 d23d
000001d0: 4b91 873e 629c f83e 87d2 0cbe f7a0 6dbe
000001e0: 220a 60bd 6ad3 d0bd 09bd 333d 533b 53be
000001f0: caa9 2abe 0561 d53d 9f27 e7bc be19 993d
00000200: 3f51 4ebc c508 a23d f58b 473c 8d75 0ebe
00000210: e54a 343c c068 953c b48c c4bc 45b2 90bd
00000220: 2ac5 8d3e b25f aabc bce3 fbbc d154 ad3c
00000230: 05fa 10bd a72c 0a3d 154a 313a 81ab 6dbe
00000240: 567d bd3e 18de debd 954d 00be 98a3 55bc
00000250: ea10 393e 663d 2d3e 2a71 663e 53fb 90be
00000260: 2a44 bc3d 552f 003d 0d91 a1bd 0c80 ae3e
00000270: 6208 493e d364 44bd e3f5 d13e 00eb 823d
00000280: c183 45be 7463 d1bd 2c3f 34bd 1be8 2f3e
00000290: 77e4 f33b 1809 d4bd c559 ebbd 4aff 4f3e
000002a0: c72f 50be bfb7 36be c2f2 83bd 3a6b b33d
000002b0: 2be2 85bd 8a65 a7bc c925 b83d a137 843e
000002c0: f727 853d cab0 6f3d b516 843e 8a4b 1fbe
000002d0: 53fe 513d 1cc9 5dbd 1f97 a8bd d552 2b3e
000002e0: 0565 493d a87b a4be 3971 2eba 9c8a 3ebd
000002f0: 4c31 81bd 479a db3d bcf7 c83b eac1 92bd
00000300: a27e 883d 530d 05be dc4a 0c3e 16ff 3dbd
00000310: f255 72ba 3924 a8bd 63b9 89be 6939 3f3d
00000320: 85ca c9be d6d5 1cbc e315 543c d597 bd3d
00000330: 17c6 013d cc36 4bbe f8b8 433a 4d70 593d
00000340: bde5 30be 55c7 68bd 5e7a 383e 74ae 15be
00000350: c6a7 84bd 29f7 30be f007 b5bd 495b 483c
00000360: 0aa4 29be b7be eabd 09aa 0abe 406d e2bc
00000370: c225 dd3d e338 a63c 9435 cf3d 8a28 b8bd
00000380: 7a03 2c3d 0f63 9a3e ac92 d5bd 66b0 6b3e
00000390: 0fd8 11be 1c10 143e 4ec1 6b3e 258f f63c
000003a0: ffd4 243e 80c3 613d 3606 403d 4395 7fbc
000003b0: 9d18 0a3f a2bb cbbd fbbe be3e d001 1bbe
000003c0: 791a cebb a89c 9bbd 9910 063e 3bdc 95be
000003d0: 06a9 11be 3dfc 6a3e 0027 053d 1f69 06be
000003e0: 4b10 943b 9094 313d 578c 12bd 944c 41bd
000003f0: 6b42 07be e149 d43d 99b8 303c 7b5a 13be

fc3.bias f4 [32]
-0.0075821686 0.0129767675 0.0063724844 -0.009313757 0.01176654 0.012601329 -0.023490155 0.008382398
0.05310752 -0.032458294 0.009751296 -0.013138249 -0.015499614 -0.021789739 -0.0036452566 0.030567631
0.20161556 0.23392063 0.20412235 0.21331026 0.20670469 0.22002225 0.22168134 0.21539916
0.21922769 0.20380127 0.2154905 0.20353922 0.20891112 0.22766978 0.21576084 0.21549894
00000000: d773 f8bb 829c 543c 46d0 d03b ba98 18bc
00000010: 72c8 403c ce75 4e3c 6d6e c0bc 5356 093c
00000020: 4587 593d fdf2 04bd e6c3 1f3c cf41 57bc
00000030: 18f2 7dbc 6580 b2bc 42e5 6ebb f868 fa3c
00000040: 4f74 4e3e e488 6f3e 7305 513e 016e 5a3e
00000050: 65aa 533e 834d 613e 6f00 633e 9991 5c3e
00000060: 397d 603e 48b1 503e 8ba9 5c3e 966c 503e
00000070: ccec 553e 4422 693e 69f0 5c3e c1ab 5c3e
