puppersim/dc_saves/aac_mega_puppy_2/critic1_8.pt (torch, 26903 bytes, 5 tensors)

fc1.weight f4 [64, 31]
000000 fc ba 39 3e 41 7b a7 bc 65 02 2b 3e cf 7f e4 3d
       0.18137735 -0.020444514 0.16700132 0.1115719
000010 0d a8 21 be de 35 1e 3e 08 00 52 be 7a 71 73 3e
       -0.15786763 0.15450236 -0.20507824 0.23773757
000020 1e 7e 9d 3d af 26 9d bb a2 2b 80 be 7b 23 49 3d
       0.076900706 -0.004795871 -0.2503329 0.049106102
000030 ec 41 f3 bd e5 15 41 3e d2 8f 9c bd 5a 72 cf 3c
       -0.11877808 0.18856008 -0.07644619 0.025323082
000040 80 ae 45 3c 8b 79 aa 3c 7f e6 82 bc f2 79 cb bc
       0.01206553 0.02080991 -0.01597905 -0.024838421
000050 8a b3 5f bd 9f 4d 04 3d 81 39 b6 3c 8e c1 32 bd
       -0.05461458 0.032300588 0.022244217 -0.04364162
000060 db 49 66 bc 84 f0 be 3c 8e ad 4d 3d 10 ef aa 3c
       -0.014055694 0.023308046 0.050214343 0.020865947
000070 b5 71 9d bc d8 8e d9 bc 95 d8 4f bb 2e 38 a1 be
       -0.019219259 -0.026557371 -0.0031714786 -0.31488174
000080 90 f5 91 bd 47 2e 49 3d fa 9b 9d bb 2f 1a 69 3f
       -0.071269155 0.0491164 -0.0048098536 0.9105558
000090 0f 31 d6 bd 6c e1 2a bd 3e 2b c3 3e bb d8 82 3e
       -0.10458576 -0.041718885 0.3811893 0.25555977
0000a0 ab b7 06 bd a2 15 3f be 0c 0c 2c 3e 62 5a e4 3d
       -0.032890003 -0.18660596 0.1680147 0.11150052
0000b0 8f 2e 0d bf b9 2e 47 bd df f0 ae be 06 16 7b 3e
       -0.5514917 -0.048628543 -0.34168145 0.2452012
0000c0 55 e8 68 be c1 3e fc 3d f0 f7 c9 bd 8f d9 2c 3e
       -0.22744878 0.12316657 -0.098617435 0.16879867
0000d0 f5 f8 b2 bd dd 17 34 bf 72 ad 2b 3d df 16 61 3e
       -0.08738891 -0.7034891 0.041913457 0.21981381
0000e0 f0 a6 73 3d 9e 44 df 3d e2 b3 ee 3d dd 53 dd be
       0.059485376 0.109017596 0.11655404 -0.43228045
0000f0 e7 27 d9 3c 7a 1e dc bd 32 b1 84 3c 47 95 0f 3d
       0.026508285 -0.107480004 0.016197775 0.03505447
000100 ab 77 a0 3d fe 93 fc bd cb ea 83 be 6f 70 2e 3d
       0.07835325 -0.12332915 -0.2576507 0.042587694
000110 55 93 9a be 71 ff f2 3d d1 0a d0 3d 0a 21 00 3f
       -0.3019053 0.11865128 0.10158313 0.50050414
000120 3a 67 07 be 7b 85 16 bd 95 4d a3 3e 47 fc f8 bd
       -0.13222972 -0.03674839 0.31895128 -0.12157493
000130 ad 46 6e 3d e6 61 7b bc 57 75 5d 3c 06 fd 4e bc
       0.05817287 -0.015343165 0.0135167455 -0.012633568
000140 4f fd 78 bd f8 41 d8 bc 0e dd 8d bc e6 3b c4 3b
       -0.06078845 -0.026398644 -0.017317321 0.0059885858
000150 9e ca 2c bc 9e c3 58 bd 7b 99 c6 bc 63 e4 67 3c
       -0.010546355 -0.05292093 -0.024243107 0.014153573
000160 a8 7e 33 bd 6f 4f 0a bc fb c0 6e 3b 1b cf 8b bd
       -0.04382196 -0.00844179 0.0036430943 -0.068266116
000170 be b3 f3 bc 8c d3 0e be 41 8b 78 3e f9 93 18 bd
       -0.029748794 -0.13947886 0.24271871 -0.037250493
000180 53 5f 08 3d 1c 69 57 3e c2 16 99 bc bd 2a 1c 3d
       0.033294033 0.2103619 -0.01868761 0.038126696
000190 63 4f 9b 3d 9d 7f 0b 3e ea ff 96 bd f6 a4 ac be
       0.07583501 0.136229 -0.073730305 -0.33719605
0001a0 9e 47 8d bd 32 02 cd 3d 49 b8 02 be 2d 5f aa 3e
       -0.068984255 0.10010184 -0.12765612 0.33275738
0001b0 c8 58 b6 3d 93 d1 aa bb f8 7c 4b be 85 3c 1f 3e
       0.089036524 -0.0052129715 -0.1987189 0.1555043
0001c0 23 30 d5 3c d9 a4 26 3e 5d cb 0b bb c0 39 8d 3d
       0.02602393 0.16273822 -0.002133093 0.068957806
0001d0 78 e7 a0 3d d8 66 db bd 0d 72 ea 3d 2c 43 e0 3c
       0.07856649 -0.10712975 0.11447535 0.02737578
0001e0 5b ab a6 bd 94 3d a5 3d c1 31 01 3c d1 df cf bc
       -0.08138152 0.08068386 0.007885397 -0.025375279
0001f0 07 67 16 be 38 05 44 3f 3d a7 64 3e 3b 2a 58 3e
       -0.1468774 0.76570463 0.22329421 0.2110986
000200 f5 8e aa 3e 0b fe 26 bd 03 42 11 be 23 67 02 be
       0.33312193 -0.040769618 -0.14185338 -0.12734656
000210 75 b8 fb 3c 4f 76 72 3e b4 98 1b 3e fd 18 4a be
       0.030727604 0.23677944 0.1519497 -0.19736095
000220 b4 a4 b8 bc a4 b9 8a be 33 4a ab 3e 59 cf 32 3e
       -0.022539474 -0.27094758 0.33455047 0.1746191
000230 47 c3 91 3d f4 16 b1 3d 71 0c 63 3e 91 af 82 be
       0.07117324 0.08646956 0.22172715 -0.25524572
000240 8e 32 d3 be 6c 70 83 be c5 0a 4b 3e 55 9a 58 3e
       -0.41249508 -0.2567171 0.19828327 0.21152623
000250 23 9f 96 bd 79 d9 dc bd 24 3f c0 3c 9f 4b 90 bd
       -0.07354572 -0.10783667 0.023467608 -0.070456736
000260 0b 77 dd 3e c2 d3 47 3e 71 65 d2 bd f1 9f 5c bd
       0.43254885 0.19514373 -0.10273255 -0.05386347
000270 20 cb 5b be 24 64 88 bd af 5c 4f 3e a3 7f 85 bd
       -0.21464205 -0.06659725 0.202502 -0.065184854
000280 ac 20 fd bd 33 b1 ce bc c4 99 a0 bd 2e af 91 bd
       -0.12359747 -0.02523098 -0.078418285 -0.07113491
000290 ac 9a 91 be 5d a1 43 3d 67 82 0a be 88 1b c8 be
       -0.28438318 0.04776131 -0.13526307 -0.39083505
0002a0 e1 78 63 3e 05 d6 20 be 66 23 25 bd 6d f6 9d 3c
       0.2221408 -0.15706642 -0.04031696 0.019282544
0002b0 b3 8f 01 3d 2d 49 fc bc 3d fe b7 3c 06 f3 b3 3c
       0.031631183 -0.030796612 0.022460097 0.021966469
0002c0 b9 84 45 bd 7e 36 7e 3d 80 91 41 b8 3b 80 d5 bb
       -0.048222277 0.062063687 -4.6150293e-05 -0.0065155304
0002d0 14 27 6d 3d 1b 8f 45 bd e5 f7 09 bb 7a 71 b8 bc
       0.057898596 -0.04823218 -0.0021052298 -0.022515047
0002e0 b5 ac 47 be ad db 80 bd 3e 37 a3 be e7 f5 b5 be
       -0.19499476 -0.062919 -0.31878084 -0.3553917
0002f0 02 f4 db bd 30 87 67 be c8 4c a4 be 67 3e 57 3e
       -0.107399 -0.22610164 -0.3208983 0.21019898
000300 e1 15 6a 3d a8 ec 2d be 51 e7 44 3e 5d a4 7d 3d
       0.05714977 -0.16984808 0.19228865 0.061924327
000310 1e 39 89 bd 4b 3c 0b bd cd d1 a9 3e 2e a1 83 3e
       -0.06700347 -0.033993047 0.33167878 0.25708908
000320 01 9c fe 3c 8c 73 84 3e f1 49 b2 bd 1d 37 05 3e
       0.031080248 0.25869405 -0.087055095 0.13009305
000330 9d d9 24 be 35 a6 59 be 2f 7d b3 bd a4 a8 ac 3d
       -0.16098638 -0.21254809 -0.08764111 0.08430603
000340 cd 7e 77 bd fd ab d2 bd ee c2 5a 3e 70 8e 80 3e
       -0.06042366 -0.102867104 0.21363422 0.2510867
000350 5f da e0 bd 9e 26 90 3d 0b 95 0a 3c fa 5e ab 3e
       -0.10979151 0.07038616 0.008458386 0.334709
000360 20 78 0b 3e 1d c9 ac bc dc af 55 3e 1b 6d 1c be
       0.13620043 -0.021091992 0.20867866 -0.15275995
000370 d4 f8 60 3e 7c 97 08 3f ad 49 9e 3e 3f fc 2c be
       0.2196992 0.53356147 0.30915585 -0.16893099
000380 32 a9 6e 3d ec b6 37 3d 37 08 32 3e 3d a9 e4 bc
       0.058266826 0.044852182 0.17385946 -0.02791273
000390 a6 9c d8 bd 17 29 81 bd 96 ef 26 3f 95 74 5c be
       -0.10576753 -0.063066654 0.6520933 -0.21528848
0003a0 c9 db 6d 3d f9 3c 4a 3d b6 74 53 3d e0 4b 83 3d
       0.05807093 0.049374554 0.051624976 0.064109564
0003b0 a3 2d 14 bd 0e fb 1f be bf 24 9b 3d 5c b8 98 bd
       -0.036176335 -0.15623114 0.07575368 -0.07457039
0003c0 a2 95 e5 bc 24 be ca 3d 15 7c 54 bc 58 b8 3f 3e
       -0.028025452 0.09899548 -0.012969037 0.18722665
0003d0 04 34 46 bd 64 b9 3b bd 5d 79 48 be 5c 6e dc 3d
       -0.04838945 -0.0458311 -0.19577546 0.10763237
0003e0 2b 79 4a be 5a b1 07 3f 72 0c 53 be 7c d2 ab bd
       -0.19772784 0.5300499 -0.20610216 -0.08389756
0003f0 c8 8d 3b bf 45 c7 5f be 5c 7a 51 bc 33 bd 45 3e
       -0.73263216 -0.21853359 -0.01278552 0.19310455

fc1.bias f4 [64]
000000 19 f4 fd be e3 c4 cf 3d 2e 2c 00 3f f8 5a d2 3e
       -0.49600294 0.10144975 0.5006741 0.4108503
000010 e0 f8 e7 3d 7c 63 cc 3d 0c 7a ab 3e 22 f1 92 3e
       0.11326766 0.09979913 0.33491552 0.28699595
000020 da f5 50 3e 93 6a 23 be 9a 6a ec 3e a5 51 54 3e
       0.20406285 -0.15958624 0.4617508 0.2073427
000030 91 fe 7a 3e b3 e7 20 3f c5 9c 27 3e 57 89 87 3e
       0.24511172 0.62853545 0.16368397 0.2647197
000040 d8 8b 13 3f 0f a0 c8 3d 6f 4e c1 3b a1 46 2f 3e
       0.5763526 0.09796154 0.0058992426 0.17116787
000050 22 15 32 be 09 ef 3a 3e 5c 47 01 3d 85 37 ac 3c
       -0.17390874 0.18255247 0.031562194 0.021022568
000060 23 72 e3 3d 9b ae fe be 84 e0 08 3e a9 90 29 3e
       0.11105754 -0.49742588 0.13366896 0.1655909
000070 7e e3 74 3e e1 c7 af 3e 48 40 1d 3f 94 bd 3f 3f
       0.23914906 0.34332183 0.6142621 0.7489865
000080 8a bd 26 3f da 4c f3 3d c6 3e 7e 3e 74 42 02 3e
       0.65132964 0.11879893 0.24828634 0.12720662
000090 82 28 44 3d d2 84 ae 3e 26 8e 02 3f 6d e9 b6 3e
       0.047890194 0.3408571 0.5099815 0.35724965
0000a0 c7 56 2b 3e 22 0e 32 3d dc 92 83 3e 58 48 e8 be
       0.16732322 0.04347051 0.25697982 -0.45367694
0000b0 44 e2 4e bd e5 6d e8 be 18 c9 8e 3e c1 e6 1e 3f
       -0.050508752 -0.45396343 0.27887797 0.6207085
0000c0 e9 c9 6e be e2 f6 22 3f 57 ea 30 3f 69 91 ca 3e
       -0.2331921 0.63657963 0.69107574 0.39564064
0000d0 bc 3c 11 bf a5 ff db 3e d5 52 fd 3e 6e 1a 0c bd
       -0.567333 0.4296848 0.49477258 -0.034204893
0000e0 df af 46 3d 2e da 31 bd 26 e9 33 3e a0 98 43 3f
       0.048507567 -0.043420963 0.17569408 0.7640476
0000f0 d8 6e 9f 3e 8e c0 9e 3c 76 ab b3 be ad 53 ff 3d
       0.31139255 0.019378927 -0.35091752 0.12467132

fc2.weight f4 [64, 64]
000000 76 e0 0c be 51 a1 6c bf 5a 58 fc 3c 9f 13 f0 bc
       -0.137575 -0.9243365 0.030803848 -0.029306231
000010 28 69 aa be 45 37 6d 3e 27 e1 b8 be bd bc 6f 3e
       -0.33283353 0.23165615 -0.36109278 0.23411842
000020 ad 9b 8e be 33 34 cc bc f4 17 34 be 43 e7 a4 be
       -0.27853146 -0.024927234 -0.17587262 -0.3220769
000030 c5 1c 4f 3e 39 8a c4 be 34 ee 03 bf 67 ac e1 be
       0.20225818 -0.38386706 -0.51535344 -0.44076845
000040 dc 26 28 3e 27 84 89 be 3b 7a 01 3d 47 49 3f bd
       0.16421074 -0.26858637 0.03161071 -0.046700742
000050 59 24 18 bd c0 2f 1a 3e 9e 4a 48 3e af 55 b1 3d
       -0.03714404 0.15057278 0.19559714 0.08658921
000060 cc 2a 7e ba 95 ed b9 bd e0 aa 90 be 9e 4b 3d be
       -0.0009695708 -0.09078518 -0.28255367 -0.18485877
000070 5e 61 ea be 27 a8 16 bd 2d 68 a1 be 96 29 26 3e
       -0.4577741 -0.036781456 -0.31524792 0.16226801
000080 fc 31 08 3e 9f f9 48 3e 6e ad bb 3c 63 95 23 3e
       0.13300318 0.19626473 0.022909846 0.15974955
000090 f3 c3 17 be 84 c6 28 be 99 32 6a bd 35 06 48 bf
       -0.14820842 -0.16481978 -0.05717716 -0.7813447
0000a0 4b e7 94 be a3 19 ef 3e 7e 40 b1 bc f2 a5 40 3e
       -0.29082713 0.46699247 -0.021637198 0.18813303
0000b0 6d 57 ad be aa 28 7f 3c e2 02 e0 bf 69 90 71 bd
       -0.33855763 0.01557366 -1.750088 -0.05897561
0000c0 ea f4 1b be 8a fc a3 bd 0b 74 5a 3e dc ad fc be
       -0.15230146 -0.080071524 0.2133333 -0.49351394
0000d0 f6 ba ca 3c b5 f6 ad be 2b 86 9c be b5 b1 93 3d
       0.024747353 -0.33977285 -0.30571112 0.07211629
0000e0 fb e3 d1 bd 8f b7 75 be 13 6f c3 bd 8e 04 27 be
       -0.10248562 -0.23995803 -0.0954267 -0.16310331
0000f0 33 3a 97 3e ac ee 3e 3e c2 db 85 3d c8 21 41 3d
       0.2953659 0.18645734 0.06536056 0.047151357
000100 8f a9 61 bd 26 a6 9f 3d a2 b7 32 3e 2a e8 d3 bc
       -0.055093344 0.07795362 0.17452863 -0.02586754
000110 5a 86 2d 3e d7 05 92 bd fa 44 39 bd a4 f1 8d 3c
       0.16945782 -0.0713002 -0.045231797 0.017327137
000120 c3 fc 09 3e be 77 c2 bd 91 eb a8 be a2 fb 25 3e
       0.13475327 -0.09495495 -0.32992223 0.16209272
000130 0e 21 95 be 37 38 93 be 79 ca 37 3e 6b 5d 49 3d
       -0.2912678 -0.28753826 0.17948331 0.049161356
000140 c5 b4 8d bd 8e 74 8c 3e f4 a0 9f be a3 0b d1 3d
       -0.06919245 0.27432674 -0.31177485 0.10207298
000150 78 3c 00 be 16 ee ef bd 2e 52 80 be 4d 34 81 be
       -0.12523067 -0.11715333 -0.25062698 -0.25235215
000160 17 55 c4 3c e9 49 35 be 22 68 0a 3d 18 3c 16 3e
       0.023966355 -0.17703976 0.033790715 0.14671361
000170 16 f7 5c 3d cb f9 36 bd 80 8d 99 3c 7a 77 80 be
       0.053946577 -0.044671815 0.01874423 -0.25091153
000180 02 cb 98 3d d4 24 d6 bd d9 9a d9 3d 39 d9 1e 3e
       0.07460596 -0.10456243 0.10625238 0.15512551
000190 d9 02 a7 be df 54 87 3d 7d 36 93 3d 48 ca 60 be
       -0.3261936 0.06607985 0.07188127 -0.21952164
0001a0 d1 bf ea bc bf 5c a2 3c dd af 5e 3e 2c 0f 20 be
       -0.028655918 0.019819615 0.21746774 -0.15630788
0001b0 ab 91 4e 3e 61 47 87 be 14 47 d4 bd 9b 53 0e be
       0.20172755 -0.26421645 -0.103651196 -0.1389908
0001c0 cf 8c 7d bc d5 b7 b0 bd 1b 7c d3 3c c9 46 b6 3c
       -0.015475466 -0.08628813 0.025816014 0.02225055
0001d0 37 f7 ec bd 25 26 7c be 51 fb 7e bc af 70 dd 3d
       -0.1157059 -0.24623926 -0.015562848 0.10812508
0001e0 d4 ce 35 3c d5 56 d1 be c9 c6 80 bd a6 46 e7 bd
       0.011096675 -0.4088656 -0.06287915 -0.11292772
0001f0 e5 3b cf 3c a4 70 7c 3e ae 0d 6f 3d 9e a5 33 bd
       0.025297115 0.24652344 0.058362655 -0.043859117
000200 df 6c 4f 3d 6e 0e 5f bf ae 29 54 be 58 64 62 3d
       0.050640937 -0.8713139 -0.20719025 0.055271477
000210 4e ec 94 bf 09 78 cc 3d f2 24 c5 bf 99 88 7b 3e
       -1.1634614 0.099838324 -1.54019 0.24563827
000220 6f 51 6d 3e 86 01 de be 74 66 f5 3d 73 eb bd be
       0.23175596 -0.43360537 0.11982432 -0.37093696
000230 31 37 8b be 26 5e 81 be 86 fc ea bf 9e 50 ce be
       -0.27190545 -0.25267142 -1.8358314 -0.4029588
000240 0b e1 17 3e 53 19 fe bc e1 2c 07 bd df a5 12 bf
       0.14831941 -0.031017935 -0.033001784 -0.5728435
000250 89 dc 2a 3e b5 d9 3a bf 56 84 d8 3d 54 11 70 bf
       0.1668569 -0.72988445 0.10572116 -0.9377644
000260 3a fc 90 3e e3 6d 29 bc 9f 2e 8e bf d5 58 50 bf
       0.28317434 -0.01034114 -1.1107978 -0.81385547
000270 95 ad 91 bd 22 e9 1e 3d 4a a1 72 be 34 62 01 bc
       -0.07113186 0.03879655 -0.2369434 -0.007896949
000280 1c fe 1b 3e 2a d1 dc 3e 2f 59 6e be c5 8e 2b 3f
       0.15233654 0.4312833 -0.23276208 0.67014724
000290 e1 53 bb be 9f 7d 15 be 3e 9b 82 3d 33 5d c4 3c
       -0.36587432 -0.14598702 0.06377266 0.023970222
0002a0 db 6c 94 bf c7 60 9a bf a3 24 71 bf c6 6b 9b be
       -1.159572 -1.2060784 -0.9419653 -0.30355662
0002b0 05 40 7d bf b6 49 c2 bd 8b 64 a4 bf 67 e7 1e bd
       -0.9892581 -0.094867155 -1.2843183 -0.0387949
0002c0 fe 97 51 bf 62 89 0b be a2 a8 8b bc f9 d6 d3 3d
       -0.81872547 -0.13626626 -0.017048184 0.10343737
0002d0 8b 00 c2 be f6 bb 1a bf 87 b3 ad 3e 42 4a 98 3e
       -0.3789104 -0.60443056 0.3392603 0.29744154
0002e0 b1 28 4c 3e 29 94 8e be 58 ca 91 bf bd f3 b5 bd
       0.19937398 -0.27847412 -1.1389875 -0.0888438
0002f0 c7 a9 3b bf 2f 90 25 be c5 f7 a1 be 5c 6a 6e bf
       -0.73305935 -0.16168283 -0.31634346 -0.9313104
000300 70 41 1d be 65 77 9b 3e 33 fd ee 3d 65 99 27 3e
       -0.15356994 0.30364528 0.11669388 0.16367109
000310 c0 d6 27 3d d2 a5 84 be 0c 6b ae bd 4a fb be bb
       0.040976286 -0.2590776 -0.08516511 -0.005828296
000320 53 a6 d8 3d 7f 05 26 bd 8b 86 11 3d 70 d6 5a 3d
       0.10578599 -0.040532585 0.0355287 0.05342716
000330 10 4d 51 3d 90 cf 03 3d a2 86 d2 bd df 9f ae bb
       0.051098883 0.03218037 -0.102795854 -0.0053291167
000340 01 98 05 3e 88 fc 8e bd b1 8c e3 bd c5 01 9d 3d
       0.13046266 -0.0698176 -0.11110819 0.07666353
000350 e8 74 1b bd 86 56 1c bd b0 5c b9 3d ad 29 1c bd
       -0.037953287 -0.038168453 0.09050882 -0.038125683
000360 ac 68 c4 3b f4 df e4 be 54 df 61 bd 65 09 81 3d
       0.005993923 -0.44702113 -0.055144623 0.0630062
000370 aa 32 05 3e fa 38 a5 3c a3 77 3a 3e e8 af 30 3e
       0.13007608 0.02016877 0.182097 0.17254603
000380 14 91 b2 3d ba 91 a5 bd 3d 82 69 3c 9a 04 25 bc
       0.08719078 -0.08084436 0.014252243 -0.010071898
000390 ca d0 e1 bc 33 6a cd bc 1d 68 c6 bc cf 68 2a 3e
       -0.027565379 -0.025075054 -0.024219567 0.16641544
0003a0 45 bc 3a 3d a7 71 3a 3d b0 72 25 3c 48 68 04 bd
       0.045589704 0.045518544 0.010098144 -0.032326013
0003b0 18 52 14 be aa cd 93 be 78 8d 02 3e 2a 65 f1 3d
       -0.14484441 -0.28867847 0.12749279 0.11786874
0003c0 6c 0e 19 bd ab 0f 93 3e f6 ed 4b 3e f9 8e bd bd
       -0.03736727 0.2872289 0.19914994 -0.092557855
0003d0 38 9f fe bf aa 9d 98 bd 9c 9a 07 3e 01 21 4c bd
       -1.989234 -0.07451947 0.13242573 -0.049836162
0003e0 b8 4c 31 3d 27 33 74 bb 9f 76 89 3d bd ac 49 3d
       0.043286055 -0.0037261934 0.06712078 0.049237
0003f0 9d ce 6c 3d 06 6f f9 3d c7 5e b5 bd 46 ac 35 3d
       0.05781423 0.12179379 -0.08855968 0.044353746

fc2.bias f4 [64]
000000 16 9c 05 3d 6c 31 37 be 7f 55 b2 3c ef 0d f5 3e
       0.03261956 -0.17889947 0.021769283 0.47862193
000010 a4 a0 8d 3d fa e1 a4 3e c7 70 34 3e 06 ee b5 3d
       0.069154054 0.32203656 0.17621146 0.0888329
000020 95 74 b3 3d 2b b9 bb 3e 35 4d 47 3d 95 30 e1 3d
       0.08762471 0.3666471 0.048657615 0.109955944
000030 3e 1b 32 3c 8a ea 24 bd e4 8d 8d be 94 53 08 bd
       0.010870753 -0.040262736 -0.27647316 -0.03328283
000040 f3 2e 0c 3e d8 f8 a3 bd fe 86 ca be 2a b7 f0 3d
       0.13689785 -0.080064476 -0.39556116 0.11753686
000050 62 cf e5 bc 21 67 89 be 56 19 de 3b a9 9f 86 3e
       -0.02805299 -0.26836494 0.0067779226 0.26293686
000060 0f d3 01 bf cf 15 75 bd ed a8 06 bd 52 44 93 bc
       -0.50712675 -0.05983525 -0.032875944 -0.017976914
000070 68 d5 0b 3e 1f 9a 19 be b2 e8 06 bd c2 5d 0b 3f
       0.13655627 -0.15000199 -0.03293676 0.5443994
000080 db 09 2d 3e e1 e3 0f ba 08 98 56 bd d4 79 72 3d
       0.16898291 -0.00054889737 -0.052391082 0.059198216
000090 ce dd 0f 3f e9 a1 b3 bd ce cc 97 3e cc 28 06 3f
       0.5619782 -0.08771116 0.2964844 0.52406
0000a0 9d f7 71 bc 60 ac c7 3e 66 b0 2f bd 94 43 85 3e
       -0.014768508 0.389987 -0.042892836 0.2602812
0000b0 e5 3a cc 3d 2d 76 f0 bd 9e b5 3d be cb 19 4f bd
       0.09972171 -0.1174129 -0.18526313 -0.050561707
0000c0 b9 eb 06 3e 4d a8 a2 3e 0c 88 d1 bc a9 9a cb bc
       0.13175859 0.31769028 -0.025577568 -0.024854021
0000d0 a7 a5 37 3e 23 7b e3 bc d6 73 c2 3e d9 c0 d0 3c
       0.17934285 -0.027768677 0.37979 0.025482582
0000e0 a0 a5 a0 bd 7b 68 7a 3e d4 19 ec 3e 97 a5 67 be
       -0.078440905 0.24453919 0.46113455 -0.22621761
0000f0 c9 1c 05 3f 46 44 3c bd 50 b9 66 3e de 09 cb 3e
       0.5199705 -0.045963548 0.22531629 0.39655966

fc3.weight f4 [1, 64]
000000 54 43 67 bc 39 a8 a8 3c aa 04 9d bf 23 32 0d 3e
       -0.014115173 0.020588027 -1.2267048 0.13788657
000010 62 88 8d bf 1d 2e 2d bf 5d c2 a4 bb 90 89 0e bd
       -1.1057246 -0.6764849 -0.0050280527 -0.03479916
000020 d3 2c 87 bf 07 e6 2e 3c 42 4d 60 be 45 46 24 3c
       -1.0560554 0.01067496 -0.21904472 0.010026519
000030 f3 a4 37 3a 2d 1f 3e 3e 7e 61 87 bd 7c a9 3f 3e
       0.00070054753 0.1856658 -0.06610392 0.18716997
000040 cc 13 f8 be b7 4c 3c be e6 db dc 3d 68 8d 49 be
       -0.48452604 -0.1838864 0.1078413 -0.19682848
000050 0c 72 41 bd 6a 6a 42 bd 60 3a 27 3c c0 c9 26 bc
       -0.047227904 -0.047464766 0.010206789 -0.010179937
000060 b7 ac f9 3c c8 3e 9e bd b4 a1 96 bd d9 b7 a1 bf
       0.030477865 -0.07726818 -0.07355061 -1.2634231
000070 5b 41 8b 3c fd de fd bc 41 14 a6 bf cd 4a 09 3e
       0.016998937 -0.030990118 -1.2974931 0.1340744
000080 24 1c be be a0 26 81 bc a0 e0 a1 3c 8d cd 93 bd
       -0.37130845 -0.015765488 0.01976043 -0.0721694
000090 d7 29 05 3e 2f d3 84 bf 42 e8 01 3d c8 c5 ad 3d
       0.13004242 -1.0376948 0.03171564 0.084849894
0000a0 75 67 cd bd 11 03 99 3d 7b 8b 9c bc 3a e9 c3 3c
       -0.100294985 0.07471288 -0.019109478 0.023914922
0000b0 d7 71 5f bf 77 f6 c8 bd 49 5c 66 bd 00 97 3e bf
       -0.8728308 -0.098126344 -0.056240354 -0.7444916
0000c0 66 99 21 bd fb 4c 43 bf ab 01 c3 bd 18 1f 08 bf
       -0.039452933 -0.7628934 -0.095218025 -0.53172445
0000d0 cc 98 aa 3c 45 78 78 bf 6c e6 9e 3d 08 1e 42 3c
       0.020824812 -0.97058517 0.07758793 0.01184798
0000e0 df 3b 18 3e 7b ff b3 3b b3 42 bd 3d af 6c 72 3d
       0.14866589 0.005493102 0.092412375 0.05918568
0000f0 04 01 08 3e 11 55 8a bf eb 56 da be 99 95 7c 3d
       0.13281637 -1.080721 -0.42644438 0.061666105
