puppersim/dc_saves/aac_mega_puppy_2/critic2_7.pt (torch, 26903 bytes, 5 tensors)

fc1.weight f4 [64, 31]
0	0xbecae674	-0.39628947
1	0x3f6f0ee7	0.93382114
2	0x3e37d8ac	0.17953748
3	0xbd936d67	-0.07198601
4	0x3ec545c8	0.385298
5	0x3e20d603	0.15706639
6	0x3ea16257	0.3152034
7	0xbf727222	-0.947054
8	0xbf22d90e	-0.6361245
9	0xbe0afd50	-0.13573194
10	0xbe11760d	-0.14205189
11	0xbed2f426	-0.41201895
12	0x3e5eccad	0.21757765
13	0xbd3f53fc	-0.046710953
14	0xbf670fba	-0.9025837
15	0xbe8c5fe6	-0.27416915
16	0x3d902331	0.07037962
17	0x3ca136cb	0.019679448
18	0xbd8ba104	-0.06817821
19	0x3e665d95	0.22496636
20	0xbd45aab1	-0.048258487
21	0xbe69dfc6	-0.22839269
22	0x3d98dbab	0.07463773
23	0xbe95960b	-0.29216036
24	0x3d36d487	0.044636276
25	0xbe15e295	-0.14637215
26	0x3e91ff5f	0.28515145
27	0xbdf0f7d8	-0.117660224
28	0x3e1037e8	0.14083827
29	0xbe058325	-0.13038309
30	0x3cc4bafd	0.024014944
31	0xbeccadae	-0.39976257
32	0xbeaf8868	-0.34283757
33	0xbcfff6c8	-0.031245604
34	0x3de3ae4d	0.111172296
35	0x3ed69880	0.41913223
36	0xbd3aa344	-0.04556586
37	0xbe95c4b2	-0.2925163
38	0x3da95aed	0.08269296
39	0xbe4ad24d	-0.19806786
40	0xbd171729	-0.03688732
41	0x3e32e0ea	0.1746861
42	0x3e592a20	0.21207476
43	0x3dac9b11	0.08428014
44	0xbde87559	-0.11350507
45	0x3e30df10	0.17272592
46	0xbe0db7bd	-0.13839622
47	0x3eb58b53	0.35457858
48	0x3dacbbc7	0.08434253
49	0x3e1becdc	0.15227073
50	0xbc79076b	-0.0151995225
51	0x3e56df1b	0.20983545
52	0xbdb4a007	-0.08819585
53	0xbddb5e04	-0.107112914
54	0x3e1f4956	0.15555319
55	0xbe337057	-0.17523323
56	0xbe7e2ede	-0.24822566
57	0xbd226ca4	-0.03965439
58	0xbb7c5a74	-0.0038506063
59	0x3c17d9bb	0.00926822
60	0xbe3dd9bd	-0.18540092
61	0xbc39f532	-0.011349963
62	0x3dc9cc91	0.09853471
63	0x3d7c1a9a	0.061548807
64	0x3df68147	0.120363764
65	0x3d71de3f	0.05904984
66	0xbd978416	-0.0739824
67	0x3e38fc78	0.18065059
68	0xbd03b448	-0.03215435
69	0x3dfb6967	0.12275963
70	0x3dd48f5d	0.10378907
71	0xbe19d256	-0.15021643
72	0x3c5113c5	0.012761061
73	0xbdae9710	-0.08524907
74	0xbe3b8a46	-0.18314466
75	0xbddc2e86	-0.10751061
76	0xbd500a11	-0.05079085
77	0xbd0650e8	-0.032792002
78	0x3cf7fd0d	0.030272031
79	0xb74a0b4a	-1.2042767e-05
80	0xbccd18ed	-0.0250363
81	0x3c255392	0.0100907255
82	0x3bd4a569	0.006489445
83	0x3d10761c	0.035268888
84	0x3b6c1b12	0.0036026877
85	0x3cb96967	0.022633268
86	0x3bd00340	0.0063480437
87	0xbc428319	-0.011872076
88	0x3dd64112	0.1046163
89	0x3c9d633c	0.019212358
90	0x3be8df57	0.0071067023
91	0x3df5b043	0.1199651
92	0x3a8927aa	0.0010464091
93	0x3a11e918	0.0005566045
94	0xbd519199	-0.051164243
95	0xbcf6d727	-0.03013189
96	0x3cc5621d	0.024094636
97	0x3dd00319	0.10156841
98	0xbe096cd7	-0.13420425
99	0xbd7222a3	-0.059115063
100	0xbd31af75	-0.04338022
101	0x3e799bfb	0.24375908
102	0x3e03f8c1	0.12887861
103	0xbbb7894e	-0.005601085
104	0x3e137737	0.14400946
105	0x3de252a9	0.110509224
106	0xbe467ae7	-0.19382821
107	0x3e24a420	0.16078234
108	0xbcb76f70	-0.022392005
109	0x3cce608e	0.025192525
110	0xbbd6534d	-0.006540692
111	0xbcd2c93c	-0.025730722
112	0x3d589153	0.052872967
113	0x3cfa361e	0.030543383
114	0xbc25c58d	-0.010117901
115	0x3c44d429	0.012013474
116	0xbcddecd0	-0.02709046
117	0x3c8d5aa1	0.01725513
118	0x3ca564ef	0.02018973
119	0x3d3df6d6	0.04637798
120	0xbce01f77	-0.027358754
121	0x3ce5f148	0.028069153
122	0x3d6b665e	0.05747067
123	0x3c7231fd	0.014782426
124	0xbdcb7910	-0.099352
125	0xbb2b1a11	-0.0026108066
126	0x3d086cdf	0.033306953
127	0xbe150351	-0.14552046
128	0xbe712632	-0.23549727
129	0x3e0fa814	0.1402896
130	0xbd68fa79	-0.056879494
131	0x3f153e16	0.5829786
132	0xbdc807fd	-0.09767149
133	0x3caea443	0.02131856
134	0xbf020eb2	-0.50803673
135	0xbe90d69d	-0.28288737
136	0xbdd2fc47	-0.10302024
137	0x3e45bf2f	0.19311212
138	0xbdc8f6d3	-0.09812703
139	0xbe531aed	-0.2061574
140	0x3e377821	0.1791692
141	0x3e4a475a	0.19753781
142	0x3d837b19	0.064199634
143	0x3e82d245	0.25551048
144	0x3d5d875c	0.054084167
145	0xbe772f4c	-0.24139136
146	0xbe1141bf	-0.14185236
147	0x3e65018b	0.2236387
148	0x3dbc1078	0.09182829
149	0x3dd45c3d	0.103691556
150	0xbc3c7f3d	-0.011504945
151	0x3ca8fac9	0.020627396
152	0x3e7ab41b	0.24482767
153	0xbd79d3d6	-0.060993038
154	0xbe98f6d7	-0.29875824
155	0xbea9bef0	-0.33153486
156	0xbdff91c9	-0.12478978
157	0x3db21105	0.086946525
158	0xbe5b87f9	-0.21438588
159	0x3f273be5	0.65325767
160	0xbe36fe7e	-0.17870519
161	0x3e3523e5	0.17689474
162	0xbced1648	-0.028941289
163	0x3b575248	0.003285544
164	0x3b7a3486	0.003817828
165	0x3e756c7e	0.23967168
166	0xbcdc6e32	-0.026908014
167	0x3e0fafe6	0.14031944
168	0xbe0f08d7	-0.13968216
169	0xbeb84e8a	-0.3599742
170	0xbdf175e6	-0.117900655
171	0xbee66a21	-0.45002845
172	0x3c28525c	0.010273542
173	0x3cfdc274	0.030976512
174	0xbd6bbf8a	-0.057555713
175	0xbd129c50	-0.035793602
176	0x3f03a850	0.514287
177	0xbda564c3	-0.080758594
178	0x3dab976e	0.08378492
179	0xbe9e0381	-0.30862048
180	0x3af336f4	0.0018555806
181	0xbd169426	-0.03676238
182	0xbdc7d4af	-0.09757363
183	0xbca26d2e	-0.019827452
184	0xbdd8362e	-0.10557209
185	0x3e2223da	0.15833989
186	0xbb8d315d	-0.004308863
187	0xbde77357	-0.11301296
188	0x3e951011	0.2911382
189	0x3ee951d6	0.45570248
190	0xbd1c9442	-0.038227327
191	0x3e3f5888	0.18686116
192	0x3edc6c2a	0.43051273
193	0x3cfd58b5	0.030926088
194	0x3e12bfd5	0.1433099
195	0x3e1a7c30	0.15086436
196	0x3d649da0	0.055814385
197	0x3e3ab09f	0.18231438
198	0xbdd912f3	-0.105993174
199	0x3efa752b	0.48917517
200	0x3a6416a7	0.0008700885
201	0xbb3e679c	-0.0029053455
202	0x3b214328	0.0024606679
203	0x3bd95375	0.0066322633
204	0xbb370a16	-0.0027929596
205	0x3ba42ab8	0.0050099753
206	0x3c2873cd	0.010281515
207	0x3b2473a3	0.002509334
208	0xbba6b9de	-0.005088075
209	0x3aa0ed41	0.0012277738
210	0xbbacaf19	-0.0052698967
211	0xbb280fcf	-0.0025644188
212	0x3a127313	0.00055866054
213	0x3bb0f6a3	0.005400495
214	0x3b0962ba	0.0020963387
215	0x3c285695	0.010274549
216	0xbb49d0c5	-0.0030794602
217	0xbcedc627	-0.02902515
218	0xbd00ab15	-0.031413157
219	0xbb4afab9	-0.0030972196
220	0xbafc9f27	-0.0019273505
221	0xbeb91260	-0.36146832
222	0x3dc242b8	0.09485382
223	0xbb803b8d	-0.003913349
224	0xbeaf38ef	-0.34223124
225	0xbe27da61	-0.16391899
226	0x3ba632d8	0.005071979
227	0x3c1c7599	0.009549522
228	0x3de2864c	0.11060771
229	0xbcafca22	-0.02145869
230	0x3dc21374	0.09476367
231	0x3d033d46	0.032040857
232	0xbcc23d52	-0.02371088
233	0xbd0c4a7a	-0.034250714
234	0x39d310c6	0.00040257553
235	0x3b638dbe	0.0034721936
236	0x3cf87df5	0.030333498
237	0x3d301dfc	0.042997345
238	0xbc4efdd0	-0.012633756
239	0xbbd8bdaa	-0.0066144066
240	0x3d1b5c15	0.037929613
241	0x3ddcacd6	0.10775153
242	0xbdabfb2e	-0.08397518
243	0xbd2228a2	-0.03958953
244	0x3d2fd3a3	0.042926442
245	0xbd4e76d7	-0.050406303
246	0xbd91ead7	-0.0712487
247	0xbdca373d	-0.09873817
248	0xbec176b4	-0.37785876
249	0x3e0737e7	0.13204919
250	0x3d3e7440	0.046497583
251	0xbc961c67	-0.01832409
252	0x3eab7e0d	0.33494607
253	0xbe25a4b2	-0.16176108
254	0xbe980a7e	-0.29695505
255	0x3f167165	0.58766776

fc1.bias f4 [64]
0	0xbe05948f	-0.13044952
1	0x3e0574de	0.13032863
2	0xbe2e7a1e	-0.17038772
3	0x3e8b7064	0.27234185
4	0xbd48d189	-0.049027953
5	0x3e036dca	0.1283485
6	0x3e1fb386	0.15595827
7	0xbdf92054	-0.12164369
8	0x3e91236d	0.2834734
9	0x3f155d32	0.5834533
10	0xbe11e2a1	-0.14246608
11	0x3f0b1afe	0.5433806
12	0x3eb12115	0.34595552
13	0x3ec4dba5	0.38448825
14	0x3e6c0138	0.2304734
15	0x3e8b55c1	0.27213863
16	0x3e94c3a1	0.29055503
17	0xbea2a24a	-0.31764442
18	0x3ec2feeb	0.38085112
19	0xbb958e3a	-0.004564074
20	0x3e5de3a5	0.21668871
21	0xbdf70fc9	-0.12063558
22	0x3e355826	0.17709407
23	0x3edc96e0	0.43083858
24	0x3e4e4110	0.20142007
25	0x3e957d2c	0.2919706
26	0x3e44fd0a	0.19237152
27	0xbd31afab	-0.04338042
28	0x3eb40a09	0.35163906
29	0x3e9a3ffa	0.30126935
30	0x3e976d19	0.29575422
31	0x3ec110d3	0.37708148
32	0x3efc8d5a	0.49326593
33	0x3f083406	0.5320438
34	0x3ef5b60d	0.47990456
35	0x3e74a47d	0.23890872
36	0x3f0f00ed	0.5586079
37	0x3f23c902	0.6397859
38	0x3e955c12	0.29171807
39	0xbd2319b0	-0.03981942
40	0x3e9a4951	0.3013406
41	0x3d9776eb	0.07395729
42	0x3e856ac9	0.26058033
43	0xbe31066f	-0.1728761
44	0x3eb5d000	0.35510254
45	0x3e607d28	0.21922743
46	0x3e7ed5c1	0.24886228
47	0x3eec0c4d	0.46103135
48	0x3ec991a7	0.39368936
49	0xbec8590c	-0.39130437
50	0x3e62da9a	0.22153702
51	0x3d951bb3	0.07280674
52	0xbd283066	-0.04106178
53	0x3e639cb5	0.22227748
54	0x3ec18d8a	0.37803298
55	0x3ead54a5	0.3385364
56	0x3e1c0167	0.1523491
57	0x3d6739a5	0.05645146
58	0xbe51952f	-0.20467065
59	0xbd4eafe5	-0.050460715
60	0xbf15e656	-0.5855459
61	0x3f26a75a	0.6509911
62	0x3e99d1ea	0.30042964
63	0x3d230bab	0.03980605

fc2.weight f4 [64, 64]
0	0xbca0a22c	-0.01960858
1	0xbf8f8d49	-1.1214992
2	0x3e39acdc	0.18132347
3	0xbc4dc6d1	-0.012559609
4	0xbfbee525	-1.4913679
5	0xbf35eb6a	-0.7106234
6	0x3d0a08d7	0.033699837
7	0xbe4bd1fd	-0.19904323
8	0xbedf5d09	-0.43625668
9	0xbdbf0428	-0.093269646
10	0xbe2704ca	-0.1631042
11	0x3ceff866	0.02929325
12	0xbf9ee3bf	-1.2413253
13	0xbe7be4ab	-0.24598949
14	0x3e8193d5	0.253081
15	0xbee0e695	-0.4392592
16	0xbf9f61de	-1.2451742
17	0xbe6cb2bd	-0.23115058
18	0x3dabbf72	0.08386125
19	0xbfa3bd5a	-1.279216
20	0xbee050f0	-0.4381175
21	0xbe73d3cd	-0.23811264
22	0x3e92b7d2	0.2865587
23	0xbdb54428	-0.088508904
24	0xbe62fffd	-0.22167964
25	0xbeae5b4b	-0.34054026
26	0xbf4c46b0	-0.7979536
27	0x3bc7bcbd	0.0060954974
28	0xbf7036fc	-0.938339
29	0x3dfc17da	0.12309237
30	0xbf8257bc	-1.0183024
31	0xbe174b3f	-0.14774798
32	0xbd1439e1	-0.03618801
33	0x3e5cfff6	0.21582016
34	0x3dbe7f6d	0.09301648
35	0xbe2e27ef	-0.17007421
36	0x3e67c4b3	0.22633629
37	0x3d845cea	0.064630345
38	0x3e08777b	0.13326828
39	0xbe746446	-0.23866376
40	0xbd45aa95	-0.048258383
41	0x3d679cfc	0.056546196
42	0x3e89b98c	0.26899374
43	0xbebb20fe	-0.3654861
44	0xbefb236c	-0.49050462
45	0xbf20019c	-0.62502456
46	0x3dfd2542	0.12360622
47	0xbdfdca75	-0.12392131
48	0xbe495039	-0.19659509
49	0x3d87af34	0.06625214
50	0xbd8d8074	-0.06909266
51	0x3e46840e	0.19386312
52	0x3e9f6aa3	0.31136045
53	0xbf9fd4bd	-1.2486798
54	0xbf66f8ac	-0.90223193
55	0xbe49d943	-0.19711785
56	0xbda26348	-0.07929093
57	0xbfb93146	-1.4468162
58	0xbca71819	-0.020397233
59	0x3f1aa113	0.6040203
60	0xbe856859	-0.26056173
61	0xbcbb10e2	-0.022835199
62	0x3d39ce16	0.045362554
63	0xbf0527cd	-0.52013856
64	0xbe9626d9	-0.29326513
65	0xbd836b01	-0.06416894
66	0xbe5fee8d	-0.21868344
67	0x3d954203	0.07287981
68	0xbf533ec2	-0.82517636
69	0x3d4c725e	0.049913757
70	0xbf0f2356	-0.55913293
71	0xbf309d61	-0.6899014
72	0x3ea2e98c	0.31818807
73	0x3e628357	0.22120415
74	0xbe875b4c	-0.2643684
75	0x3e0444e9	0.12916912
76	0xbf7812d4	-0.9690373
77	0x3d7fb920	0.06243241
78	0xbcc7769e	-0.024348553
79	0x3ebf8d04	0.37412274
80	0xbf71ff97	-0.94530624
81	0xbf3ec82e	-0.745242
82	0xbf589b65	-0.84612113
83	0x3d3e9ee7	0.04653826
84	0xbf0fcf96	-0.56176126
85	0xbd29f7b9	-0.041496012
86	0xbc760c9d	-0.015017656
87	0x3e6bb7e6	0.2301937
88	0xbc75de43	-0.015006605
89	0xbdb9e225	-0.09076337
90	0xbf9a4477	-1.2052144
91	0xbeb74dc2	-0.35801512
92	0xbf67464c	-0.9034164
93	0xbf308de6	-0.6896652
94	0xba11f517	-0.0005567832
95	0xbf08d8a5	-0.53455573
96	0x3e3725e3	0.17885546
97	0x3d02e376	0.031955205
98	0x3db750a2	0.08950926
99	0xbeb142b0	-0.3462119
100	0x3cc07e40	0.0234977
101	0xbe0bec64	-0.13664395
102	0xbf34874b	-0.7051894
103	0xbddfbc09	-0.10924537
104	0xbd03794c	-0.0320981
105	0xbef525fa	-0.47880536
106	0x3e54ddf5	0.20787795
107	0xbf1062f9	-0.5640102
108	0xbc9465d8	-0.01811497
109	0xbf4ad66b	-0.79233426
110	0x3df021c9	0.11725194
111	0xbef81f5b	-0.48461422
112	0x3d866e90	0.06564057
113	0xbe12bb6c	-0.14329308
114	0x3e1cd4da	0.15315571
115	0xbda3e6df	-0.080030195
116	0xbf169041	-0.58813864
117	0xbee4a009	-0.44653347
118	0xbf7fb29d	-0.9988192
119	0x3ddafd05	0.10692791
120	0xbf806dd7	-1.003352
121	0xbf8d2a3d	-1.1028515
122	0xbf913b06	-1.1346138
123	0xbebfe219	-0.37477186
124	0xbef55a22	-0.47920328
125	0xbed59f62	-0.41723162
126	0xbe5788db	-0.210483
127	0xbdb46ca2	-0.088097826
128	0x3f23f7aa	0.6404978
129	0x3d92b0e2	0.07162644
130	0x3ec278f5	0.37982908
131	0x3e25bda4	0.16185623
132	0x3e3ded98	0.18547666
133	0x3e905ada	0.28194314
134	0x3e44b3ae	0.19209167
135	0x3e4349b9	0.19071092
136	0xbde6a2f2	-0.11261548
137	0x3dcded44	0.100550205
138	0x3e1f09e9	0.15531124
139	0xbd4fe211	-0.050752703
140	0x3daa3ec3	0.08312752
141	0x3d714453	0.05890305
142	0x3e0c1e91	0.13683535
143	0x3d0edeab	0.03488032
144	0x3e11a19d	0.14221807
145	0x3c907ea7	0.017638518
146	0x3d2dd956	0.042443596
147	0xbd8b9c1a	-0.068168834
148	0x3e4cf37b	0.20014755
149	0x3e89d0f3	0.26917228
150	0xbcc7da86	-0.024396192
151	0x3d77cb70	0.060496747
152	0xbb88e6b0	-0.0041778907
153	0x3d37b2dd	0.04484831
154	0xbcd011e1	-0.02539915
155	0x3d8af5aa	0.06785138
156	0x3e33f71f	0.17574738
157	0x3db7dcb4	0.08977643
158	0xbdb686d9	-0.08912439
159	0xbbfe980a	-0.0077695893
160	0x3c84300e	0.016136196
161	0xbed8caa3	-0.423421
162	0xbf2858d3	-0.65760535
163	0x3e18eaef	0.1493337
164	0xbf6a01bc	-0.91408896
165	0xbf1591d2	-0.5842563
166	0x3e5c3ccd	0.21507569
167	0x3e329aee	0.17441913
168	0x3e36623a	0.17810908
169	0x3c6e3204	0.014538292
170	0xbeb356a9	-0.35027054
171	0x3d00e342	0.03146673
172	0x3eb0e816	0.34552068
173	0x3dd1baa0	0.10240674
174	0xbdf8202e	-0.12115513
175	0xbc6a42e7	-0.014298177
176	0xbeebe15e	-0.4607038
177	0xbd02fd58	-0.03197989
178	0xbd84e876	-0.06489651
179	0xbef3c4e6	-0.4761116
180	0xbeb29946	-0.34882563
181	0x3cbebfdd	0.023284847
182	0x3cf12403	0.029436117
183	0xbc96f1d4	-0.01842586
184	0x3db9f111	0.09079183
185	0x3d4c2431	0.049839202
186	0xbd3d0e3e	-0.04615616
187	0xbe353659	-0.17696513
188	0x3d146fca	0.036239423
189	0x3e8edea3	0.27904233
190	0xbd81bbe6	-0.06334667
191	0xbde8d9e9	-0.11369688
192	0x3c8e89ba	0.017399658
193	0xbf89bcd6	-1.0760753
194	0xbc3817b2	-0.011236118
195	0xbf06d771	-0.5267249
196	0xbea65cf6	-0.324928
197	0xbf868741	-1.0510026
198	0xbed4db7e	-0.4157371
199	0x3d0b3c82	0.03399325
200	0xbf1ffe02	-0.6249696
201	0xbd082641	-0.033239607
202	0x3e4a5bbe	0.1976156
203	0xbe743a38	-0.23850334
204	0xbe508295	-0.20362313
205	0x3d3fc55d	0.04681908
206	0xbdc9578d	-0.09831152
207	0xbea2030b	-0.31642947
208	0xbfb34b09	-1.4007274
209	0xbe09c56e	-0.1345422
210	0x3e889a45	0.26680198
211	0xbf6d8d4c	-0.92793727
212	0xbe1b2c6e	-0.15153667
213	0xbf608332	-0.8770019
214	0x3ee4e0ae	0.44702667
215	0xbeda7417	-0.42666695
216	0xbf233c0d	-0.63763505
217	0xbda38793	-0.07984843
218	0xbf477d69	-0.77925736
219	0x3d8dd205	0.06924824
220	0xbf11dbb9	-0.56975895
221	0xbdb1d9fa	-0.08684154
222	0xbe72ce87	-0.23711596
223	0x3d3eafbe	0.04655432
224	0x3e26c27d	0.16285129
225	0xbcc0bf0f	-0.023528604
226	0xbec26066	-0.3796417
227	0x3ea41582	0.3204766
228	0x3d900842	0.07032825
229	0x3dbff5b8	0.09373039
230	0xbfae6e22	-1.362736
231	0xbe8c59c1	-0.27412227
232	0x3da07b61	0.07836033
233	0xbe294431	-0.16529919
234	0x3e21e56d	0.15810175
235	0x3d57902a	0.05262772
236	0xbf9c434c	-1.2208037
237	0x3d80ab08	0.062826216
238	0x3bad59fc	0.005290268
239	0x3d9f6427	0.077827744
240	0x3ded50c4	0.115876704
241	0x3e393838	0.18087852
242	0xbe44ce7b	-0.19219391
243	0x3ef67393	0.4813505
244	0xbef12a7b	-0.47102723
245	0xbeb7ff04	-0.3593675
246	0xbef78ff9	-0.4835203
247	0xbf0c832c	-0.5488765
248	0xbdc5cc9a	-0.09658165
249	0xbf8577d0	-1.0427189
250	0x3d02b0b3	0.031906795
251	0x3b420fc1	0.002961144
252	0x3c23d563	0.009999606
253	0xbe9e91d7	-0.30970642
254	0x3d1f7521	0.038930062
255	0xbead0bdc	-0.3379811

fc2.bias f4 [64]
0	0xbc246feb	-0.010036449
1	0x3e323dfc	0.17406458
2	0x3df022d4	0.11725393
3	0x3a030973	0.00049986615
4	0xbe80ad99	-0.25132445
5	0xbe012bc5	-0.12614353
6	0xbd7331d8	-0.059373707
7	0x3e6b1859	0.22958507
8	0x3eb04fa4	0.3443576
9	0x3e1373ab	0.14399593
10	0xbdfd79db	-0.12376758
11	0xbe4a8a06	-0.19779214
12	0xbd3599fb	-0.0443363
13	0xbd991563	-0.07474782
14	0x3d5548f9	0.052071545
15	0x3d2a6807	0.041603114
16	0xbe51826b	-0.20459907
17	0xbd1d9c6f	-0.038479265
18	0x3f0ebf6d	0.5576084
19	0x3ba8e511	0.00515426
20	0xbdaeb2ef	-0.085302226
21	0xbd73c290	-0.05951172
22	0x3deace1f	0.11465096
23	0x3e230696	0.15920481
24	0x3e732e6b	0.23748176
25	0xbea834cc	-0.3285278
26	0x3ee3c87f	0.44488904
27	0xbdde4e70	-0.108548045
28	0xbd872d83	-0.066004775
29	0x3ec2c011	0.3803716
30	0xbea0d9ed	-0.31416264
31	0x3ea6d6f5	0.32585874
32	0xbd859f0f	-0.06524479
33	0x3ea5dbd1	0.3239427
34	0x3e3ff5f8	0.18746173
35	0xbcc7589d	-0.024334246
36	0xbd81b3aa	-0.06333096
37	0x3dffd4cc	0.1249176
38	0x3e1e95ff	0.15486906
39	0x3e79a8dd	0.24380822
40	0xbe181f0f	-0.14855598
41	0xbe001ac6	-0.12510213
42	0x3e4fced2	0.2029374
43	0x3e85ea39	0.2615526
44	0x3e1f6219	0.15564765
45	0x3eae1893	0.34003124
46	0x3dd31d6b	0.103083454
47	0xbe38bf08	-0.18041623
48	0x3e4416cc	0.19149321
49	0xbda6b5f5	-0.08140174
50	0xbcd2ac19	-0.025716828
51	0x3ead25d7	0.33817932
52	0x3df1e8d5	0.11811987
53	0xbdd710d9	-0.1050126
54	0xbb865587	-0.004099551
55	0x3e1fbc19	0.15599097
56	0x3d715bd9	0.058925483
57	0xbe742456	-0.23841986
58	0xbd0d03ff	-0.03442764
59	0x3e0bba98	0.13645399
60	0x3f0348a7	0.51282734
61	0xbd26ec69	-0.040752802
62	0x3eb69ce3	0.3566657
63	0xbdbfd8ab	-0.09367498

fc3.weight f4 [1, 64]
0	0xbfa8d0e1	-1.3188745
1	0xbf061576	-0.52376497
2	0xbe3e2091	-0.1856711
3	0xbfa21171	-1.2661573
4	0xbd936fad	-0.07199035
5	0xbe031274	-0.12800008
6	0xbe91c299	-0.2846878
7	0x3d965639	0.073406644
8	0x3c8e33f7	0.017358763
9	0xbe7c9922	-0.2466779
10	0xbd0ee871	-0.034889642
11	0xbaaf7b96	-0.0013388272
12	0x3e01c587	0.12673007
13	0xbf248f26	-0.6428093
14	0xbd7b7075	-0.061386544
15	0xbeadff6b	-0.3398393
16	0x3ed79c21	0.42111304
17	0xbca1e204	-0.019761093
18	0x3e07ead1	0.13273169
19	0xbdece775	-0.115675844
20	0xbd1d61c3	-0.03842331
21	0xbc2ee6e6	-0.010675168
22	0x3d4af31b	0.04954825
23	0x3d6e2927	0.058144715
24	0x3d108812	0.035286017
25	0xbc9e05e0	-0.01928991
26	0x3d5438ea	0.05181209
27	0x3d670fb9	0.05641148
28	0xbdaa1971	-0.08305634
29	0x3cc246c4	0.023715384
30	0xbe0534bd	-0.130084
31	0x3d47410d	0.04864602
32	0xb7a4da5d	-1.9652007e-05
33	0x3d41188e	0.047142558
34	0x3dd84f12	0.105619565
35	0xbdc01297	-0.09378546
36	0xbde29074	-0.110627085
37	0xbc0b9d8f	-0.008521452
38	0xbe2693c5	-0.16267307
39	0xbd0e8502	-0.034794815
40	0xbc3089a8	-0.010775007
41	0xbdb78ef4	-0.08962813
42	0xbf716e39	-0.9430881
43	0xbf53da8e	-0.82755363
44	0x3ba21504	0.004946353
45	0x3c9f2f73	0.019431805
46	0x3c9b6b9e	0.018972214
47	0x3c3142fb	0.010819192
48	0xbc507d0f	-0.012725129
49	0xbda706fd	-0.0815563
50	0xbd4c8261	-0.049929027
51	0x3e0b983f	0.13632296
52	0xbf6b63d8	-0.91949224
53	0xbaececb4	-0.0018075914
54	0xbd361a86	-0.04445889
55	0xbc8899ed	-0.01667496
56	0xbe992c3b	-0.29916558
57	0xbde1e6da	-0.110303596
58	0xbe0133f0	-0.12617469
59	0x3cd4343e	0.025903817
60	0x3d909c6e	0.070610866
61	0xbd11ca46	-0.035593294
62	0x3c87d9e3	0.016583389
63	0xbcc60985	-0.024174461
