puppersim/dc_saves/aac_mega_puppy_2/critic1_5.pt (torch, 26903 bytes, 5 tensors)

fc1.weight f4 [64, 31]
-0.47631872 -0.34389678 0.45680398 -0.04954244 0.083031364 -0.0790228 -0.14161618 -0.09702724
-0.39705393 -0.006126323 -1.1626091 -1.09397 -0.7178049 0.785678 -0.20171987 0.040892802
0.09053289 0.06333118 0.022011342 0.011510902 -0.045000564 0.097819924 0.009298844 -0.027501175
-0.06253197 -0.07724696 0.093102746 0.054579243 -0.056591902 -0.0068965573 -0.021260777 -0.15422718
-0.859622 0.4331029 0.038540997 -2.0131197 -0.52650243 0.25253695 -0.79446244 0.14873631
0.15745069 -0.52505094 -0.030995172 -0.109922945 -0.5690013 0.3332425 0.4281754 -0.36615366
-0.34997612 0.46016794 0.06941366 -0.618714 -0.31971875 0.502059 0.1860177 0.15377216
0.4718399 0.53680813 -0.08724692 0.07286567 0.40343198 -0.624483 0.021134341 0.44209486
0.10496618 0.39634767 0.014681141 0.25892374 0.43544188 -0.08306983 0.39289218 0.13494143
0.35444793 -0.2506223 -0.369796 0.24183568 1.0309601 0.010457921 -0.057123933 0.13135435
0.058645163 0.02911991 0.002147809 -0.08584516 -0.050927006 -0.03541055 0.119872496 0.03491885
-0.08617141 -0.0010296574 0.021607129 0.00050065666 0.061975587 -0.10608256 -0.30493677 0.04051028
-0.17224959 -0.31428567 0.23027217 0.02116036 -0.16355857 -0.03946857 0.27270702 1.089082
0.47055575 0.3802662 -0.6584168 0.34419328 -0.04446799 -0.042383336 0.13841915 -0.124015294
-0.109988615 -0.008931247 -0.04548394 0.028836243 -0.13219342 0.04336073 -0.1482712 0.042709127
0.16027234 -0.33393076 0.023444038 0.003786854 -0.0038133296 0.13973007 -0.20135632 -0.07321954
-0.27894875 -0.021106647 0.08801972 -0.14665723 -0.3028881 0.29306924 -0.1857195 0.47359082
-0.09437642 0.42152274 -0.5325362 0.1321688 -0.09734768 0.00046943457 -0.01694901 0.053286545
0.0067520966 0.06909844 0.30506945 0.018235834 0.12874408 0.12365964 -0.25183365 -0.002198108
-0.09994538 -0.17698817 -0.029406764 -0.1563763 -0.0427552 -0.14984277 0.1489321 -0.9885888
0.013271569 0.18729906 0.015363366 -0.37561062 0.08893672 -1.1753871 -0.48796728 -0.35912025
0.17137459 0.16713086 -0.22514774 -0.02358187 -0.1365274 -0.21269862 0.27266198 0.26807675
-0.2479522 0.44793466 -0.37528208 0.19003054 0.23974109 0.15890357 0.088605106 0.044631492
0.22758812 -0.0636195 -0.40965733 0.6942715 -0.01642883 -0.17466645 -0.33204108 -0.34229928
0.061698258 -0.22118467 -0.22026491 0.25139427 -0.21349572 -0.102969065 0.17751014 0.062337726
-0.109577216 0.32044467 -0.1342731 -0.121725306 0.010853573 -0.05047337 -0.2777979 0.08725811
0.21916567 -0.3626672 0.8376386 0.018232053 -0.0873404 0.08233718 -0.19591105 0.26453567
0.13430896 -0.17494787 -0.23133868 0.15614069 -0.11090874 0.67350245 0.12760384 0.13071269
2.0893033 0.22565289 0.1262401 -0.00086516445 -0.246219 0.27126908 -0.55287486 0.95521325
0.04659066 -0.43104416 -0.40196812 0.12170895 -0.023453828 0.6322263 0.24925877 -0.2865384
0.23771288 0.2915501 -0.09050657 0.11187402 -0.10345084 0.7559438 0.2748301 0.22796182
-0.20315763 -0.0015999259 -0.020128988 0.073222294 -0.20257531 -0.20437707 0.26494002 -0.9389859
00000000: 0ce0 f3be 3d13 b0be 36e2 e93e 03ed 4abd
00000010: 590c aa3d b5d6 a1bd d503 11be 38b6 c6bd
00000020: a74a cbbe 52bf c8bb 60d0 94bf 3507 8cbf
00000030: 10c2 37bf 3222 493f a78f 4ebe 367f 273d
00000040: 4f69 b93d c7b3 813d 2151 b43c 3998 3c3c
00000050: 8352 38bd d055 c83d 2e5a 183c 254a e1bc
00000060: c310 80bd a733 9ebd a7ac be3d 7c8e 5f3d
00000070: e9cc 67bd 84fc e1bb 152b aebc bbed 1dbe
00000080: 3010 5cbf aabf dd3e 2add 1d3d f4d6 00c0
00000090: ddc8 06bf 864c 813e e461 4bbf 554e 183e
000000a0: c13a 213e bd69 06bf 96e9 fdbc 481f e1bd
000000b0: 12aa 11bf c39e aa3e ce39 db3e 7e78 bbbe
000000c0: 1230 b3be 229b eb3e c028 8e3d 0a64 1ebf
000000d0: 2db2 a3be f086 003f 6d7b 3e3e 7376 1d3e
000000e0: 0095 f13e 426c 093f 83ae b2bd 993a 953d
000000f0: a38e ce3e 1ede 1fbf ed21 ad3c 425a e23e
00000100: 82f8 d63d 15ee ca3e 2b89 703c a791 843e
00000110: 3df2 de3e 8420 aabd 2a29 c93e 162e 0a3e
00000120: 337a b53e 9151 80be e755 bdbe c6a3 773e
00000130: 80f6 833f b357 2b3c c9fa 69bd c181 063e
00000140: e935 703d e18c ee3c 41c2 0c3b 96cf afbd
00000150: d698 50bd a70a 11bd b67f f53d 1107 0f3d
00000160: a37a b0bd 92f5 86ba 6f01 b13c 803e 033a
00000170: 1dda 7d3d d041 d9bd ac20 9cbe 1bee 253d
00000180: 3262 30be 0dea a0be 78cc 6b3e 7e58 ad3c
00000190: e67b 27be cca9 21bd 41a0 8b3e 0a67 8b3f
000001a0: afec f03e 40b2 c23e 018e 28bf 1a3a b03e
000001b0: 1124 36bd 269a 2dbd c0bd 0d3e bbfb fdbd
000001c0: b641 e1bd 5d54 12bc 5e4d 3abd fc39 ec3c
000001d0: b65d 07be 059b 313d 68d4 17be c4ef 2e3d
000001e0: 6f1e 243e f9f8 aabe b60d c03c de2c 783b
000001f0: 0ee9 79bb 6615 0f3e 5a30 4ebe 20f4 95bd
00000200: 5fd2 8ebe d9e7 acbc af43 b43d 502d 16be
00000210: 2614 9bbe 2c0d 963e 412d 3ebe 7f7a f23e
00000220: 6d48 c1bd d4d1 d73e 4b54 08bf 4257 073e
00000230: 385e c7bd 711e f639 a6d8 8abc fe42 5a3d
00000240: b140 dd3b 7c83 8d3d 1032 9c3e 5163 953c
00000250: 7dd5 033e 4441 fd3d 57f0 80be 220e 10bb
00000260: 2ab0 ccbd 633c 35be 74e6 f0bc 1c21 20be
00000270: 1420 2fbd 6270 19be a881 183e 2814 7dbf
00000280: ff70 593c 53cb 3f3e a1b6 7b3c 0950 c0be
00000290: 7424 b63d 1673 96bf d9d6 f9be 9cde b7be
000002a0: d27c 2f3e 5a24 2b3e 218d 66be c42e c1bc
000002b0: d7cd 0bbe abcd 59be 5a9a 8b3e 5b41 893e
000002c0: 2ee7 7dbe b157 e53e f924 c0be 5e97 423e
000002d0: b07e 753e 9eb7 223e 9876 b53d 83cf 363d
000002e0: dc0c 693e f14a 82bd 9bbe d1be c7bb 313f
000002f0: c195 86bc c3db 32be 4a01 aabe da41 afbe
00000300: 50b7 7c3d 3c7e 62be 208d 61be c0b6 803e
00000310: 9f9e 5abe 72e1 d2bd 38c5 353e d855 7f3d
00000320: 056a e0bd 5311 a43e e37e 09be 1e4b f9bd
00000330: 2fd3 313c 2abd 4ebd 873b 8ebe 61b4 b23d
00000340: f76c 603e 84af b9be 7c6f 563f 635b 953c
00000350: 86df b2bd 65a0 a83d e89c 48be 3871 873e
00000360: 4a88 093e 8925 33be 0ce4 6cbe 58e3 1f3e
00000370: 1f24 e3bd a86a 2c3f 95aa 023e 8cd9 053e
00000380: 25b7 0540 8d11 673e 1645 013e 34cc 62ba
00000390: d520 7cbe c8e3 8a3e 3589 0dbf db88 743f
000003a0: d9d5 3e3d d2b1 dcbe c4ce cdbe 8b42 f93d
000003b0: 3e22 c0bc 95d9 213f b13d 7f3e 29b5 92be
000003c0: 016b 733e 0e46 953e 825b b9bd 351e e53d
000003d0: 09de d3bd 8885 413f 88b6 8c3e d36e 693e
000003e0: 8e08 50be 9bb4 d1ba 8ce5 a4bc 92f5 953d
000003f0: e76f 4fbe 3948 51be 38a6 873e 6161 70bf

fc1.bias f4 [64]
0.0248119 0.19398424 -0.16371952 0.6545905 0.7333421 0.6215396 0.7131545 0.31675884
0.5236684 -0.49303487 1.1304317 0.7044802 -0.13310204 0.56767726 0.7368439 0.32794347
-0.34062335 -0.22540912 0.7297385 1.1118335 -0.18864687 1.0502712 -0.23329996 0.9587595
0.9971381 -0.3273751 0.07415081 0.69809616 0.15562919 -0.4242702 -0.5484064 0.3993253
0.692788 1.0406779 0.4416364 0.8562508 1.0505803 0.65874493 0.15858585 0.77208525
0.46679142 0.8111638 1.1664331 1.2082907 0.56450903 0.14249742 0.92378944 -0.20884487
0.5938157 0.76392776 0.9887597 -0.30123973 0.845809 -0.35096654 1.0032524 1.1723977
0.24126634 0.5597416 0.8971776 1.1414137 1.1270208 -0.60392404 0.5613919 -0.34371287
00000000: 5342 cb3c cea3 463e 17a6 27be 3e93 273f
00000010: 4fbc 3b3f 381d 1f3f 4b91 363f 372e a23e
00000020: 220f 063f 116f fcbe fcb1 903f d058 343f
00000030: e74b 08be 4c53 113f cda1 3c3f 35e8 a73e
00000040: 2f66 aebe a6d1 66be 24d0 3a3f 8f50 8e3f
00000050: a52c 41be 496f 863f 2fe6 6ebe 4371 753f
00000060: 7144 7f3f b69d a7be 61dc 973d 6eb6 323f
00000070: 425d 1f3e f239 d9be 5d64 0cbf 5e74 cc3e
00000080: 8e5a 313f ef34 853f 2b1e e23e 4133 5b3f
00000090: 6a79 863f 82a3 283f 5464 223e 61a7 453f
000000a0: 49ff ee3e 6ea8 4f3f ae4d 953f 45a9 9a3f
000000b0: aa83 103f d8ea 113e 777d 6c3f 6edb 55be
000000c0: 4e04 183f c590 433f 5b1f 7d3f 183c 9abe
000000d0: f086 583f e3b1 b3be 936a 803f 2111 963f
000000e0: 860e 773e 3a4b 0f3f 6ead 653f d819 923f
000000f0: 3842 903f c49a 1abf 61b7 0f3f 22fb afbe

fc2.weight f4 [64, 64]
0.9662485 0.16594559 0.2948463 -0.16165644 -0.28463164 -0.092392564 0.23885208 0.007830482
-0.10831152 -0.023852434 -0.60453385 0.18074024 0.057498462 0.23517066 0.34171927 -0.04723382
0.026015041 -0.59342784 -0.12734823 0.20417902 0.044496804 0.26329058 0.020224435 0.23290096
0.08087696 0.065481015 0.099183865 0.21751805 0.20692822 -0.22357218 -0.15033214 -0.020697054
0.3706066 0.2521563 0.15846322 -1.1958728 0.008725695 -0.18963623 0.24914221 -0.16242696
-0.016278405 -0.27305377 -0.2800079 -0.1413175 -0.04664842 0.042846214 0.08220761 -0.15063302
0.030562116 -0.12224273 -0.27084184 -0.3504492 0.6419 0.115270674 0.38083157 -0.04524062
-0.102063455 -0.0171966 0.054196093 -0.042905424 0.18525028 -0.09155515 -0.52151966 -0.0716451
0.8720889 -0.06260128 0.19994612 -0.23489305 -0.110814966 0.16917348 0.027243558 0.13177161
-0.2807829 -0.1287079 -0.8344562 0.03297711 0.13638213 0.30689144 -0.3163518 -0.0036577052
0.38838592 -0.06852365 -0.59096587 0.12113946 0.11067402 -0.16762637 0.4736569 -0.19654049
0.23601337 0.9359406 -0.024943855 0.36503464 -0.25081867 0.26888293 0.04187352 -0.15148447
-0.014747533 0.1341046 0.089285105 -0.3813308 -0.14121409 -0.57062095 0.1254696 0.045349047
-0.07197212 -2.6055899 -0.1282197 -0.113848686 0.2320599 0.09748285 0.32841924 0.017137103
0.068033256 -0.8329462 -0.39151025 0.23321617 -0.27996272 0.30618194 -0.24839516 -0.16541196
0.015645334 -0.012819628 0.060373556 -0.51360416 -0.23392582 0.047482293 0.12763767 0.0099154515
0.52393216 0.09015718 -0.90074104 0.18062262 0.029732773 -0.12412077 -0.28718555 -0.40124094
0.03755149 0.35668787 -0.52454543 -0.24854282 -0.06109591 0.33364394 0.13364184 0.08489417
0.30500525 -0.33522993 -0.58471686 0.2886695 -0.20423599 -0.1250646 0.22200339 -0.19979079
-0.02320456 0.6728612 0.34653002 0.42093107 0.15902881 0.015847335 -0.008158622 0.031978436
0.046705384 0.29636058 0.023455054 -0.1920564 -0.4539753 0.43344375 0.050994527 -0.6172418
0.14602521 -0.41113842 -0.33189636 -0.028298821 0.114007965 -0.4862166 0.33456954 0.022277916
-0.4012222 -0.48515514 -0.8704605 -0.000728222 -0.041576777 -0.044305213 -0.0058751716 0.19817035
-0.0024733257 0.08183889 0.15429802 -0.10943181 -0.024106175 0.064492136 -0.06026356 -0.09191134
0.5416317 -3.1121688 -1.4148728 -0.8237472 -0.672319 -0.31575328 -2.3233557 -3.4669638
-0.29265615 -0.19907248 0.081458606 -0.8056405 -0.87653756 0.36461747 -0.60705477 -0.5732827
0.1830957 0.021923246 -1.4479053 0.21107262 0.6852607 0.31481254 0.26821983 0.2279984
0.30286753 0.44315732 1.0038412 0.29833332 -5.883524 -0.19752516 -0.72608244 -0.8686627
-0.053177647 0.21192512 -3.6975415 -0.31182563 0.13161194 -0.4587477 0.49274713 0.463711
0.14203656 0.12398244 0.05843178 0.09267684 -0.9308301 -0.44579536 -0.023321941 1.110033
-1.3128936 -0.31412333 0.3564181 0.022533435 -0.12807596 0.9901055 0.4477155 0.12758955
-1.4639946 -4.2855954 0.6120432 0.1702203 0.34890863 -0.7815017 -0.04650883 -0.55461943
00000000: 105c 773f a4ed 293e 18f6 963e 4489 25be
00000010: 3dbb 91be 5038 bdbd a495 743e 6c4b 003c
00000020: 6ed2 ddbd 2e66 c3bc bbc2 1abf f813 393e
00000030: 8283 6b3d 94d0 703e d4f5 ae3e 4078 41bd
00000040: 7f1d d53c e3ea 17bf 9367 02be 4e14 513e
00000050: 4842 363d 06ce 863e b7ad a53c 977d 6e3e
00000060: d2a2 a53d e91a 863d e920 cb3d 0dbd 5e3e
00000070: fee4 533e 1bf0 64be abf0 19be de8c a9bc
00000080: 26c0 bd3e a11a 813e 2f44 223e 5c12 99bf
00000090: 38f6 0e3c 0030 42be 231f 7f3e 4153 26be
000000a0: 4a5a 85bc b4cd 8bbe 325d 8fbe 89b5 10be
000000b0: 6a12 3fbd 837f 2f3d 775c a83d 8b3f 1abe
000000c0: 675d fa3c 655a fabd c8ab 8abe 146e b3be
000000d0: 8f53 243f 0813 ec3d 5bfc c23e 3a4e 39bd
000000e0: a506 d1bd e2df 8cbc b9fc 5d3d 99bd 2fbd
000000f0: 40b2 3d3e 4481 bbbd 5082 05bf abba 92bd
00000100: 3841 5f3f 1a35 80bd adbe 4c3e ce87 70be
00000110: f5f2 e2bd d03b 2d3e e22d df3c 23ef 063e
00000120: c7c2 8fbe 01cc 03be ec9e 55bf 0213 073d
00000130: c2a7 0b3e e020 9d3e ddf8 a1be 1cb6 6fbb
00000140: 85da c63e 2156 8cbd 8a49 17bf f717 f83d
00000150: 10a9 e23d 3fa6 2bbe 2883 f23e e941 49be
00000160: 7dad 713e ce99 6f3f 0e57 ccbc d2e5 ba3e
00000170: 4e6b 80be 06ab 893e 9183 2b3d bf1e 1bbe
00000180: a39f 71bc b752 093e 1cdb b63d ca3d c3be
00000190: 6d9a 10be 3714 12bf 1a7b 003e ecbf 393d
000001a0: 1e66 93bd fcc1 26c0 064c 03be 8029 e9bd
000001b0: 1ca1 6d3e 17a5 c73d 9126 a83e 1c63 8c3c
000001c0: 0555 8b3d f63b 55bf 0874 c8be 38d0 6e3e
000001d0: 4657 8fbe e1c3 9c3e 4d5b 7ebe c161 29be
000001e0: a52a 803c 6b09 52bc 434a 773d 907b 03bf
000001f0: 408a 6fbe cb7c 423d 73b3 023e 6b74 223c
00000200: 6b20 063f 54a4 b83d f796 66bf 23f5 383e
00000210: 2592 f33c 0833 febd fc09 93be 746f cdbe
00000220: 97cf 193d cb9f b63e 9c48 06bf 0282 7ebe
00000230: b43f 7abd 61d3 aa3e 68d9 083e ffdc ad3d
00000240: a629 9c3e 42a3 abbe 01b0 15bf 7dcc 933e
00000250: 3d23 51be ef10 00be db54 633e f595 4cbe
00000260: 7d17 bebc a240 2c3f 626c b13e 4784 d73e
00000270: 73d8 223e 45d2 813c beab 05bc d2fb 023d
00000280: 254e 3f3d 93bc 973e d024 c03c 6faa 44be
00000290: 736f e8be 57ec dd3e a3df 503d 8f03 1ebf
000002a0: a287 153e bc80 d2be 52ee a9be eed2 e7bc
000002b0: 027d e93d 62f1 f8be b34c ab3e 2d80 b63c
000002c0: ff6c cdbe 4166 f8be 80d6 5ebf 27e6 3eba
000002d0: 694c 2abd 6279 35bd 8384 c0bb 2bed 4a3e
000002e0: 8517 22bb 269b a73d 4d00 1e3e c91d e0bd
000002f0: 507a c5bc 7414 843d ecd6 76bd 033c bcbd
00000300: 60a8 0a3f c62d 47c0 8d1a b5bf 19e1 52bf
00000310: 191d 2cbf 6aaa a1be dcb1 14c0 bce2 5dc0
00000320: 07d7 95be a8d9 4bbe c5d3 a63d 753e 4ebf
00000330: c464 60bf 24af ba3e f167 1bbf a8c2 12bf
00000340: 707d 3b3e 6198 b33c f654 b9bf 6c23 583e
00000350: 3f6d 2f3f 1c2f a13e 1c54 893e 6a78 693e
00000360: 7411 9b3e 84e5 e23e de7d 803f 25bf 983e
00000370: d445 bcc0 0944 4abe 8ae0 39bf ae60 5ebf
00000380: ced0 59bd e602 593e 85a4 6cc0 9ca7 9fbe
00000390: 48c5 063e fbe0 eabe 5a49 fc3e 876b ed3e
000003a0: 0872 113e 81ea fd3d 2a56 6f3d 5bcd bd3d
000003b0: e24a 6ebf 4a3f e4be a80d bfbc 9015 8e3f
000003c0: e60c a8bf c6d4 a0be 6f7c b63e 0a98 b83c
000003d0: 5826 03be 8e77 7d3f f73a e53e d6a6 023e
000003e0: 2d64 bbbf 9923 89c0 ddae 1c3f 3b4e 2e3e
000003f0: 27a4 b23e 7f10 48bf 0b80 3ebd 8afb 0dbf

fc2.bias f4 [64]
-0.75180644 -0.2291501 -0.24076258 -0.44942647 -0.15301332 -0.4353287 0.71285146 0.98584133
-0.11719642 -0.6992081 0.00096595584 -0.47496262 -0.7440005 -0.017247085 -0.26443765 0.019507483
0.6783855 0.6581968 -0.7935284 -0.77122 -0.14257823 -0.36467966 -0.08861066 -0.2957157
1.0498425 -0.145838 0.18601601 -0.30185708 -0.51868343 -0.8103372 -0.68771255 0.9492615
0.28301957 0.3626583 1.0433797 0.055881653 -0.021633215 0.19152865 -0.5501132 -0.029709965
0.0063427975 -0.3578022 -0.2217972 0.6652406 -0.43602476 -0.71954286 0.77458715 -0.025827387
-0.6719918 0.5689697 0.5316732 0.661804 -0.26416448 0.031186331 -0.57023174 0.39153984
-0.22956298 -0.003162864 -0.31030735 0.9781889 -0.038013566 -0.61401623 -0.17075303 -0.56248593
00000000: 6376 40bf 53a6 6abe 778a 76be 3a1b e6be
00000010: 86af 1cbe 67e3 debe 6f7d 363f 1960 7c3f
00000020: ad04 f0bd 4dff 32bf 3338 7d3a 4d2e f3be
00000030: d176 3ebf c249 8dbc 5f64 87be 28ce 9f3c
00000040: acaa 2d3f 967f 283f ad24 4bbf ad6e 45bf
00000050: 0700 12be 4bb7 babe 8179 b5bd 0c68 97be
00000060: 3d61 863f 8f56 15be fb7a 3e3e 038d 9abe
00000070: 70c8 04bf 4272 4fbf ee0d 30bf cd02 733f
00000080: f1e7 903e 59ae b93e 778d 853f 29e4 643d
00000090: 2438 b1bc 1620 443e 38d4 0cbf 5062 f3bc
000000a0: 3ed7 cf3b da31 b7be ce1e 63be 354d 2a3f
000000b0: a33e dfbe f633 38bf 584b 463f f593 d3bc
000000c0: a807 2cbf 00a8 113f bc1b 083f fd6b 293f
000000d0: 9140 87be 7a7a ff3c b5fa 11bf e977 c83e
000000e0: 8f12 6bbe 0d48 4fbb 9be0 9ebe 966a 7a3f
000000f0: 1db4 1bbd 2b30 1dbf e2d9 2ebe 14ff 0fbf

fc3.weight f4 [1, 64]
-0.32393187 -0.2818657 -0.0995544 -4.6832485 -0.07308033 -0.059872817 0.25135842 0.5448225
-0.1716614 -0.06204856 -0.33078304 -0.3254508 -0.10901973 -0.36964524 -3.421373 0.11571584
0.37250194 0.1540031 -0.20040016 -0.21981119 -0.019588137 -4.04931 -0.3000448 -1.2653503
0.47426704 0.095182575 0.17207278 -0.16223378 -0.11632879 -0.3407174 -0.6511605 0.42781323
0.10538711 0.115763865 0.37384087 -0.33314416 0.10245407 -3.069744 0.12321297 -0.36829874
-0.3472687 -0.6130484 -0.10009681 0.44600114 -0.034495667 -0.61127436 0.32163656 0.10197295
-0.6641693 0.3421764 0.09689917 0.3818365 -4.324547 -0.30195698 -0.20273736 0.32810298
-0.19846833 -3.8443618 -0.93815726 0.47559524 0.1364076 -0.26772663 -0.054614127 0.66460365
00000000: 66da a5be b350 90be 2de3 cbbd 2cdd 95c0
00000010: 24ab 95bd 333d 75bd 0db2 803e 7d79 0b3f
00000020: 02c8 2fbe a126 7ebd 655c a9be 7da1 a6be
00000030: bc45 dfbd 2442 bdbe c6f7 5ac0 6dfc ec3d
00000040: 93b8 be3e fdb2 1d3e b335 4dbe 2f16 61be
00000050: 4d77 a0bc f393 81c0 799f 99be 00f7 a1bf
00000060: 21d3 f23e 15ef c23d d933 303e 9d20 26be
00000070: ca3d eebd 8372 aebe 74b2 26bf 560a db3e
00000080: 32d5 d73d 9b15 ed3d 1268 bf3e df91 aabe
00000090: 70d3 d13d b076 44c0 1557 fc3d a791 bcbe
000000a0: 34cd b1be bdf0 1cbf 8eff ccbd 435a e43e
000000b0: 544b 0dbd 7a7c 1cbf 8cad a43e 32d7 d03d
000000c0: 0007 2abf bf31 af3e 1273 c63d 1380 c33e
000000d0: b062 8ac0 1b9a 9abe 629a 4fbe 1dfd a73e
000000e0: 483b 4bbe 060a 76c0 132b 70bf 3881 f33e
000000f0: 6fae 0b3e 7713 89be 10b3 5fbd 7723 2a3f
