puppersim/dc_saves/aac_mega_puppy_2/critic2_2.pt (torch, 26903 bytes, 5 tensors)

fc1.weight f4 [64, 31]
0	0xbed6c00c	-0.41943395
1	0x3f840517	1.0314053
2	0x3e36612a	0.17810503
3	0xbd842f4e	-0.06454335
4	0x3ebe35cb	0.37150416
5	0x3e376f62	0.17913583
6	0x3eadc856	0.33941907
7	0xbf875bcf	-1.0574893
8	0xbf435722	-0.7630483
9	0xbe0a23e9	-0.13490261
10	0xbd6e9bb9	-0.058253977
11	0xbef0380b	-0.46917757
12	0x3e7502ba	0.23926821
13	0xbdc480ee	-0.09594904
14	0xbf7e6f62	-0.99388707
15	0xbe9be54a	-0.3044837
16	0x3dd695a8	0.104777634
17	0x3d16bd56	0.03680166
18	0xbc10567f	-0.008809685
19	0x3e740d08	0.23833096
20	0xbb3b6a7e	-0.002859741
21	0xbe8425db	-0.2581013
22	0x3db9a3bf	0.09064435
23	0xbea6d86f	-0.32587
24	0x3d36ec2e	0.044658832
25	0xbe3c9daf	-0.18419527
26	0x3e90ef6c	0.28307664
27	0xbe00d1e3	-0.12580065
28	0x3e1feb0b	0.15617006
29	0xbd968c35	-0.07350961
30	0x3bc39457	0.005968611
31	0xbed5cd42	-0.41758162
32	0xbec38ec3	-0.38194856
33	0xbd0553df	-0.03255069
34	0x3dc85974	0.09782687
35	0x3f0b3ab2	0.54386437
36	0xbdce54d1	-0.10074771
37	0xbe9738fd	-0.29535666
38	0x3e7bc4e0	0.2458682
39	0xbe89c690	-0.26909304
40	0xbbb4c903	-0.0055171265
41	0xbde67b12	-0.112539425
42	0x3e7061c8	0.234748
43	0x3dc5eca7	0.096642785
44	0xbdfe9626	-0.12430982
45	0x3e33e5fa	0.17568198
46	0xbdc9d5ea	-0.09855254
47	0x3eed2a07	0.46321127
48	0x3e2d3228	0.16913664
49	0x3e5d7fd9	0.21630801
50	0x3d52bf78	0.05145213
51	0x3eacc081	0.3374062
52	0xbe103061	-0.14080955
53	0xbe27ad4b	-0.163747
54	0x3e612ef1	0.21990563
55	0xbe67817f	-0.22607993
56	0xbe543b57	-0.20725761
57	0xbd99e6f9	-0.07514758
58	0x3dc2127d	0.094761826
59	0xbd3d724a	-0.046251573
60	0xbe629daa	-0.22130457
61	0x3d060451	0.03271896
62	0x3dc500c5	0.096192874
63	0x3e03fe42	0.1288996
64	0x3e247b14	0.16062576
65	0x3d5f6464	0.0545391
66	0x3cb99221	0.022652688
67	0x3e71c123	0.23608832
68	0xbd88cb0f	-0.06679355
69	0x3dfcd778	0.12345785
70	0x3df8be2b	0.12145647
71	0xbe38f2ba	-0.18061343
72	0xbd350d06	-0.044201873
73	0xbd275fca	-0.040862836
74	0xbe5aa627	-0.21352445
75	0xbdebf01d	-0.11520407
76	0xbd47e1fd	-0.048799504
77	0x3bb02939	0.005376008
78	0xbc7e6188	-0.015526183
79	0x3c8b992f	0.017040817
80	0xbb6de020	-0.003629692
81	0x3ba3ce20	0.0049989372
82	0x3cbd2cb6	0.023092609
83	0x3ac7193e	0.0015190018
84	0x3be09aa2	0.006854371
85	0xbc0270bd	-0.007961449
86	0x3cb23f3e	0.021758672
87	0xbb898809	-0.004197125
88	0x3dbb3191	0.091403134
89	0x3d13c608	0.03607753
90	0xbd13628f	-0.035982665
91	0x3e171b74	0.14756566
92	0x3aaa723f	0.0013004019
93	0xbd8f258f	-0.069895856
94	0x3c23b176	0.00999104
95	0x3ca43d56	0.020048779
96	0x3d0f852a	0.035039105
97	0xbb17bd30	-0.0023153536
98	0xbdfdde04	-0.12395862
99	0xbcd2a1ea	-0.025711972
100	0x3e076333	0.13221435
101	0x3e7cebc4	0.24699312
102	0x3e44d1d3	0.19220667
103	0xbd930a3a	-0.07179685
104	0x3e5722a8	0.21009314
105	0x3dfb5177	0.122713976
106	0xbe123d62	-0.14281228
107	0x3e7727fc	0.24136347
108	0xbd5ef551	-0.05443317
109	0xbce31738	-0.027721033
110	0x3cb62663	0.022235101
111	0xbc733345	-0.014843767
112	0x3d30af17	0.04313573
113	0x3def3a60	0.11681056
114	0xbbb74792	-0.0055932486
115	0xbdbbf721	-0.091779955
116	0x3c4435c3	0.011975708
117	0x3d0c089c	0.034187898
118	0x3d474e9f	0.048658963
119	0x3db646c3	0.089002155
120	0xbd75e713	-0.060034823
121	0x3c09deea	0.008414963
122	0x3ceafc6a	0.028684814
123	0x3d3320a5	0.043732304
124	0xbdc4fd7f	-0.09618663
125	0x3d8483ac	0.06470427
126	0x3d5535e5	0.05205335
127	0xbe295774	-0.16537267
128	0xbead4e28	-0.3384869
129	0x3df21807	0.11820989
130	0xbd57f1d9	-0.05272088
131	0x3f4572ac	0.771281
132	0xbdcf4fd8	-0.10122651
133	0xbaf45f77	-0.0018644173
134	0xbf0519c9	-0.5199247
135	0xbe5eec39	-0.217698
136	0xbdcbe283	-0.09955313
137	0x3eb02c36	0.3440873
138	0xbdcc3368	-0.099707425
139	0xbe6f18b2	-0.23349264
140	0x3e3317a4	0.17489487
141	0x3e9e8d99	0.30967405
142	0x3d785716	0.060629927
143	0x3ea84664	0.32866204
144	0x3d06cb44	0.032908693
145	0xbe7424e2	-0.23842195
146	0xbe257aac	-0.16160077
147	0x3e83122b	0.255998
148	0x3dde3f57	0.10851925
149	0x3e053590	0.13008714
150	0xbd77093e	-0.06031155
151	0xbc97a78d	-0.018512512
152	0x3e5dd4c2	0.21663192
153	0xbd615b3c	-0.05501865
154	0xbe97a37c	-0.29616916
155	0xbec836a9	-0.39104202
156	0xbec11ad5	-0.37715784
157	0x3dea853b	0.11451193
158	0xbe70c7a3	-0.23513655
159	0x3f34290e	0.70375144
160	0xbdbc0bd1	-0.09181941
161	0x3e3f3ffd	0.18676753
162	0xbdc02314	-0.093816906
163	0x3d5b0b19	0.05347738
164	0xbc01f8b0	-0.007932827
165	0x3dbb0a73	0.091328524
166	0x3abc1f43	0.0014352578
167	0x3e228550	0.15871167
168	0xbe1bb0d7	-0.15204178
169	0xbededca6	-0.43527716
170	0xbd899197	-0.06717222
171	0xbf000316	-0.5000471
172	0x3cc86ada	0.024465013
173	0xbd749a87	-0.05971768
174	0xbd7b7b53	-0.061396908
175	0xbdaf66f2	-0.08564557
176	0x3f1519b8	0.5824237
177	0x3cfda4d4	0.030962385
178	0x3d25bb9a	0.040462114
179	0xbebd288f	-0.36945006
180	0xbbd636f2	-0.0065373117
181	0x3d2a8439	0.041630004
182	0xbd9fdfd6	-0.07806365
183	0xbd143d4e	-0.036191277
184	0xbe201dca	-0.15636364
185	0x3e170a37	0.1474999
186	0xba743d9a	-0.00093170407
187	0xbe2c4808	-0.16824353
188	0x3e8832d3	0.26601276
189	0x3ef3c350	0.4760995
190	0xbe4c009c	-0.19922107
191	0x3e115451	0.1419232
192	0x3eefc7c2	0.4683209
193	0x3d6871fb	0.056749325
194	0x3e71fb6e	0.23631069
195	0x3e7a139a	0.2442154
196	0x3d9645fb	0.073375665
197	0x3e36ab99	0.17838897
198	0xbdfd8b05	-0.123800315
199	0x3f0f8761	0.56065947
200	0x3d22842e	0.039676838
201	0xbba9bce4	-0.005179988
202	0xbb88ce26	-0.0041749654
203	0x3bc04786	0.0058679013
204	0x3b65c633	0.0035060763
205	0x3b8a59fc	0.0042221528
206	0x3bdddca0	0.0067706853
207	0x3bdf800f	0.0068206857
208	0x3b0651ff	0.002049565
209	0xbb69b2c4	-0.003565953
210	0xbb1a27b4	-0.00235222
211	0xbc181863	-0.009283158
212	0xbac6f2ef	-0.0015178601
213	0xbabb1eff	-0.0014276205
214	0xbb0fe5f0	-0.0021957122
215	0x3cb945b1	0.02261624
216	0xbb33221e	-0.0027333568
217	0x3b55977a	0.0032591508
218	0x3e2d617d	0.1693172
219	0x3d2f688f	0.042824324
220	0xba373ebf	-0.0006990246
221	0xbea57306	-0.32314318
222	0x3e3f91c5	0.1870795
223	0xbd034c8a	-0.032055415
224	0xbf0442b4	-0.5166428
225	0xbe4c5abc	-0.19956487
226	0xba9ab43d	-0.0011802983
227	0x3dec57bc	0.115401715
228	0x3db30758	0.08741635
229	0x3cf7faaa	0.030270893
230	0x3df4fd74	0.11962405
231	0x3dae7aec	0.08519539
232	0x3c9e8291	0.019349368
233	0xbbdd0966	-0.006745505
234	0xbd1b1f29	-0.037871514
235	0xbb9e7ffc	-0.0048370343
236	0x3d067d4b	0.032834332
237	0xbcc95ca2	-0.024580304
238	0xbcde8717	-0.027164025
239	0xbd6ba8ad	-0.05753391
240	0x3d54f47d	0.051990975
241	0x3df81284	0.121129066
242	0xbdb8cadf	-0.090230696
243	0xbd0c4cc1	-0.034252886
244	0x3da3f81b	0.08006307
245	0xbdb8be5c	-0.09020683
246	0xbdd1492c	-0.102190346
247	0xbdeeb823	-0.11656215
248	0xbee89c5c	-0.45431793
249	0x3e008669	0.12551273
250	0x3d5d1000	0.053970337
251	0xbd3bac82	-0.045818813
252	0x3ee8bcb8	0.4545648
253	0xbdf3bc48	-0.11901146
254	0xbeb7ceba	-0.35899907
255	0x3f09b7cd	0.5379608

fc1.bias f4 [64]
0	0xbe1d4991	-0.15360095
1	0x3e18413c	0.14868635
2	0xbe7ae0be	-0.24499795
3	0x3eb43dc9	0.35203388
4	0xbd24dfba	-0.040252425
5	0x3dd0426b	0.10168918
6	0x3e411c4f	0.18858455
7	0xbddb4d39	-0.107080884
8	0x3ea4ecc4	0.32211888
9	0x3f1c2240	0.6098976
10	0xbe41ce40	-0.18926334
11	0x3f294c81	0.6613236
12	0x3ec59876	0.3859288
13	0x3ed217ce	0.41033787
14	0x3e5c9a5c	0.21543258
15	0x3e82036a	0.2539323
16	0x3e91755e	0.28409857
17	0xbeb020f9	-0.34400156
18	0x3ed71f11	0.4201589
19	0x3be7716f	0.007063083
20	0x3e55a136	0.20862278
21	0xbe207ecf	-0.15673374
22	0x3e3912f5	0.18073638
23	0x3f0332df	0.512495
24	0x3e130794	0.1435836
25	0x3e8cc2ec	0.27492464
26	0x3e2bce8d	0.16778012
27	0x3d4bfea4	0.04980339
28	0x3eba86a3	0.36430845
29	0x3ea6efcc	0.32604825
30	0x3ea6925a	0.32533532
31	0x3edf1301	0.43569186
32	0x3f1e1e72	0.61765206
33	0x3f260e01	0.6486512
34	0x3f0a79de	0.54092205
35	0x3e8b52d2	0.27211624
36	0x3f31ed16	0.6950239
37	0x3f45b6f0	0.77232265
38	0x3e9c7243	0.30555925
39	0xbd137999	-0.036004636
40	0x3ecc5842	0.39911085
41	0x3dc24643	0.094860576
42	0x3e924d10	0.2857442
43	0xbe6648c7	-0.224887
44	0x3ec04afb	0.37557206
45	0x3e7b9712	0.24569348
46	0x3e7a1cae	0.24425003
47	0x3efafa7e	0.49019235
48	0x3ee2b822	0.44281107
49	0xbed345a8	-0.4126408
50	0x3ea9331d	0.3304681
51	0x3d2d0732	0.04224319
52	0xbc9fbfd0	-0.019500643
53	0x3e6e554e	0.23274729
54	0x3ebbd467	0.36685488
55	0x3ec7369d	0.38908854
56	0x3e2aab3d	0.16666885
57	0x3d40e15c	0.04708992
58	0xbe824340	-0.25441933
59	0xbcf2c880	-0.029636621
60	0xbf46432b	-0.7744624
61	0x3f4178df	0.7557506
62	0x3e9fa453	0.31180057
63	0x3da5e48a	0.08100231

fc2.weight f4 [64, 64]
0	0xbca0a22c	-0.01960858
1	0xbf9a09ef	-1.2034281
2	0x3e5380c9	0.20654596
3	0x3d393577	0.045217004
4	0xbfbd072f	-1.4767817
5	0xbf55eb40	-0.8356209
6	0x3cb948ed	0.022617782
7	0xbe7e5cd0	-0.24840093
8	0xbf1cfd01	-0.61323553
9	0xbe25b1c2	-0.1618109
10	0xbe1688c4	-0.1470061
11	0x3d8b2c51	0.06795562
12	0xbfba671e	-1.4562719
13	0xbeddf42e	-0.43350357
14	0x3e8763a1	0.26443198
15	0xbef92dfa	-0.4866789
16	0xbfac6f4f	-1.3471469
17	0xbeae9173	-0.34095344
18	0x3ce0168f	0.027354507
19	0xbfb8d819	-1.4440948
20	0xbf095ede	-0.5366038
21	0xbeb3d281	-0.3512154
22	0x3ea639cc	0.3246597
23	0xbd889704	-0.06669429
24	0xbedde0e5	-0.43335643
25	0xbecf80d2	-0.4052797
26	0xbf723358	-0.94609594
27	0xbe84b394	-0.25918257
28	0xbf844545	-1.0333639
29	0x3dfc31d7	0.12314194
30	0xbf953069	-1.1655399
31	0xbe3e88b7	-0.1860684
32	0xbb80abb2	-0.0039267177
33	0x3e923321	0.28554633
34	0x3ddd98be	0.10820149
35	0xbe326c58	-0.17424142
36	0x3e906208	0.28199792
37	0x3e03c20c	0.12866992
38	0x3e5fcf47	0.21856414
39	0xbe977c7d	-0.29587165
40	0xbdb29421	-0.087196596
41	0x3da12e60	0.078701735
42	0x3e854449	0.2602866
43	0xbeef797e	-0.4677238
44	0xbf238c81	-0.63886267
45	0xbf5a08e1	-0.851698
46	0x3e09a7a2	0.13442853
47	0xbeaf6b6c	-0.34261644
48	0xbe2ffe70	-0.17186904
49	0x3d8bfedb	0.06835719
50	0xbe45f1fd	-0.19330592
51	0xb834b59b	-4.3084478e-05
52	0x3e9b852b	0.30375037
53	0xbfa4c06d	-1.2871224
54	0xbf718b7b	-0.94353455
55	0xbe309ebf	-0.17248057
56	0xbe02128f	-0.12702392
57	0xbfd4b422	-1.6617472
58	0xbdf34492	-0.11878313
59	0x3f1b431c	0.60649276
60	0xbea1791d	-0.31537715
61	0xbbe02bc7	-0.006841156
62	0x3dc91a03	0.098194145
63	0xbf04f02b	-0.5192897
64	0xbe9626d9	-0.29326513
65	0xbea956a7	-0.33073923
66	0xbe648275	-0.2231539
67	0x3cb2aa9b	0.021809867
68	0xbf547420	-0.8298969
69	0x3c9ff3cc	0.019525431
70	0xbf0f2356	-0.55913293
71	0xbf4aa39e	-0.7915591
72	0x3ecc24f2	0.39871937
73	0x3e39e458	0.18153512
74	0xbe6c37d7	-0.23068176
75	0x3e27b472	0.16377428
76	0xbf85e34a	-1.0459988
77	0x3da782ac	0.081792206
78	0xbe048d04	-0.12944418
79	0x3edfc690	0.4370618
80	0xbf978928	-1.1838732
81	0xbf2b8486	-0.6699909
82	0xbf81c2d0	-1.0137577
83	0xbd06d095	-0.032913763
84	0xbf1d2f04	-0.61399865
85	0xbc08f41e	-0.008358983
86	0xbda79b47	-0.08183914
87	0x3e8cc789	0.27495983
88	0x3d19cfb6	0.037551604
89	0xbe57a957	-0.21060692
90	0xbfb4cf47	-1.4125756
91	0xbeaea6f6	-0.34111756
92	0xbf8aefbb	-1.085441
93	0xbf3f3419	-0.7468887
94	0x3ccfa42b	0.025346836
95	0xbf2ee69d	-0.6832064
96	0x3e587e59	0.21141948
97	0x3bca225f	0.006168648
98	0x3e1c9ba0	0.15293741
99	0xbe875913	-0.26435146
100	0x3da86b99	0.082236476
101	0xbdafdee2	-0.085874334
102	0xbf2755ad	-0.65365106
103	0xbe45b9d7	-0.19309174
104	0x3c0ae7e8	0.008478142
105	0xbf122dbd	-0.5710104
106	0x3e6f19ba	0.23349658
107	0xbf1a39e5	-0.6024459
108	0x3c2515af	0.010075971
109	0xbf358898	-0.7091155
110	0xbce683d0	-0.028139025
111	0xbf0add31	-0.5424376
112	0x3e08c617	0.13356815
113	0xbe0c9dc7	-0.13732062
114	0x3e68e4dd	0.22743554
115	0xbe4bc148	-0.1989795
116	0xbf27e017	-0.6557631
117	0xbef6de10	-0.48216295
118	0xbf81c08d	-1.0136887
119	0x3e121168	0.14264452
120	0xbf83b296	-1.0288875
121	0xbf9c2d84	-1.220139
122	0xbfa8935f	-1.3169974
123	0xbec0a8e2	-0.37628847
124	0xbef0a3c7	-0.46999952
125	0xbecb87ba	-0.3975199
126	0xbe86687a	-0.26251584
127	0xbdf2c5e5	-0.11854152
128	0x3f6346b6	0.8877977
129	0xbd8112d5	-0.0630242
130	0x3ec90832	0.39264065
131	0x3e6a0a63	0.22855525
132	0x3e5e814e	0.21729013
133	0x3e2ec17b	0.17065994
134	0x3e5eb512	0.2174876
135	0x3e4a6085	0.19763382
136	0xbe836d89	-0.25669506
137	0x3dfa42b0	0.12219751
138	0x3e30234f	0.17200969
139	0xbce2dd62	-0.027693454
140	0x3da0c17b	0.078494035
141	0x3dc56e34	0.0964016
142	0x3dc2ac78	0.09505552
143	0x3d8ab673	0.06773081
144	0x3e2aec64	0.16691738
145	0x3cd2f1da	0.02575009
146	0x3c82a07c	0.015945666
147	0xbdfad7a4	-0.122481614
148	0x3e8af57e	0.2714042
149	0x3e90bd72	0.28269535
150	0x3bcbd6aa	0.0062206583
151	0x3df5acec	0.11995873
152	0x3c252c45	0.010081355
153	0x3d291e9f	0.04128897
154	0xbc9c27ed	-0.019062007
155	0x3da40e5d	0.08010552
156	0x3dfe713d	0.12423942
157	0x3d9cfe64	0.07665709
158	0xbdeb5bf7	-0.1149215
159	0xbe82bbde	-0.25533956
160	0xbca514df	-0.020151554
161	0xbee23325	-0.44179645
162	0xbf4582f4	-0.77152944
163	0x3d42650c	0.047459647
164	0xbf92e2fe	-1.1475523
165	0xbf1bcdaa	-0.60860693
166	0x3e527d8b	0.20555703
167	0x3e4e41b1	0.20142247
168	0x3e84b66a	0.2592042
169	0x3d1adf66	0.037810706
170	0xbea024ce	-0.3127808
171	0x3d4432e9	0.047900114
172	0x3ec55ce0	0.3854742
173	0x3e016c7a	0.12639037
174	0xbdb25360	-0.08707309
175	0xbdf66cdd	-0.12032483
176	0xbf054517	-0.5205855
177	0xbca53da8	-0.020171002
178	0xbd0abd18	-0.03387174
179	0xbee50080	-0.44726944
180	0xbeb2c206	-0.34913653
181	0x3b95f3df	0.004576191
182	0x3d7750b2	0.06037969
183	0x3d197a7e	0.037470333
184	0x3e350c5b	0.17680494
185	0x3c20b1d3	0.009808022
186	0xbcdf2c2e	-0.027242746
187	0xbe8a3108	-0.26990533
188	0xbc5d2933	-0.013498592
189	0x3ec8c6cb	0.39214167
190	0xbd17b52d	-0.037038017
191	0xbdc86331	-0.09784544
192	0x3c8e89ba	0.017399658
193	0xbf8f5252	-1.1196997
194	0x3bf1e8f7	0.007382508
195	0xbf31ccb0	-0.69452953
196	0xbed4491b	-0.41462025
197	0xbf8dbade	-1.1072652
198	0xbef5662b	-0.4792951
199	0x3d1907c5	0.037360925
200	0xbf3fe639	-0.74960667
201	0xbe0c1df9	-0.13683309
202	0x3e5a004c	0.21289176
203	0xbe401aa1	-0.18760158
204	0xbe473d6b	-0.19457023
205	0xbda55352	-0.08072533
206	0xbdd44fa3	-0.10366752
207	0xbea216c3	-0.3165799
208	0xbfbd692a	-1.4797719
209	0xbe8445d7	-0.25834534
210	0x3e63cc61	0.22245933
211	0xbf8051a6	-1.0024917
212	0xbe996524	-0.29959977
213	0xbf717688	-0.9432149
214	0x3eefe069	0.468509
215	0xbecaca25	-0.3960735
216	0xbf4ef1fc	-0.8083799
217	0xbbb5554d	-0.0055338503
218	0xbf798670	-0.9747076
219	0x3de77543	0.11301663
220	0xbf1ecf9f	-0.62035555
221	0xbdc06b61	-0.09395481
222	0xbed2c5f6	-0.41166657
223	0x3d93ced0	0.07217181
224	0x3e42da2d	0.1902854
225	0x3d2d26eb	0.042273443
226	0xbf185f26	-0.59520185
227	0x3eb14317	0.34621498
228	0x3dfb2d0d	0.12264452
229	0x3e211807	0.15731822
230	0xbfc4668d	-1.5343796
231	0xbef5881a	-0.479554
232	0x3da9d095	0.08291737
233	0xbe18b7bf	-0.14913844
234	0x3e6367d1	0.22207572
235	0x3c821104	0.015877254
236	0xbf9fc675	-1.2482439
237	0xbd33e4ac	-0.04391925
238	0x3cd7a9c8	0.026326075
239	0x3dd4f75b	0.10398742
240	0x3e56c638	0.20974052
241	0x3e4d17c1	0.20028593
242	0xbe3f717a	-0.18695632
243	0x3f100d6a	0.5627047
244	0xbef96ace	-0.48714298
245	0xbeaa1da4	-0.3322574
246	0xbf0ed4c7	-0.5579342
247	0xbf1047c1	-0.5635949
248	0xbdd642c2	-0.10461952
249	0xbf948e2f	-1.1605891
250	0xbc89873a	-0.016788114
251	0xbcd19f0a	-0.025588531
252	0xbe047281	-0.12934305
253	0xbe8a718e	-0.2703976
254	0x3d6f5823	0.058433663
255	0xbeb9ae39	-0.36265734

fc2.bias f4 [64]
0	0x3b90671c	0.004406823
1	0x3e4a0d38	0.19731605
2	0x3e14e6fb	0.14541237
3	0x3b9d1d5d	0.00479476
4	0xbeb6bbea	-0.35690242
5	0xbe34cc5c	-0.17656082
6	0xbd857afb	-0.06517597
7	0x3e933ada	0.28755838
8	0x3ed76d18	0.4207542
9	0x3e24b5e2	0.16085008
10	0xbd0b7e5e	-0.03405606
11	0xbe263f6f	-0.16235135
12	0xbd69d7d8	-0.05709061
13	0xbd9ff7b0	-0.078109145
14	0x3d60bc4f	0.054867085
15	0x3dbb428e	0.09143554
16	0xbe412bef	-0.18864416
17	0xbdb73f6c	-0.08947644
18	0x3f2994da	0.66242754
19	0xbd1bc3c6	-0.0380285
20	0xbe495a4e	-0.19663355
21	0x3d00a389	0.03140596
22	0x3c618088	0.013763554
23	0x3e4b8363	0.19874339
24	0x3e82767e	0.25481027
25	0xbedf333d	-0.4359378
26	0x3f06eebc	0.5270803
27	0xbe09b67d	-0.1344852
28	0xbe2d6159	-0.16931666
29	0x3edc55ad	0.43034115
30	0xbed5bb20	-0.41744328
31	0x3ec6633a	0.3874758
32	0x3db09be7	0.08623486
33	0x3ee0f432	0.43936306
34	0x3e74b2b6	0.23896298
35	0x3b8912a9	0.0041831327
36	0xbd89def4	-0.06731978
37	0x3d8444d3	0.0645844
38	0x3e33225a	0.17493573
39	0x3e3d88d5	0.18509229
40	0xbe8c1ba6	-0.27364844
41	0xbe5416f2	-0.20711878
42	0x3e6bca9e	0.23026511
43	0x3e8a7944	0.27045643
44	0x3e0415ae	0.12898895
45	0x3ec08a32	0.37605435
46	0x3d2d68b7	0.042336192
47	0xbe52ce16	-0.20586428
48	0x3e2ca393	0.16859274
49	0xbe0b1f70	-0.13586211
50	0xbdc33c91	-0.095330365
51	0x3ec70b6e	0.38875908
52	0x3e062792	0.13101032
53	0xbe00f924	-0.1259504
54	0xbde6b023	-0.11264064
55	0x3dc590e6	0.09646778
56	0x3e150c13	0.14555387
57	0xbe95395f	-0.29145333
58	0xbdb94c1c	-0.0904772
59	0x3dcd3342	0.10019542
60	0x3f1f0d99	0.62130123
61	0xbe1974f9	-0.14986028
62	0x3ed18e9b	0.40929112
63	0xbe672aa0	-0.22574854

fc3.weight f4 [1, 64]
0	0xbfd89eed	-1.69235
1	0xbf2d7c13	-0.6776745
2	0xbe50b2a1	-0.20380642
3	0xbfb8be89	-1.4433147
4	0xbe014465	-0.12623747
5	0xbddce0f1	-0.10785092
6	0xbe8eb708	-0.27874017
7	0x3db1da7e	0.08684252
8	0x3da36267	0.07977753
9	0xbe89837a	-0.2685812
10	0xbea62ff5	-0.32458463
11	0xbe7ca8e7	-0.24673806
12	0x3de6d60b	0.11271294
13	0xbf3fe932	-0.749652
14	0xbd6f02be	-0.058352225
15	0xbf1c8603	-0.61141986
16	0x3ed8e7b8	0.42364287
17	0xbc8b425e	-0.01699942
18	0x3e3fc4c6	0.18727407
19	0xbe09ad06	-0.1344491
20	0xbc354554	-0.011063892
21	0xbe370805	-0.17874153
22	0xbdc8a6e7	-0.09797459
23	0x3d1a48c8	0.037667066
24	0xbecaa7a8	-0.39581037
25	0xbdafc76e	-0.0858296
26	0x3deb020f	0.11475002
27	0x3d7462fc	0.05966471
28	0xbda84dea	-0.08217986
29	0x3cdb62e0	0.026780546
30	0xbe42b2ec	-0.19013566
31	0x3d53c599	0.051702116
32	0xbd665286	-0.056231044
33	0x3e00d00f	0.12579368
34	0x3de5f8b9	0.11229081
35	0xbe3b459d	-0.18288274
36	0xbde6267b	-0.11237808
37	0xbc772329	-0.015084066
38	0xbe2b0748	-0.16701996
39	0xbd06675b	-0.03281341
40	0x3c28afcb	0.010295819
41	0xbdf73e65	-0.12072448
42	0xbfa5350d	-1.2906815
43	0xbf8fbfab	-1.1230367
44	0xbb2b3281	-0.0026122632
45	0x3d349bbb	0.04409383
46	0x3d20f43f	0.03929543
47	0x3c1a769b	0.009427692
48	0xbce78e50	-0.028266102
49	0xbd2e9df1	-0.042631093
50	0xbd6cbe2a	-0.057798542
51	0x3e268944	0.162633
52	0xbf960cce	-1.1722658
53	0xbd143946	-0.036187433
54	0xbd7b721e	-0.061388128
55	0xbb3a6960	-0.0028444156
56	0xbf89c02a	-1.0761769
57	0x3d1feaed	0.039042402
58	0x3d4d9190	0.050187647
59	0x3d9bb492	0.076028004
60	0x3df1a244	0.11798528
61	0xbd8631dc	-0.06552479
62	0x3ca4e812	0.020130191
63	0x3c50fe9d	0.012756017
