puppersim/dc_saves/aac_mega_puppy_2/critic1_13.pt (torch, 26903 bytes, 5 tensors)

fc1.weight f4 [64, 31]
0	0x3df69ddb	0.12041827
1	0xbe81b773	-0.25335273
2	0x3e0f7fa1	0.1401353
3	0x3de1dd55	0.11028544
4	0xbea4d96e	-0.32197136
5	0x3e135580	0.14388084
6	0xbe3fbac9	-0.18723597
7	0x3b388d44	0.0028160373
8	0x3d1ec7d3	0.038764786
9	0x3cd3bec0	0.025847793
10	0xbeda1b51	-0.42598966
11	0xbd882d74	-0.066492945
12	0xbe25ca6a	-0.16190496
13	0x3e533e31	0.20629193
14	0x3d0ed695	0.03487261
15	0xbb1d2cc8	-0.002398299
16	0x3d8ac900	0.06776619
17	0x3d154a9f	0.036448117
18	0xbba429cd	-0.005009866
19	0xbc62a1bf	-0.013832509
20	0xbbded09a	-0.0067997696
21	0x3da5a1a3	0.080874704
22	0x3d370044	0.044677988
23	0xbcb5caa8	-0.02219136
24	0xbd720d87	-0.059094932
25	0x3d7288d6	0.05921253
26	0x3d6bab73	0.057536554
27	0x3c871cc3	0.016493207
28	0xbd3c198b	-0.045922797
29	0x3d890e4f	0.06692182
30	0xbcd47715	-0.025935689
31	0xbe94b214	-0.29042113
32	0x3c9ddf97	0.019271655
33	0x3d944c17	0.072410755
34	0xbcf5f33a	-0.030023206
35	0x3f9ae407	1.2100838
36	0xbe17279a	-0.147612
37	0xbd1d8896	-0.038460337
38	0x3e5e0c28	0.21684325
39	0x3e76867c	0.24074739
40	0xbd23affd	-0.039962757
41	0xbebf3c7b	-0.3735083
42	0x3e2ce592	0.16884449
43	0x3e213e21	0.15746357
44	0xbf0825a2	-0.53182423
45	0xbdb1dbfb	-0.08684536
46	0xbe41a61f	-0.18911026
47	0x3e6effb4	0.2333973
48	0xbe9315e5	-0.28727642
49	0x3dd602b1	0.10449732
50	0xbdd291e0	-0.1028173
51	0x3e28531a	0.1643795
52	0xbde16806	-0.11006169
53	0xbf3b6bec	-0.7321155
54	0x3d68bc69	0.056820307
55	0x3e127e2f	0.14305948
56	0x3d8e4a4e	0.06947766
57	0x3d280ef2	0.041029878
58	0x3de66379	0.11249442
59	0xbec39dcd	-0.3820633
60	0x3cfbb5db	0.030726364
61	0x3ca83b2e	0.020536032
62	0x3c75ad1d	0.014994887
63	0xbe7bab93	-0.24577169
64	0x3e0b425c	0.13599533
65	0xbe4203b6	-0.18946728
66	0xbeb30774	-0.34966624
67	0xbd9f6bb2	-0.07784213
68	0xbea25f33	-0.31713256
69	0x3dce0fe9	0.10061628
70	0x3e2cea15	0.1688617
71	0x3f26d570	0.6516943
72	0xbe571abf	-0.21006297
73	0xbd5162eb	-0.051119726
74	0x3ed3d5ca	0.41374046
75	0xbbf61a6a	-0.007510473
76	0x3e28bac9	0.16477503
77	0x3c8e3bfe	0.01736259
78	0xbb7105a5	-0.0036777046
79	0xbc2dfeee	-0.010619862
80	0xbd378275	-0.044802148
81	0xbd2505c9	-0.04028872
82	0xbc749ce1	-0.014929981
83	0x3c1b2c81	0.00947106
84	0xbc1b602e	-0.00948338
85	0xbce09f8e	-0.027419832
86	0xbd670c08	-0.05640796
87	0x3b9df739	0.004820731
88	0xbcc040c5	-0.023468385
89	0x3ca2cd30	0.019873232
90	0xbcc11c61	-0.023573102
91	0xbd4c4245	-0.049867887
92	0x3b6438f2	0.003482398
93	0xbdc1f11b	-0.09469815
94	0x3dd47411	0.103737004
95	0xbd840a80	-0.06447315
96	0x3bd5a8d5	0.0065203705
97	0x3dbe6425	0.09296445
98	0xbe0cd16e	-0.13751766
99	0x3d366261	0.044527415
100	0x3db9ab4f	0.09065878
101	0x3e2a9794	0.16659385
102	0xbdd83c06	-0.105583236
103	0xbe9712af	-0.29506442
104	0x3ca46cb4	0.020071365
105	0x3dfdba10	0.12389004
106	0xbe27a1fd	-0.16370387
107	0x3ea80384	0.32815182
108	0x3c84af81	0.016196968
109	0x3daf7b45	0.08568434
110	0xbe46101f	-0.19342087
111	0x3e096e67	0.13421021
112	0xbd37ffeb	-0.044921797
113	0x3e4f7d6b	0.20262687
114	0x3ce1c717	0.027560754
115	0x3cf464bd	0.029833192
116	0x3e59927b	0.21247284
117	0xbe1a5e83	-0.15075116
118	0x3d9c3a0a	0.076282576
119	0x3dacab2d	0.08431087
120	0xbdf80845	-0.12110952
121	0xbc6d9c6d	-0.014502627
122	0x3d415855	0.04720338
123	0xbd250746	-0.04029014
124	0xbe55c25a	-0.2087492
125	0x3f3d14a7	0.7385964
126	0x3e635474	0.22200185
127	0x3e57a7ba	0.21060076
128	0x3f020242	0.50784695
129	0x3ba62f41	0.005071551
130	0xbe171234	-0.14753038
131	0xbd34b90a	-0.04412178
132	0x3cc89a8c	0.024487756
133	0x3e6e773f	0.23287676
134	0x3d9eb57d	0.0774946
135	0xbe5be19e	-0.21472785
136	0xbcb40689	-0.021975772
137	0xbe968b3d	-0.29403105
138	0x3e9ba6c6	0.30400676
139	0x3e4041d3	0.1877511
140	0x3cde96b4	0.02717147
141	0x3dbc3642	0.09190036
142	0x3e949449	0.29019383
143	0xbe82f9b5	-0.25581136
144	0xbef3bcd8	-0.47605014
145	0xbe8d4c25	-0.27597156
146	0x3e84bc87	0.25925085
147	0x3dbd7c1c	0.092521876
148	0xbe189066	-0.14898834
149	0xbd971849	-0.07377679
150	0x3db61064	0.08889845
151	0xbce47218	-0.027886435
152	0x3ee17cee	0.44040626
153	0x3e5a058f	0.21291183
154	0xbe40bf3f	-0.18822955
155	0xbd1c31b5	-0.03813334
156	0xbea4cbc6	-0.32186717
157	0xbe8bf53b	-0.27335533
158	0x3e202fa7	0.15643178
159	0xbe7f7cac	-0.24949902
160	0xbc7db9b3	-0.015486169
161	0x3bdd58aa	0.0067549543
162	0xbcad781f	-0.021175442
163	0xbd730707	-0.059332874
164	0xbea5690d	-0.3230671
165	0x3e1d54b4	0.15364343
166	0xbdf21285	-0.118199386
167	0xbef4f668	-0.47844243
168	0xbc580961	-0.01318583
169	0xbdccbc66	-0.09996872
170	0xbd234fd2	-0.039871044
171	0x3d8ae0b0	0.06781137
172	0xbcb89cf3	-0.022535777
173	0xbc948a3a	-0.018132318
174	0x3d7f36fd	0.0623083
175	0x3ce9c0f7	0.028534396
176	0xbdb48f6d	-0.08816419
177	0x3d6db259	0.058031414
178	0xbcd59953	-0.026074087
179	0xbc5289a2	-0.012850197
180	0x3d7a7533	0.061146926
181	0xbd71bd16	-0.059018217
182	0xbc3d1a7f	-0.011541962
183	0xbd09a286	-0.03360226
184	0xbe2d65ed	-0.16933413
185	0xbce1e95c	-0.027577095
186	0xbeb15561	-0.3463545
187	0xbef95099	-0.48694304
188	0xbd9c2cf5	-0.076257624
189	0xbe87fa55	-0.26558176
190	0xbe8d93ea	-0.27651912
191	0x3e4f839f	0.20265053
192	0x3d63cb35	0.055613715
193	0xbeb46e9f	-0.35240647
194	0x3e329747	0.1744052
195	0x3d2d3afa	0.042292573
196	0x3d6a9615	0.057272036
197	0xbc40dfcb	-0.011772106
198	0x3eaa9dfd	0.3332366
199	0x3ea977d7	0.33099243
200	0xbd55c22b	-0.052187126
201	0x3e300a88	0.17191517
202	0xbde45c01	-0.11150361
203	0x3de1db84	0.110281974
204	0xbe1af7f4	-0.15133649
205	0xbe88e03d	-0.2673358
206	0x3c6ce239	0.014458233
207	0x3d2b9bff	0.041896816
208	0xbd3964e5	-0.045262236
209	0xbe057054	-0.13031131
210	0x3e423e99	0.18969192
211	0x3e8296e1	0.25505736
212	0xbde1af92	-0.110198155
213	0x3e104c75	0.14091666
214	0x3def7b9a	0.11693497
215	0x3ee0f988	0.43940377
216	0x3daf3f94	0.085570484
217	0xbca02fc2	-0.019554023
218	0x3e173411	0.14765956
219	0xbe439756	-0.19100699
220	0x3e30cf9e	0.172667
221	0x3f33fc35	0.7030671
222	0x3eb0699a	0.34455568
223	0xbe106bb0	-0.1410358
224	0x3c4ddd9d	0.012565044
225	0x3e7a5368	0.2444588
226	0x3e830d0d	0.25595894
227	0xbd5cf333	-0.05394287
228	0xbe099e1f	-0.13439225
229	0xbd900753	-0.07032647
230	0x3f36bf9b	0.71386117
231	0xbe03b502	-0.12862018
232	0x3cb57a4b	0.02215304
233	0xbd8098f2	-0.06279172
234	0x3c11c86b	0.008897881
235	0x3dc52b8a	0.09627445
236	0xbdad9d0b	-0.08477219
237	0xbd91a4f9	-0.07111544
238	0x3d894e45	0.06704382
239	0x3c203b9b	0.009779836
240	0x3d93f7fd	0.072250344
241	0xbb949786	-0.0045346646
242	0x3b0cec82	0.0021503274
243	0x3de3bfe6	0.11120586
244	0xbcfa75a9	-0.030573683
245	0xbd8701ea	-0.06592162
246	0xbe1b2582	-0.15151027
247	0x3da1ec5f	0.07906412
248	0xbe65ec65	-0.22453459
249	0x3f1c664d	0.610936
250	0xbe4d6777	-0.20059
251	0xbdd713d7	-0.10501831
252	0xbee9848d	-0.4560894
253	0xbe8e8346	-0.2783453
254	0x3c6fbcd7	0.014632425
255	0x3e5eb86b	0.21750037

fc1.bias f4 [64]
0	0xbf02c018	-0.5107436
1	0x3dac5386	0.08414368
2	0x3efa1b09	0.4884875
3	0x3eabd8ee	0.33563942
4	0x3dc0d0ee	0.0941485
5	0xbe360406	-0.17774972
6	0x3eb437ab	0.3519872
7	0x3e4769db	0.19473974
8	0x3e2f0e5b	0.1709532
9	0xbe287090	-0.16449189
10	0x3f03211f	0.51222414
11	0x3e1a9789	0.15096869
12	0x3e7e8df4	0.24858838
13	0x3f2a4748	0.66515017
14	0x3e2c4b70	0.16825652
15	0x3e8992ee	0.2686991
16	0x3f08ec24	0.5348532
17	0x3d97fd21	0.074213274
18	0x3cc7106f	0.024299828
19	0x3e46d245	0.19416149
20	0xbe19bc33	-0.15013199
21	0x3e282b01	0.16422655
22	0x3d7e130f	0.062029894
23	0xbcd374c7	-0.02581252
24	0x3da2d80f	0.07951366
25	0xbef273b7	-0.47353908
26	0x3dfe0cf7	0.124048166
27	0x3e271e88	0.1632024
28	0x3e75bf7a	0.23998824
29	0x3eacfb76	0.337856
30	0x3f341301	0.703415
31	0x3f38a705	0.7212985
32	0x3f205b5f	0.6263942
33	0x3dc75186	0.09732346
34	0x3e923a74	0.2856022
35	0x3d9512f7	0.07279008
36	0x3db1b4fc	0.08677098
37	0x3e9d6532	0.30741268
38	0x3ee9f2ae	0.45692962
39	0x3eb0f136	0.3455903
40	0x3e1c77be	0.15280053
41	0x3ea784a5	0.32718387
42	0x3e80e4fd	0.25174704
43	0xbedd7d99	-0.43259886
44	0xbd8f32ba	-0.06992097
45	0xbee43bed	-0.4457697
46	0x3e8ef821	0.27923682
47	0x3f2ff570	0.6873388
48	0xbe55135a	-0.20808163
49	0x3f1ee40a	0.6206671
50	0x3f3678a3	0.7127783
51	0x3ec96949	0.3933814
52	0xbf1e2366	-0.61772764
53	0x3eb6f7ef	0.35736033
54	0x3ef11315	0.4708487
55	0xbde1cfcf	-0.110259645
56	0x3d557767	0.052115824
57	0xbd5707a6	-0.05249753
58	0x3e106183	0.14099698
59	0x3f52e571	0.8238135
60	0x3ea3d4b5	0.3199822
61	0x3aa14315	0.0012303317
62	0xbec061be	-0.3757457
63	0x3dab45bc	0.0836291

fc2.weight f4 [64, 64]
0	0xbdeef4a9	-0.11667759
1	0xbf8a24a5	-1.0792433
2	0xbe5a0b89	-0.21293463
3	0xbe5190de	-0.20465419
4	0xbd8385d0	-0.06422007
5	0xbbe46d52	-0.00697104
6	0xbe3542cf	-0.17701267
7	0x3e7df9be	0.248023
8	0xbeb1ddf1	-0.3473964
9	0x3ddea7aa	0.10871823
10	0xbe05b9f0	-0.13059211
11	0x3d88ab05	0.066732444
12	0x3b8ab48b	0.004232948
13	0xbf0b9924	-0.5453055
14	0xbf080670	-0.5313482
15	0xbd3ab7c1	-0.045585398
16	0x3e14e128	0.14539015
17	0xbec84661	-0.39116195
18	0x3d915d0d	0.07097826
19	0x3e50f84d	0.20407219
20	0xbe05e6e5	-0.1307636
21	0x3e1bf02e	0.1522834
22	0x3e3e57da	0.185882
23	0x3e973040	0.29529
24	0xbdf9446e	-0.12171255
25	0xbd88c16c	-0.06677517
26	0xbd5c71fa	-0.053819634
27	0xbd2443eb	-0.040103834
28	0xbf80aca1	-1.0052682
29	0xbd4ab46c	-0.04948847
30	0xbe8dd752	-0.2770334
31	0xbdb7fc5b	-0.0898368
32	0x3da5c9f8	0.08095163
33	0x3e88e8c2	0.2674008
34	0xbd88106c	-0.06643757
35	0x3e82024d	0.2539238
36	0xbe063eee	-0.13109943
37	0x3d014493	0.031559538
38	0xbe33e265	-0.17566831
39	0xbfaccd76	-1.3500202
40	0xbec31cfe	-0.38108057
41	0x3eb27027	0.3485119
42	0xbc82602a	-0.015914995
43	0x3e25be6f	0.16185926
44	0xbe987698	-0.2977798
45	0x3c9d4564	0.019198127
46	0xc0102a05	-2.2525647
47	0x3c70a86f	0.014688595
48	0xbc1ffbab	-0.009764592
49	0xbe51242f	-0.20423959
50	0x3e5b7211	0.21430232
51	0xbef78474	-0.4834324
52	0x3d823699	0.0635807
53	0xbec4a6fc	-0.3840865
54	0xbe9c1bf3	-0.30490074
55	0xbdd81b2d	-0.10552058
56	0xbc635839	-0.013876014
57	0xbf0b3d26	-0.5439018
58	0xbcec2cc1	-0.028829934
59	0xbebbc26f	-0.3667178
60	0x3f317b9a	0.69329226
61	0x3e024842	0.12722877
62	0xbd348368	-0.04407063
63	0x3a9fb5d6	0.0012184929
64	0x3d80669c	0.06269571
65	0x3dbbbb0a	0.09166534
66	0x3e383543	0.17989068
67	0xbe0f3408	-0.13984692
68	0x3e934c0c	0.28768957
69	0xbd887e29	-0.06664688
70	0xbe23061e	-0.15920302
71	0xbd8511af	-0.064975135
72	0x3e815eb0	0.25267553
73	0x3d93d04c	0.07217464
74	0xbea7af6f	-0.32751033
75	0x3ea7eceb	0.32797942
76	0xbebc3861	-0.36761764
77	0xbeb58d15	-0.354592
78	0x3c90a292	0.017655645
79	0x3d8a4a3c	0.0675244
80	0x3c5846cb	0.013200472
81	0x3ebe2730	0.37139273
82	0xbe3e6372	-0.18592623
83	0x3da2acc5	0.079431094
84	0x3d1639f9	0.03667638
85	0x3da1ef5e	0.07906984
86	0x3e7c13d2	0.24616936
87	0xbd6ba38f	-0.05752903
88	0xbc88a9d7	-0.016682548
89	0xbe5d343e	-0.2160196
90	0xbe2cc66b	-0.16872565
91	0x3e41ba0c	0.18918628
92	0x3de56834	0.11201516
93	0xbddf520c	-0.10904321
94	0xbd682643	-0.056677114
95	0xbe9030b2	-0.28162152
96	0x3dc48047	0.095947795
97	0xbe400c2e	-0.18754646
98	0x3d900b87	0.07033449
99	0x3e7d8333	0.2475708
100	0x3ea2a3f1	0.31765702
101	0x3e3dc2c3	0.18531327
102	0xbdc43015	-0.095794834
103	0xbe235737	-0.15951239
104	0x3dbf0799	0.09327621
105	0x3dcb51dc	0.09927723
106	0x3e2d09e4	0.16898304
107	0x3e2aad47	0.16667663
108	0x3db92153	0.09039559
109	0xbe4af1be	-0.1981878
110	0x3db2e383	0.08734801
111	0xbe4901d4	-0.19629604
112	0xbddcc2cd	-0.10779343
113	0xbe740a96	-0.23832163
114	0xbdf581af	-0.11987626
115	0x3e67c3e5	0.22633322
116	0x3c9a5a5c	0.018841915
117	0xbe2285a1	-0.15871288
118	0x3dc73a72	0.097279444
119	0x3e930a44	0.2871877
120	0x3ea7f5cd	0.3280472
121	0xbeae7e02	-0.3408051
122	0x3ddcd517	0.10782831
123	0xbe19c1db	-0.15015356
124	0x3d87bdee	0.06628023
125	0x3f02593f	0.5091743
126	0x3d32f1e4	0.043687716
127	0xbe2ccad1	-0.16874243
128	0xbce52af1	-0.027974578
129	0xbf665dac	-0.8998668
130	0xbe3670d8	-0.17816484
131	0x3d7e5fd2	0.0621031
132	0xbf857e0e	-1.0429094
133	0x3dea4662	0.11439206
134	0xbfc1a17b	-1.5127405
135	0x3e441ff7	0.19152819
136	0x3e784632	0.24245527
137	0xbeb5d994	-0.3551756
138	0x3e20d357	0.1570562
139	0xbeac40bc	-0.33643138
140	0xbe771d9f	-0.24132393
141	0xbe543b1b	-0.20725672
142	0xbfe7cb56	-1.8108928
143	0xbeb6feb7	-0.35741207
144	0x3e09c2af	0.13453172
145	0xbd910034	-0.07080117
146	0x3d57c6ff	0.05268001
147	0xbf0c3bb5	-0.54778606
148	0x3e1f2c54	0.15544254
149	0xbf414257	-0.7549185
150	0x3e0c50dc	0.1370272
151	0xbf85927e	-1.0435331
152	0x3df0ea26	0.1176341
153	0xbd3319e9	-0.04372588
154	0xbf866c73	-1.0501846
155	0xbf59a37b	-0.85015076
156	0xbd5b6864	-0.05356635
157	0x3d6d2ec5	0.05790593
158	0xbe421b54	-0.18955737
159	0xbcb48d71	-0.0220401
160	0x3e095889	0.1341268
161	0x3ebfdf0e	0.37474865
162	0xbdc4a92a	-0.09602578
163	0x3f2d23c6	0.6763271
164	0xbebad0a3	-0.36487302
165	0xbe3dcf97	-0.1853622
166	0x3de35aa8	0.11101276
167	0xbcdb26a0	-0.026751816
168	0xbf96a4a0	-1.176899
169	0xbfab6dd1	-1.3392888
170	0xbf5ecd7a	-0.8703228
171	0xbe595d38	-0.21226966
172	0xbf6b1312	-0.91825974
173	0xbdcda107	-0.10040479
174	0xbfaae9ad	-1.3352562
175	0xbd449af2	-0.04799933
176	0xbf572f0d	-0.8405617
177	0xbd93218e	-0.071841344
178	0xbcc0c9df	-0.02353376
179	0x3dec5dd2	0.11541332
180	0xbee4cad9	-0.4468601
181	0xbf1917bf	-0.5980186
182	0x3ea19a58	0.31563067
183	0x3e8bd4eb	0.2731088
184	0x3e354f7a	0.17706099
185	0xbe8034a3	-0.2504016
186	0xbf7aeef9	-0.98020893
187	0xbdc97e2b	-0.09838518
188	0xbf02c2c3	-0.5107843
189	0xbdf5e142	-0.12005855
190	0xbe80edb4	-0.25181353
191	0xbf6175a3	-0.88070124
192	0xbe2a0474	-0.16603261
193	0x3eaf0231	0.3418136
194	0x3d63d525	0.055623192
195	0x3e38da90	0.18052125
196	0x3d05204a	0.032501496
197	0xbe8fa20c	-0.2805332
198	0xbd6360ec	-0.055512354
199	0x3cddab38	0.027059183
200	0x3d97e437	0.074165754
201	0x3baa2416	0.00519229
202	0x3cb8f484	0.022577532
203	0x3db44b5a	0.08803435
204	0x3dc33353	0.09531274
205	0x3d0f2200	0.034944534
206	0xbd31f2b4	-0.04344435
207	0xbc573ebb	-0.013137515
208	0x3d438cd5	0.04774173
209	0xbccea374	-0.025224425
210	0xbdbb2086	-0.09137063
211	0x3c747dc0	0.014922559
212	0xbd9ddbee	-0.07707964
213	0x3d0cb823	0.034355294
214	0x3d5dff71	0.054198686
215	0xbc774125	-0.015091215
216	0x3c994117	0.018707795
217	0xbecbfc30	-0.3984084
218	0x39c4b86d	0.0003752144
219	0x3cbf2fd3	0.023338234
220	0x3e0ed539	0.13948525
221	0x3d0ed015	0.03486641
222	0x3e20b0ab	0.15692393
223	0x3e0d3fe4	0.13793904
224	0x3d42bccc	0.047543332
225	0xbdd1358c	-0.102152914
226	0x3d3d178b	0.04616503
227	0xbbc4960d	-0.0059993328
228	0xbc00a13f	-0.007850944
229	0xbd968a9c	-0.073506564
230	0xbda1e4db	-0.07904979
231	0x3e41aae2	0.18912843
232	0x3d931d34	0.071833044
233	0x3d4ec354	0.05047925
234	0xbc3a11e3	-0.011356804
235	0xbdda420f	-0.10657131
236	0xbe2269b8	-0.15860641
237	0xbe85dd9e	-0.26145643
238	0x3de76c6c	0.11299977
239	0x3dc5deac	0.09661612
240	0xbd625a87	-0.055262115
241	0x3e5b1f0e	0.21398565
242	0x3dee925c	0.116490096
243	0xbda519b1	-0.08061541
244	0xc0001dd0	-2.0018196
245	0xbdbe1239	-0.092808194
246	0x3dd444e5	0.10364703
247	0xbd5e9d05	-0.054348964
248	0x3d8404dd	0.0644624
249	0xbd7bb683	-0.061453354
250	0x3d82964c	0.06376323
251	0x3b85b8f1	0.0040808846
252	0x3d6dc877	0.058052506
253	0x3e05f850	0.13083005
254	0xbd57077c	-0.052497372
255	0x3d2b1c98	0.041775316

fc2.bias f4 [64]
0	0xbcb9a82e	-0.022663202
1	0xbe49c9cd	-0.19705887
2	0x3c7977d2	0.015226321
3	0x3f09f5c6	0.53890646
4	0x3d447dd9	0.04797158
5	0x3ea35947	0.3190405
6	0x3e1cb4ba	0.15303317
7	0x3e043e7d	0.12914462
8	0x3d84b79c	0.06480333
9	0x3e8f3bcc	0.2797531
10	0xbc0350e4	-0.008014891
11	0x3d97053e	0.07374047
12	0x3d0a789d	0.033806432
13	0xbd19decb	-0.037565988
14	0xbec01513	-0.37516078
15	0xbd43decf	-0.04781991
16	0x3e03d773	0.12875156
17	0xbd253995	-0.040338118
18	0xbe522573	-0.20522098
19	0x3da4dc8f	0.08049881
20	0xbd47b694	-0.048758104
21	0xbeb15b56	-0.34639996
22	0xbd657c61	-0.05602682
23	0x3e45402a	0.19262758
24	0xbf219875	-0.63123256
25	0x3c18ac85	0.009318476
26	0xbd50eef8	-0.05100915
27	0xbced32a4	-0.028954811
28	0xbd273d9c	-0.04083024
29	0xbded2ac0	-0.115804195
30	0xbd6c9c0f	-0.057766017
31	0x3f1c9c7d	0.6117628
32	0x3e05c136	0.13061985
33	0x3d138487	0.03601506
34	0xbd958492	-0.073006764
35	0x3e25f9a1	0.16208507
36	0x3f0e625f	0.5561885
37	0xbdd5b653	-0.10435166
38	0x3e286c84	0.16447645
39	0x3ef7b0e8	0.48377156
40	0xbd6aeb02	-0.057353027
41	0x3e9aca5a	0.30232507
42	0xbd5889a3	-0.052865636
43	0x3db2dfd8	0.08734101
44	0x3cd6b4ad	0.0262092
45	0xbe60bc8d	-0.21946926
46	0xbe8d8da3	-0.27647123
47	0xbdd1d978	-0.10246557
48	0x3debf093	0.11520495
49	0x3e941a97	0.28926536
50	0xbd343436	-0.043995105
51	0xbda7d710	-0.08195317
52	0x3da004d4	0.07813421
53	0xbd59bd23	-0.05315889
54	0x3e9172db	0.2840794
55	0x3d3d4cd2	0.04621584
56	0xbd95a568	-0.07306939
57	0x3e6d7a21	0.2319112
58	0x3f1272a5	0.57206184
59	0xbed66215	-0.41871706
60	0x3f1667b3	0.5875198
61	0xbcf36d68	-0.029715255
62	0x3e3039d6	0.17209563
63	0x3ee78a3c	0.45222652

fc3.weight f4 [1, 64]
0	0xbc8bed6e	-0.017080989
1	0x3c680af7	0.0141627705
2	0xbf6f49f4	-0.9347222
3	0x3d96938a	0.073523596
4	0xbf718a9f	-0.94352144
5	0xbf32bd34	-0.6981995
6	0x3b8c9521	0.0042902385
7	0xbcbab3ea	-0.022790868
8	0xbf672050	-0.9028368
9	0x3c0c70b1	0.00857179
10	0x3ac7a226	0.0015230819
11	0x3c1de5c6	0.009637302
12	0x3b08f890	0.0020900108
13	0x3d9edd5f	0.07757067
14	0xbd00841b	-0.031375986
15	0x3e469d91	0.19396044
16	0xbf4cd5f1	-0.8001395
17	0xbddee5fa	-0.10883708
18	0x3d8fa749	0.07014329
19	0xbe546ef7	-0.20745455
20	0xbcc37451	-0.023859175
21	0xbce0be28	-0.027434424
22	0x3c8013e2	0.01563448
23	0xbcc38a6d	-0.023869717
24	0x3cba304d	0.02272811
25	0xbd2e8559	-0.04260764
26	0xbcba1288	-0.022713915
27	0xbf606a80	-0.87662506
28	0x3c99cba2	0.018773858
29	0xbd0af98f	-0.033929404
30	0xbf6349ad	-0.88784295
31	0x3dc3e6da	0.09565516
32	0xbec08b0a	-0.37606078
33	0xbe7ecbae	-0.24882385
34	0x3c532b4e	0.012888743
35	0xbd3a0236	-0.045412265
36	0x3d776cfc	0.06040667
37	0xbf6a3dce	-0.91500556
38	0x3d2ea6a2	0.042639382
39	0x3b9c889e	0.004777028
40	0xbe21eab8	-0.15812194
41	0xbe3cd235	-0.18439563
42	0x3aa4b4bc	0.001256607
43	0x3cbdf338	0.023187265
44	0xbf1ebf99	-0.62011105
45	0xbd52383f	-0.05132317
46	0xbd8b470e	-0.06800662
47	0xbf3a2bb5	-0.7272294
48	0xbd6c7191	-0.057725493
49	0xbf4576e0	-0.77134514
50	0xbdb44419	-0.08802051
51	0xbe0c7371	-0.13715912
52	0x3c9a9225	0.018868515
53	0xbf6431c1	-0.8913842
54	0x3cfbcbe0	0.030736864
55	0x3c2493cb	0.010045002
56	0x3e0f2710	0.13979745
57	0x3c0c0707	0.008546597
58	0x3dafeb63	0.08589818
59	0x3cc9ce78	0.024634585
60	0x3da7114f	0.08157598
61	0xbf61d6f1	-0.882186
62	0xbf02edcc	-0.511441
63	0x3d0d01ee	0.03442567
