puppersim/dc_saves/aac_mega_puppy_3/actor_11.pt (torch, 30871 bytes, 6 tensors)

fc1.weight f4 [64, 15]
0	0xbe842ad6	-0.2581393
1	0xbe0b4e51	-0.13604094
2	0xbe854347	-0.2602789
3	0xbd925d2b	-0.07146677
4	0x3d8896ab	0.06669363
5	0x3cb7b105	0.022423277
6	0x3d29099b	0.041268926
7	0x3d8a7593	0.06760707
8	0x3cbba837	0.02290736
9	0x3e92e104	0.28687298
10	0xbdd6c219	-0.1048624
11	0x3df82e8c	0.12118253
12	0xbddb3cfb	-0.107049905
13	0x3dd07cc5	0.10180048
14	0x3da5bd00	0.080926895
15	0x3d5260e6	0.05136194
16	0xbdc8b594	-0.09800258
17	0xbe561c91	-0.20909335
18	0x3dbdb2e4	0.09262636
19	0xbe8dc681	-0.2769051
20	0xbe1f01f3	-0.15528087
21	0x3df360a0	0.11883664
22	0xbe276668	-0.16347659
23	0x3db08a2c	0.08620104
24	0x3e1ca766	0.15298232
25	0xbdc66fd0	-0.09689295
26	0x3e389255	0.18024571
27	0x3e758d8f	0.23979782
28	0xbe2634cc	-0.16231078
29	0xbeabc0f8	-0.3354566
30	0xbe7ee97f	-0.24893759
31	0xbda354a4	-0.07975128
32	0xbdf6c956	-0.120501205
33	0x3d7037d3	0.058646988
34	0xbdee7191	-0.11642755
35	0xbd2dffed	-0.042480398
36	0xbd9067fd	-0.07051084
37	0xbd37d2f4	-0.044878915
38	0x3e440e86	0.19146165
39	0xbde1994c	-0.11015567
40	0xbde4a357	-0.11163967
41	0xbd8946df	-0.06702971
42	0xbc646fe9	-0.013942697
43	0xbe237994	-0.15964347
44	0x3d675ca3	0.05648483
45	0xbe3d290c	-0.1847269
46	0x3e8f008e	0.2793011
47	0x3dd19686	0.10233788
48	0x3db8a1c5	0.0901523
49	0xbebe7939	-0.3720186
50	0x3dff88d1	0.124772675
51	0xbca06038	-0.01957713
52	0xbead95f6	-0.33903474
53	0xbe8d1292	-0.2755323
54	0x3bba4a46	0.0056851236
55	0xbdcf1859	-0.10112066
56	0x3c895eeb	0.016768893
57	0xbe1f4124	-0.15552193
58	0xbe513611	-0.20430781
59	0xbf50e3c7	-0.8159756
60	0xbbe6fe0b	-0.0070493273
61	0x3d2d9c98	0.042385668
62	0x3dbd4aac	0.09242758
63	0xbe017c8d	-0.12645169
64	0xbc273f00	-0.010207891
65	0x3daeaa5e	0.08528589
66	0x3e503b21	0.20335056
67	0xbd9b27f1	-0.075759776
68	0x3db21fc0	0.08697462
69	0x3d408afb	0.047007542
70	0x3e1de87e	0.1542072
71	0xbc66ea04	-0.01409388
72	0x3d8ee33b	0.069769345
73	0xbcc67e0c	-0.024230026
74	0xbd0ac18b	-0.033875983
75	0xbbd0b9c9	-0.0063698036
76	0x3d9ce5a6	0.076609895
77	0xbda15446	-0.07877402
78	0xbd18e81a	-0.037330724
79	0xbc882067	-0.016617013
80	0xbe2c2da8	-0.16814291
81	0xbc01c1da	-0.007919753
82	0xbd931d19	-0.07183284
83	0x3e0fc6b5	0.14040644
84	0x3e8fde9f	0.28099534
85	0xbe06f3a1	-0.13178875
86	0xbdf119d7	-0.11772507
87	0x3e085411	0.13313319
88	0xbe9db076	-0.30798692
89	0xbe61e5ed	-0.22060366
90	0xbdf8a1b6	-0.12140219
91	0xbccda024	-0.025100775
92	0xbd89240f	-0.06696331
93	0xbd88d9d4	-0.066821724
94	0x3d12e534	0.035863116
95	0x3ca0d0e9	0.019630866
96	0x3e3b8819	0.18313636
97	0xbe3eb658	-0.18624246
98	0x3cc117fd	0.023571009
99	0x3c59e605	0.01329947
100	0xbd144040	-0.036194086
101	0xbd58f64b	-0.05296926
102	0x3e542696	0.20717844
103	0xbe0c4483	-0.1369801
104	0xbe63f19f	-0.2226014
105	0xbdb445a5	-0.08802346
106	0xbe76b645	-0.24092968
107	0xbe2f8bce	-0.17143175
108	0x3d9206e4	0.071302205
109	0xbddda7a2	-0.10822989
110	0xbc97adfd	-0.018515581
111	0xbcfa44c8	-0.030550376
112	0x3c9c90d8	0.019112036
113	0x3d2dc282	0.042421825
114	0xbc48a7ec	-0.012247067
115	0xbda524d5	-0.08063666
116	0xbe0b590c	-0.13608187
117	0xbd5ec6d2	-0.05438883
118	0x3de17bdf	0.11009955
119	0xbe031439	-0.12800683
120	0xbd40d769	-0.04708043
121	0xbc774d67	-0.015094138
122	0xbe4b9909	-0.19882597
123	0x3d86b5a9	0.06577618
124	0x3d34b605	0.0441189
125	0xbde1d082	-0.11026098
126	0x3e086586	0.13319978
127	0xbcff50f1	-0.031166526
128	0x3e1c7eac	0.15282696
129	0x3cc3fc5e	0.023924049
130	0x3dd12112	0.10211386
131	0xbb126b2d	-0.0022341714
132	0xbc3e2d5d	-0.011607495
133	0x3dae0482	0.084969535
134	0xbd6a7dcf	-0.057248887
135	0xbd00b757	-0.031424847
136	0x3e3c8b9e	0.18412635
137	0xbe959f2b	-0.29222998
138	0x3d2a247a	0.041538693
139	0x3d47f50f	0.04881769
140	0x3e0802b3	0.1328228
141	0x3e4bab9a	0.1988968
142	0x3dfacd89	0.12246234
143	0x3d3154ef	0.04329389
144	0xbd5a23c6	-0.053256772
145	0x3e7f1183	0.24909024
146	0x3dc3bf48	0.095579684
147	0xbdff72ae	-0.12473045
148	0x3e388889	0.18020834
149	0xbf15ad90	-0.5846796
150	0xbe85e2f5	-0.26149717
151	0xbecc43fd	-0.3989562
152	0x3d124531	0.035710517
153	0xbc760532	-0.015015887
154	0x3e2156db	0.15755789
155	0xbe970d11	-0.29502156
156	0x3e203a35	0.15647204
157	0x3e8227cb	0.25420985
158	0xbe876d46	-0.26450557
159	0x3df3b590	0.11899865
160	0xbe081726	-0.1329008
161	0xbe2dd6d5	-0.16976483
162	0x3ceec050	0.029144436
163	0x3bb56a2d	0.005536339
164	0xbe2197a3	-0.15780501
165	0xbc3e8c4f	-0.011630132
166	0x3d3d0abb	0.04615281
167	0x3e1ee868	0.15518343
168	0x3ccea87b	0.025226822
169	0x3cf3a515	0.029741803
170	0x3efd462f	0.49467608
171	0xbe072490	-0.13197541
172	0x3c016389	0.007897266
173	0xbc0bfac6	-0.008543676
174	0x3d9c45d9	0.0763051
175	0xbe9185bf	-0.28422353
176	0xbe738bb6	-0.23783764
177	0x3dcdc4e2	0.10047318
178	0x3e391d5b	0.18077604
179	0xbf3b79c0	-0.7323265
180	0x3da0b8ce	0.07847749
181	0xbea20cfe	-0.31650537
182	0x3ddb52c1	0.107091434
183	0x3e198e7c	0.1499576
184	0x3da75c95	0.081719555
185	0xbe598906	-0.21243677
186	0x3cf8622b	0.030320248
187	0xbe129428	-0.1431433
188	0xbe078554	-0.13234454
189	0x3d9430c4	0.07235864
190	0xbd150ed5	-0.036391098
191	0xbee79fb4	-0.4523903
192	0x3dc8bd09	0.098016806
193	0x3e777be5	0.24168356
194	0xbc8670f2	-0.016411278
195	0xbce3440e	-0.027742412
196	0x3ce8ec78	0.02843307
197	0x3e022df1	0.12712838
198	0x3e047467	0.12935029
199	0x3d2207d0	0.03955823
200	0x39120416	0.00013925167
201	0x3d88a1ee	0.06671511
202	0x3e44e0e8	0.1922642
203	0xbe10b0e6	-0.14129981
204	0x3ccf5558	0.02530925
205	0x3c804e43	0.015662318
206	0x3d9d7cb9	0.076898046
207	0xbd25f51f	-0.04051697
208	0x3d14136d	0.03615134
209	0xbd241f01	-0.04006863
210	0xbdb1ecd5	-0.0868775
211	0xbdcd88d8	-0.100358665
212	0xbd9c23ed	-0.0762404
213	0x3ddaf77b	0.106917344
214	0xbd9af4a6	-0.07566194
215	0xbe2706cf	-0.16311191
216	0xbd39c047	-0.045349386
217	0x3e248385	0.16065796
218	0xbc1cec7b	-0.009577866
219	0xbde9b259	-0.1141097
220	0x3e2ebc35	0.17063983
221	0x3d5e0ae0	0.05420959
222	0x3e17d1f4	0.14826185
223	0x3c7c2e8e	0.015391959
224	0xbda82ea0	-0.08212018
225	0x3d11d30f	0.03560167
226	0x3e64eebf	0.223567
227	0xbedf0859	-0.43561056
228	0x3d8df4ae	0.069314346
229	0x3f689d2a	0.90864813
230	0xbdf6ecdf	-0.12056898
231	0x3cc4e497	0.024034781
232	0x3e95451c	0.2915429
233	0x3e7739aa	0.24143091
234	0x3e94a0bf	0.2902889
235	0xbf7679e5	-0.96279746
236	0xbe44c3c7	-0.19215308
237	0x3da868f8	0.08223146
238	0xbe6c37e0	-0.2306819
239	0xbe86ec9f	-0.26352403
240	0xbe3f8362	-0.18702462
241	0x3d4510f9	0.04811189
242	0xbd1c7a72	-0.03820271
243	0x3c81689b	0.01579695
244	0xbe074dd7	-0.13213287
245	0xbd4a0edb	-0.049330574
246	0xbd1f5b10	-0.038905203
247	0xbe1e351f	-0.15449952
248	0x39d3e0da	0.00040412584
249	0xbd474cf4	-0.048657373
250	0xbc19ddea	-0.009391287
251	0x3e5aff02	0.2138634
252	0x3dfe4456	0.12415378
253	0xba79565e	-0.0009511466
254	0xbe0c0f3b	-0.13677685
255	0x3c0d90ae	0.008640451

fc1.bias f4 [64]
0	0xbd3f7816	-0.046745382
1	0x3e36ca93	0.17850713
2	0xbda17ad7	-0.07884758
3	0xbdd04699	-0.101697154
4	0xbe195c32	-0.14976576
5	0x3e83c8fa	0.2573927
6	0x00000000	0.0
7	0xbb7e80da	-0.0038834126
8	0x3ceec864	0.029148288
9	0xbe640e01	-0.22270967
10	0x3ea9d6b9	0.33171633
11	0xbef2a6ae	-0.47392792
12	0xbf221271	-0.6330939
13	0xbc702059	-0.01465615
14	0x00000000	0.0
15	0x3e358896	0.17727885
16	0xbc51dc5a	-0.012808884
17	0x3dca9798	0.098921955
18	0xbdc9e231	-0.09857596
19	0xbf47de0a	-0.7807318
20	0x00000000	0.0
21	0x00000000	0.0
22	0x3dec922a	0.11551316
23	0x3eeaa6b2	0.45830303
24	0xbd024758	-0.03180632
25	0xbf070680	-0.52744293
26	0x00000000	0.0
27	0x3caf41f4	0.021393754
28	0x00000000	0.0
29	0x3e2a7478	0.16645992
30	0x3e60103d	0.21881194
31	0xbf0b077c	-0.54308295
32	0xbe9fa962	-0.31183916
33	0x3f0962b3	0.5366623
34	0x3cb60c75	0.022222737
35	0x00000000	0.0
36	0xbc37585a	-0.011190498
37	0xbec280b6	-0.37988824
38	0x00000000	0.0
39	0x3d35dd87	0.044400718
40	0xbed0ccc6	-0.4078123
41	0xbee64eb5	-0.44981924
42	0xbef4f71f	-0.47844788
43	0x3dd3ae12	0.10335936
44	0xbf20cf0b	-0.6281592
45	0x3d28f581	0.041249756
46	0x3c5306bd	0.0128800245
47	0xbd60e45e	-0.054905288
48	0x00000000	0.0
49	0x3e2e9588	0.17049229
50	0xbc1a5603	-0.009419921
51	0xbe781657	-0.24227272
52	0xbef65d6d	-0.48118153
53	0xbef1d1b6	-0.4723031
54	0xbe9b41e5	-0.3032371
55	0xbe8eb8c4	-0.2787534
56	0xbdac05a3	-0.083995126
57	0x3f1b4b46	0.60661733
58	0xbd5841ae	-0.052797012
59	0xbc253410	-0.010083213
60	0xbe1fa933	-0.15591888
61	0xbd4edb75	-0.05050226
62	0xbf231f23	-0.63719386
63	0xbe8ee047	-0.27905485

fc2.weight f4 [64, 64]
0	0x3e0f4c69	0.13993992
1	0xbf59f241	-0.85135275
2	0xbe182cb9	-0.1486081
3	0xbea9e58c	-0.33182943
4	0xbe4777a5	-0.19479235
5	0xbf022f98	-0.5085387
6	0xbdc835fc	-0.09775922
7	0x3e0f75b1	0.1400974
8	0xbe2b9965	-0.16757734
9	0x3e04ac35	0.12956317
10	0xbe5a6fbe	-0.21331689
11	0x3b423af0	0.002963718
12	0x3d3c99ed	0.046045233
13	0x3d6f7b1d	0.05846702
14	0xbd0b46b2	-0.034002967
15	0x3eb60a78	0.35554862
16	0x3e149ea8	0.14513648
17	0xbd30fabb	-0.043207865
18	0x3e2a3e45	0.16625316
19	0x3ef63eb4	0.48094714
20	0x3e254e47	0.16143142
21	0xbb7c8638	-0.003853215
22	0xbea00adc	-0.31258285
23	0xbfa66339	-1.299903
24	0x3d78672c	0.060645267
25	0x3e841935	0.2580048
26	0x3d7ef8da	0.062249042
27	0x3e9a8df7	0.30186436
28	0xbde21e0b	-0.110408865
29	0x3dd8533d	0.105627514
30	0xbe6da1c0	-0.23206234
31	0xbe80e903	-0.25177774
32	0xbe7e0e02	-0.24810031
33	0x3cea879a	0.028629113
34	0xbefbfdf4	-0.49217188
35	0x3dd8f71f	0.105940096
36	0xbda94cba	-0.082665876
37	0x3e5703f6	0.20997605
38	0x3dcb27a0	0.09919667
39	0xbe542488	-0.2071706
40	0x3d830cd2	0.0639893
41	0x3dc708df	0.09718489
42	0x3ce62c64	0.028097339
43	0x3e2290d6	0.15875563
44	0x3e37f1b6	0.17963299
45	0x3e309d58	0.17247522
46	0xbf13e85a	-0.57776415
47	0xbdf34637	-0.11878627
48	0x3e22f555	0.15913899
49	0xbe5e97d0	-0.217376
50	0xbde894a5	-0.11356477
51	0xbdcdc3a4	-0.10047081
52	0x3e335dd9	0.17516269
53	0x3e2a1d73	0.16612796
54	0x3ee4f20c	0.44715917
55	0x3c0a0b77	0.008425585
56	0x3d98fc1b	0.0746996
57	0xbdc22eef	-0.09481608
58	0xbd0c7ed1	-0.03430063
59	0xbde3e777	-0.11128133
60	0xbe666887	-0.22500812
61	0xbea59849	-0.32342747
62	0x3e59b4c1	0.21260358
63	0x3d698f18	0.05702123
64	0x3e499f98	0.19689786
65	0xbcb6200f	-0.022232084
66	0x3d88cf44	0.06680158
67	0x3d7c8c11	0.061657015
68	0x3ce75a8a	0.028241415
69	0xbcec42f1	-0.028840514
70	0x3e717bac	0.23582333
71	0xbd28f930	-0.04125327
72	0x3d918beb	0.07106765
73	0x3da29164	0.07937887
74	0xbd06ca10	-0.032907546
75	0x3d0e3a0f	0.034723338
76	0xbd20b58c	-0.039235637
77	0xbdc55306	-0.09634976
78	0xbcbf7bd7	-0.023374481
79	0x3de0f3f9	0.10984034
80	0x3cd46d0e	0.025930908
81	0x3d09a7c6	0.033607267
82	0x3caf4a17	0.021397633
83	0x3c6f0d34	0.01459055
84	0x3d21ea82	0.039530285
85	0x3c4b0d59	0.012393319
86	0xbdaf97cc	-0.08573875
87	0xbda4f8d4	-0.08055273
88	0xbe0a6af8	-0.13517368
89	0x3d3470ad	0.04405277
90	0x3d26e9ee	0.040750436
91	0xbd8bbb91	-0.06822885
92	0xbe9244f6	-0.28568238
93	0xbe17107f	-0.14752387
94	0xbbc066cf	-0.0058716307
95	0x3dd2dded	0.10296235
96	0x3d877d88	0.0661574
97	0x3e049fcc	0.12951583
98	0x3cff4589	0.031161087
99	0xbda66ad2	-0.08125843
100	0xbd87260f	-0.06599056
101	0xbc29322c	-0.010326903
102	0xbe7fcc4f	-0.24980281
103	0x3d6a1d44	0.057156816
104	0x3b4b1587	0.0030988173
105	0xbe5c359e	-0.21504828
106	0xbc3992d4	-0.01132651
107	0x3dbba2fb	0.091619454
108	0x3cc67b3f	0.02422869
109	0xbc9f78ee	-0.019466843
110	0xbd8befd5	-0.06832854
111	0xbe7d0bd1	-0.24711539
112	0xbe162845	-0.14663799
113	0xbc5d4e0e	-0.013507379
114	0x3de7df46	0.11321883
115	0x3de366b9	0.11103577
116	0x3d8716df	0.06596159
117	0xbc5dd961	-0.013540597
118	0x3a266361	0.0006347206
119	0x3dd2d8d2	0.102952614
120	0xbc54ab0b	-0.012980233
121	0xbdf60fd5	-0.120147385
122	0xbd8ac303	-0.06775477
123	0x3e2e62f8	0.17029941
124	0xbd764d5c	-0.06013237
125	0xbd3381a0	-0.043824792
126	0xbd07b5ff	-0.03313255
127	0x3dd15492	0.10221209
128	0x3d65dd97	0.056119528
129	0xbe14ff47	-0.14550506
130	0xbd2dfb27	-0.042475846
131	0x3dbc162b	0.09183916
132	0xbdcfdc9d	-0.101495005
133	0xbc247d24	-0.0100396015
134	0xb9552b88	-0.0002032948
135	0x3d79527d	0.060869683
136	0x3c196995	0.009363552
137	0x3da707f0	0.08155811
138	0x3d877f5e	0.0661609
139	0x3de52860	0.111893415
140	0x3d2f6cb8	0.04282829
141	0xbdaca0b1	-0.08429087
142	0xbe75b113	-0.2399333
143	0x3dab60b8	0.08368057
144	0x3c111b9e	0.008856682
145	0xbe77360c	-0.24141711
146	0x3c7504b9	0.014954739
147	0xbb90d922	-0.0044204155
148	0x3de8c00c	0.11364755
149	0x3e6fd09b	0.2341942
150	0xbd915a25	-0.07097272
151	0xbe4c1911	-0.19931437
152	0x3dd2f723	0.10301044
153	0x3da6987e	0.08134554
154	0xbdcf5ba4	-0.10124901
155	0xbe26a170	-0.16272521
156	0x3d6ac25c	0.05731426
157	0xbd7382eb	-0.059451025
158	0xbc992f0b	-0.01869919
159	0xbd1cc823	-0.038276803
160	0xbd645077	-0.0557408
161	0x3c0ded6c	0.008662563
162	0xbd128e77	-0.035780396
163	0xbe7cd964	-0.24692303
164	0xbe33a832	-0.1754463
165	0x3cda7fd9	0.02667229
166	0xbe1796c1	-0.14803602
167	0xbce168d0	-0.027515799
168	0xbd9d3d2d	-0.07677684
169	0xbb0f8262	-0.0021897783
170	0xbe0ee62e	-0.13954994
171	0xbd357ae0	-0.044306636
172	0xbdce3ade	-0.10069822
173	0x3c1d4dd6	0.009601077
174	0x3dcd0ffa	0.10012813
175	0xb8a79feb	-7.9929676e-05
176	0x3e237a50	0.15964627
177	0xbdc39d5b	-0.095514975
178	0x3d48a64d	0.04898672
179	0x3cb4b605	0.02205945
180	0xbdeed7a3	-0.11662223
181	0xbd9b9336	-0.07596438
182	0xbdffa611	-0.124828465
183	0xbbc67ce6	-0.0060573695
184	0xbd986cdb	-0.074426375
185	0xbd3419c1	-0.043969873
186	0x3dc57200	0.096408844
187	0x3c4f2d91	0.012645141
188	0xbdabf320	-0.08395982
189	0x3da350cb	0.079743944
190	0xbe011e13	-0.12609129
191	0x3df08d54	0.11745706
192	0xbe043d60	-0.12914038
193	0xbec86a44	-0.39143574
194	0xbcb0f12b	-0.021599373
195	0xbe59aba8	-0.21256888
196	0x3d16011d	0.036622155
197	0x3d04c346	0.03241279
198	0x3d630b45	0.05543067
199	0x3dc55919	0.09636135
200	0x3b4c4bef	0.003117319
201	0x3e614aab	0.2200114
202	0xbe180c24	-0.14848381
203	0xbde48331	-0.11157835
204	0xbcdce51f	-0.026964722
205	0x3e63b135	0.22235568
206	0xbe3296b7	-0.17440306
207	0xbe2d6bfe	-0.16935727
208	0x3bcfd194	0.0063421223
209	0xbe84a928	-0.25910306
210	0xbdeb397f	-0.11485576
211	0xbdd35cd6	-0.103204414
212	0x3db1abb0	0.08675325
213	0x3d1f56d8	0.03890118
214	0x3d9d7f43	0.07690289
215	0xbd98a180	-0.07452679
216	0xbc079618	-0.008275531
217	0xbdd5188e	-0.10405074
218	0xbc29a806	-0.010355001
219	0xbe9728df	-0.2952337
220	0x3e489ba7	0.19590627
221	0xbe5e55b2	-0.21712378
222	0xbdf36341	-0.118841656
223	0xbdf5d68b	-0.120038114
224	0xbdb050fd	-0.08609197
225	0xbded898f	-0.11598503
226	0xbd98af21	-0.07455278
227	0xbe264d11	-0.16240336
228	0x3d00735a	0.031360008
229	0xbcef88d2	-0.029240046
230	0x3cd6a908	0.026203647
231	0xbd84c7b4	-0.06483403
232	0xbd01eceb	-0.031720083
233	0xbe1a915e	-0.15094516
234	0xbdc91ca2	-0.098199144
235	0x3e34e15d	0.17664094
236	0x3e1d28c5	0.15347584
237	0x3cd32943	0.025776511
238	0x3d2c88d3	0.042122673
239	0xbd5d9a56	-0.054102264
240	0x3dd89d4c	0.10576877
241	0xbac85819	-0.0015285044
242	0xbe05fdce	-0.130851
243	0xbd0fcfc6	-0.035110258
244	0x3dac0c26	0.08400755
245	0xbe089f50	-0.13342023
246	0x3e029b5e	0.1275458
247	0x3c5360c9	0.012901493
248	0xbe7f5fb8	-0.24938858
249	0xbd9b637d	-0.07587335
250	0xbe1b7c97	-0.15184246
251	0xbdfc7f8c	-0.12329015
252	0xbe895547	-0.26822874
253	0xbdf2fc76	-0.11864559
254	0xbd28a3f1	-0.04117197
255	0x3d5bc8e4	0.05365838

fc2.bias f4 [64]
0	0xbdd94f88	-0.106108725
1	0xbcaff0dc	-0.021477155
2	0xbd2cf443	-0.042225134
3	0xbdabcc3c	-0.08388564
4	0xbd95d037	-0.073151045
5	0xbe8fe314	-0.28102934
6	0x3d47e6f9	0.048804257
7	0xbdffb522	-0.1248572
8	0xbdbd6912	-0.09248556
9	0xbdb1b52a	-0.086771324
10	0xbddd5ee0	-0.108091116
11	0xbde6e06b	-0.11273273
12	0xbcd7a859	-0.026325392
13	0xbd147727	-0.036246445
14	0xbe61e25a	-0.22059003
15	0xbdfbd854	-0.12297121
16	0xbd842580	-0.06452465
17	0xbd54b02c	-0.051925823
18	0xbdcf323e	-0.10117005
19	0xbdd282fc	-0.102788895
20	0xbd9d7d5b	-0.07689925
21	0xbdd742c0	-0.105107784
22	0xbe0af647	-0.1357051
23	0x3e5f945c	0.21833938
24	0xbc21fb56	-0.009886583
25	0xbcd130d8	-0.025535986
26	0xbe41bb42	-0.1891909
27	0xbd17893e	-0.03699612
28	0xbdcd59ad	-0.1002687
29	0xbde2f713	-0.11082282
30	0xbd445078	-0.047928303
31	0xbd382b98	-0.04496345
32	0xbe10c8fa	-0.14139166
33	0xbda1beeb	-0.07897743
34	0xbe46fe00	-0.19432831
35	0xbe135d25	-0.14391
36	0xbd36ac69	-0.044598017
37	0xbc445993	-0.011984247
38	0xbdee1bdb	-0.11626407
39	0xbdd495af	-0.103801124
40	0xbe45a201	-0.19300081
41	0xbe193661	-0.1496215
42	0xbd30bf73	-0.04315133
43	0xbdcef851	-0.10105956
44	0xbc634217	-0.0138707375
45	0xbe004b7c	-0.12528795
46	0xbdaf732c	-0.08566889
47	0xbdd057cb	-0.10172995
48	0xbddd2f6d	-0.108000614
49	0xbdcd1e96	-0.100155994
50	0x3d4f5ca9	0.050625477
51	0xbddb0836	-0.106949255
52	0xbdd536ab	-0.10410818
53	0xbdf06906	-0.11738782
54	0xbe2fe610	-0.17177606
55	0xbda30a3e	-0.07960938
56	0xbc856f7c	-0.016288511
57	0xbd95494d	-0.07289372
58	0xbe114996	-0.14188227
59	0xbdfc0e96	-0.123074695
60	0xbe066743	-0.13125329
61	0xbcf8256b	-0.03029128
62	0xbd959836	-0.073044226
63	0xbe2aa506	-0.16664514

fc3.weight f4 [32, 64]
0	0x3d92c07a	0.07165618
1	0x3d31e76c	0.04343359
2	0xbde8042d	-0.113289215
3	0xbdf00804	-0.11720279
4	0x3d29585c	0.04134403
5	0x3d666a8d	0.05625396
6	0x3e870097	0.26367638
7	0x3de9951d	0.11405394
8	0xbd70e932	-0.058816142
9	0xbb23d838	-0.0025000703
10	0xbdeef0ee	-0.116670474
11	0xbe978bfe	-0.29598993
12	0x3e480abc	0.19535345
13	0xbe031436	-0.12800679
14	0x3b50c807	0.0031857507
15	0xbd5b45fb	-0.053533535
16	0x3edabb12	0.42720848
17	0xbdd8af74	-0.1058034
18	0x3f168329	0.58793885
19	0xbe9c3238	-0.30507064
20	0x3e1caeb1	0.15301014
21	0xbe0084cf	-0.12550662
22	0x3cc8ffb8	0.024535999
23	0xbc2fe6dc	-0.0107361935
24	0xbd776379	-0.0603976
25	0x3d0a81e1	0.03381527
26	0x3d8eab68	0.06966287
27	0xbda8e75d	-0.08247254
28	0x3d49f2bd	0.04930376
29	0xbe89fa7f	-0.26948926
30	0xbe2fe87b	-0.17178528
31	0xbddbae63	-0.10726621
32	0x3eacfa94	0.33784926
33	0x3c0fe7c3	0.008783284
34	0x3ccc4cd5	0.02493898
35	0x3d92b91e	0.071642146
36	0x3eb1dfb7	0.34740993
37	0x3e86bbd8	0.26315188
38	0x3d13d01f	0.03608715
39	0xbe0a4611	-0.1350329
40	0x3e3153b9	0.17317094
41	0xbe22a470	-0.1588304
42	0xbded4be1	-0.115867384
43	0xbda0399f	-0.0782349
44	0x3e301d43	0.17198662
45	0x3e82f9ea	0.25581294
46	0x3e3ae4a8	0.18251288
47	0xbe6978cb	-0.22799985
48	0x3d77a0e2	0.060456164
49	0x3dcdb15f	0.100435965
50	0xbc65caef	-0.014025434
51	0xbd95c68e	-0.07313262
52	0x3d0dd9e9	0.034631643
53	0x3e3b8fa2	0.1831651
54	0xbf03342f	-0.512515
55	0x3d04af14	0.03239353
56	0x3dc3a951	0.09553779
57	0xbe06531c	-0.13117641
58	0x3d7cb075	0.06169172
59	0x3db3c1e2	0.087772146
60	0xbe4cfb63	-0.20017771
61	0x3df8f9f0	0.12157047
62	0x3eaad281	0.33363727
63	0x3e42c06d	0.19018717
64	0xbd8563bf	-0.06513166
65	0x3d829993	0.06376948
66	0x3d942ef7	0.0723552
67	0x3eb651a7	0.3560917
68	0x3ede5399	0.43423155
69	0xbe1266d4	-0.14297038
70	0xbea02412	-0.3127752
71	0xbda1d72d	-0.0790237
72	0x3cc571ed	0.024102176
73	0x3c9549f8	0.018223748
74	0xbcd9d7b0	-0.026592106
75	0x3c91b20a	0.017785091
76	0xbd8ef978	-0.06981176
77	0xbcd465ae	-0.02592739
78	0xbee4378c	-0.4457363
79	0xba8425a5	-0.001008202
80	0xbe79f513	-0.24409895
81	0xbe0074df	-0.12544583
82	0xbe34a4f6	-0.17641053
83	0x3d672728	0.056433827
84	0xbe68ed1c	-0.227467
85	0x3d62f240	0.05540681
86	0x3c1eb925	0.009687697
87	0x39824ba6	0.00024851895
88	0x3e3e5731	0.18587948
89	0xbc8f1de4	-0.017470308
90	0x3dd47ae7	0.10375004
91	0x3d802dbe	0.06258725
92	0xbe845435	-0.25845495
93	0xbb9205d9	-0.0044562635
94	0x3d8bb3ae	0.068213806
95	0xbe89b8a8	-0.26898694
96	0x3d2052ee	0.039141588
97	0x3e9241bd	0.2856578
98	0xbe472407	-0.19447337
99	0x3b3cf888	0.002883466
100	0x3c8c8e52	0.017157707
101	0xbe3b18ec	-0.18271226
102	0xbd395c8c	-0.045254275
103	0x3ccdcfff	0.025123594
104	0x3ea34ec5	0.31896034
105	0x3e35c461	0.17750694
106	0xbe147196	-0.14496455
107	0xbdfe1709	-0.12406737
108	0x3e3e356e	0.1857507
109	0x3e0223a2	0.12708905
110	0x3d00223f	0.03128266
111	0x3d86b5e9	0.06577665
112	0xbdd21bf4	-0.10259238
113	0x3df22f0a	0.11825378
114	0xbe0b984e	-0.13632318
115	0x3dade99c	0.08491823
116	0x3c76ccce	0.015063478
117	0xbe066e2e	-0.13127968
118	0x3e9b1882	0.30292135
119	0x3cabef0e	0.020988014
120	0xbd7e5bc1	-0.062099222
121	0x3d46b910	0.048516333
122	0xbda68fae	-0.081328735
123	0x3ce4c0ac	0.027923904
124	0x3e5a8096	0.21338114
125	0xbd384361	-0.044986133
126	0x3b42116b	0.0029612433
127	0xbcf141db	-0.029450348
128	0x3e960797	0.29302666
129	0xbeb7f397	-0.35928032
130	0x3d5fae45	0.054609556
131	0xbca49aa2	-0.020093266
132	0x3dd88a7c	0.10573289
133	0x3e159772	0.14608553
134	0x3d46c39f	0.048526403
135	0xbd9577c9	-0.07298238
136	0xbd5e3ec4	-0.054259077
137	0x3e3ad11a	0.18243828
138	0x3d3506eb	0.04419605
139	0x3d524ae4	0.051340953
140	0xbeba452f	-0.36380908
141	0x3e180870	0.14846969
142	0x3ec62860	0.3870268
143	0x3e0037b4	0.12521249
144	0xbf0e099d	-0.5548342
145	0x3cdfb20a	0.027306575
146	0xbd7c9ee0	-0.061674953
147	0x3ea0f624	0.3143779
148	0xbdbc0eef	-0.09182536
149	0xbd43ecc9	-0.047833238
150	0xbdc2fd82	-0.09521009
151	0xbda21724	-0.0791457
152	0x3ea5a1e3	0.32350072
153	0xbe5ec111	-0.21753336
154	0xbe43d9c5	-0.19126041
155	0x3e756ea7	0.23967992
156	0xbe278a62	-0.16361383
157	0x3f00cf6f	0.5031652
158	0x3e8778db	0.26459393
159	0x3e04758a	0.12935463
160	0xbe92b2d5	-0.28652063
161	0xbe2352ae	-0.15949509
162	0xbc26249a	-0.010140562
163	0xbd2f4e72	-0.04279942
164	0x3e0cf6b2	0.13765982
165	0xbf3c8eb4	-0.7365525
166	0x3e334229	0.17505707
167	0x3d24d7fb	0.040245038
168	0x3e419bd0	0.18907094
169	0x3e18f9bb	0.14939015
170	0x3e24fb2f	0.16111444
171	0x3e6b774b	0.22994725
172	0xbeafa0c8	-0.34302354
173	0x3bb3b640	0.0054843724
174	0xbe36141f	-0.17781113
175	0x3e5fecfc	0.21867746
176	0x3d47072a	0.048590817
177	0x3e3e2f14	0.18572646
178	0xbe9b7e9c	-0.30370033
179	0xbee45810	-0.44598436
180	0xbc830eaf	-0.015998213
181	0xbe651bd2	-0.22373894
182	0x3f1ca7a4	0.611933
183	0x3e3d88c4	0.18509203
184	0x3d995723	0.07487323
185	0x3ce78855	0.02826325
186	0x3e3fd73b	0.18734448
187	0xbe484c68	-0.19560397
188	0x3da1c3dc	0.07898685
189	0xbd969b76	-0.073538706
190	0xbd9809e9	-0.07423765
191	0x3da569e5	0.080768384
192	0xbd8d89d0	-0.06911051
193	0xbe24e324	-0.16102272
194	0x3dcc99dd	0.099902846
195	0x3d7157be	0.058921568
196	0xbcc2a1c2	-0.023758773
197	0xbcb9ef8a	-0.022697229
198	0x3dc06dff	0.0939598
199	0x3db42777	0.0879659
200	0x3da16b5a	0.07881804
201	0xbdde3efa	-0.108518556
202	0x3cde37f8	0.027126297
203	0x3d35dc44	0.044399515
204	0x3d420c1c	0.04737483
205	0xbcda3ab2	-0.026639316
206	0x3e064631	0.13112713
207	0xbae893e8	-0.0017744275
208	0xbe788992	-0.24271229
209	0xbd820055	-0.063477196
210	0xbd58edc4	-0.052961126
211	0x3e81b3e6	0.25332564
212	0x3e256e88	0.16155446
213	0x3d6931c3	0.056932222
214	0xbd5d7bfb	-0.054073315
215	0xbe0005c7	-0.12502204
216	0xbddd3d44	-0.10802701
217	0xbcfc6c6e	-0.030813422
218	0xbd224392	-0.03961522
219	0x3dc2d39b	0.09513017
220	0x3d56d293	0.052446913
221	0xbd049dde	-0.032377116
222	0xbdf35a5e	-0.118824705
223	0xbd424492	-0.047428675
224	0x3e4d62ba	0.20057192
225	0xbe0bca78	-0.13651454
226	0x3da60968	0.08107263
227	0xbc4c8079	-0.012481802
228	0xbd5c265d	-0.053747524
229	0xbb219d7f	-0.0024660525
230	0xbbd575a3	-0.0065142675
231	0x3e11d843	0.14242654
232	0xbe534614	-0.20632201
233	0x3e210c45	0.15727337
234	0x3e52934b	0.20564
235	0xbde5280b	-0.11189278
236	0xbdca7243	-0.09885075
237	0x3c3d6ae1	0.011561126
238	0x3dd519a8	0.10405284
239	0x3eb305c8	0.34965348
240	0xbdd05cee	-0.10173975
241	0xbe50aeaa	-0.20379129
242	0xbd41e2c5	-0.047335405
243	0xbe62110b	-0.22076814
244	0xbddf73bf	-0.10910749
245	0x3db200bb	0.086915456
246	0xbf48e16a	-0.78468955
247	0x3c14cc68	0.009081937
248	0xbe353640	-0.17696476
249	0xbd835bec	-0.06414017
250	0x3dc87973	0.097887896
251	0xbe0c7ea3	-0.13720183
252	0xbe7f9898	-0.24960554
253	0xbe913b1f	-0.28365418
254	0x3daa8437	0.08325999
255	0x3dbd961a	0.09257145

fc3.bias f4 [32]
0	0x3abc5dcb	0.0014371214
1	0xbc13e170	-0.009025916
2	0x3c0f8a04	0.008760933
3	0x3cae11fc	0.02124881
4	0xbcfb74c8	-0.030695334
5	0xbbeb1b97	-0.00717492
6	0xbc662bfd	-0.014048574
7	0x3ca20e60	0.019782245
8	0xbc77a500	-0.015115023
9	0xbad6bed1	-0.0016383772
10	0xbb485728	-0.0030569527
11	0xbcca76f7	-0.02471493
12	0xbbe1ee43	-0.006894858
13	0xbc5284bc	-0.012849029
14	0xbdd2c55a	-0.10291548
15	0x3a4fe5f9	0.0007930692
16	0x3f269a49	0.6507917
17	0x3f270bb6	0.65252244
18	0x3f273e49	0.65329415
19	0x3f27f9c8	0.6561551
20	0x3f28f6a5	0.6600135
21	0x3f27e7b2	0.65587914
22	0x3f2870ba	0.6579701
23	0x3f273cb3	0.65326995
24	0x3f2785e2	0.65438664
25	0x3f26db7a	0.65178645
26	0x3f257367	0.64629215
27	0x3f266da8	0.6501107
28	0x3f288db6	0.65841234
29	0x3f26190c	0.6488197
30	0x3f269791	0.6507502
31	0x3f28075b	0.65636224
