puppersim/dc_saves/aac_mega_puppy_3/critic1_6.pt (torch, 26903 bytes, 5 tensors)

fc1.weight f4 [64, 31]
0	0x3fa9efad	1.3276268
1	0xbfeab8f1	-1.833769
2	0xbfdaca74	-1.7093034
3	0x3ce0a35b	0.027421644
4	0x3f17ae2a	0.5925013
5	0xbe7b2d44	-0.24528986
6	0x3ea4bd63	0.3217574
7	0x3f99e53f	1.2023085
8	0xbe1ae71d	-0.15127225
9	0x3f912277	1.1338643
10	0x3ebc0e03	0.3672944
11	0xc0023130	-2.0342522
12	0x3f13d480	0.57746124
13	0xbee60f18	-0.4493339
14	0xbf8cc937	-1.0998906
15	0xbe256fb9	-0.161559
16	0xbed12abf	-0.40852925
17	0x3ebcad21	0.36850837
18	0x3ef58f57	0.47960922
19	0xbdce1f76	-0.100645944
20	0x3e287f4c	0.1645481
21	0xbdd5bc37	-0.1043629
22	0xbf827978	-1.0193319
23	0xbe2a7c52	-0.16648987
24	0x3dca6584	0.09882644
25	0x3f35bf01	0.70994574
26	0xbf04e7fb	-0.51916474
27	0x3cb97384	0.02263809
28	0xbefde4fb	-0.4958876
29	0x3ef83452	0.48477417
30	0xbef653fe	-0.48110956
31	0x3fbc26ba	1.4699318
32	0xc0136968	-2.3033085
33	0xbea17f88	-0.3154261
34	0x3f8e3adf	1.1111716
35	0xbe9118b7	-0.28339168
36	0xbf79bfe7	-0.97558445
37	0x3fc2941f	1.5201453
38	0xbf959938	-1.1687384
39	0xbf27bd1b	-0.6552293
40	0xbe20baaa	-0.15696207
41	0x3fb37d6f	1.4022654
42	0xbe9cae4d	-0.3060173
43	0x3ed1a462	0.40945727
44	0xbefc4b4f	-0.49276206
45	0xbefd6560	-0.49491405
46	0xbdd63499	-0.10459251
47	0xbddc65b8	-0.10761589
48	0x3dc7597f	0.09733867
49	0x3f3e331c	0.74296737
50	0xbe77b6df	-0.24190854
51	0x3dfba470	0.12287223
52	0x3e669e41	0.22521307
53	0xbe797e34	-0.24364549
54	0x3e650037	0.22363363
55	0xbf8bd179	-1.0923301
56	0xbec88305	-0.3916246
57	0xbef4cf81	-0.47814563
58	0xbf0ef4bd	-0.5584219
59	0x3f8c2846	1.094979
60	0x3e0262c3	0.12732987
61	0x3e1b7f0a	0.1518518
62	0x3f83d19f	1.0298346
63	0xbfbfaf03	-1.4975284
64	0xbf613164	-0.8796599
65	0x3f9df206	1.2339485
66	0x3fbabc27	1.458867
67	0xbf98b4c2	-1.1930163
68	0x3f9c0b32	1.2190917
69	0x401e70cf	2.4756353
70	0xc078d89c	-3.8882208
71	0x3e260e9f	0.16216515
72	0xc02d2398	-2.7052975
73	0xbe8aab64	-0.27083886
74	0x3fc841db	1.5645097
75	0xc04390f6	-3.0557227
76	0xbf9e86c9	-1.2384883
77	0x3e256eca	0.16155544
78	0xbf392a29	-0.72329956
79	0x3dbe9af1	0.093068965
80	0xbf2a320f	-0.66482633
81	0xbf04181f	-0.51599306
82	0xbf63be6f	-0.88962454
83	0x3e911d56	0.28342694
84	0x3d9a2057	0.075256996
85	0x3d45d5e8	0.0482997
86	0x3f094da2	0.53634083
87	0xbe8cefc2	-0.2752667
88	0x3f1e341b	0.61798257
89	0xbf8aa26f	-1.0830821
90	0xbf821a0d	-1.01642
91	0xbf6eec53	-0.9332935
92	0x3ba9d3c0	0.0051827133
93	0xbc8ca1c2	-0.017166976
94	0xbe0d0cb4	-0.13774377
95	0xbefb0ffd	-0.49035636
96	0x3f0247c6	0.5089077
97	0xbc71fe8b	-0.01477016
98	0xbf201191	-0.62526804
99	0x3dc5ae21	0.09652353
100	0x3d88ba92	0.066762105
101	0x3e76aed5	0.2409013
102	0x3e1fee7f	0.15618323
103	0xbebed7a5	-0.372739
104	0xbfc36ab1	-1.5266935
105	0xc015760a	-2.3353295
106	0xbf8f25a2	-1.118336
107	0x3fde09f9	1.7346793
108	0xbbe6344e	-0.007025278
109	0x3af8c3cf	0.0018979254
110	0xbb0d1919	-0.0021529852
111	0xbb5ff976	-0.003417579
112	0x3aa7675f	0.0012771896
113	0x3c29a513	0.010354298
114	0xbc6ba7bc	-0.014383253
115	0xbbbd8cd3	-0.00578461
116	0x3bf4d884	0.0074720997
117	0x3a0bceef	0.00053332647
118	0x3c164821	0.00917247
119	0xba734c04	-0.00092810416
120	0xbb9da6d0	-0.0048111454
121	0x3b831ed8	0.0040014796
122	0x3cb07070	0.02153799
123	0x3bccfb4e	0.006255544
124	0x3d92fe53	0.07177415
125	0x3d6a982d	0.057274032
126	0xbc0ddd2a	-0.008658687
127	0x3eddffe4	0.43359292
128	0x3f93c434	1.1544251
129	0xbf8efccc	-1.1170897
130	0x3f1bc9af	0.6085462
131	0xbf9f6110	-1.2451496
132	0xbfa51d80	-1.2899628
133	0x3f044075	0.51660854
134	0x3e083895	0.13302834
135	0x3e17774f	0.14791606
136	0x3dd7339a	0.10507889
137	0xbe3f9bf2	-0.18711832
138	0xbe9436ee	-0.28948158
139	0x3e67a7a5	0.22622545
140	0x3f02c09c	0.5107515
141	0x3e0b1e9e	0.13585898
142	0xbbb2e3e5	-0.005459296
143	0x3ee64494	0.44974196
144	0xbea3066d	-0.3184084
145	0x3f10e133	0.56593627
146	0x3e658443	0.22413735
147	0xbe70b09e	-0.23504874
148	0x3e25c297	0.16187511
149	0xbe995af0	-0.29952192
150	0x3e02ca8c	0.12772578
151	0x3e57e9ef	0.21085332
152	0xbe726a4a	-0.23673359
153	0xbea8d7a1	-0.32977012
154	0xbe9c8a0a	-0.30574065
155	0xbb4e854e	-0.0031512561
156	0xbf11c1f9	-0.56936604
157	0xbfbe4d3c	-1.486732
158	0xbf355aec	-0.7084186
159	0xbe38ffe3	-0.18066363
160	0xbfbb1e21	-1.461857
161	0xbf57f1b8	-0.8435321
162	0x3e92f2a5	0.28700748
163	0x3f517b19	0.8182846
164	0x3f066c0d	0.5250862
165	0xbe9c10fc	-0.30481708
166	0x3f14f88b	0.58191746
167	0x3f0fe999	0.56215817
168	0xbe9057dd	-0.28192034
169	0x3ea2dd4d	0.31809464
170	0x38d443f0	0.00010121602
171	0x3c226c2a	0.009913484
172	0xba5fca28	-0.00085368985
173	0xbbc8dd7c	-0.0061299186
174	0x3b4ad02b	0.0030946832
175	0xbc29c0dd	-0.010360924
176	0x3c223ba4	0.009901915
177	0x3c6fe85e	0.014642803
178	0x39ec7fd6	0.00045108673
179	0x3ca9f3fe	0.020746227
180	0x3c0d3aba	0.008619959
181	0x3c11aa00	0.008890629
182	0xbae3f8a0	-0.0017392822
183	0x3b31fe97	0.0027159804
184	0x3c40193b	0.011724765
185	0x3bf78bc2	0.007554502
186	0xbf2c27c2	-0.67248166
187	0xbfc5063b	-1.5392526
188	0xbf27aef4	-0.6550133
189	0x3ec58eec	0.38585603
190	0x3e924bac	0.28573358
191	0xbf0d4031	-0.55176073
192	0x3e9399e2	0.2882834
193	0xc0086e02	-2.1317143
194	0xbf03ed38	-0.5153384
195	0x3f12d936	0.5736269
196	0x3fcbe53b	1.592933
197	0xbe2318ee	-0.15927479
198	0x3e1df73c	0.15426344
199	0xbfbbec98	-1.4681578
200	0xbeff3982	-0.49848562
201	0x3f1769d0	0.5914583
202	0xbc3268b0	-0.010889217
203	0xbe203d97	-0.15648495
204	0xbf094c86	-0.5363239
205	0x3e486c44	0.1957255
206	0x3da2e171	0.07953156
207	0x3cd0dfad	0.025497282
208	0xbd52a1bd	-0.051423777
209	0xbe993cd8	-0.29929233
210	0x3ead3da4	0.3383609
211	0xbea97b3d	-0.33101836
212	0xbebbbff8	-0.36669898
213	0x3e44e919	0.19229545
214	0xbe1a9b97	-0.15098415
215	0x3e0caf37	0.13738714
216	0x3eb5ca66	0.3550598
217	0xbe961b67	-0.2931778
218	0xbead33e7	-0.3382866
219	0xbf35b9c8	-0.70986605
220	0x3f03224e	0.5122422
221	0xbe76e0ce	-0.24109194
222	0x3d583078	0.0527806
223	0x3ddcf40e	0.10788737
224	0xbc839d1b	-0.016066125
225	0xbfe85a4a	-1.8152554
226	0xc0023c7c	-2.0349417
227	0x3f031fda	0.51220477
228	0x3d4512da	0.04811368
229	0xbd4aca31	-0.04950923
230	0xbfd3e108	-1.6553049
231	0xbf89955f	-1.074871
232	0x3c0b6ae7	0.008509374
233	0x39af472c	0.00033431628
234	0xbc1ac5f8	-0.0094466135
235	0x3c73e6e5	0.0148865925
236	0x3c1bf75d	0.009519425
237	0x3c654dc3	0.013995591
238	0xbbc46dc3	-0.00599453
239	0xba82af6f	-0.0009970496
240	0x3c07052f	0.008240982
241	0x3c6ee2ea	0.014580468
242	0xbc9d1046	-0.019172799
243	0x3b2fc2d8	0.0026819017
244	0x3c123efe	0.008926151
245	0x3bf1ddc0	0.007381171
246	0x3aae8d5b	0.0013317274
247	0xba361bc0	-0.0006946884
248	0x3f56f478	0.8396678
249	0x40473dec	3.1131544
250	0x3f146276	0.5796274
251	0x3d60cd39	0.054883216
252	0x3fb81253	1.4380592
253	0x401d3466	2.4563231
254	0x3f31e375	0.69487697
255	0xbfabd8d8	-1.342555

fc1.bias f4 [64]
0	0xbfb233f1	-1.3922101
1	0xc00c4930	-2.191967
2	0xbe622af2	-0.22086695
3	0xbfd93bd1	-1.697138
4	0xbf9944b5	-1.1974093
5	0x3d8a91d1	0.067660935
6	0xbe69db22	-0.22837499
7	0x3edc6ed3	0.43053302
8	0xbf8994d6	-1.0748546
9	0xc0137768	-2.304163
10	0xbfafd966	-1.373822
11	0xc016882e	-2.3520617
12	0xbfd0e4c1	-1.631981
13	0xbfe00375	-1.7501055
14	0x3ff81fc1	1.938469
15	0xbfd899e9	-1.692197
16	0xbf2c9bca	-0.67425215
17	0x3f7746f7	0.9659266
18	0xbec3ddb6	-0.3825509
19	0x3f2298b4	0.63514256
20	0xbfad9e27	-1.3563889
21	0xc042c858	-3.043478
22	0xc004b0b8	-2.073286
23	0xbfeaa0a6	-1.8330276
24	0xc00a4ef5	-2.1610692
25	0xbfce63df	-1.6124228
26	0xbfc7166b	-1.5553716
27	0xbeb580bd	-0.35449782
28	0xc0403ac2	-3.0035863
29	0xc0163f97	-2.3476312
30	0xc0002d08	-2.0027485
31	0xc0341683	-2.813874
32	0xbf9a52b6	-1.2056491
33	0x3f8774fd	1.0582577
34	0xbf5bfa03	-0.8592836
35	0x3fb2c1db	1.396541
36	0xbfaffef6	-1.3749683
37	0xbfd7a243	-1.6846393
38	0x3d59ec1b	0.053203683
39	0xbc3476cf	-0.011014654
40	0xc0119fbf	-2.2753751
41	0xbf35565a	-0.7083489
42	0xbfe64028	-1.7988329
43	0xbff76aef	-1.9329509
44	0xbf6bfae1	-0.92179686
45	0xc03f2f69	-2.9872687
46	0x4006f383	2.1086128
47	0xbf671216	-0.9026197
48	0x3f41796a	0.7557589
49	0xbfb9a748	-1.4504175
50	0xc02d494a	-2.7075982
51	0xbfcaf1d3	-1.5855049
52	0xbf8097b3	-1.0046295
53	0xbf892827	-1.0715379
54	0xc0088428	-2.1330662
55	0xbf0e6e83	-0.5563738
56	0xbf506e7e	-0.814186
57	0xbfeb4e50	-1.8383274
58	0xbf05fc65	-0.5233825
59	0xbfa81a7f	-1.3133086
60	0xbe84b604	-0.25920117
61	0x3ebc6ca4	0.36801636
62	0xc06f0550	-3.7346992
63	0xbf4e962d	-0.806979

fc2.weight f4 [64, 64]
0	0xbf46ff47	-0.7773327
1	0xbea39d96	-0.31956166
2	0x3d6c4b5b	0.057689052
3	0xbdaa6c4c	-0.08321437
4	0x3e60c8d5	0.21951611
5	0x3e9f3451	0.31094602
6	0xbeb67dd1	-0.35642865
7	0x3eb1daa4	0.34737122
8	0x3df84d6b	0.12124141
9	0xbf1735d0	-0.59066486
10	0xbe336b8a	-0.17521492
11	0x3f12c1bf	0.57326883
12	0xbf9078a8	-1.1286821
13	0x3f162c19	0.5866104
14	0x3d1d0e04	0.038343444
15	0xbe728097	-0.23681866
16	0xbdb5d2b4	-0.08878079
17	0x3e2e4a08	0.17020428
18	0xbd42c161	-0.0475477
19	0xbf70a6c3	-0.9400446
20	0xbe43a83d	-0.19107147
21	0xbf177e74	-0.5917733
22	0x3dfb6376	0.1227483
23	0x3e93825d	0.28810397
24	0x3f286f0a	0.6579443
25	0xbeb7a2b9	-0.35866335
26	0xc014e565	-2.3265011
27	0xbf53b17c	-0.82692695
28	0x3dc1f406	0.09470372
29	0xbe3f999d	-0.18710943
30	0xbcab5267	-0.020913316
31	0xbf2555e2	-0.6458417
32	0x3e44c922	0.19217351
33	0xbe1b2384	-0.15150267
34	0x3e7fcaf0	0.24979758
35	0x3d21ab95	0.039470274
36	0x3f16490b	0.58705205
37	0xbba4e96e	-0.00503271
38	0xb9ba6202	-0.00035549706
39	0xbdb114c1	-0.086465366
40	0x3e5217ec	0.20516938
41	0xbe93cd01	-0.28867343
42	0xbf8c0799	-1.0939819
43	0xbe751947	-0.23935424
44	0x3e40e5fd	0.18837734
45	0x3ccc495d	0.024937326
46	0x3e376146	0.179082
47	0xbe7a69dc	-0.24454445
48	0x3e6767eb	0.22598235
49	0xbdc9376a	-0.098250225
50	0x3f1afb12	0.6053935
51	0xbf0b376d	-0.5438145
52	0x3db9a53e	0.090647206
53	0xbdc0cbe2	-0.094138876
54	0x3e259db4	0.1617344
55	0xbd913654	-0.070904404
56	0xb9a75b57	-0.00031920776
57	0xbe2dda86	-0.16977891
58	0x3ea90885	0.33014312
59	0xbf202615	-0.6255811
60	0xbe67ad6b	-0.22624747
61	0x3e95a800	0.29229736
62	0xbe186a16	-0.14884219
63	0x3e2510d5	0.16119702
64	0x3f155928	0.58339167
65	0xbead789b	-0.33881077
66	0xbf5d68f5	-0.86488277
67	0x3ecf24b6	0.40457696
68	0xbd8fde09	-0.07024772
69	0xbde3c5b8	-0.11121696
70	0x3f48c828	0.78430414
71	0xbf23a2a9	-0.63920075
72	0xbdda3a5a	-0.10655661
73	0xbf2a82dd	-0.6660593
74	0xbd95c9be	-0.0731387
75	0xbe84612a	-0.2585538
76	0x3efc967d	0.49333563
77	0xbf91165c	-1.1334949
78	0x3cbd8ee8	0.023139432
79	0xbd2bd795	-0.041953642
80	0x3e3e682c	0.18594426
81	0x3e018289	0.12647451
82	0x3e1166b6	0.14199337
83	0xbe390707	-0.18069087
84	0x3e6dc50f	0.23219703
85	0x3e2213ea	0.15827909
86	0xbf3eaf57	-0.744863
87	0xbe61dbcb	-0.220565
88	0xbec5e2e3	-0.38649663
89	0xbe889425	-0.26675525
90	0x3e066a50	0.13126493
91	0xbdbc1e11	-0.09185422
92	0xbdfc33e4	-0.12314585
93	0xbe55f5fc	-0.20894617
94	0xc040bd41	-3.0115511
95	0x3e1bc172	0.15210512
96	0x3cf5d4e8	0.030008748
97	0xbe8569cf	-0.26057288
98	0x3ed2c597	0.41166374
99	0xbe15bde7	-0.14623223
100	0x3e860d75	0.26182142
101	0x3d262c54	0.04056962
102	0x3e5f9e35	0.21837695
103	0xbf36babd	-0.7137869
104	0xbf8cc284	-1.0996861
105	0xbe6edd73	-0.23326664
106	0xbf186124	-0.59523225
107	0x3da4d646	0.08048682
108	0xbe97f76c	-0.29680955
109	0xc04a8cbc	-3.1648397
110	0x3f109db7	0.56490654
111	0x3da92651	0.082592614
112	0x3f652ad9	0.89518505
113	0xbecb98e9	-0.397651
114	0x3e9a6e63	0.30162343
115	0x3e751e76	0.23937401
116	0xbd2c393f	-0.04204678
117	0x3e948a23	0.2901164
118	0x3e49fb4b	0.19724767
119	0x3e000b0c	0.12504214
120	0xbe89f9f8	-0.26948524
121	0xbd35166b	-0.044210833
122	0x3a05564b	0.0005086406
123	0xbe78d473	-0.24299793
124	0xbe104fa8	-0.14092886
125	0x3e40e28e	0.18836424
126	0xbeedbf2d	-0.46434918
127	0xbe460f12	-0.19341686
128	0x3eaa9475	0.3331639
129	0xbf8be1b8	-1.0928259
130	0x3ceb5832	0.028728578
131	0xbe0da851	-0.13833739
132	0xbf21b738	-0.63170195
133	0xbe1246e5	-0.14284857
134	0xbdc41dcb	-0.09575995
135	0xbe63a63a	-0.22231379
136	0xbe1aad08	-0.15105069
137	0x3e90bc54	0.28268683
138	0xbeef591c	-0.46747673
139	0xbc449023	-0.0119972555
140	0x3dfdc58c	0.12391195
141	0x3e93b5a5	0.2884952
142	0xbe2b4b3d	-0.1672792
143	0x3dc76f9b	0.09738084
144	0x3f095257	0.53641266
145	0xbec1b9b8	-0.37837005
146	0xbe3ad2dc	-0.18244499
147	0xbe9da7d2	-0.307921
148	0x3d3ee0a6	0.04660096
149	0x3daf282c	0.08552584
150	0x3d689f79	0.05679271
151	0xbc76ff5f	-0.015075534
152	0xbfd57315	-1.6675745
153	0xbeb98c95	-0.36240068
154	0x3e8806ad	0.26567593
155	0x3eeb5b6c	0.45968187
156	0xbfa62a3a	-1.2981637
157	0xbe379b3e	-0.17930314
158	0xbc890a2f	-0.016728489
159	0x3e2e0229	0.16993012
160	0xbfbbff6f	-1.4687327
161	0xbe90ab96	-0.2825591
162	0xbe7d43f9	-0.24732961
163	0xbe62d712	-0.22152355
164	0xbd157bf0	-0.03649515
165	0xbe0eeb5f	-0.13956974
166	0xbd42581e	-0.047447316
167	0xbe848141	-0.25879863
168	0x3a974784	0.0011541699
169	0x3e20601f	0.15661667
170	0x3e3a33a0	0.18183756
171	0xbd7b4eb4	-0.061354354
172	0xbf545cce	-0.8295411
173	0x3de66b5f	0.11250948
174	0xbe301dc9	-0.17198862
175	0x3e8db2c0	0.27675438
176	0x3e5b9a4e	0.21445581
177	0xbda239e0	-0.07921195
178	0x3e20b105	0.15692528
179	0xbea1ae5e	-0.31578344
180	0xbcfc9377	-0.030832035
181	0x3ccc19c5	0.024914632
182	0xbe8cf435	-0.27530065
183	0xbd9d16dd	-0.076703764
184	0xbf0a0886	-0.53919256
185	0xbe015899	-0.12631454
186	0xbfda16b2	-1.7038176
187	0xbe6698c1	-0.22519208
188	0xbfa69e13	-1.301699
189	0xbff1586a	-1.8855107
190	0xbe77c677	-0.24196802
191	0xbdcf2de6	-0.10116176
192	0xbd904c6d	-0.07045827
193	0xbebc5043	-0.36779985
194	0x3d33dd92	0.043912478
195	0xbf2ca583	-0.6744005
196	0x3f845375	1.0337969
197	0xbfec7b81	-1.847519
198	0xbcd2fc39	-0.025755035
199	0xbfe8b150	-1.8179111
200	0xc00273c8	-2.0383167
201	0x3d9c8ef6	0.07644455
202	0xbc048abe	-0.008089719
203	0x3e7f6b96	0.24943385
204	0x3dfed14a	0.124422625
205	0xbf15c0e3	-0.58497447
206	0xbfb3b100	-1.4038391
207	0xbf6d6155	-0.9272664
208	0x3eccb4d8	0.39981723
209	0x3fdd3e21	1.7284585
210	0xbe819bff	-0.25314328
211	0xbfb20c2e	-1.3909967
212	0xbf655096	-0.8957609
213	0xbf107afe	-0.5643767
214	0x3f03ec7b	0.51532716
215	0xbd9abf9b	-0.07556077
216	0xbfb3e1b7	-1.4053258
217	0xbdedba53	-0.11607804
218	0x3dc2567f	0.09489154
219	0xbf3f9590	-0.7483759
220	0xbe0992db	-0.13434927
221	0xbef531c9	-0.47889546
222	0xbfb548c8	-1.4162836
223	0x3f847046	1.0346763
224	0x3f07615c	0.52882934
225	0x3eb860c7	0.36011335
226	0xbfc24580	-1.517746
227	0xbef0091a	-0.46881944
228	0x3e94dd52	0.29075104
229	0xbf4024b9	-0.75056034
230	0x3f4f1b60	0.80901146
231	0xc056dfb8	-3.3574047
232	0x3f7b70ad	0.98218805
233	0x3f2c86ac	0.6739299
234	0xbf4be87b	-0.7965161
235	0xbe987dfa	-0.29783612
236	0xbeb651b6	-0.35609215
237	0x3e870cc9	0.26376942
238	0xc052416c	-3.285243
239	0xbe0e504e	-0.13897821
240	0xbf11ed75	-0.57002956
241	0x3f11e7bf	0.5699424
242	0xbe756f6b	-0.23968284
243	0xbfd03633	-1.626654
244	0x3f8501a7	1.0391129
245	0xbf368e64	-0.7131102
246	0xbe9f0e8f	-0.31065795
247	0x3ecb4fb3	0.39709243
248	0xbe8c1f82	-0.2736779
249	0xbf481524	-0.7815726
250	0x3fe1da3b	1.7644724
251	0xbf310561	-0.6914883
252	0x3e67e840	0.2264719
253	0x3f440faa	0.765864
254	0xbf719dd1	-0.94381434
255	0x3db4fad3	0.088369034

fc2.bias f4 [64]
0	0xbe67be85	-0.22631271
1	0xbedc2d01	-0.43003085
2	0xbe4dbf6b	-0.20092551
3	0xbff3dc35	-1.9051577
4	0xbd3328dc	-0.04374014
5	0xbf4932c0	-0.78593063
6	0xbe96ea47	-0.29475614
7	0xbf0d00fa	-0.55079615
8	0xbebc0789	-0.367245
9	0xbee09422	-0.43863016
10	0xbe090ef7	-0.13384615
11	0xc02e38ce	-2.722217
12	0xbd84690b	-0.06465348
13	0xbf3c96a1	-0.7366734
14	0xbf8abc76	-1.0838764
15	0xbeec4bc0	-0.46151543
16	0x3d9671d1	0.073459275
17	0xbfda31e0	-1.7046471
18	0xc00c92c0	-2.196457
19	0xbf8020f7	-1.001006
20	0xbe9cac23	-0.3060008
21	0xbfae1ec9	-1.3603145
22	0xbe55711e	-0.20843932
23	0xc07ac4bf	-3.9182584
24	0xbfe7de18	-1.8114653
25	0xbe1ed013	-0.15509062
26	0xbfba6ecf	-1.4565066
27	0xbfb57a67	-1.4177979
28	0xbf2e58c7	-0.68104213
29	0x3db65f36	0.08904879
30	0xc027ce70	-2.621975
31	0xbf5c15f8	-0.8597102
32	0x3dd89d39	0.10576863
33	0xbe905246	-0.2818777
34	0xbf4d6a5e	-0.8024043
35	0xbf38be6c	-0.7216556
36	0xbdee4065	-0.11633376
37	0xbf641cd4	-0.8910649
38	0xbf915572	-1.1354201
39	0xc0856d83	-4.169618
40	0xbdedf00a	-0.116180494
41	0xbf68fe9c	-0.91013503
42	0xbe1708b6	-0.14749417
43	0xc00bba2a	-2.1832376
44	0xc080f9b9	-4.0304837
45	0xbe586c39	-0.21135034
46	0xbf6323e2	-0.8872663
47	0xbebc101f	-0.3673105
48	0xc02b3280	-2.6749573
49	0xbf2d4300	-0.6768036
50	0x3d91aab7	0.071126394
51	0xbfb6db2a	-1.4285634
52	0xbee43672	-0.44572788
53	0xbe478d08	-0.19487393
54	0xbe87db94	-0.26534712
55	0xbff3cc58	-1.9046736
56	0xbe6ab49a	-0.22920457
57	0xbe45faeb	-0.19333999
58	0xbea5ea39	-0.3240526
59	0x3f4b301b	0.7937028
60	0xbee77ae9	-0.4521096
61	0x3e43988f	0.19101165
62	0xbed7e133	-0.42164
63	0xbe2e8b72	-0.17045382

fc3.weight f4 [1, 64]
0	0x3c8008fb	0.015629282
1	0xbc762ac8	-0.015024848
2	0xbf191d8d	-0.59810716
3	0xbb5a3494	-0.00332955
4	0xbcf7a26d	-0.030228818
5	0xbc6cd288	-0.014454491
6	0xbb8e512f	-0.004343174
7	0xbc01c385	-0.007920151
8	0xbc5281d9	-0.012848341
9	0xbc7c8d7b	-0.015414591
10	0xbf45be4b	-0.7724349
11	0x3c512696	0.012765547
12	0xbd4ceeea	-0.050032534
13	0x3c488280	0.012238145
14	0x3cb3bff6	0.02194212
15	0x3c07d9cc	0.008291673
16	0xbc0f9521	-0.008763582
17	0x3cb4ff57	0.022094412
18	0x3d271a97	0.040796842
19	0x3ca87fc6	0.02056874
20	0x3df843ba	0.12122293
21	0xbceb7c08	-0.028745666
22	0x3c80ca32	0.015721414
23	0x3ccbc0ff	0.024872301
24	0x3caf0633	0.02136526
25	0xbf47eda6	-0.78097
26	0x3d93a59a	0.0720932
27	0x3cfa9ba9	0.030591803
28	0x3c6c0a7c	0.014406797
29	0xbc955106	-0.018227112
30	0x3c36f74a	0.011167357
31	0x3c09299a	0.008371735
32	0xbcd1bc01	-0.025602343
33	0xbb9df58c	-0.0048205312
34	0xbca488ac	-0.020084701
35	0x3c4fc1cd	0.012680483
36	0xbf0d7804	-0.55261254
37	0xbc86a792	-0.016437326
38	0xbcc12598	-0.023577496
39	0x3be141b1	0.006874286
40	0xbf3dd7e5	-0.74157554
41	0x3cc9623a	0.02458297
42	0xbf1ec309	-0.6201635
43	0xbb2b74df	-0.002616219
44	0x3c54d0ce	0.012989236
45	0x3cb6e472	0.022325728
46	0xbd560983	-0.052255165
47	0x3c8c9886	0.017162573
48	0x3d5783b6	0.052615844
49	0xbca2ecbb	-0.019888273
50	0x3cfd4109	0.0309148
51	0x3d3be2ba	0.04587052
52	0xbca2f791	-0.01989344
53	0xbc8aec32	-0.01695833
54	0x3de45443	0.11148884
55	0x3c9f6cd3	0.019461071
56	0xbc205fc0	-0.009788454
57	0xbedfd766	-0.43719023
58	0x3cab1e69	0.020888524
59	0x3de385f1	0.11109532
60	0xbccc7bf8	-0.024961457
61	0xbc7b32ae	-0.015331907
62	0xbca7c298	-0.020478532
63	0xbf166050	-0.5874071
