puppersim/dc_saves/aac_slow_pupper_0/actor_23.pt (torch, 43223 bytes, 6 tensors)

fc1.weight f4 [80, 15]
00000000: d583 b53e 8b4a 133e c13d 62be c740 02bf
00000010: 5d55 34bd 71fe 97be d5ee 7abe 6f34 87bd
00000020: ac8d 17be dd1a ccbe 3b8c 263d 5679 1b3e
00000030: 1b62 013e c39b 10be fa28 00bd 1cef 3cbd
00000040: c610 bdbe 26d6 01bf dbd1 2fbf 7fdf 093e
00000050: 7df0 87be 66de b4be 0641 fe3e c227 283f
00000060: 0dc5 ef3e 3de7 aa3e 7936 703f 6dd4 1cbf
00000070: 1216 d0bf bf8a d5be 38ce e9bd 21ba a6bd
00000080: c828 da3d a340 f4bc b00d b03d 4cdb 10bb
00000090: 7616 a03e 0cfa ed3c e3b6 1f3e 89f2 0bbc
000000a0: eff3 90bd 2ee6 5cbd e5c0 04be 4f26 1cbe
000000b0: 8964 13be a614 a5bd 1bce bebd 461e f7bc
000000c0: 32c3 49bd 091f 833d 7318 aa3d ef16 dcbc
000000d0: f4b3 f2bd e1be 7bbc 986b 293e 47aa 863e
000000e0: 5b1a f4bd 709a 473e c89c 4abd 1a18 d4bc
000000f0: 4cff cabe 15ee c83d 37a9 2ebe 0daf 66be
00000100: 939e ecbe c5a4 9a3d c87a ea3b df4c e23d
00000110: 1350 653e 91d2 133e 7a6f 34bd 8fb7 353e
00000120: 8b2e b7bd 884a 38bd 775e 9b3c cff6 693d
00000130: 4d1a 0c3e 4a85 eabd 079e 483f 1c30 f7bd
00000140: 7aaf babd 07c0 d63d b1d8 c83e bb66 d0be
00000150: 172c 4ebe 5ad8 96be 494f 1a3e 9ec2 1c3e
00000160: 218c 37be 91a0 b2bd ac4e a8be bfdc 3cbe
00000170: 2026 05be c974 1fbe 480b c4bd a105 32be
00000180: 2a5a 50bd 6dcd d03d 4113 dc3c d612 1c3d
00000190: 59c5 8fbd 1f08 783e 8dff 093e 0afd a2bd
000001a0: 5a56 adbe 93fd 70be 612e a33e 76c5 803c
000001b0: 21d4 023d f5da 84be 9191 733e 740c f03d
000001c0: 92e7 41be ee05 3a3e a522 25bd 8843 803e
000001d0: 36fb 703d 4f28 5d3d 4099 88be 910e ec3c
000001e0: 61b6 a8bd 3c34 05be 7415 8f3e 62fe 6bbf
000001f0: 599a cdbe a882 2bbf 1477 bdbd f88f 483e
00000200: d811 133e 2fac 023f b6ca 933e 5772 333f
00000210: 3c56 a13d dabc 67bf c66c 5ebf f15f a3be
00000220: 6060 4e3e 7b8a 533e 9b2d 16be 8082 5abe
00000230: f7bd dcbe fe2e 1e3e 800e ee3d c6e8 36bd
00000240: d26e 7b3d 18b9 f6bd bd76 eb3d 9242 343e
00000250: e8c7 1bbe f945 8bbf 9f42 afbe ab79 ccbd
00000260: aa73 553d 7f8a a23c 34cd 13be d857 30be
00000270: 896b 14be 3e64 8abd b341 8fbc 03a2 adbd
00000280: b7b4 a13e 493f 483e dad1 1c3e 65a2 403c
00000290: c0b2 5bbd 1998 b63e 8728 7c3c 92e4 13be
000002a0: b531 e2bd 552d 8ebd 0995 b3bd 7368 01be
000002b0: 0178 3a3e e7bb 693d 643c 3abd cd2a f63d
000002c0: 55f8 92bd f256 e3bd 9099 303d 7f1f 8c3d
000002d0: d0ef 49be d695 c4bf 4b27 e8be 3639 e8bd
000002e0: 1e5a c6bf e7e6 ac3d ef3d 7abe fc1b 7dbe
000002f0: f1f7 cfbd 6c8e 653e b46c 383f b4e5 573f
00000300: f482 eebe eeac 053f 5daa b03e 87db bdbe
00000310: 96bb b2be 6774 7d3d c3f5 043e 82e6 153e
00000320: cf8a ab3d fce9 a93d 5290 75be 204f c73c
00000330: 31a6 1e3e 6431 2b3e d73c 8a3d 9ea1 36be
00000340: a8f6 5f3e 8024 2ebe 183f fabe 50c6 82be
00000350: 4bc5 353d 7c2e bc3e b215 623d b75f f13d
00000360: 7095 eebd 0fa4 f7bd 1100 6cbe 7e8a 063e
00000370: 6096 3a3e 836c a4ba 6fb7 19bd 547c dcbe
00000380: 2f29 133f e323 c1bd a1c3 adbe 9f32 bbbe
00000390: 2970 c2be 87bd 4fbf 4117 0ebf 8124 283e
000003a0: 5d68 363f f82e 963e c4df 5f3e efbb 863e
000003b0: aac2 263f b4ba 85be e1a9 8c3f 9736 37be
000003c0: 85f0 b33d 20c3 43bf 4a04 56be bdbb a43e
000003d0: 7b89 5dbf 6b0c ecbe f482 9bbe 44f7 113f
000003e0: 42c8 29bf 2d09 35be 32f4 233e d2b7 063f
000003f0: 281c 1fbf 73f8 c4be efe2 64bf 995e 963a
0.35452142 0.14383905 -0.2209387 -0.5088009 -0.04402672 -0.2968631 -0.2450517 -0.06601798
-0.14800137 -0.39864245 0.040661078 0.15183005 0.1263508 -0.14121918 -0.03128908 -0.04612647
-0.3692686 -0.5071739 -0.6867959 0.13464163 -0.26550665 -0.35325927 0.49658984 0.65685666
0.46830025 0.33379546 0.9383312 -0.61261636 -1.6256735 -0.41707417 -0.11416286 -0.0814097
0.1065231 -0.029815977 0.08596361 -0.0022103367 0.31267136 0.029049896 0.1559711 -0.008541712
-0.07077777 -0.053930454 -0.12964208 -0.15248989 -0.1439382 -0.08060579 -0.09316655 -0.030165803
-0.04925842 0.06402404 0.083054446 -0.026866404 -0.118507296 -0.015365333 0.1654495 0.26301786
-0.119190894 0.19492507 -0.049465925 -0.025890399 -0.396479 0.098110355 -0.17056738 -0.22527714
-0.46214733 0.075509585 0.00715575 0.11049818 0.22393827 0.14435793 -0.044051625 0.17745803
-0.08944424 -0.044992954 0.018965943 0.05712014 0.13681908 -0.11451204 0.7836613 -0.12069723
-0.09115501 0.10485845 0.39227822 -0.40703377 -0.20134006 -0.29461938 0.15069307 0.15308616
-0.17924549 -0.08722032 -0.32872522 -0.18443583 -0.13002825 -0.15571894 -0.09572464 -0.1738496
-0.050867237 0.10195432 0.02686465 0.0381039 -0.07020063 0.24221848 0.13476391 -0.079584196
-0.33854944 -0.23534231 0.31871322 0.015719157 0.031940583 -0.259483 0.23785998 0.11721125
-0.18935993 0.18166324 -0.040316243 0.25051522 0.058833323 0.05399352 -0.2667942 0.02881554
-0.08237911 -0.13008207 0.27946055 -0.9218503 -0.4015682 -0.6699624 -0.09251228 0.1958617
0.14362276 0.5104398 0.28865594 0.70096344 0.07877776 -0.9052254 -0.86884725 -0.31909135
0.20153952 0.20658295 -0.14665835 -0.21338844 -0.43113682 0.15447614 0.116238594 -0.044655584
0.061384983 -0.120470226 0.11497257 0.1760352 -0.15212977 -1.0880729 -0.34230515 -0.09984144
0.05211226 0.01984143 -0.14433748 -0.1722101 -0.14494146 -0.06757401 -0.017487383 -0.08478167
0.31583187 0.19555391 0.15314427 0.011757468 -0.053637266 0.35662916 0.015390522 -0.14442661
-0.11044637 -0.0694224 -0.087686606 -0.126375 0.1820984 0.057063963 -0.04546775 0.12019882
-0.07176272 -0.11100568 0.0431152 0.06841945 -0.19720387 -1.5358226 -0.45342478 -0.11339037
-1.5496252 0.084424786 -0.24437688 -0.24717706 -0.10154713 0.22417611 0.7204087 0.84334874
-0.46584284 0.52216995 0.34504977 -0.3708155 -0.34908742 0.061878588 0.12984376 0.14638713
0.08376085 0.08296582 -0.23980835 0.024329722 0.15493084 0.1671806 0.067498855 -0.1783509
0.21871436 -0.17006111 -0.48876262 -0.25541925 0.044377606 0.36754215 0.05519647 0.11785834
-0.11649597 -0.120918386 -0.230469 0.13138768 0.18221426 -0.0012544546 -0.03752845 -0.43063605
0.57484716 -0.09430673 -0.33938316 -0.36562058 -0.37976196 -0.8114857 -0.5550423 0.16420175
0.71252996 0.2933271 0.21862704 0.26315257 0.65140784 -0.26119006 1.0989343 -0.17891918
0.0878611 -0.7646961 -0.20900074 0.32174483 -0.86537904 -0.46103224 -0.30373347 0.5701792
-0.66321194 -0.17679282 0.16011122 0.5262424 -0.6215234 -0.38470802 -0.89408773 0.0011472284

fc1.bias f4 [80]
00000000: 2078 13c0 d13a ae3e 0000 0000 0000 0000
00000010: 9fbd e43f e915 583f 9dc0 803d 2d3f 5ebd
00000020: 9bf3 713f 41af 743e b7e2 e93c ba5e e0bf
00000030: 187b 2abf 11ee f03f c3e8 133d 8d07 d9bd
00000040: 736c 273f 0000 0000 91fc 333f 6f5c 853e
00000050: df21 8fbe 0000 0000 f156 753e f881 0940
00000060: dd90 07c0 c618 923e 8cf9 f43e 66bd 3bc0
00000070: d1f0 613f 0000 0000 fd8a adbf 6efa 3e3f
00000080: deb6 2bc0 0d43 e0be e677 b6bf 0000 0000
00000090: 1d7d 583e dfc3 a83c 3ec1 b1bf ce0f 9b3f
000000a0: c1b3 b63f 0000 0000 ea91 393f 7db2 47bc
000000b0: 0000 0000 7278 8a3d 8fb9 d33f 3154 973f
000000c0: 3b9c f1be 3dd0 a8bd b691 b03f 9861 433d
000000d0: 36ac 96bf e75b 5dbe b59f 94be 0000 0000
000000e0: 0000 0000 0000 0000 0000 0000 0000 0000
000000f0: dbad 593f ce71 a13f 11c7 a6bc e733 ef3d
00000100: 4da2 a93d 9f3d ef3e 0000 0000 f4b5 463f
00000110: 95a8 d9bf 0900 e83e c1da b6bf 9ceb b0bc
00000120: 1ac2 03bf 248e 2d3f b630 843e cedd 88be
00000130: 00c8 83bf cd08 1cbc dfc0 433e 4856 cb3d
-2.3042068 0.34029248 0.0 0.0 1.7870368 0.8440843 0.06286738 -0.054259468
0.9451234 0.23894979 0.028550489 -1.7528908 -0.66594076 1.8822652 0.03611065 -0.10597143
0.65399855 0.0 0.7030726 0.26047084 -0.2795553 0.0 0.23958947 2.1485577
-2.1182168 0.28534526 0.4784664 -2.933435 0.8825808 0.0 -1.3558041 0.74600875
-2.6830363 -0.43801156 -1.425534 0.0 0.21141477 0.020601211 -1.3887098 1.2114198
1.4273607 0.0 0.7248827 -0.012188551 0.0 0.06761254 1.6541003 1.1822568
-0.47189507 -0.08242843 1.3794467 0.047700495 -1.1771305 -0.21617089 -0.29028097 0.0
0.0 0.0 0.0 0.0 0.8503091 1.2612855 -0.020358594 0.116798215
0.082829095 0.467267 0.0 0.7762139 -1.7004572 0.45312527 -1.4285508 -0.021596722
-0.5146805 0.67795014 0.25818413 -0.26731724 -1.029541 -0.009523583 0.19116543 0.09928566

fc2.weight f4 [80, 80]
00000000: 37d9 8dbd 4c9e 283e 1755 4fbe 35a6 5a3e
00000010: 572a 01be ff76 1fbf bc7f d23c 70d8 793d
00000020: 7be4 a6be b489 99bf 0620 5f3e c89d 44c0
00000030: dbd7 c43d 573b cebe c7ec 443d b5be 103e
00000040: 3c28 1cbf 80a8 48bd c5ba c4be d48d 413e
00000050: b0b0 03be ce4c 7fbe eddd dcbf ead5 c8be
00000060: 12fb 81bf 6436 3f3e c5fb 90be 87d9 2fbf
00000070: 75b3 653e 9af5 10be 5a4a 9abf 761e f53e
00000080: 69a2 bb3e e0d5 863d 7634 cb3d a411 43bb
00000090: f25a 04bd 02d2 963c 4f76 5a3f 6150 7cbf
000000a0: 158d 5bbe 5d23 9b3e 8088 123e 19c2 42bc
000000b0: 73f1 f53c 3472 6bbe 98e2 5cbe e9cc c13d
000000c0: 3b8d 09c0 621b c73d b88f 123e 806c 8b3d
000000d0: f0b4 c5bf f59f 433e 9dd0 c83d 1c87 79bd
000000e0: 5c7f 39bd f629 79bc 6ef5 36bd f913 9ebc
000000f0: 5682 333e b429 763f 2229 663e 9add 36bf
00000100: ac68 a3be d249 063e 3b35 46be 90cf d3bf
00000110: 10bd edbc 2025 2cbd 2d9b 1f3e 3aa3 ab3d
00000120: 1054 a53f 8190 dcbf 57fc abbd ac7b b0be
00000130: 2ceb f13d bdf9 0ebc ec00 f8bc 0379 883e
00000140: 5b8a b0be 7464 51be 4ea9 62bd d3ce 883d
00000150: 6dc2 3cbf e56d a5be 1b78 4b3e b6d3 f13e
00000160: 6eb1 c0be 5833 603f df38 183e 930a acbe
00000170: 3ee9 d2be 2b91 03bc caf5 e73d 7ba1 7ebe
00000180: c2d1 76be 6bc0 31be 81f2 24bf 54a2 b43d
00000190: f6bf 203e bffd 8dbd 3411 efbe eff9 8b3e
000001a0: 475c 403e be9d 14be 2933 58bf ae48 513d
000001b0: 3528 02bf 0161 593d 6037 c13e f58b adbe
000001c0: 38a9 b3bc 1044 70bf ce76 2d3e be21 0dbe
000001d0: baea 5e3e 6008 663d 6e7a 00bf 48f0 36bf
000001e0: 308b 86bf 975b 63be 0966 403e 06ff a9be
000001f0: 39c9 9fbd 5c23 3a3d f8de 7cbe b72a 54be
00000200: 2fbb 65bd 087e d73c 23a9 203f 3de3 4d3e
00000210: dc8d d03e 6a70 613d b635 29bf 3156 a9bc
00000220: 3f7c f2bd c586 3c3e 58ca cf3c 7a36 1a3d
00000230: 93ff 083f ae31 89bd 0da2 423d 4764 d93d
00000240: 675a fe3e 4327 c93d 52fe f93d 31ca 4cbe
00000250: cd60 da3e bd86 82be 3c11 823e ff20 3e3d
00000260: 11fc 02bf ab29 673e 83f2 a53b 1926 52be
00000270: cada 4dbf adbb fd3b 2730 2bbf 6dfd 1ebd
00000280: d833 8ebd 8499 63be 4019 7b3d 0fee 85be
00000290: e4b5 a33e 42bd b53d 468c 723e 2540 a9be
000002a0: 6337 f4be e3f9 ecbe 3d17 ce3d f9c6 8bbc
000002b0: 4479 d83c 54b0 b9be a93d 58be a936 0b3b
000002c0: c9cf b23e bde1 77bd 6f04 803e c7e2 533d
000002d0: 42b1 483e 4ea6 ad3d 87f1 a8be 4bca e53e
000002e0: 80a4 e8bf 1422 b43e b49c 433e 8427 2dbf
000002f0: dbc4 86be e9ec a8bd 7640 e9bc 6e3e 6fbc
00000300: c305 d0be 469b 9fbb fa66 dc3e 531a 87bd
00000310: 9171 83bf 6a1e a13e e197 ebbe 4c11 4fbe
00000320: 1e89 c93e 4659 9bbc fd05 5abf 080a a2bd
00000330: acb0 ddbd 1147 84bd e8be c4be de1a d4be
00000340: ca48 6bbd e60a 9cbd 09d9 423f 46a1 a6be
00000350: 8923 8ebe 2b43 80be 2bba 98be 9b16 be3d
00000360: 3162 e5bc 82ab 0f3e 294a 0abe d8e2 22be
00000370: 6b9a abbd 5a91 e6bd a426 cdbd 8654 66bf
00000380: ad2b 87be 0f13 92bf 02ef 09bd 031e 15bf
00000390: f159 d7be b0f5 7dbf 8cac 60bf dc8d a63b
000003a0: e28e 5f3e a715 abbe e28f 45bc dbc1 c23e
000003b0: d479 f53d 3c2f 04bc 78a3 0e3c c5a9 bfbe
000003c0: 4e31 e0be 7fcb a1bd f0b3 21be 30eb b73d
000003d0: 63d8 94bf 7ea5 053c bfa2 a93d a84e 23bd
000003e0: 1bc6 7abe a02d 45be 0982 893d 2ef2 63bd
000003f0: bd85 623e 43ec 24be 32dc ecbd 4f6e ccbe
-0.06926196 0.16466635 -0.20247303 0.21352465 -0.12613808 -0.6229095 0.025695674 0.060997427
-0.32596192 -1.1995149 0.2178956 -3.0721302 0.09611484 -0.40279648 0.04807737 0.14135249
-0.6099889 -0.04898882 -0.38423744 0.1890176 -0.1286037 -0.24931642 -1.7255226 -0.39225703
-1.0154746 0.18673092 -0.28317085 -0.68691295 0.22431739 -0.1415619 -1.205394 0.47874802
0.36647347 0.06583762 0.099221155 -0.0029765153 -0.032313295 0.018410686 0.85336775 -0.9856015
-0.21440537 0.30300418 0.14309883 -0.011887097 0.030022359 -0.22992784 -0.21570814 0.09462912
-2.149245 0.0972202 0.14312637 0.06807804 -1.5445843 0.19103988 0.09805415 -0.060919866
-0.045287475 -0.015207758 -0.044667654 -0.019296633 0.17530188 0.96157384 0.22476628 -0.7143189
-0.31915796 0.13114098 -0.19356243 -1.6547718 -0.029020816 -0.042027593 0.15586539 0.08380742
1.2916279 -1.7231599 -0.083977394 -0.34469354 0.118124336 -0.008726534 -0.030273877 0.26654825
-0.34480557 -0.20448476 -0.055337243 0.066800736 -0.7373417 -0.32310405 0.19870035 0.47231835
-0.37635368 0.87578344 0.14865445 -0.33601817 -0.41193575 -0.008030216 0.113261774 -0.24866287
-0.24103454 -0.17358558 -0.6443253 0.08820024 0.15698227 -0.06933164 -0.46692812 0.27339122
0.18785201 -0.14513299 -0.84453064 0.051094703 -0.508426 0.053071026 0.3773756 -0.3389584
-0.021931276 -0.93853855 0.16939852 -0.13782403 0.21769229 0.05616033 -0.5018681 -0.7146039
-1.0511227 -0.22202908 0.18788923 -0.3320238 -0.07802052 0.045443878 -0.24694431 -0.2071942
-0.056086715 0.026305214 0.6275808 0.20106216 0.4073323 0.055038847 -0.6609758 -0.020670982
-0.11840104 0.18410785 0.02536504 0.03764961 0.53514975 -0.06698929 0.047517825 0.106148295
0.49678347 0.09821942 0.12206711 -0.19999005 0.42651978 -0.25493422 0.25403774 0.046418186
-0.5116587 0.22574489 0.00506431 -0.20522346 -0.8041197 0.00774332 -0.6687035 -0.038815904
-0.06943482 -0.2222653 0.061303377 -0.26158187 0.3197471 0.08873989 0.23686323 -0.3305675
-0.47698507 -0.46284398 0.10063026 -0.017062651 0.026425011 -0.3626734 -0.21117271 0.0021242297
0.34924152 -0.060518015 0.25003383 0.051729944 0.19598868 0.08478986 -0.3299677 0.448809
-1.8175201 0.3518225 0.19102746 -0.6763842 -0.26322064 -0.08248312 -0.02847312 -0.014602287
-0.40629396 -0.004870805 0.43047315 -0.06596818 -1.0269033 0.31468517 -0.46014312 -0.20221442
0.39362425 -0.018963467 -0.8516539 -0.079120696 -0.10824713 -0.06458867 -0.384269 -0.41426748
-0.057442464 -0.07619266 0.7611242 -0.32544917 -0.27761486 -0.25051245 -0.29829535 0.092816554
-0.028000923 0.14030269 -0.13504852 -0.15906847 -0.08379062 -0.11258192 -0.10017136 -0.8997272
-0.2640051 -1.1412066 -0.0336752 -0.5824892 -0.42060807 -0.99203014 -0.87763286 0.005082829
0.21831849 -0.33414957 -0.01205823 0.38038525 0.119861275 -0.008067902 0.008705966 -0.3743421
-0.43787616 -0.07900142 -0.15791297 0.08980405 -1.1628536 0.008157132 0.082829945 -0.039869934
-0.24489634 -0.19255686 0.06714255 -0.055650882 0.2212133 -0.16105752 -0.115654364 -0.3992791

fc2.bias f4 [80]
00000000: f195 63be 72ee 3dbe 5d2d f73e 2b18 06be
00000010: fdb1 df3d 210e c1bc 0ba2 8e3e ce24 46bd
00000020: 3d8c 6a3d 45b3 13be d769 1b3f 1d09 b13e
00000030: e04c e3bd 1d83 323c faed 0f3e b222 f63d
00000040: b895 99bb 68dd 09bf 16c9 fb3e 3ab0 143e
00000050: c8f4 06be a330 18bf b4a1 f3bd c276 83bf
00000060: 0fdc e0bd 0fc6 aebd cc9a 14bf 561e 5e3f
00000070: 67cc 5a3e cb23 453f 6cd3 44be 1fcb eb3d
00000080: 64a6 933e e3b0 643d 253d 09bf 2c0d 093f
00000090: a241 c43d 8863 5a3d b98c 28bf 2314 d4be
000000a0: c6c5 913e 2938 663d 9bb0 a0bd 2d3e d83e
000000b0: e4c9 0ebe a652 bdbe 17c9 00be 25bd a7bd
000000c0: 36c6 733e db8a e9bd 19bf 17bf b222 bdbe
000000d0: c344 073f 8386 3fbd ee33 1ebe a3dc f0be
000000e0: d2c5 17bf e97e 603d d66d 453f b10e 8b3e
000000f0: b3d2 07bf 8659 e3be 7ef8 a43c 54e6 7dbd
00000100: 31eb 493f 2a24 003f d514 8bbd 1b11 ff3c
00000110: 6aaf 063f 66c4 253e 662d 853e 3dd1 46be
00000120: b4d3 19bd 27f3 313e 4172 003f e3c7 363e
00000130: b9e6 30be 17ca f63e d818 03be c908 7c3d
-0.22225167 -0.18547991 0.48276797 -0.13095157 0.109226204 -0.023566308 0.27858004 -0.048374943
0.057262648 -0.14423855 0.60708374 0.34577265 -0.11098647 0.010895518 0.14055625 0.12018336
-0.0046870373 -0.53853464 0.49176854 0.1452035 -0.13179314 -0.59449214 -0.11896077 -1.0270617
-0.10979473 -0.085338704 -0.580487 0.8676504 0.21367036 0.7700774 -0.19221276 0.11513352
0.28837883 0.055832755 -0.53608924 0.53535724 0.09582831 0.053317577 -0.65839726 -0.41421613
0.28471202 0.056205902 -0.07846185 0.42234936 -0.13944203 -0.36977118 -0.1257671 -0.08190373
0.2380608 -0.11403438 -0.59275967 -0.36940533 0.528393 -0.04675914 -0.15449497 -0.47043332
-0.59286225 0.05480853 0.7712072 0.27159646 -0.53055876 -0.44404238 0.020138022 -0.061987236
0.788745 0.5005518 -0.06791083 0.031136086 0.5261141 0.16188201 0.260112 -0.19415756
-0.03755541 0.17377912 0.5017434 0.17849688 -0.17275514 0.48201057 -0.12802446 0.061531816

fc3.weight f4 [32, 80]
00000000: 3d24 953d 2911 993f 5cd8 16bc de35 25bd
00000010: bc27 8f3d f0c8 843e 56a7 23be 5bcb ac3b
00000020: 96f7 cabe 60e5 dfbb ef15 2fbd d010 70be
00000030: 6598 203e ead5 8dbd a1c9 2bbe 020b aabd
00000040: 904d bb3c 9920 f53d 148e 243e 18b7 19bf
00000050: 1bc3 ad3e 8cb6 443e 2a4a df3d 46bc de3e
00000060: fac3 00be 48f1 c73d 31ed 5e3e 9144 643d
00000070: 2a4c b63e 5a9a 7b3e bef6 46bf ed96 18be
00000080: ab6e c63d 4af0 ddbe 98d6 cd3d 7ff9 cabb
00000090: 5224 0b3e 729b 95be d6f2 1dbf 773f 48be
000000a0: e00a 8a3e 282b f8bc 7835 053e 5bd6 e3be
000000b0: 9de5 953c cecf f4bd b156 933e f331 b4bc
000000c0: 3bbb 76be 83ad 0e3f 2eb5 94bf 1a7b e93c
000000d0: 8b42 a4bb f3d7 363f 91d8 b2bd 2081 17bf
000000e0: 9a7f e53d bfa1 e03e 8bbe 5a3d bd65 a2bf
000000f0: 6c00 82be 6e51 e83d f609 783f 09cf 233e
00000100: ec12 eebe b16d 283e a69c 233e 7067 e4be
00000110: 6c0e 15bf f52b 9cbd d957 4fbe f153 613e
00000120: 6ca5 bd3e 654b a23e f082 22bf 4716 c43e
00000130: 1ff9 b7be 7548 2c3c 50c7 c73e d3f7 00be
00000140: 524d f73e 7be1 8e3d 740d 533e 4965 e6bd
00000150: 0645 59bc 4422 7fbe 517b 2a3f 72e6 803c
00000160: a70e 223f b324 063f 8530 81be 9de1 3a3e
00000170: e0a7 2b3c c6cf 0fbe 09b3 4bbc 54e7 f1bc
00000180: 4a55 39be a5d0 493c bfee 1d3a 43d0 c2be
00000190: 4a32 e7be bebf 14bf 57e7 72be 6122 78be
000001a0: 7997 82bd 4027 00bd 45c6 15be 81e6 a53d
000001b0: 3701 a2be 3f06 bebd 0b3d 813e a4e9 bd3c
000001c0: 7a15 9e3c 18be 883b 0995 2b3e 0522 ba3c
000001d0: 6ed1 1d3e cf89 4bbe 131a c4bc acb3 513e
000001e0: fa4b 0d3d a870 e23d 509b 813d d2f0 6a3e
000001f0: c81f 113f 04be 1cbd 26e7 bd3f 6d27 ef3e
00000200: bc70 9c3e 0749 133f 578b 89be 7600 573d
00000210: c318 bc3c b47c b1be c1e7 f0bd b77b f4bd
00000220: 57c7 a8bd abc1 bb3b 7423 80be 54c1 a0bd
00000230: 69c9 543f df16 bdbe f02a bfbf bdaa 96bd
00000240: 8d78 32bd 55d8 a1bc 3fba 733e 6fc2 113f
00000250: 4042 f3be 6ab6 2fbe 8e05 453e a4c8 b9bb
00000260: 0865 573c 846e 66be f4ef 913f 1fe2 cc3e
00000270: baeb 3c3f 7cea d53e 75d3 bc3d 710c 223f
00000280: 1f5d eabc f5be 13bd 49f2 25be f906 d4be
00000290: 6e19 19be cbfe 823e 08c7 8a3f f046 953d
000002a0: 93ab 28be c477 8c3e 20f0 90be 5265 c03e
000002b0: d00a fe3e 2829 c53e 16c5 7d3e 4902 e13e
000002c0: 4115 8ebd ea06 2ebe 0d8d 123c 184c 253d
000002d0: f7ef f03c f668 93bd 6359 8ebe bb65 c4bd
000002e0: 6ed7 373f dbf8 573e ca14 753d d811 55be
000002f0: 3111 33be e4ba 8bbd 2636 ac3e 1dc4 2b3f
00000300: c240 183b 03a8 c2be 9174 1a3f 9288 48be
00000310: 7ac8 bcbe 75a5 28bf 3e2c 57bd 8eda 96be
00000320: d6da 9fbd 706f aa3f 8d4e bfbe e2c6 4a3e
00000330: fc85 2e3e ffe3 6ebf 4bc8 913d 0b44 a8be
00000340: fb95 533d aaa7 743f 9d6b c0be 4e5d 20be
00000350: b036 d2bd 2d9e 76bf c1b5 86bd a455 c3bd
00000360: 4e13 b0be 78cc dbbd 1ad5 04bf 3c6d e63f
00000370: 7757 f1be 1753 efbc 27fd 3fbf 3840 9a3e
00000380: 31a4 033e 1ef6 31be 88d8 a7bf 4a75 a4be
00000390: 259d 48be 53af 39be e578 5c3d 2235 86bd
000003a0: d70d 3a3e 61fd 62be a88f 8c3f 8be3 1bbe
000003b0: a291 883e 0ab5 f23e c5b2 cfbd 3b0e 8cb7
000003c0: 4647 d7bd 2205 45bf 5965 9cbd 8956 b63d
000003d0: ca8c 1fbe 051b 033e 566c 553f 2a89 8fbc
000003e0: e4d8 9bbe 9b1f 13be d1f6 bb3d fd8d 8c3e
000003f0: f4ee e13e 1684 023e ee9f 2b3f 3fdf 993e
0.072823025 1.1958362 -0.0092068575 -0.040334575 0.069900006 0.25934553 -0.15981802 0.0052732653
-0.39642018 -0.0068327636 -0.042745527 -0.23443913 0.15683134 -0.069255665 -0.16776134 -0.08302881
0.022864133 0.11969108 0.16069824 -0.60045004 0.33937916 0.19210261 0.109028175 0.43503016
-0.12574759 0.097628176 0.21770169 0.055729453 0.35604984 0.24570599 -0.7772025 -0.14901324
0.09689077 -0.43347389 0.10050696 -0.006194293 0.13588074 -0.29220158 -0.61698663 -0.1955546
0.26961422 -0.030294016 0.13008678 -0.44499478 0.018297965 -0.11953698 0.28777078 -0.021996474
-0.2409486 0.5573351 -1.1617792 0.028501082 -0.0050128154 0.7142326 -0.08732713 -0.59181404
0.11205979 0.43873402 0.053404372 -1.2687298 -0.25390947 0.113436565 0.968902 0.15996946
-0.4649881 0.16448094 0.15977725 -0.44610167 -0.5822513 -0.07625572 -0.20248355 0.22004677
0.3704027 0.31698146 -0.63481045 0.38298246 -0.35932252 0.010515322 0.3901925 -0.12594537
0.48301178 0.06976601 0.206106 -0.11249787 -0.013261085 -0.24915415 0.66594416 0.015734885
0.6330361 0.5239975 -0.2523233 0.18250127 0.010477036 -0.14044103 -0.012432822 -0.029529251
-0.18098941 0.012317811 0.00060246506 -0.38049516 -0.45155555 -0.58105075 -0.23721062 -0.24231865
-0.06376547 -0.03128743 -0.14626415 0.08100606 -0.31641552 -0.09278535 0.25241885 0.023182698
0.01929735 0.0041730516 0.16756071 0.0227213 0.15411922 -0.19876789 -0.023938214 0.20478696
0.034496285 0.11056644 0.06328452 0.22943428 0.5668912 -0.03826715 1.4836166 0.46709767
0.3055476 0.57533306 -0.2686412 0.052490674 0.022961026 -0.34665453 -0.117629535 -0.11937659
-0.08241146 0.005729874 -0.2502705 -0.078493744 0.8311983 -0.36931512 -1.4934978 -0.073567845
-0.043571997 -0.019756475 0.23801516 0.5693731 -0.47511482 -0.17159429 0.192404 -0.00566967
0.013146646 -0.22503096 1.1401353 0.40016267 0.7379719 0.4178046 0.0922002 0.63300234
-0.028608857 -0.036070783 -0.16205706 -0.4141157 -0.14951107 0.25585017 1.084199 0.07288921
-0.164717 0.27435124 -0.283082 0.375773 0.49617624 0.38507962 0.24782214 0.43947056
-0.069376476 -0.16994825 0.008944762 0.04035577 0.0294113 -0.07197754 -0.27802572 -0.09589716
0.71813095 0.21091025 0.05983428 -0.20807588 -0.17487027 -0.06822756 0.33635062 0.6709612
0.0023231958 -0.38018808 0.60334116 -0.19583347 -0.368717 -0.6587747 -0.052532427 -0.2946362
-0.078054115 1.3315258 -0.37364617 0.1980243 0.17043298 -0.93316644 0.07118281 -0.32864413
0.051656704 0.95568335 -0.37582102 -0.15660593 -0.10264337 -0.9633511 -0.065776356 -0.09537819
-0.34389728 -0.10732359 -0.5188767 1.8002086 -0.47137043 -0.029214425 -0.74995655 0.3012712
0.12855603 -0.17379043 -1.3112955 -0.32120734 -0.19591196 -0.18133287 0.05382623 -0.06553103
0.18169342 -0.22166969 1.098134 -0.1522352 0.2667361 0.47403747 -0.101415195 -1.6695927e-05
-0.10511641 -0.7696096 -0.07636518 0.08903224 -0.1558105 0.12803276 0.8336843 -0.01752146
-0.30438912 -0.14367525 0.09177936 0.27452078 0.4412762 0.127457 0.6704091 0.30053136

fc3.bias f4 [32]
00000000: 8b8f 5d3f caec 65bf d363 76bf 15b0 b6bc
00000010: f2c5 66bf b3b5 833e dce9 5e3f d108 d0be
00000020: c632 2d3e 2168 5bbf 5e35 13bf 8ba9 553f
00000030: fe97 65be e90c 6fbf ee1d 8f3c 8375 0a3e
00000040: 0af6 333f bf23 353f 61fc 233f 07f9 373f
00000050: 1868 313f eadb 0c3f 29b7 2e3f 0dbe 2e3f
00000060: d636 2e3f 1732 363f 3436 263f 5832 2a3f
00000070: 8512 433f 5e69 1e3f 5a00 8f3e a2d9 3c3f
0.86547154 -0.89814436 -0.9624607 -0.02230076 -0.9014579 0.25724563 0.8707559 -0.40631726
0.169139 -0.85705763 -0.57503307 0.8346183 -0.22421262 -0.93379074 0.017470326 0.1352139
0.702973 0.7075767 0.64056975 0.7186436 0.6929946 0.5502306 0.6824823 0.68258744
0.68052423 0.7117018 0.6492646 0.6648307 0.76200134 0.6187953 0.27929956 0.7376958
