puppersim/dc_saves/aac_slow_pupper_0/actor_8.pt (torch, 43223 bytes, 6 tensors)

fc1.weight f4 [80, 15]
00000000: 316f ba3e de4b 583c 8c67 77be fa2e 03bf
00000010: 1d76 c2bd ec2a 84be f807 5fbe ec0b fbbc
00000020: 5758 bfbd cb7b bfbe 08f4 2c3e 6813 fc3d
00000030: 4a4c b63d b0ff 38be 799e 59bd b992 59bd
00000040: 6d3e e3be 1c68 febe 6909 3fbf 47a5 363e
00000050: 3100 9cbe aa24 a3be 5a77 bd3e c4e0 2e3f
00000060: 2152 e13e 812f b73e c713 743f e601 14bf
00000070: 0c3c d1bf 1056 cbbe 38ce e9bd 21ba a6bd
00000080: c828 da3d a340 f4bc b00d b03d 4cdb 10bb
00000090: 7616 a03e 0cfa ed3c e3b6 1f3e 89f2 0bbc
000000a0: eff3 90bd 2ee6 5cbd e5c0 04be 4f26 1cbe
000000b0: 8964 13be a614 a5bd 1bce bebd 461e f7bc
000000c0: 32c3 49bd 091f 833d 7318 aa3d ef16 dcbc
000000d0: f4b3 f2bd e1be 7bbc 986b 293e 47aa 863e
000000e0: 5b1a f4bd 709a 473e c89c 4abd 1a18 d4bc
000000f0: 4567 cfbe 6a6d 133e d781 5abe 083a 82be
00000100: ad6b 98be e5e0 b23d 1526 0dbd 8bf1 4e3d
00000110: a2ea 6a3e a300 443e c68b f13d 195b 3d3e
00000120: e5b4 05be 3cc8 d93b dfcf e6bb 8222 aa3d
00000130: b3c7 6fbc 636c e1bd 972a 453f 8574 83be
00000140: e001 9bbd 9752 9f3d 3e24 c43e 5919 babe
00000150: 08d6 33be f1ae 8abe f63c 673e ee91 173e
00000160: 02d9 73be 77c2 3bbd ac4e a8be bfdc 3cbe
00000170: 2026 05be c974 1fbe 480b c4bd a105 32be
00000180: 2a5a 50bd 6dcd d03d 4113 dc3c d612 1c3d
00000190: 59c5 8fbd 1f08 783e 8dff 093e 0afd a2bd
000001a0: 5a56 adbe 93fd 70be 612e a33e 76c5 803c
000001b0: 21d4 023d f5da 84be 9191 733e 740c f03d
000001c0: 92e7 41be ee05 3a3e a522 25bd 8843 803e
000001d0: 36fb 703d 4f28 5d3d 4099 88be 910e ec3c
000001e0: dc10 dabd 22b3 b0bd 80af 833e 18ff 7fbf
000001f0: cc45 abbe 12c5 2fbf bb7f d0bd bdbf dc3d
00000200: 44b0 353e fe02 ec3e 6bb0 a73e 303a 373f
00000210: 9979 0e3e cf5d 71bf 8316 4cbf f15f a3be
00000220: 6060 4e3e 7b8a 533e 9b2d 16be 8082 5abe
00000230: f7bd dcbe fe2e 1e3e 800e ee3d c6e8 36bd
00000240: d26e 7b3d 18b9 f6bd bd76 eb3d 9242 343e
00000250: e8c7 1bbe f945 8bbf 9f42 afbe ab79 ccbd
00000260: aa73 553d 7f8a a23c 34cd 13be d857 30be
00000270: 896b 14be 3e64 8abd b341 8fbc 03a2 adbd
00000280: b7b4 a13e 493f 483e dad1 1c3e 65a2 403c
00000290: c0b2 5bbd 7448 c63e a140 5cbd 80c3 f2bd
000002a0: 41d6 a1bd 436c 65bd fe7f b4bd 1b57 d0bd
000002b0: 2722 8b3b 0783 f03c b9ff 603c ba63 a03d
000002c0: dfcf 50bd 099d 08be 71ae 4a3d 136b 7b3c
000002d0: 2056 53be 75a7 c4bf 0a36 f9be f1b1 43be
000002e0: 6c1c bcbf c1e7 8c3d 5b2c 78be 6272 50be
000002f0: 204e 20be c0b6 453e 611c e73e 9fee 5f3f
00000300: 7606 f5be 67c0 053f f944 b43e ab80 c0be
00000310: 349e 5abe 43f2 183d 0195 083e f73f 633e
00000320: cc25 d93d 1c30 f53d c90b 7bbe 7b63 0b3c
00000330: 8740 233e 3264 343e 5d24 e13d 009d 28be
00000340: a34f 783e a9f0 47be 183f fabe 50c6 82be
00000350: 4bc5 353d 7c2e bc3e b215 623d b75f f13d
00000360: 7095 eebd 0fa4 f7bd 1100 6cbe 7e8a 063e
00000370: 6096 3a3e 836c a4ba 6fb7 19bd 547c dcbe
00000380: 2f29 133f 14a8 d1bd e9f3 b7be e0b5 cbbe
00000390: 0556 c4be d8b2 4abf 2faf 0abf 0b97 2d3e
000003a0: 2f32 2c3f e286 9f3e a2af 513e 0586 753e
000003b0: f217 233f dd5d 90be d25a 8e3f eb5a 5bbe
000003c0: deab b13d bf30 54bf 4a89 6bbe 8405 a53e
000003d0: 31ba 3abf ecbf 0ebf b9fd b4be 9b1f bd3e
000003e0: 79eb 2abf 55e2 23be a30b 2f3e 86da 0a3f
000003f0: e138 2abf 9ccd c3be 3aa7 52bf 995e 963a
0.36412957 0.013201682 -0.24160594 -0.51243556 -0.094951846 -0.25813997 -0.21780384 -0.030645333
-0.09343021 -0.37399134 0.16889966 0.12308389 0.0890127 -0.18066287 -0.053129647 -0.05311844
-0.44383565 -0.49688804 -0.74623734 0.17836486 -0.30468896 -0.3186391 0.3700512 0.68311715
0.44007972 0.3577843 0.9534268 -0.57815397 -1.634645 -0.39714098 -0.11416286 -0.0814097
0.1065231 -0.029815977 0.08596361 -0.0022103367 0.31267136 0.029049896 0.1559711 -0.008541712
-0.07077777 -0.053930454 -0.12964208 -0.15248989 -0.1439382 -0.08060579 -0.09316655 -0.030165803
-0.04925842 0.06402404 0.083054446 -0.026866404 -0.118507296 -0.015365333 0.1654495 0.26301786
-0.119190894 0.19492507 -0.049465925 -0.025890399 -0.40508476 0.14397207 -0.21338592 -0.254349
-0.2976965 0.087343015 -0.034460146 0.050523322 0.22941068 0.19140868 0.11794238 0.18491782
-0.13057287 0.0066461843 -0.007043823 0.08307363 -0.014635014 -0.11007001 0.7701811 -0.25674835
-0.07568717 0.07779425 0.383089 -0.36347464 -0.17562115 -0.27086595 0.22581849 0.14801762
-0.2381325 -0.045839753 -0.32872522 -0.18443583 -0.13002825 -0.15571894 -0.09572464 -0.1738496
-0.050867237 0.10195432 0.02686465 0.0381039 -0.07020063 0.24221848 0.13476391 -0.079584196
-0.33854944 -0.23534231 0.31871322 0.015719157 0.031940583 -0.259483 0.23785998 0.11721125
-0.18935993 0.18166324 -0.040316243 0.25051522 0.058833323 0.05399352 -0.2667942 0.02881554
-0.10647747 -0.08627917 0.25719833 -0.9999862 -0.33451688 -0.6866008 -0.10180613 0.10778759
0.17743021 0.46096033 0.32751784 0.7157316 0.13913573 -0.94283766 -0.7972185 -0.31909135
0.20153952 0.20658295 -0.14665835 -0.21338844 -0.43113682 0.15447614 0.116238594 -0.044655584
0.061384983 -0.120470226 0.11497257 0.1760352 -0.15212977 -1.0880729 -0.34230515 -0.09984144
0.05211226 0.01984143 -0.14433748 -0.1722101 -0.14494146 -0.06757401 -0.017487383 -0.08478167
0.31583187 0.19555391 0.15314427 0.011757468 -0.053637266 0.38727152 -0.053772572 -0.11853695
-0.07902194 -0.05601145 -0.08813475 -0.10172864 0.0042460146 0.029359354 0.013732844 0.07831521
-0.05097949 -0.13341154 0.049482767 0.015345353 -0.20638323 -1.5363604 -0.4867404 -0.19110848
-1.4696174 0.06880141 -0.2423567 -0.20356134 -0.15654802 0.19307995 0.4513884 0.8747348
-0.47856492 0.5224671 0.35208872 -0.37598166 -0.21349412 0.037340414 0.1333809 0.2219237
0.10602912 0.11972067 -0.24516214 0.008507605 0.15942584 0.17616346 0.10993264 -0.16466141
0.24249129 -0.19525398 -0.48876262 -0.25541925 0.044377606 0.36754215 0.05519647 0.11785834
-0.11649597 -0.120918386 -0.230469 0.13138768 0.18221426 -0.0012544546 -0.03752845 -0.43063605
0.57484716 -0.102371365 -0.35928276 -0.39787197 -0.38346878 -0.79179144 -0.5417356 0.1695215
0.67264074 0.31157595 0.20477155 0.23976906 0.6370841 -0.28196612 1.1121466 -0.21421401
0.08675359 -0.8288688 -0.2300159 0.3223077 -0.72940356 -0.557616 -0.35349825 0.36938176
-0.6676555 -0.16004308 0.17094283 0.5423969 -0.6649304 -0.38242805 -0.8228642 0.0011472284

fc1.bias f4 [80]
00000000: 3ae7 13c0 4c79 aa3e 0000 0000 0000 0000
00000010: a7f0 e23f e9d8 573f 9dc0 803d 2d3f 5ebd
00000020: f155 773f 41af 743e b7e2 e93c 5c04 debf
00000030: b188 2abf f6ed f03f c3e8 133d 443a e8bd
00000040: 40d8 253f 0000 0000 f5c1 2e3f 6f5c 853e
00000050: df21 8fbe 0000 0000 8687 6b3e a15e 0b40
00000060: dd90 07c0 c618 923e ed99 ef3e 66bd 3bc0
00000070: 359a 623f 0000 0000 2cdf a9bf f5e5 373f
00000080: c7e3 2ac0 b455 e8be c942 babf 0000 0000
00000090: 1d7d 583e dfc3 a83c 3c05 b1bf 2017 9d3f
000000a0: 63aa b93f 0000 0000 7398 383f b4a2 a6bc
000000b0: 0000 0000 7278 8a3d 8cd6 d53f 6918 963f
000000c0: 9d50 edbe 3dd0 a8bd 1ca6 b53f 9861 433d
000000d0: f5b7 8fbf e75b 5dbe 7c24 9dbe 0000 0000
000000e0: 0000 0000 0000 0000 0000 0000 0000 0000
000000f0: 9dea 503f 9871 9f3f 11c7 a6bc e733 ef3d
00000100: 349d f23d 9f3d ef3e 0000 0000 a6b0 473f
00000110: 95a8 d9bf 0900 e83e c383 b8bf 9ceb b0bc
00000120: 1bcf 0abf 951f 303f 911c 703e 3a3f 92be
00000130: c0dc 86bf cd08 1cbc 6bf1 433e 4856 cb3d
-2.310988 0.33295667 0.0 0.0 1.7729691 0.84315354 0.06286738 -0.054259468
0.9661551 0.23894979 0.028550489 -1.734508 -0.66614825 1.882262 0.03611065 -0.11339238
0.64783096 0.0 0.68264705 0.26047084 -0.2795553 0.0 0.23000917 2.1776507
-2.1182168 0.28534526 0.46797124 -2.933435 0.8851655 0.0 -1.3271232 0.7183526
-2.6701524 -0.45377886 -1.4551631 0.0 0.21141477 0.020601211 -1.3829722 1.2272682
1.4505123 0.0 0.7210762 -0.020341255 0.0 0.06761254 1.67061 1.1726199
-0.46350566 -0.08242843 1.4191318 0.047700495 -1.1228014 -0.21617089 -0.30691898 0.0
0.0 0.0 0.0 0.0 0.8160799 1.2456541 -0.020358594 0.116798215
0.1184639 0.467267 0.0 0.7800392 -1.7004572 0.45312527 -1.441521 -0.021596722
-0.5422227 0.6879819 0.23448397 -0.28563863 -1.0536118 -0.009523583 0.19135062 0.09928566

fc2.weight f4 [80, 80]
00000000: 1ca3 233e 6429 423e 1755 4fbe 35a6 5a3e
00000010: bc5f 19be 5818 12bf bc7f d23c 70d8 793d
00000020: 13b3 abbe b489 99bf 0620 5f3e 8d43 50c0
00000030: 6f37 d63d 89af c9be c7ec 443d 380c c93d
00000040: 9672 32bf 80a8 48bd 53ec d5be d48d 413e
00000050: b0b0 03be ce4c 7fbe afb5 cdbf 4a62 97be
00000060: 12fb 81bf 6436 3f3e 30c2 debd 87d9 2fbf
00000070: 43b0 573e 9af5 10be 5a4a 9abf 5d2d 9e3e
00000080: 69a2 bb3e a870 0b3e ba05 e53d a411 43bb
00000090: f25a 04bd 02d2 963c d349 593f 3545 89bf
000000a0: c8e0 51be 5d23 9b3e 51d9 123e 801d fbbd
000000b0: 73f1 f53c 3472 6bbe 4dcb 58be 9691 80b9
000000c0: c2e4 1bc0 621b c73d 9fb6 d13d 806c 8b3d
000000d0: cd1a c7bf f59f 433e c65a f63d 1c87 79bd
000000e0: 5c7f 39bd f629 79bc 6ef5 36bd f913 9ebc
000000f0: ad87 183e bb9b 713f 2229 663e 9add 36bf
00000100: e927 b8be d249 063e 3b35 46be bc57 e5bf
00000110: 10bd edbc 2025 2cbd 95b2 133e 3aa3 ab3d
00000120: 61a0 a03f 5ac6 e4bf 3c46 80bd 128d b0be
00000130: 2ceb f13d bdf9 0ebc 2632 b3bd 0379 883e
00000140: 5b8a b0be 7464 51be 4ea9 62bd d3ce 883d
00000150: 6dc2 3cbf e56d a5be 1b78 4b3e b6d3 f13e
00000160: 6eb1 c0be 5833 603f df38 183e 930a acbe
00000170: 3ee9 d2be 2b91 03bc caf5 e73d 7ba1 7ebe
00000180: c2d1 76be 6bc0 31be 81f2 24bf 54a2 b43d
00000190: f6bf 203e bffd 8dbd 3411 efbe eff9 8b3e
000001a0: 475c 403e be9d 14be 2933 58bf ae48 513d
000001b0: 3528 02bf 0161 593d 6037 c13e f58b adbe
000001c0: 38a9 b3bc 1044 70bf ce76 2d3e be21 0dbe
000001d0: baea 5e3e 6008 663d 6e7a 00bf 48f0 36bf
000001e0: 308b 86bf 975b 63be 0966 403e 06ff a9be
000001f0: 39c9 9fbd 5c23 3a3d f8de 7cbe b72a 54be
00000200: 2fbb 65bd 087e d73c 23a9 203f 3de3 4d3e
00000210: dc8d d03e 6a70 613d b635 29bf 3156 a9bc
00000220: 3f7c f2bd c586 3c3e 58ca cf3c 7a36 1a3d
00000230: 93ff 083f ae31 89bd 0da2 423d 4764 d93d
00000240: 675a fe3e 4327 c93d 52fe f93d 31ca 4cbe
00000250: cd60 da3e bd86 82be 3c11 823e ff20 3e3d
00000260: 11fc 02bf ab29 673e 83f2 a53b 1926 52be
00000270: cada 4dbf adbb fd3b 2730 2bbf 6dfd 1ebd
00000280: 090e ae3d 5e91 71be 4019 7b3d 0fee 85be
00000290: a1e2 9c3e 8dc0 183e 468c 723e 2540 a9be
000002a0: c15f e6be e3f9 ecbe 3d17 ce3d d113 95bc
000002b0: fe29 273d 8dbf 90be a93d 58be 1abf 1b3d
000002c0: 2e44 673e bde1 77bd 448c 993e c7e2 533d
000002d0: 42b1 483e 4ea6 ad3d 9baa b9be 5de0 043f
000002e0: 80a4 e8bf 1422 b43e 2e28 153e 8427 2dbf
000002f0: 9bc6 cfbe e9ec a8bd 66a8 80be cef2 523d
00000300: 2f68 09bf dc0e 7dbb c406 b03e 531a 87bd
00000310: 9171 83bf 6a1e a13e a75a c8be 7ad4 2fbe
00000320: 0f58 023f 4659 9bbc 1f1c 3bbf 2591 0fbd
00000330: acb0 ddbd 1147 84bd ff89 03bf fadc c8be
00000340: d1fd a13c e60a 9cbd 92bc 323f 46a1 a6be
00000350: 4f16 a2be 2b43 80be 5cc9 c6be 9b16 be3d
00000360: 3162 e5bc 82ab 0f3e 294a 0abe d8e2 22be
00000370: 2c01 53bd dc9f 3bbe a426 cdbd 8654 66bf
00000380: 06ea f13e 0f13 92bf 02ef 09bd b540 34bf
00000390: f159 d7be b0f5 7dbf b5b5 4cbf dc8d a63b
000003a0: ead9 453e 456f c7be 3d9c 8cbc dc02 0c3f
000003b0: 525e d13d 3c2f 04bc ebf0 29bc c5a9 bfbe
000003c0: c123 02bf 9169 21bd f0b3 21be 30eb b73d
000003d0: 5528 9ebf a89d 003e bfa2 a93d a84e 23bd
000003e0: a7c1 56be a02d 45be 0982 893d 68fa 7ebd
000003f0: a0b4 573e 7828 ebbd 32dc ecbd 6118 e3be
0.1598019 0.18961102 -0.20247303 0.21352465 -0.14977926 -0.57068396 0.025695674 0.060997427
-0.3353506 -1.1995149 0.2178956 -3.254123 0.10459792 -0.39391735 0.04807737 0.09816784
-0.69706094 -0.04898882 -0.41781864 0.1890176 -0.1286037 -0.24931642 -1.607107 -0.29567176
-1.0154746 0.18673092 -0.10876882 -0.68691295 0.21063332 -0.1415619 -1.205394 0.30893984
0.36647347 0.13617194 0.11182733 -0.0029765153 -0.032313295 0.018410686 0.8487827 -1.0724245
-0.20495903 0.30300418 0.14340712 -0.12261486 0.030022359 -0.22992784 -0.21171303 -0.00024522532
-2.4358373 0.0972202 0.1023991 0.06807804 -1.5555054 0.19103988 0.120290324 -0.060919866
-0.045287475 -0.015207758 -0.044667654 -0.019296633 0.14895506 0.9437825 0.22476628 -0.7143189
-0.3596795 0.13114098 -0.19356243 -1.79174 -0.029020816 -0.042027593 0.14423592 0.08380742
1.2548944 -1.7873032 -0.06263396 -0.34482628 0.118124336 -0.008726534 -0.087497994 0.26654825
-0.34480557 -0.20448476 -0.055337243 0.066800736 -0.7373417 -0.32310405 0.19870035 0.47231835
-0.37635368 0.87578344 0.14865445 -0.33601817 -0.41193575 -0.008030216 0.113261774 -0.24866287
-0.24103454 -0.17358558 -0.6443253 0.08820024 0.15698227 -0.06933164 -0.46692812 0.27339122
0.18785201 -0.14513299 -0.84453064 0.051094703 -0.508426 0.053071026 0.3773756 -0.3389584
-0.021931276 -0.93853855 0.16939852 -0.13782403 0.21769229 0.05616033 -0.5018681 -0.7146039
-1.0511227 -0.22202908 0.18788923 -0.3320238 -0.07802052 0.045443878 -0.24694431 -0.2071942
-0.056086715 0.026305214 0.6275808 0.20106216 0.4073323 0.055038847 -0.6609758 -0.020670982
-0.11840104 0.18410785 0.02536504 0.03764961 0.53514975 -0.06698929 0.047517825 0.106148295
0.49678347 0.09821942 0.12206711 -0.19999005 0.42651978 -0.25493422 0.25403774 0.046418186
-0.5116587 0.22574489 0.00506431 -0.20522346 -0.8041197 0.00774332 -0.6687035 -0.038815904
0.08498771 -0.2359061 0.061303377 -0.26158187 0.30641654 0.14917202 0.23686323 -0.3305675
-0.4499493 -0.46284398 0.10063026 -0.018197926 0.04081153 -0.28271142 -0.21117271 0.038024046
0.22584602 -0.060518015 0.29989827 0.051729944 0.19598868 0.08478986 -0.36262974 0.5190485
-1.8175201 0.3518225 0.14566109 -0.6763842 -0.4058121 -0.08248312 -0.25128478 0.051501088
-0.53674597 -0.0038613593 0.34380162 -0.06596818 -1.0269033 0.31468517 -0.39131662 -0.17170897
0.50915617 -0.018963467 -0.73089784 -0.03505053 -0.10824713 -0.06458867 -0.5138244 -0.39231092
0.01977435 -0.07619266 0.69818985 -0.32544917 -0.31657645 -0.25051245 -0.388255 0.092816554
-0.028000923 0.14030269 -0.13504852 -0.15906847 -0.05151479 -0.183227 -0.10017136 -0.8997272
0.47248858 -1.1412066 -0.0336752 -0.70411235 -0.42060807 -0.99203014 -0.7996476 0.005082829
0.19321409 -0.3895208 -0.017164344 0.54691863 0.10223068 -0.008067902 -0.010372381 -0.3743421
-0.50835806 -0.039407317 -0.15791297 0.08980405 -1.2356058 0.12560141 0.082829945 -0.039869934
-0.2097231 -0.19255686 0.06714255 -0.062250525 0.21064997 -0.11482328 -0.115654364 -0.44354537

fc2.bias f4 [80]
00000000: 3f48 71be 72ee 3dbe 692f e73e f68d 04be
00000010: 103b bd3d dec1 8abd 338b 643e 72ff d8bc
00000020: de51 f53d dcc6 13be 4ad3 253f 8b99 a83e
00000030: c34a 09be 9432 0ebd f62d 1a3e 3f49 c53d
00000040: 7670 a6bb 71dd 0fbf 5950 013f 007c 0e3e
00000050: c8f4 06be e302 11bf 9dce fdbd 414b 90bf
00000060: fd78 c4bd 2fd9 a8bd 8647 20bf 1c2a 5a3f
00000070: 14df 7a3e d403 483f 6cd3 44be 5849 dd3d
00000080: f73f 973e e3b0 643d 95b0 01bf d3ab 0d3f
00000090: bf8f cc3d 8863 5a3d 608d 2cbf 5e46 ccbe
000000a0: 5e72 783e 03be 3f3d 5b34 7abd 7433 e83e
000000b0: e4c9 0ebe e2eb bcbe c17c 53be 19ca 2fbd
000000c0: 8bd1 6a3e db8a e9bd 19bf 17bf 88c8 c4be
000000d0: bde0 113f c5b3 31bd ee33 1ebe 58ea 00bf
000000e0: dc78 22bf 3ae3 293d c7fc 393f f685 823e
000000f0: b3d2 07bf 12ae f7be 7ef8 a43c 8d21 83bd
00000100: 30df 4d3f 6947 f83e 8da8 56bd d266 373d
00000110: 48ed 073f 2f83 163e e6b6 623e 6d6d 61be
00000120: af1d ea3b 15cd 333e 4172 003f e3c7 363e
00000130: 50d4 2ebe 21b1 033f ed17 03be c908 7c3d
-0.23562716 -0.18547991 0.4515336 -0.12944779 0.09239781 -0.067752585 0.22318725 -0.026488993
0.119785056 -0.14431328 0.64775527 0.32929644 -0.13407426 -0.034716204 0.15056595 0.09633111
-0.0050793244 -0.5619727 0.50513226 0.1391449 -0.13179314 -0.5664503 -0.12392924 -1.1272966
-0.09593389 -0.082445495 -0.62609136 0.85220504 0.2449916 0.7813084 -0.19221276 0.10805005
0.2954099 0.055832755 -0.5066007 0.5534031 0.09988355 0.053317577 -0.6740322 -0.39897436
0.24262378 0.04681207 -0.061085086 0.45351756 -0.13944203 -0.36898714 -0.20653059 -0.042917345
0.22931497 -0.11403438 -0.59275967 -0.38434243 0.5698355 -0.043384332 -0.15449497 -0.5035758
-0.63465667 0.041476466 0.7265133 0.2549283 -0.53055876 -0.48374993 0.020138022 -0.06402884
0.8041868 0.48491982 -0.052406836 0.04477579 0.5309644 0.1469848 0.22140083 -0.22014399
0.007144652 0.17558701 0.5017434 0.17849688 -0.17073178 0.5144215 -0.12802096 0.061531816

fc3.weight f4 [32, 80]
00000000: d797 663e 2911 993f a90a a2ba 1183 20bd
00000010: 5d5c a03d 5926 6b3e b11e 2bbe b503 c33d
00000020: 2723 9bbe db63 89bd 724f fb3c a480 b8be
00000030: 0354 253e ff5c a23d a1f4 9fbd a890 b83b
00000040: 1733 193e 1210 8d3d a700 0a3e d11a 37bf
00000050: 1bc3 ad3e 6515 52bc 8c67 c93d f29f 983e
00000060: c24b 8bbd eb51 33bc 103c 363e 2b9c b7bd
00000070: a31b c23e ebc4 703e bef6 46bf 14e2 3abe
00000080: 433f b9bd 4af0 ddbe b686 1a3d 5002 12bb
00000090: 268a 883e 729b 95be 82c2 4abe 9351 2bbe
000000a0: 73d1 853e e6a2 123d 74c5 d93d 75cd d4be
000000b0: 9de5 953c 0031 e3bd 9fc9 9b3e d265 73bd
000000c0: 9f40 59be 83ad 0e3f 2eb5 94bf 9a96 153e
000000d0: 154d 6abd 7cfe 583f 91d8 b2bd 4aa6 c5be
000000e0: 12af 0a3e dfe8 1d3f 8982 193e f9ff 97bf
000000f0: 6c00 82be 811b e13c f609 783f 5e29 7c3d
00000100: 90af 16bf 11d9 9b3e 9eb9 aa3d 4cf1 a5be
00000110: 143d 0dbf e1d0 46bd e4e5 c8bd bddd 4e3e
00000120: a045 e13e 0bca bc3e f082 22bf 4716 c43e
00000130: 1208 e3be 9716 883d ea58 083f d3f7 00be
00000140: 9ad1 203f 7be1 8e3d 5f2b 493d ad13 18be
00000150: 3ee3 7bbd 8e96 50be 962c 323f 64de ef3c
00000160: 3dc9 323f 95b3 1a3f b0dd 84be 5efc 38bd
00000170: 017b 463d b892 c4bd 3743 1d3a 8313 22bd
00000180: ac93 d3bd 2de5 163e 8190 1abe af21 f7be
00000190: 4a32 e7be f012 b7be 788b 74be 87fc 54be
000001a0: cf2c 1fbe 1e29 dbbd 4a15 d8bd 9280 813d
000001b0: 51af 9cbe f27f 2ebd 0b3d 813e 67ae 68bc
000001c0: a592 443b 18be 883b 0ca6 893d 4a1f 9bbd
000001d0: 54cd 7d3d cf89 4bbe d10d 66be 4cec 7e3d
000001e0: 6672 5b3d 4654 8f3d 90d8 9b3c 0561 e63d
000001f0: c81f 113f f08e 79bc 818d a63f ab4b ee3e
00000200: c1d3 173e 0749 133f 578b 89be b483 1c3e
00000210: e1ab 11bd 4071 8fbe c1e7 f0bd 1081 6abe
00000220: 76fb 28be d959 84bd 64b3 06bf e7ef 68bd
00000230: 69c9 543f 39e6 c2be f02a bfbf f128 f5bd
00000240: ae8f cfbc 66b5 25bd db68 9f3d 663f 3e3f
00000250: 5776 fdbe 5273 7bbe 3041 783d 9834 243e
00000260: 51e3 19bd 7c73 40be f4ef 913f 1fe2 cc3e
00000270: fcdb 033f 9d79 f03e 8df4 d73d 710c 223f
00000280: eea6 2bbd f5be 13bd 0d96 5fbd d5bf fabe
00000290: 5d60 59bc f728 533e 89f5 8a3f b98a e83d
000002a0: 74c7 bfbd db22 b33e b2d5 adbe c8ff 783e
000002b0: be62 043f 3791 a13e 3e8e 843e 85fc bd3e
000002c0: 38ee 803c dfbd b0ba fb7e 543c 555b b1bc
000002d0: f7ef f03c 88b4 55be e81f 92be c580 9bbe
000002e0: 4f16 1b3f 47c9 8c3e 71ed 533e 912a 62be
000002f0: 9a63 b0bd b5d9 9bbb 2636 ac3e f896 073f
00000300: b483 823e 03a8 c2be ee67 163f 3998 9fbd
00000310: 8962 0dbf 75a5 28bf 8b06 1d3e f490 abbe
00000320: 44ab 14be e019 a53f 72ff afbe 89fd 6e3e
00000330: fc85 2e3e 0ed7 7cbf 20ff 343d 0c55 afbe
00000340: 21e3 0e3e aaa7 743f 9d6b c0be 5743 d5bd
00000350: 79fa 62be f319 86bf c1b5 86bd 72e2 35be
00000360: 1508 acbe bf27 553e a317 06bf 3993 ea3f
00000370: 7757 f1be a1da cdbd 27fd 3fbf 5fe3 273e
00000380: 6933 d43d a372 4ebc d20d b3bf f9b3 48be
00000390: c231 65be 897c 4cbe 2e8e c53c 1fd5 d9bd
000003a0: c994 423e 0108 c6be a88f 8c3f 8be3 1bbe
000003b0: ac9b ab3e c036 e53e fafc 39bd 3b0e 8cb7
000003c0: be82 9abb 2205 45bf dfae bebd 6ebb fc3d
000003d0: 6728 97bd 34cc a03d 0dc9 513f 4cc8 b03d
000003e0: e41f ffbd cbca 32be a9fe 493e d1db 933e
000003f0: 54ff e63e 20f1 2ebc 73f3 223f d441 6e3e
0.2251886 1.1958362 -0.0012362796 -0.039187495 0.07830117 0.22963847 -0.16710927 0.095221914
-0.30300257 -0.06708499 0.03067753 -0.36035645 0.16145329 0.07927894 -0.07810331 0.0056324787
0.14960895 0.06887831 0.13476811 -0.71525294 0.33937916 -0.012822484 0.09834203 0.2980953
-0.06801559 -0.010944824 0.1779635 -0.089653336 0.3791171 0.23512618 -0.7772025 -0.18250304
-0.09045269 -0.43347389 0.037726127 -0.002227921 0.266679 -0.29220158 -0.19800761 -0.16730337
0.2613636 0.035799883 0.10633364 -0.41563 0.018297965 -0.110933304 0.30427262 -0.059423275
-0.21216057 0.5573351 -1.1617792 0.14608231 -0.057202417 0.8476331 -0.08732713 -0.3860343
0.13543347 0.6168346 0.14991201 -1.1874992 -0.25390947 0.027478935 0.968902 0.06156289
-0.5886164 0.30439046 0.08336185 -0.32410657 -0.5517132 -0.048539046 -0.09809473 0.20201774
0.43998432 0.36872897 -0.63481045 0.38298246 -0.44342095 0.06644934 0.5326067 -0.12594537
0.62819827 0.06976601 0.049113628 -0.14851256 -0.061496012 -0.20369932 0.6959928 0.029280849
0.69838315 0.6043027 -0.25950384 -0.04516255 0.04845715 -0.09598297 0.00059990905 -0.03956939
-0.103309005 0.14735861 -0.15094186 -0.48267886 -0.45155555 -0.35756636 -0.23881328 -0.20799457
-0.15544437 -0.10701202 -0.105509356 0.06323351 -0.30602506 -0.042602487 0.25241885 -0.014201737
0.0029994634 0.0041730516 0.06721124 -0.07574327 0.061963394 -0.19876789 -0.22466208 0.06223707
0.053575896 0.06998496 0.019024163 0.11248974 0.5668912 -0.015231833 1.3011934 0.46542105
0.14826871 0.57533306 -0.2686412 0.15284616 -0.035564307 -0.2801609 -0.117629535 -0.22900796
-0.16502175 -0.064624496 -0.5261748 -0.056869414 0.8311983 -0.3806627 -1.4934978 -0.119706996
-0.025337067 -0.0404562 0.077836715 0.7431549 -0.4950435 -0.2455571 0.060609043 0.16035688
-0.0375703 -0.18794054 1.1401353 0.40016267 0.51507545 0.46967784 0.10544691 0.63300234
-0.041907243 -0.036070783 -0.05458646 -0.4897448 -0.013267604 0.20621096 1.0856181 0.11354584
-0.093642145 0.3498753 -0.339521 0.24316323 0.5171317 0.31556103 0.25889772 0.3710672
0.015738592 -0.001348432 0.012969728 -0.021649996 0.0294113 -0.20869648 -0.28539968 -0.3037168
0.60580915 0.27497312 0.20696045 -0.2208655 -0.086127475 -0.0047561773 0.33635062 0.52964735
0.25491107 -0.38018808 0.58752334 -0.07792706 -0.5522848 -0.6587747 0.15334527 -0.33509028
-0.14518458 1.2898521 -0.34374577 0.23338903 0.17043298 -0.9876565 0.04418862 -0.34244573
0.1395383 0.95568335 -0.37582102 -0.10413235 -0.2216586 -1.0476669 -0.065776356 -0.17762163
-0.33599916 0.20815943 -0.52379817 1.8326179 -0.47137043 -0.10051466 -0.74995655 0.16395329
0.10361368 -0.012600574 -1.3988593 -0.19599904 -0.22382262 -0.19969381 0.024115648 -0.10636353
0.1900207 -0.38677981 1.098134 -0.1522352 0.33517206 0.44768333 -0.045407273 -1.6695927e-05
-0.0047152927 -0.7696096 -0.09310698 0.12340437 -0.07380753 0.07851449 0.81947404 0.086319536
-0.124572545 -0.17460172 0.19726051 0.28878644 0.45116675 -0.010677606 0.63652724 0.23267299

fc3.bias f4 [32]
00000000: 8e7a 5b3f 8a27 5dbf 152d 73bf 69a7 423d
00000010: ad85 67bf ccdc 883e d125 5d3f eee2 bdbe
00000020: 490f c93d 0ae8 62bf 9581 17bf 8418 653f
00000030: 3f4d 5dbe 9916 6dbf 352b b13c 37ed 3b3e
00000040: 938f 323f d491 373f 4f6f 223f 9a8d 363f
00000050: 61e8 313f b1e0 0c3f e9bc 2c3f 6163 2d3f
00000060: c5e6 2d3f 6788 343f adb8 253f 1f04 2b3f
00000070: 6c1b 413f ac26 1c3f 129f 893e 9e04 3e3f
0.8573388 -0.86388457 -0.94990665 0.047522936 -0.9043835 0.26730955 0.8638583 -0.37087196
0.098173685 -0.88635314 -0.591821 0.8949053 -0.21611498 -0.92612606 0.021627048 0.18352209
0.69750327 0.7170689 0.63451093 0.71309817 0.6949521 0.5503035 0.67475754 0.67729765
0.6793025 0.70520633 0.6473492 0.66803163 0.7543247 0.6099651 0.26879174 0.74225795
