puppersim/dc_saves/aac_slow_pupper_0/critic1_9.pt (torch, 38295 bytes, 5 tensors)

fc1.weight f4 [80, 31]
000000 6d 96 2a bd 6e 00 7b c0 4c 0a 5d be fb 0a a2 be
       -0.041647363 -3.9219012 -0.21585959 -0.31649002
000010 57 26 a6 bd 77 c5 a0 bf b5 7a 2f bf ff 1a fc 3e
       -0.081127815 -1.2560261 -0.6854661 0.49239346
000020 fb f3 c9 bd c6 b8 ee bf 0c fa ae 3f 91 c9 44 bf
       -0.09860989 -1.8650138 1.3670058 -0.76870066
000030 9f 42 76 bf 14 19 4f 3e 1e 55 0e c0 27 29 fc bd
       -0.96195406 0.2022441 -2.2239451 -0.12312537
000040 43 51 17 bd 7c 2b 52 be 23 08 30 3d 0e 06 75 3d
       -0.03694273 -0.205244 0.04297651 0.059820227
000050 25 74 9c bc 46 d2 50 bd 77 16 56 bd 8d 8e 80 3d
       -0.01909835 -0.050981782 -0.052267518 0.062771894
000060 7f fd 3d 3c 41 0e 72 3c 57 9d 3d 3d ec aa 2b bc
       0.011596083 0.014773906 0.04629263 -0.010477763
000070 03 a3 0f 3e 4f 7c de 3e af 14 6f bc d8 e4 d4 bd
       0.14027028 0.43454215 -0.014592334 -0.10395211
000080 df e2 17 3e 81 c9 26 bf 36 5e 12 3e cd 30 86 3f
       0.14832638 -0.6515122 0.14293751 1.0483643
000090 84 d5 59 be fc 25 af 3e e5 85 40 3f f9 9b 0c 3d
       -0.21272856 0.34208667 0.75204307 0.034328435
0000a0 d5 56 bc 3e b8 8f 46 3f 99 30 ad bd ac 69 a2 3e
       0.36784998 0.7756305 -0.08456535 0.31721246
0000b0 67 be 75 bf 13 8b c1 be 57 5a 7f 3e 08 2a a4 3e
       -0.95993656 -0.37801418 0.24936806 0.32063317
0000c0 56 d1 d9 be f4 c8 e6 3e 1d 0c 9a 3e 90 dd 03 bc
       -0.42542523 0.4507519 0.30087367 -0.00804843
0000d0 86 dc aa 3e fb b6 6d 3d d2 c1 88 be e1 3b 5a 3e
       0.3337137 0.058035832 -0.26710373 0.21311904
0000e0 3e 00 fb 3e b3 95 b9 be fa 2b 59 3d df 0a bd 3e
       0.49023622 -0.36247024 0.053020455 0.36922356
0000f0 77 36 2c be 32 8b dd bd 03 51 ae bd 84 dc 84 c0
       -0.16817652 -0.10817565 -0.085115455 -4.1519184
000100 ac 0a 38 bf 0b 9b d2 3e fb ce b5 bf 47 29 be bf
       -0.71891284 0.41133913 -1.420379 -1.4856347
000110 de e9 3c 3d 16 2a 86 bf 6f 82 1e c0 d0 59 9c 3f
       0.04612147 -1.0481594 -2.476711 1.2214909
000120 e7 3a af 3f e7 5b c4 bf 6c a2 dd 3d b1 f3 d4 bf
       1.368985 -1.5340546 0.10821995 -1.6636869
000130 58 60 1f 3f 6a d1 80 bf 4d 6d 9a 3d d2 2f 63 3f
       0.62256384 -1.0063908 0.07540379 0.88744843
000140 27 0e 53 3e 22 c7 9e be af 15 14 be 69 54 42 be
       0.20610867 -0.310113 -0.14461397 -0.18977512
000150 a9 83 d5 be 78 d9 04 bf b9 4f 06 bf ff b4 31 3e
       -0.4170201 -0.5189433 -0.524654 0.17354201
000160 47 25 2d 3f 22 17 8b be c6 3f 37 3f ce 7d 31 bf
       0.67635006 -0.27166086 0.71581686 -0.6933259
000170 f8 cd 9b be 92 44 86 be fd d5 63 3e 90 82 14 3d
       -0.3043058 -0.2622419 0.22249599 0.036257327
000180 b3 7b f5 3d f2 12 86 3f e8 b3 34 bf 61 17 96 3e
       0.119864844 1.0474532 -0.70587015 0.29314712
000190 d7 d1 cb 3f 45 45 32 c0 27 ee 25 3e 38 ad 10 40
       1.5923413 -2.7854779 0.16204129 2.2605724
0001a0 d3 d9 fb be 32 32 07 3f b3 e5 51 bf 94 ac e5 3e
       -0.49189624 0.52810967 -0.8199112 0.4485823
0001b0 cc bb bc 3e 4f e5 af 3f b1 bb 91 bd ac 51 3f bf
       0.36862028 1.3741854 -0.071158774 -0.74733996
0001c0 4b 96 87 3e 19 43 10 bf 87 1e 4e bf 38 75 bd 3d
       0.26481852 -0.5635238 -0.8051533 0.09250873
0001d0 cf ea 5e be 22 be 9b 3e 9d 70 61 be b3 e0 bc be
       -0.2176926 0.30418497 -0.22015615 -0.36890182
0001e0 13 b2 b1 be da af 19 bf 9b cd 8f 3e ee 12 00 bf
       -0.34706172 -0.60033953 0.28086552 -0.50028884
0001f0 e6 84 36 bf 09 dd 7a 3f 51 f6 6d 3f e9 e5 2d 3f
       -0.71296537 0.9799352 0.92953974 0.6792894
000200 de f6 c5 3e 2a 98 ea 3d e4 58 0b bf 16 e2 61 be
       0.38664907 0.11454804 -0.5443251 -0.22058901
000210 ce fb 92 3e 0b 8f a4 3e 34 0c c3 3f 1a b2 21 bf
       0.28707737 0.32140383 1.5238099 -0.63162386
000220 b5 3c 40 bf 54 a4 86 bf 76 22 86 3f 21 2d 5d bd
       -0.7509263 -1.0518899 1.0479267 -0.053998116
000230 44 11 6d bc be c3 92 bb 95 32 26 bd 19 61 c0 ba
       -0.0144694485 -0.0044789007 -0.040575583 -0.0014677375
000240 71 ce 6b 3b 57 7a 80 bc 56 6a 19 bd 2c 0d 1f bd
       0.0035981203 -0.015683336 -0.037454925 -0.03883092
000250 d7 c8 b1 bb 2b f1 0d bc f5 3b c8 bc 82 0d 34 bb
       -0.0054255533 -0.008663456 -0.024442652 -0.0027473872
000260 b8 8e c5 3d 8b 3f 23 bd 0d 71 64 3b 5b d7 e3 be
       0.09646362 -0.03985552 0.0034857423 -0.4450024
000270 35 7a 55 be 28 2b ac bc f2 33 06 3e c6 51 55 bd
       -0.208474 -0.021016672 0.13105753 -0.05207994
000280 31 c1 1e be e8 51 a4 3d 04 71 6b 3e bd 8b bf be
       -0.15503384 0.08023435 0.22992331 -0.374113
000290 42 34 a1 bd a0 a1 87 3c 5d 17 54 bd f0 d6 67 3e
       -0.078712955 0.016556561 -0.051780093 0.22640586
0002a0 c2 41 c1 bd ed 7c 33 3d af b1 01 bb 46 39 ba bd
       -0.094363704 0.04382031 -0.0019789746 -0.09092955
0002b0 2c c2 cd bd 91 fd 65 3b 48 c6 0c bd a8 b1 eb bc
       -0.10046801 0.0035093764 -0.034368783 -0.028771237
0002c0 8d 4e 8f 3c 64 67 45 bd e3 f5 d9 3c a2 10 66 3b
       0.01749351 -0.048194304 0.026606506 0.0035105129
0002d0 a0 b5 e8 3b 44 be 5d 3b 98 15 d4 bb 68 54 b0 3d
       0.0071017295 0.003383533 -0.0064723007 0.08609849
0002e0 b0 da e8 3c 66 bd 28 3d 22 ff e6 3e 22 f0 20 bf
       0.02842459 0.04119625 0.45116526 -0.62866414
0002f0 ee 00 0c bf b2 e8 11 3f 49 76 a5 bf 97 d9 95 3d
       -0.5468892 0.5699569 -1.2926723 0.073168926
000300 84 7c 33 bf ea a6 9d bf 8c e1 cb bf 8a a5 77 3f
       -0.7011187 -1.2316563 -1.5928206 0.9673697
000310 7a 2b 5d bf a4 d0 06 bf 98 23 2b bf 42 2c 0d be
       -0.86394465 -0.5266211 -0.66851187 -0.13786414
000320 ac 1e 46 bf 8c 50 74 be 9a db b4 3d 79 12 00 be
       -0.7739055 -0.23858851 0.08830948 -0.12507047
000330 95 8f 06 be 0b b5 57 bd 68 8f 08 be 9c ca a7 3e
       -0.1314071 -0.05266289 -0.13335955 0.32771766
000340 ba 1f 90 bd dc 07 04 3e cf fe 19 3e ec 19 ea be
       -0.07037301 0.12893623 0.15038608 -0.45722902
000350 29 cd 33 be 57 ad a7 bd 81 72 53 3f 76 ef cd be
       -0.17558731 -0.08187359 0.82596594 -0.40221757
000360 02 5a 28 3d 6a f8 6c bc 17 de a2 3f 93 8e 22 3f
       0.041101463 -0.014463523 1.2724026 0.634988
000370 34 e0 3b bf fa 79 40 3f f4 50 2b be 7e af 23 bf
       -0.7338898 0.7518612 -0.167301 -0.63939655
000380 2b 70 ad bf 41 ad 35 c0 ce 18 be 3e 33 d5 95 3e
       -1.3549856 -2.8386996 0.371283 0.2926422
000390 04 d7 11 3f b4 a3 f4 3e 14 e7 b9 3e ec dc dd 3e
       0.5696871 0.47781146 0.3630911 0.43332613
0003a0 7a 00 e6 3b a6 98 e6 bc 13 7e 2a bd e7 cd 47 bc
       0.0070191 -0.02814896 -0.04162414 -0.012195087
0003b0 2e 6a 15 3c 3e f0 bb bc 70 65 c1 3b 9d 10 e8 3c
       0.0091195535 -0.022941705 0.005901985 0.028328234
0003c0 f3 f5 51 3d c7 f4 05 bb 17 ae 6b 3b 1d 9c e3 3c
       0.051259946 -0.0020440088 0.003596192 0.027784402
0003d0 c0 58 ad bb 9b 97 85 bd dc 91 c2 bd e1 ec 9e 3b
       -0.005290121 -0.06523057 -0.09500477 0.0048500155
0003e0 bb e2 bb 3d 6f f8 e7 3e 2a c2 46 bf e8 61 c7 3e
       0.09174105 0.45306727 -0.7764002 0.38941884
0003f0 06 74 4f bf 9a 22 21 bf 5a 07 1f 3f c6 d0 9c 3e
       -0.8103641 -0.6294342 0.6212059 0.30628031

fc1.bias f4 [80]
000000 01 2a 04 c0 ef 7d 7e bf f3 16 79 3f 46 9a 37 bf
       -2.0650637 -0.9941091 0.9730064 -0.7171978
000010 9d da 8f 3f 91 0f fa 3e 45 68 83 3e eb 2e 84 be
       1.123859 0.4884 0.2566549 -0.25817046
000020 64 40 91 bf 2e 58 5b 3f f3 05 6c 3f 85 fc 0e 40
       -1.1347775 0.85681427 0.9219658 2.2341626
000030 9f be c1 3e 7c 7c 22 40 da d1 43 3e 9e 47 ce bf
       0.37840745 2.538848 0.19123021 -1.6115606
000040 ed 50 1c bf 6d 02 a2 3f 79 05 07 3f 39 6c 20 3e
       -0.6106098 1.265699 0.52742726 0.15666284
000050 9a af 3c bf 6e b5 f6 3e ba 04 f6 3e 9b d5 59 bf
       -0.73705447 0.48185295 0.4805048 -0.8509156
000060 5f e5 2d 3e a3 20 f7 3e b8 a4 17 c0 0c 21 84 40
       0.1698203 0.48267087 -2.3694286 4.129034
000070 62 c7 33 c0 a9 8e d0 3e 78 19 af 3e 39 91 60 40
       -2.8090444 0.4073384 0.3419912 3.5088637
000080 89 19 0b 40 09 f5 82 3f 1a cd ec 3f cc 20 5e 3f
       2.1734335 1.0231029 1.8500092 0.86768794
000090 bc 68 77 c0 39 88 4b c0 85 8b 37 bf 2c 64 d2 bf
       -3.8657675 -3.1801894 -0.71697265 -1.643682
0000a0 5f 8d c3 be 66 e1 f4 bf e8 06 e1 3f 82 7d f1 3f
       -0.38193795 -1.9131286 1.7580233 1.8866427
0000b0 1b b9 a3 3e 48 d5 29 c0 cb 98 e5 3e 32 66 c1 bf
       0.31977162 -2.6536427 0.44843134 -1.5109313
0000c0 f4 5e bb be 58 20 64 40 32 e3 1c bf b0 fc c9 bf
       -0.3659588 3.564474 -0.6128417 -1.5780239
0000d0 88 f7 cd 3f 56 d4 35 bf 3d 0e 7c c0 8f 0d da 3e
       1.6091166 -0.71027124 -3.938369 0.4258847
0000e0 89 8f ca 3f f1 8a ab 3d 26 55 04 3f 3e 81 52 bf
       1.5825053 0.0837611 0.51692426 -0.8222846
0000f0 e0 d0 eb bf b5 ac ea 3f b4 3f 42 3f 07 17 7e 3f
       -1.8423119 1.8333956 0.75878453 0.99253887
000100 5f d4 99 bd ed 85 e9 3e 55 ed 7c bf 9f c2 23 c0
       -0.0751121 0.4560999 -0.9879964 -2.5587537
000110 e0 0f 99 3d 32 09 92 3e dc 7d 87 be 75 40 74 bf
       0.07473731 0.2852264 -0.2646321 -0.95410854
000120 76 96 f6 3e 4a d0 50 be 1e 90 2d bf 05 81 85 3f
       0.48161668 -0.20391956 -0.6779803 1.0429999
000130 6b b0 d8 3d e0 06 9c 3f 54 02 ce 3e e9 d0 a0 3f
       0.10580524 1.2189598 0.4023615 1.2563754

fc2.weight f4 [80, 80]
000000 88 a5 10 bf 0b 67 9d be c9 54 e3 bd bb 95 26 be
       -0.5650258 -0.30742678 -0.11100156 -0.16268055
000010 1d 84 92 bf ac 02 31 3e 9b d2 71 bd 06 d2 2b be
       -1.1446568 0.17286175 -0.05903874 -0.16779336
000020 f8 c6 a7 be 37 7d f5 bd 48 b3 29 3e ca 80 8e 3f
       -0.3276899 -0.119867735 0.16572297 1.1133053
000030 0c 3c b9 3c ec 20 d9 bd 43 9f c4 be 5a 04 18 be
       0.02261164 -0.106019825 -0.38402757 -0.1484541
000040 d3 ec 60 be db 28 d4 bd d9 53 b4 3e 02 e7 8e bd
       -0.21965341 -0.10359355 0.3522022 -0.06977655
000050 61 d0 2b 3f d0 48 ab 3e 71 23 b6 3e ea e4 c7 3d
       0.67114836 0.3345399 0.35573915 0.09760459
000060 15 4d f9 3c b0 14 96 3d 07 c2 62 3e 3c 17 52 c1
       0.030432263 0.073281646 0.22144328 -13.130672
000070 85 ad 16 3e 1c 7b bd 3d d5 8a f3 3e 0f c0 f7 bf
       0.1471463 0.09251997 0.47566858 -1.9355487
000080 dc 1d 1c bf 8a 16 41 bd 5a 37 c0 bd b9 df c9 be
       -0.6098306 -0.047140636 -0.093855575 -0.394285
000090 95 c0 c7 be 88 74 f5 bc c0 84 cc 3e 1f 9d 77 bf
       -0.39014116 -0.029962793 0.3994503 -0.9672412
0000a0 29 ed 97 be 28 56 78 bf c6 45 9b bf e2 68 25 be
       -0.29673126 -0.97006464 -1.2130668 -0.16153291
0000b0 54 19 4b be d0 f2 fe 3e 27 10 25 3e 5d e4 12 3f
       -0.1983388 0.49794626 0.16119443 0.57379705
0000c0 ba a0 d6 3e 17 fe e2 bd 3e 47 47 be b5 8c 8b bd
       0.419195 -0.1108362 -0.1946077 -0.06813947
0000d0 49 31 e9 bf d5 2c 1a 3c 27 fc 16 bf fb 70 8a 3e
       -1.8218166 0.009410103 -0.58978504 0.27039322
0000e0 7a 95 ca 3e 7b c9 04 3f ee 37 3f 3e c4 ec 0f 3c
       0.39567167 0.51869935 0.18673679 0.008784477
0000f0 dd 92 61 3e 9c 07 d2 3d cc 8f 43 bf fe 04 ad be
       0.2202868 0.102553576 -0.7639129 -0.3379287
000100 22 8f 93 3e df 68 db bd 6f 54 2d be 55 c6 35 bd
       0.2882014 -0.10713362 -0.1692674 -0.044378597
000110 ef 72 0c bd 46 fb df bf 24 3c 5c bf b9 62 be be
       -0.034289297 -1.7498558 -0.8602927 -0.37184694
000120 40 a3 ce 3e ab 11 80 bf 9e af 45 bf a8 c7 00 bf
       0.40358925 -1.0005392 -0.77221096 -0.5030465
000130 eb fb 77 be 80 6a 9c c0 2b 8b 05 3e 09 f0 c9 3e
       -0.24217193 -4.8880005 0.1304137 0.39440945
000140 a9 e6 8a be 6c 5b 35 3d 3a 07 87 bf a1 64 46 be
       -0.27129105 0.04427664 -1.054908 -0.19374324
000150 90 fd c6 bf e1 1d f6 bd e9 3d b9 3e 67 77 b6 3e
       -1.5546131 -0.12017418 0.36180046 0.35637972
000160 c9 a5 00 be ac 01 b2 3e aa e1 9d 3e 51 10 8f be
       -0.12563242 0.347669 0.3083623 -0.27942136
000170 e2 4c 63 bf 5b f8 19 3f 33 8b 9a 3e 2d 54 69 3f
       -0.8878919 0.60144585 0.30184326 0.9114407
000180 0a fb e0 be 80 38 fc 3e 1d 32 5a bf a9 86 b3 3d
       -0.43941528 0.49261856 -0.85232717 0.08765919
000190 29 90 24 3e f2 1a 58 be 91 2a 22 3e df 78 2f 3f
       0.16070618 -0.21104029 0.1583655 0.6854381
0001a0 d7 ab f1 be 5c 74 f3 be 4d 50 63 bf 37 99 00 3f
       -0.47201416 -0.47549713 -0.88794404 0.5023379
0001b0 a8 6e 1b 3e c6 84 d3 be 24 94 ce bd 04 83 5b bf
       0.15178931 -0.41312236 -0.10086849 -0.8574679
0001c0 d1 fb 08 3f a6 5d e7 bc c6 0e 8f 3d e7 b1 8b bf
       0.5350924 -0.028242897 0.0698524 -1.0913666
0001d0 b0 67 e5 be 67 c3 62 be 26 f3 69 bd b8 37 1a be
       -0.4480567 -0.22144853 -0.05711665 -0.15060318
0001e0 61 84 a4 bc 93 da 4f 3e 67 96 ad bf d8 7c f2 be
       -0.020082654 0.20298223 -1.3561524 -0.47360873
0001f0 1f 5c f7 bd fa 4e 6c bf ee bc 79 bb b5 a9 81 bf
       -0.120781176 -0.9230801 -0.0038106996 -1.0129915
000200 87 3d 1b be 14 44 24 bf 7d fc 1a bf f8 1b 49 3f
       -0.1516019 -0.6416638 -0.60541517 0.785583
000210 41 c9 e5 bd 1e b8 4b 3e a0 ca dc be f8 a4 10 bf
       -0.11220027 0.19894454 -0.4312334 -0.5650172
000220 a9 92 b5 3e e7 68 8f be 30 82 c5 be 36 12 b9 be
       0.35463455 -0.28009722 -0.38575888 -0.36146706
000230 3e 37 f5 bd e8 95 70 bf a9 10 f6 bd c5 99 36 bf
       -0.11973427 -0.9397874 -0.120148964 -0.71328384
000240 f8 fd 84 3e e2 bd 8d 3e 30 2a 58 3e 04 47 a3 be
       0.25975013 0.27683932 0.21109843 -0.31890118
000250 c2 16 41 3f 69 97 dc bd b6 08 f9 bd 2b 8e 62 3e
       0.7542535 -0.10771067 -0.121598646 0.22124545
000260 6f 70 44 3e be 50 e6 be 14 66 4a bf 29 46 88 3e
       0.19183515 -0.44983476 -0.7906201 0.26616028
000270 24 bf f8 be 76 0d 8e bf 5a e0 d7 3e 1b 82 46 3e
       -0.4858333 -1.1097858 0.42163354 0.19385569
000280 25 e4 da 3d 7d 4f 66 3e 17 b3 db 3e 88 3f 5e 3f
       0.10688046 0.2249126 0.42910072 0.8681569
000290 f1 f3 03 c0 97 e7 95 3d 22 f7 f9 be 0e ea 8f bd
       -2.061764 0.07319563 -0.4882136 -0.07027064
0002a0 68 f4 da be b2 6d 3e 3e 54 cb 3a 3e dc 2b ab 3e
       -0.42764592 0.18596533 0.18241626 0.334319
0002b0 b9 32 6e 3c a9 87 6d 3d 71 cc 08 3e a2 8c 48 3f
       0.01453846 0.057990704 0.13359238 0.7833959
0002c0 4d d9 0f 3e 53 b3 3f 3e 0e 17 a6 3e 20 cb 14 be
       0.14047737 0.1872075 0.32439464 -0.14530611
0002d0 8e a7 d2 be 51 0a cb 3d bb 5b 90 bd 02 14 d4 bd
       -0.4114346 0.09914077 -0.07048746 -0.10355379
0002e0 2f 5a 68 3e 82 97 e1 3c 6f 58 07 bd 04 59 ae bf
       0.22690652 0.027538065 -0.03304332 -1.3620915
0002f0 23 04 8c be 13 2e 05 3e 07 3c a7 3e e6 b1 2a 3b
       -0.27346906 0.13005857 0.32662985 0.0026045977
000300 74 c2 31 bb fb a0 8e be 29 51 9c 3d c1 b1 f3 bf
       -0.002712396 -0.27857193 0.076326676 -1.9038621
000310 a3 00 1f 3f 59 5c 55 be 29 ab 17 3e 38 95 be 3e
       0.62110347 -0.20836009 0.14811386 0.3722322
000320 cf 9e 7e be f3 0f a3 3e ed 3c c7 be ef 1b 8f 3d
       -0.24865268 0.31848106 -0.3891367 0.0698775
000330 63 76 65 3e 69 65 09 bd f7 fc cb 3d 33 ec ad bf
       0.22408442 -0.033543978 0.099603586 -1.3587707
000340 5d 7a ec 3e 3b 5b 55 3f 0e d7 ca bb b9 92 7e 3e
       0.46187106 0.8334233 -0.0061901873 0.24860658
000350 e5 84 75 bf 03 c4 a2 3d 89 fb c3 3f 93 2c 25 3e
       -0.95905906 0.079475425 1.5311137 0.16130285
000360 8a 6d 69 3e 65 b8 7c be a6 0d 97 3d 23 ee 68 3b
       0.22795692 -0.24679716 0.0737565 0.0035542331
000370 5e 1b 8e be 7f 5a 1b be 96 25 34 bf 4e 81 07 bf
       -0.27755255 -0.1517124 -0.7036985 -0.5293168
000380 81 91 b6 3d 5e af a6 be e1 16 0c bf 4b dc 7d 3e
       0.089144714 -0.3255567 -0.5472241 0.24791066
000390 9f 15 5d 3e d1 86 fa bd 31 8e f9 be f6 00 14 3e
       0.21590279 -0.122327454 -0.48741296 0.14453492
0003a0 3a 6e 36 3e 91 f8 f0 be 91 d5 0f bf 4d a2 74 bc
       0.17815486 -0.4706464 -0.5618525 -0.014931274
0003b0 00 83 0d bf 0b 38 c5 be d4 ec 43 3d 83 37 31 3c
       -0.55278015 -0.3851932 0.04783328 0.010816458
0003c0 ca 67 b3 bd e2 ce 9a 3d 84 dd a3 3d 59 0a 1b bf
       -0.087600306 0.07558991 0.08001235 -0.60562664
0003d0 d8 d3 1d 3d d1 7f d6 3d 97 4f 46 3d 83 1f 71 be
       0.038532108 0.10473598 0.048415747 -0.23547177
0003e0 56 a2 35 be 7e cb 90 bd ec 22 ac 3b 19 81 20 be
       -0.17737707 -0.07070063 0.0052531864 -0.15674247
0003f0 f3 ff 14 3e 69 58 75 be 54 44 50 bf 10 6b e8 be
       0.14550762 -0.23959507 -0.8135426 -0.45394182

fc2.bias f4 [80]
000000 33 4b 2f be 6f 11 8a 3e 21 26 8c 3e de 9d 37 3e
       -0.1711853 0.26966426 0.2737284 0.17931315
000010 38 8e e3 bf 96 d1 fe bd 63 b7 a0 be ce a1 52 3e
       -1.7777777 -0.12442319 -0.31389913 0.20569536
000020 9c 0d c9 be ea 46 11 3f 3e 35 21 bf ee 9a 57 3e
       -0.39268196 0.5674883 -0.62971866 0.21055195
000030 94 70 94 3e e9 f3 1c 3f b5 4f 9d bf 18 c6 c8 bf
       0.2899214 0.6130968 -1.228995 -1.5685453
000040 2a 02 56 be 3c 7f 92 be 64 ae 8b 3e 56 1d 47 be
       -0.20899263 -0.28612697 0.27281487 -0.19444785
000050 64 6a ec bc bb 10 8f 3e 86 36 33 be a8 20 27 be
       -0.028859325 0.27942452 -0.17501268 -0.16321051
000060 d3 2c 92 be de 52 0d 3f c8 05 9d 3f 7e 32 b0 bf
       -0.28549823 0.5520457 1.2267389 -1.3765409
000070 93 d8 85 3b dd 4c 06 c0 96 f9 d7 be ec 15 79 bf
       0.0040846555 -2.0984414 -0.42182606 -0.97299075
000080 bd 36 9a 3e 80 a5 b3 bf f2 b3 0b 3f 18 3e 80 3e
       0.30119887 -1.4034882 0.5457145 0.25047374
000090 26 54 2b 3e d2 29 14 bf e5 09 e1 3d d3 98 9f bf
       0.16731319 -0.5787631 0.10988215 -1.2468513
0000a0 d1 e6 42 be 1f 65 8e be f6 a2 e8 bd e9 18 01 c0
       -0.19033362 -0.27811524 -0.11359207 -2.0171454
0000b0 b8 fa 44 3f c7 d5 d4 be e6 99 75 bf 67 0d 8f be
       0.76945066 -0.4156935 -0.95937955 -0.27939913
0000c0 36 88 11 bf 4c 71 1a 3f 54 d8 70 3e ae 75 29 3e
       -0.56848466 0.6032913 0.23520023 0.16548797
0000d0 84 92 62 be ee ca 25 3d a3 69 e2 3d 59 df ae be
       -0.22126204 0.040476732 0.11055305 -0.34154776
0000e0 a0 38 4b 3e 37 c2 43 3e 73 d4 13 bf 0f 0a e3 bf
       0.1984582 0.19117056 -0.57746047 -1.7737445
0000f0 e1 dd 8f 3e ea 12 fe 3d df 8e 7f be 23 0e 31 bd
       0.28098968 0.12405951 -0.24956845 -0.043226372
000100 ff aa 2d 3d 90 d2 4a 3e 7c 89 63 be 58 ab bb be
       0.042399403 0.19806886 -0.22220415 -0.36654162
000110 bf f3 19 bf c1 b7 a8 be a7 81 ac be 6b 1a 51 bf
       -0.6013755 -0.32952693 -0.33692667 -0.81680936
000120 3e 71 63 bf 1b b6 9c bf dc 78 82 bf 7b f9 3a be
       -0.8884467 -1.2243074 -1.0193133 -0.18259232
000130 39 fd a4 bd af 24 4e bf c0 9b 45 bf 13 d7 94 3d
       -0.08056111 -0.80524725 -0.7719078 0.07267585

fc3.weight f4 [1, 80]
000000 b1 0a b1 3d 2f 1f 95 bc e6 d2 a8 3c 21 16 a9 3e
       0.08644617 -0.018203346 0.020608377 0.33024696
000010 7e cb 29 3d 8f b5 67 bd b6 c6 93 bd e3 e1 54 3e
       0.04145383 -0.056569632 -0.072156355 0.20789294
000020 81 a8 4b bf 00 c4 ed bd c7 4a 67 3d 5a a8 09 3d
       -0.7955399 -0.1160965 0.056467798 0.03360782
000030 86 f8 dd 3c a0 7a ad bc 09 cb 8f bc 50 b6 9a 3c
       0.027096044 -0.021176636 -0.01755287 0.018885761
000040 73 e0 50 bd d0 f6 ba bd d0 79 98 3d c0 e3 ac be
       -0.0509953 -0.09129107 0.07445109 -0.3376751
000050 6e ec 58 bc 26 fb 74 bc b2 1d 64 bf a2 f7 53 bb
       -0.013239963 -0.014952457 -0.8910781 -0.0032343646
000060 47 39 a0 bc e9 75 19 3d 80 02 1f bc 50 fb 58 bd
       -0.019558562 0.037465964 -0.009705186 -0.052974045
000070 b8 67 ce bd 08 b3 68 bc 81 83 15 3d 41 89 8c bc
       -0.100783765 -0.014202841 0.036502365 -0.017155292
000080 69 e2 95 be cd 35 a0 bd 5b 41 9d 3c 09 cd 0d 3d
       -0.292743 -0.07822762 0.019196203 0.034619365
000090 3f 7c 8b 3e c2 93 be bc 4c c9 94 3b f6 42 44 be
       0.2724323 -0.023263816 0.004540598 -0.19166169
0000a0 15 92 84 bd e7 f5 7d 3e ba d6 9f bf 4a 72 d2 bc
       -0.064731754 0.24800836 -1.2487404 -0.025689263
0000b0 26 7b 84 bd d6 de d0 3a 94 63 0d bd 8c b5 07 bd
       -0.06468801 0.0015935551 -0.034518793 -0.03313212
0000c0 64 64 29 3d d9 b5 b8 bc 98 e7 bf 3d 55 ee ca 3c
       0.041355506 -0.02254765 0.09370345 0.024771849
0000d0 6e 7a 5a bf aa 8c 9a 3e 5c 0b d2 3c 0e 39 69 bc
       -0.8534306 0.30185443 0.025640182 -0.014234794
0000e0 3c ee 83 3d 7a de 54 3e 40 56 4b bc c6 34 15 be
       0.06441924 0.20787993 -0.0124107 -0.14570913
0000f0 38 a0 33 3d 8b 22 27 3e 5a ce 1c bc cc e0 03 be
       0.04385397 0.16321771 -0.009570682 -0.12878722
000100 78 ef 34 bb 35 8e ad bc 8a f3 eb be 28 79 75 bf
       -0.0027608555 -0.021185974 -0.46084243 -0.95887995
000110 0b e6 bd bc f9 ad 7c bc 3c 2e e4 be 69 b0 85 bc
       -0.023180982 -0.015422338 -0.44566524 -0.01631947
000120 23 17 9c 3b e8 a5 7a bc e5 21 27 3d 60 3a 2c be
       0.0047635003 -0.015298344 0.04080381 -0.16819143
000130 20 ab f0 3c cf 08 51 3c a6 e2 38 bc 17 3f 72 bc
       0.029378474 0.012758448 -0.011284506 -0.01478555
