puppersim/dc_saves/aac_slow_pupper_0/critic1_19.pt (torch, 38295 bytes, 5 tensors)

fc1.weight f4 [80, 31]
0	0x3d6f3987	0.05840447
1	0xc07b7810	-3.929203
2	0x3e08bcce	0.13353273
3	0xbec62dcd	-0.38706818
4	0x3deee34a	0.11664446
5	0xbf927bcd	-1.1444031
6	0xbcf1d3b8	-0.0295199
7	0xbe2c1fe1	-0.16809036
8	0x3e767a99	0.24070205
9	0xbfe06499	-1.75307
10	0xbe0d23c0	-0.13783169
11	0xbda1c55d	-0.07898972
12	0xbf4e6f59	-0.80638653
13	0x3e9268e1	0.2859564
14	0xc04aea38	-3.1705456
15	0xbe96836c	-0.29397142
16	0x3b256f61	0.002524339
17	0xbd226b37	-0.03965303
18	0x3cf6ed2d	0.030142391
19	0x3dd14bcb	0.102195345
20	0xbe310b1a	-0.17289391
21	0x3c28474b	0.010270904
22	0xbe39ef7c	-0.18157762
23	0x3dca74a4	0.09885529
24	0x3e80f602	0.2518769
25	0x3ccb9154	0.024849571
26	0x3e016702	0.1263695
27	0x3e34d33d	0.17658706
28	0x3c1a6afc	0.009424921
29	0x3f3c93d4	0.7366307
30	0x3d4a5ca3	0.04940475
31	0xbdd4e4d8	-0.10395211
32	0x3e17e2df	0.14832638
33	0xbf26c981	-0.6515122
34	0x3e125e36	0.14293751
35	0x3f8630cd	1.0483643
36	0xbe59d584	-0.21272856
37	0x3eaf25fc	0.34208667
38	0x3f4085e5	0.75204307
39	0x3d0c9bf9	0.034328435
40	0x3ebc56d5	0.36784998
41	0x3f468fb8	0.7756305
42	0xbdad3099	-0.08456535
43	0x3ea269ac	0.31721246
44	0xbf75be67	-0.95993656
45	0xbec18b13	-0.37801418
46	0x3e7f5a57	0.24936806
47	0x3ea42a08	0.32063317
48	0xbed9d156	-0.42542523
49	0x3ee6c8f4	0.4507519
50	0x3e9a0c1d	0.30087367
51	0xbc03dd90	-0.00804843
52	0x3eaadc86	0.3337137
53	0x3d6db6fb	0.058035832
54	0xbe88c1d2	-0.26710373
55	0x3e5a3be1	0.21311904
56	0x3efb003e	0.49023622
57	0xbeb995b3	-0.36247024
58	0x3d592bfa	0.053020455
59	0x3ebd0adf	0.36922356
60	0xbe2c3677	-0.16817652
61	0xbddd8b32	-0.10817565
62	0x3e35e72d	0.17763968
63	0xc096c600	-4.71167
64	0xbf916a7b	-1.136062
65	0x3f3a9414	0.728822
66	0xbf559f94	-0.8344662
67	0xbf9dc8fb	-1.2326959
68	0x3ea4e931	0.3220916
69	0xbfa76616	-1.3078029
70	0xc03e57e8	-2.9741154
71	0x3fb6d43f	1.4283522
72	0x4022337f	2.534393
73	0xbf9225a2	-1.1417735
74	0x3e883ab8	0.266073
75	0xbf513566	-0.81722105
76	0x3ec80afc	0.3907088
77	0x3e3ad2a1	0.18244411
78	0xbf1d622f	-0.6147794
79	0x3f7e83f9	0.99420124
80	0x3ec1e74b	0.37871775
81	0xbf2964ac	-0.6616924
82	0x3dabffd0	0.08398402
83	0x3ecb1868	0.39667058
84	0xbef8ea6b	-0.48616347
85	0xbd17f0ca	-0.03709487
86	0xbe57af9b	-0.21063082
87	0x3ee3b62d	0.44474927
88	0x3ef27afe	0.4735946
89	0x3eb81979	0.35956934
90	0x3f444f73	0.7668373
91	0xbef44278	-0.47706962
92	0xbe763af7	-0.24045931
93	0x3e8c31bd	0.27381697
94	0xbe1ccd78	-0.15312755
95	0xbe44edd2	-0.19231346
96	0x3eba3d94	0.36375105
97	0x3f1d3856	0.61414087
98	0xbf58bb7a	-0.84661067
99	0xbe052c46	-0.1300517
100	0x3e520a39	0.20511712
101	0xc04dfebd	-3.218673
102	0xbeb90b42	-0.36141402
103	0x3fc2b835	1.5212466
104	0xbf8e9b14	-1.1141076
105	0x3ea019d7	0.31269714
106	0xbf88217a	-1.0635216
107	0x3e75c978	0.24002635
108	0x3e0fc41b	0.14039652
109	0x3d49788c	0.049187228
110	0xbe37e3f0	-0.17958045
111	0x3e33de22	0.17565206
112	0x3dca76b1	0.0988592
113	0x3e11faf5	0.14255889
114	0xbdb94ba4	-0.090476304
115	0xbf9239d7	-1.1423901
116	0xbe7f6543	-0.24940972
117	0x3d895ccd	0.067071535
118	0x3e33ad4c	0.17546576
119	0x3bb7b169	0.0056058657
120	0x3e1b8438	0.15187156
121	0xbf5a13f9	-0.85186726
122	0x3e387fc4	0.18017489
123	0xbd02e39a	-0.03195534
124	0xbf2f039c	-0.6836488
125	0x3f51adc9	0.819058
126	0x3f600221	0.8750325
127	0x3f15aa2b	0.5846278
128	0x3ec24d74	0.37949717
129	0xbd737986	-0.059442066
130	0xbf293d40	-0.66109085
131	0xbe8077a1	-0.2509127
132	0x3edd151c	0.43180168
133	0x3eea519d	0.4576539
134	0x3fbe376d	1.4860665
135	0xbeda6fe6	-0.42663497
136	0xbf32b0fc	-0.69801307
137	0xbfab1965	-1.3367125
138	0x3f7b53cc	0.9817474
139	0xbd377285	-0.04478695
140	0x3c3186c2	0.010835351
141	0x3cdac16d	0.02670356
142	0xbc219587	-0.00986231
143	0x3b72d357	0.0037052238
144	0x3d445cef	0.04794019
145	0x3b69215e	0.0035572867
146	0xbce7560d	-0.028239274
147	0xbd058d24	-0.032605305
148	0x3c89bb54	0.016812958
149	0xbcdf947d	-0.027292484
150	0xbd78e7a2	-0.060767777
151	0x3c1b1c87	0.009467251
152	0x3d8ec9a3	0.06972053
153	0xbe1b14d1	-0.1514466
154	0x3b9a8f3f	0.0047167833
155	0xbee3d75b	-0.4450024
156	0xbe557a35	-0.208474
157	0xbcac2b28	-0.021016672
158	0x3e0633f2	0.13105753
159	0xbd5551c6	-0.05207994
160	0xbe1ec131	-0.15503384
161	0x3da451e8	0.08023435
162	0x3e6b7104	0.22992331
163	0xbebf8bbd	-0.374113
164	0xbda13442	-0.078712955
165	0x3c87a1a0	0.016556561
166	0xbd54175d	-0.051780093
167	0x3e67d6f0	0.22640586
168	0xbdc141c2	-0.094363704
169	0x3d337ced	0.04382031
170	0xbb01b1af	-0.0019789746
171	0xbdba3946	-0.09092955
172	0xbdcdc22c	-0.10046801
173	0x3b65fd91	0.0035093764
174	0xbd0cc648	-0.034368783
175	0xbcebb1a8	-0.028771237
176	0x3c8f4e8d	0.01749351
177	0xbd456764	-0.048194304
178	0x3cd9f5e3	0.026606506
179	0x3b6610a2	0.0035105129
180	0x3be8b5a0	0.0071017295
181	0x3b5dbe44	0.003383533
182	0xbbd41598	-0.0064723007
183	0x3db05468	0.08609849
184	0x3ce8dab0	0.02842459
185	0x3d28bd66	0.04119625
186	0x3ea1912b	0.31556067
187	0xbfbe499a	-1.4866211
188	0xbe63f6b9	-0.22262086
189	0x3fbdaa71	1.481764
190	0xbff8d752	-1.944071
191	0xbea23e73	-0.3168827
192	0x3eba3a5a	0.36372644
193	0xc02f9a4d	-2.7437928
194	0xbfb05b28	-1.3777819
195	0x3f651061	0.8947812
196	0x3fb71cae	1.4305627
197	0xbf78aeed	-0.97141916
198	0xbc1bbe44	-0.009505812
199	0xbe30b6b4	-0.17257196
200	0xbf863bdb	-1.0487016
201	0x3dfb106a	0.1225899
202	0x3c1cc5eb	0.009568672
203	0x3ea72b2e	0.3265013
204	0xbf87c4a1	-1.0606881
205	0x3c325e28	0.010886706
206	0xbe98c582	-0.29838187
207	0x3f3f10e5	0.74635154
208	0x3f117dae	0.56832397
209	0x3e4f8b4b	0.2026798
210	0x3d157ed5	0.03649791
211	0x3ea87dda	0.32908517
212	0xbdd322eb	-0.103093944
213	0x3e58488b	0.21121423
214	0x3f21e229	0.6323572
215	0xbf382e0b	-0.71945256
216	0xbda72945	-0.081621684
217	0x3c15bab7	0.009138755
218	0x3ebc107b	0.36731324
219	0x3f007fb1	0.5019484
220	0xbeb60db1	-0.3555732
221	0x3eaa6e1a	0.33287126
222	0xbe6449f9	-0.22293843
223	0xbf60f25d	-0.87869817
224	0xbfd7f9e8	-1.687314
225	0xc039b558	-2.9016933
226	0x3e907de4	0.28221047
227	0xbfb0eac2	-1.3821642
228	0x3f3d58f6	0.7396387
229	0x3f1055be	0.5638083
230	0x3e8376b8	0.25676513
231	0x3e8e621f	0.27809235
232	0xbc877957	-0.016537352
233	0xbbb28811	-0.0054483493
234	0xba052930	-0.0005079685
235	0xbc7ad7e5	-0.015310262
236	0xbc3e37d1	-0.011609987
237	0xbd07a6c0	-0.03311801
238	0x3d2e019d	0.042482007
239	0x3d60f8d4	0.0549248
240	0x3d87b6df	0.06626677
241	0xbc18b54d	-0.009320569
242	0xbbaecf2e	-0.0053347563
243	0xbbc696b6	-0.0060604466
244	0x3ca33d16	0.019926589
245	0xbd84b095	-0.06478993
246	0xbdec463f	-0.11536836
247	0xbb8ae204	-0.004238369
248	0x3ebcd884	0.36883938
249	0x3fbcdfd8	1.4755812
250	0xbeb88932	-0.36042172
251	0x3dbe73a8	0.092994034
252	0xbf2aa348	-0.666554
253	0xbe5217f6	-0.20516953
254	0x3dea3d88	0.114375174
255	0x3ea1243e	0.31472963

fc1.bias f4 [80]
0	0xc004dce9	-2.0759833
1	0xbf7e7def	-0.9941091
2	0x3f6addbc	0.9174459
3	0xbf0e91ed	-0.55691415
4	0x3f9870a4	1.1909375
5	0x3efa0f91	0.4884
6	0x3e5207a0	0.20510721
7	0x3d1b6f13	0.037947726
8	0xbf31d9de	-0.69473064
9	0x3f63fad9	0.8905464
10	0x3f5e6725	0.86876136
11	0x401de2b1	2.4669611
12	0x3ec1be9f	0.37840745
13	0x4016b51b	2.3548038
14	0x3eca73ba	0.39541417
15	0xbfcee8ab	-1.6164755
16	0xbf1c61af	-0.61086553
17	0x3fc64ece	1.5492799
18	0x3f070579	0.52742726
19	0x3e5448cc	0.20730895
20	0xbf5895e4	-0.84603715
21	0x3ef6b56e	0.48185295
22	0x3f1eaaad	0.6197918
23	0xbf119ddc	-0.568815
24	0x3e2de55f	0.1698203
25	0x3ef720a3	0.48267087
26	0xc0144331	-2.316601
27	0x4087c9f9	4.243405
28	0xc01d12dd	-2.4542763
29	0x3ed08ea9	0.4073384
30	0x3eaf1978	0.3419912
31	0x4040c3e1	3.0119555
32	0x4004e455	2.0764363
33	0x3f71914a	0.9436232
34	0x3fdd1c8e	1.7274339
35	0x3f5e20cc	0.86768794
36	0xc05f5987	-3.4898393
37	0xc041c316	-3.027532
38	0xbf56ef84	-0.8395922
39	0xbfd2642c	-1.643682
40	0xbd9bd51f	-0.07609009
41	0xbff4e166	-1.9131286
42	0x3fc77927	1.5583848
43	0x3fde4bb2	1.736685
44	0x3ea3b91b	0.31977162
45	0xc016e665	-2.3578122
46	0x3ee598cb	0.44843134
47	0xbf4c7ee5	-0.79881126
48	0xbebb5ef4	-0.3659588
49	0x405a88c7	3.4145982
50	0xbef93861	-0.48675826
51	0xbfd46198	-1.6592283
52	0x3fa75a1f	1.3074378
53	0xbf9048d7	-1.1272229
54	0xc08022e7	-4.0042605
55	0x3eda0d8f	0.4258847
56	0x3fb9db4a	1.4520047
57	0xbdcc1d93	-0.09966578
58	0x3f045526	0.51692426
59	0xbe938d26	-0.28818625
60	0xbfe7ed6d	-1.8119332
61	0x3ff4dc4b	1.9129728
62	0x3f92be7b	1.146438
63	0x3f40661b	0.751558
64	0xbd99d45f	-0.0751121
65	0x3e6481b6	0.22315106
66	0xbf7ced55	-0.9879964
67	0xc01596f1	-2.3373377
68	0x3d990fe0	0.07473731
69	0x3e950f47	0.29113218
70	0xbe877ddc	-0.2646321
71	0xbf813a25	-1.0095869
72	0x3ef69676	0.48161668
73	0xbe50d04a	-0.20391956
74	0xbefca3d0	-0.4934373
75	0x3f480fad	0.7814892
76	0x3e0cc60f	0.13747428
77	0x3f35e997	0.71059555
78	0x3ece0254	0.4023615
79	0x3f92b766	1.1462219

fc2.weight f4 [80, 80]
0	0xbe8860a6	-0.26636237
1	0xbe9d670b	-0.30742678
2	0x3e7b56ce	0.24544832
3	0x3da38765	0.07984809
4	0xbf938036	-1.1523502
5	0x3e3102ac	0.17286175
6	0xbf10dd29	-0.56587464
7	0xbf029911	-0.5101481
8	0xbd5711b5	-0.05250712
9	0x3e3ab457	0.18232857
10	0x3d305c64	0.04305686
11	0x3f87a7cf	1.0598086
12	0x3cb93c0c	0.02261164
13	0xbe3c76f3	-0.1840475
14	0xbdd255ee	-0.10270296
15	0xbf228d9d	-0.63497335
16	0xbe60ecd3	-0.21965341
17	0xbe3eec28	-0.18644774
18	0x3eb453d9	0.3522022
19	0xbd1829b6	-0.037149154
20	0x3f2f3de6	0.68453825
21	0x3eab48d0	0.3345399
22	0xbc904f04	-0.017615803
23	0x3d9743fe	0.07386015
24	0x3cf94d15	0.030432263
25	0x3d9614b0	0.073281646
26	0x3e18f210	0.1493609
27	0xc1392c68	-11.573341
28	0x3d2ebcc3	0.042660486
29	0x3dbd7b1c	0.09251997
30	0x3ef38ad5	0.47566858
31	0xbff7c00f	-1.9355487
32	0xbf75a4d2	-0.9595462
33	0xbd8648ca	-0.06556852
34	0xbd9eb72e	-0.077497825
35	0xbec9dfb9	-0.394285
36	0x3d10e9e1	0.035379294
37	0xbd2712a7	-0.040789273
38	0x3f010150	0.5039263
39	0xbf779d1f	-0.9672412
40	0xbd9b9b1c	-0.07597944
41	0xbf785628	-0.97006464
42	0xbfaffdb8	-1.3749304
43	0xbe98dd32	-0.2985626
44	0xbe4b1954	-0.1983388
45	0xbef545a0	-0.47904682
46	0x3e251027	0.16119443
47	0x3e98e49d	0.29861918
48	0x3ed6a0ba	0.419195
49	0xbec0408b	-0.37549242
50	0xbd162b5c	-0.036662444
51	0x3e000f9f	0.12505959
52	0xbf916582	-1.1359103
53	0xbe4c0f58	-0.19927728
54	0xbf78736e	-0.9705113
55	0x3e8a70fb	0.27039322
56	0x3e799b4f	0.24375652
57	0x3f29f355	0.6638692
58	0x3e3f37ee	0.18673679
59	0x3dc9f427	0.098610215
60	0x3ef664a5	0.4812366
61	0x3ea10f25	0.31456867
62	0xbe7f6711	-0.2494166
63	0xbe006dc6	-0.12541875
64	0x3e938f22	0.2882014
65	0xbe9b655b	-0.30350766
66	0xbe2d546f	-0.1692674
67	0x3f094f80	0.5363693
68	0xbd0c72ef	-0.034289297
69	0xbfdffb46	-1.7498558
70	0xbf5c3c24	-0.8602927
71	0xbebe62b9	-0.37184694
72	0x3ecea340	0.40358925
73	0xbf8011ab	-1.0005392
74	0xbed69c46	-0.41916102
75	0xbeae0637	-0.33989117
76	0xbef2f47d	-0.47452155
77	0xc09c6a80	-4.8880005
78	0x3e058b2b	0.1304137
79	0x3ec9f009	0.39440945
80	0xbe76553f	-0.24055956
81	0x3d355b6c	0.04427664
82	0xbfc8db82	-1.5691988
83	0xbe07b8d6	-0.13254103
84	0x3f66e3f0	0.90191555
85	0xbdf61de1	-0.12017418
86	0xbf5c9e53	-0.86179084
87	0x3ecf84f9	0.40531138
88	0x3d686491	0.056736533
89	0x3efcd6a4	0.49382508
90	0xbee1873c	-0.44048488
91	0x3f65ef4f	0.8981828
92	0xbf634ce2	-0.8878919
93	0x3e555e36	0.2083672
94	0x3ecd93d1	0.40151837
95	0xbe18a763	-0.14907603
96	0xbee1d550	-0.44108057
97	0x3db59253	0.088658
98	0xbf5a321d	-0.85232717
99	0xbe195a64	-0.14975888
100	0xbd43790c	-0.04772286
101	0xbe581af2	-0.21104029
102	0x3b83e0e1	0.0040246104
103	0x3e5ede10	0.21764398
104	0xbef1abd7	-0.47201416
105	0xbef3745c	-0.47549713
106	0xbcd5889e	-0.02606612
107	0x3e848289	0.2588084
108	0x3e5919eb	0.21201293
109	0xbed384c6	-0.41312236
110	0xbdce9424	-0.10086849
111	0xbf001a45	-0.50040084
112	0x3f8c1b95	1.0945917
113	0x3de1cfa6	0.11025934
114	0x3dc7b44e	0.09751187
115	0xbf8bb1e7	-1.0913666
116	0x3f1368b4	0.5758164
117	0x3e916aa9	0.28401688
118	0xbf00a755	-0.5025533
119	0xbe1a37b8	-0.15060318
120	0x3ed01b72	0.4064594
121	0x3e4fda93	0.20298223
122	0xbfc2e91f	-1.5227393
123	0xbf2a58dd	-0.66541845
124	0xbdf75c1f	-0.120781176
125	0xbed3a903	-0.41339883
126	0xbb79bcee	-0.0038106996
127	0xbeda66cc	-0.42656553
128	0xbe1b3d87	-0.1516019
129	0xbf2631ef	-0.6491994
130	0x3e0996a7	0.13436376
131	0x3eb18972	0.34675175
132	0xbe6199ae	-0.2203128
133	0xbe85f1c0	-0.26161003
134	0x3e397233	0.1810997
135	0xbf10a4f8	-0.5650172
136	0x3f4230c7	0.7585568
137	0xbefaebe5	-0.49008098
138	0xbec58230	-0.38575888
139	0x3df1ca50	0.11806166
140	0x3a023b90	0.0004967982
141	0xbf318ef4	-0.69358754
142	0xbe5ec0db	-0.21753256
143	0xbe78094a	-0.24222293
144	0x3e84fdf8	0.25975013
145	0x3e498da7	0.19682942
146	0x3e582a30	0.21109843
147	0xbf29f9c0	-0.66396713
148	0x3f4116c2	0.7542535
149	0xbddc9769	-0.10771067
150	0xbdf908b6	-0.121598646
151	0x3edeae90	0.43492556
152	0x3e44706f	0.19183515
153	0xbee650be	-0.44983476
154	0xbf0cead3	-0.55045813
155	0x3f04df68	0.5190339
156	0xbfbc6e77	-1.4721211
157	0xbf26b3a0	-0.65117836
158	0x3ed7e05a	0.42163354
159	0x3e36aa38	0.17838371
160	0xbe4b5afa	-0.19858924
161	0x3e664f7d	0.2249126
162	0x3dd1f162	0.10251118
163	0x3e5cf148	0.21576416
164	0xbf65a338	-0.8970218
165	0x3d95e797	0.07319563
166	0xbf6df6e1	-0.9295483
167	0xbcb30fb4	-0.021858074
168	0xbd8fe39f	-0.07025837
169	0xbdb2b7c9	-0.087264605
170	0x3df6d141	0.12051631
171	0xbe834916	-0.25641698
172	0x3c6e32b9	0.01453846
173	0x3d088ef9	0.033339474
174	0xbde49dae	-0.111628875
175	0x3f88f376	1.0699298
176	0x3e0fd94d	0.14047737
177	0xbd96eda7	-0.07369547
178	0x3ea6170e	0.32439464
179	0x3e3c2225	0.183724
180	0xbec65b89	-0.3874171
181	0x3dcb0a51	0.09914077
182	0xbd43b662	-0.047781356
183	0x3e0040b9	0.1252469
184	0x3e685a2f	0.22690652
185	0x3ce19782	0.027538065
186	0xbca701ab	-0.020386538
187	0xbf8d7c1a	-1.1053498
188	0xbda3bcf4	-0.07995024
189	0x3e052e13	0.13005857
190	0x3ea73c07	0.32662985
191	0x3db306f9	0.08741564
192	0x3ef92364	0.48659813
193	0xbe7115bd	-0.23543449
194	0x3df70713	0.12061896
195	0xbff3b1c1	-1.9038621
196	0x3da7be25	0.08190564
197	0xbe3038db	-0.17209189
198	0x3e1ba4a8	0.1519953
199	0x3ebe9538	0.3722322
200	0x3d8c25bd	0.068431355
201	0x3ea30ff3	0.31848106
202	0xbe6a8240	-0.22901249
203	0x3e475525	0.19466074
204	0x3e657663	0.22408442
205	0xbe5632b0	-0.20917773
206	0x3dcbfcf7	0.099603586
207	0xbe8a82d9	-0.27052954
208	0x3eec7a5d	0.46187106
209	0x3e8c81e2	0.27442843
210	0xbeeeb25c	-0.46620452
211	0x3e71f8d9	0.23630084
212	0xbec8f82b	-0.39251837
213	0x3ed5b000	0.4173584
214	0x3fb1cdf7	1.389098
215	0x3e252c93	0.16130285
216	0x3e950a7b	0.29109558
217	0xbe9d33c5	-0.3070356
218	0x3d970da6	0.0737565
219	0xbf814bcd	-1.0101258
220	0xbec4518f	-0.38343474
221	0xbdd3950c	-0.10331163
222	0xbe59520e	-0.21222708
223	0xbeb02c4e	-0.34408802
224	0x3db69181	0.089144714
225	0xbe28d0bc	-0.16485876
226	0xbf0c16e1	-0.5472241
227	0x3f2371b9	0.638454
228	0x3e5d159f	0.21590279
229	0xbdfa86d1	-0.122327454
230	0xbef98e31	-0.48741296
231	0x3e1400f6	0.14453492
232	0x3e366e3a	0.17815486
233	0xbef0f891	-0.4706464
234	0xbe82943b	-0.25503716
235	0xbea41503	-0.3204728
236	0xbf0e65ad	-0.55623895
237	0xbef4fcee	-0.4784922
238	0x3d43ecd4	0.04783328
239	0xbdea8164	-0.114504606
240	0xbdb367ca	-0.087600306
241	0x3d9acee2	0.07558991
242	0x3da3dd84	0.08001235
243	0xbf1b0a59	-0.60562664
244	0x3d1dd3d8	0.038532108
245	0x3dd67fd1	0.10473598
246	0x3d464f97	0.048415747
247	0xbe711f83	-0.23547177
248	0xbe35a256	-0.17737707
249	0xbd90cb7e	-0.07070063
250	0x3bac22ec	0.0052531864
251	0xbe208119	-0.15674247
252	0x3e14fff3	0.14550762
253	0xbe755869	-0.23959507
254	0xbf504454	-0.8135426
255	0xbee86b10	-0.45394182

fc2.bias f4 [80]
0	0xbd971e11	-0.073787816
1	0x3ecae8c9	0.39630726
2	0x3e2da2b6	0.169566
3	0x3e379dde	0.17931315
4	0xbfc4c174	-1.5371537
5	0xbd2ae550	-0.041722596
6	0xbe874af5	-0.26424375
7	0x3e52a1ce	0.20569536
8	0xbecdecb3	-0.4021965
9	0x3e7d3a89	0.2472936
10	0xbf68b5ce	-0.9090241
11	0x3e9ae820	0.30255222
12	0x3e609d97	0.21935116
13	0x3ef05ac2	0.46944243
14	0xbf9d4fb5	-1.228995
15	0xbfd36a12	-1.6516745
16	0xbed3a4b0	-0.41336584
17	0xbe9be44a	-0.30447608
18	0x3e8bae64	0.27281487
19	0xbe4719be	-0.19443414
20	0x3ea4d854	0.32196295
21	0x3f039765	0.51402885
22	0xbe46aac9	-0.19401087
23	0xbe2720a8	-0.16321051
24	0xbf284088	-0.65723467
25	0x3f058dd0	0.52169514
26	0x3fa7a255	1.3096415
27	0xbf941e29	-1.1571704
28	0x3d278c07	0.040905025
29	0xbff9807e	-1.9492338
30	0xbec1b7ad	-0.37835446
31	0xbf4cb239	-0.79959446
32	0x3e9a36bd	0.30119887
33	0xbeeedec5	-0.46654335
34	0x3eafb89f	0.34320542
35	0x3e84ceb7	0.2593896
36	0x3e21969c	0.15780109
37	0xbeb3034a	-0.34963447
38	0x3dc56e09	0.09640128
39	0xbf8f84b1	-1.1212369
40	0xbe42e6d1	-0.19033362
41	0xbe9d2382	-0.30691153
42	0xbde8a2f6	-0.11359207
43	0xc00118e9	-2.0171454
44	0x3e76d7bb	0.24105732
45	0xbf0609b0	-0.5235853
46	0xbf8956ca	-1.0729611
47	0xbe1acbb5	-0.1511677
48	0xbf0fe5cd	-0.56210023
49	0x3ef3a80f	0.47589156
50	0x3e70d854	0.23520023
51	0x3e2975ae	0.16548797
52	0xbe629284	-0.22126204
53	0x3cfd82dd	0.03094619
54	0xbe1f2b51	-0.15543868
55	0xbf4e8197	-0.8066649
56	0x3e83c4dd	0.25736132
57	0x3e3a16b4	0.18172723
58	0xbedcaff8	-0.43103004
59	0xbf978c2b	-1.1839651
60	0x3e8acccf	0.27109382
61	0x3deac783	0.11463835
62	0xbf3de103	-0.74171466
63	0xbd310e23	-0.043226372
64	0x3da12e32	0.07870139
65	0x3e01ded4	0.12682658
66	0xbe5957c5	-0.21224888
67	0xbebbaf7b	-0.36657318
68	0xbf4d1581	-0.8011094
69	0xbf1a670a	-0.60313475
70	0xbeb63707	-0.35588858
71	0xbf153f36	-0.5829958
72	0xbe26d19a	-0.16290894
73	0xbf6f2dfe	-0.93429554
74	0xbf91955f	-1.137371
75	0xbe4d8986	-0.20071992
76	0xbe5480d1	-0.20752265
77	0xbf3ee815	-0.7457288
78	0xbf40c23c	-0.7529638
79	0x3f385421	0.7200337

fc3.weight f4 [1, 80]
0	0x3dc29b92	0.09502329
1	0xbc79b87b	-0.0152417375
2	0x3d05bf55	0.03265317
3	0x3ea91621	0.33024696
4	0xbbf39e7b	-0.007434664
5	0xbc81e438	-0.015855893
6	0xbc8f4139	-0.017487155
7	0x3e54e1e3	0.20789294
8	0xbf4a0da7	-0.7892708
9	0x3d05e532	0.03268928
10	0x3d9008a2	0.070328966
11	0x3cce85ea	0.02521034
12	0x3d053936	0.032525264
13	0xbe8373d2	-0.256743
14	0xbc8fcb09	-0.01755287
15	0x3c91c9e1	0.017796459
16	0x3da03001	0.07821656
17	0xbdbafb0f	-0.09129917
18	0x3d9879d0	0.07445109
19	0xbeadf60d	-0.33976784
20	0xbc57a062	-0.013160797
21	0xbc8049e3	-0.015660232
22	0xbf60521e	-0.876253
23	0xbb53f7a2	-0.0032343646
24	0xbd045a5e	-0.032312743
25	0x3d2bc999	0.041940305
26	0xbc8854f8	-0.016642079
27	0xbc9538a4	-0.018215485
28	0xbdbf5bd3	-0.09343686
29	0xba780d1b	-0.0009462402
30	0x3d484ea0	0.048903108
31	0xbc97dbdb	-0.018537452
32	0xbe95e269	-0.292743
33	0xbe0cbb9c	-0.13743442
34	0x3cb9f30a	0.022698898
35	0x3d327247	0.043566015
36	0x3e879d40	0.2648716
37	0xbcd02ad4	-0.025411047
38	0xbb5297ca	-0.003213393
39	0xbe55ddb1	-0.2088535
40	0xbd849215	-0.064731754
41	0x3e6411e0	0.22272444
42	0xbf9fd6ba	-1.2487404
43	0xbcd2724a	-0.025689263
44	0xbd8570b5	-0.06515638
45	0x3d0aed21	0.03391755
46	0xbd563476	-0.052296124
47	0x3bbaf1c5	0.0057050907
48	0x3d20e762	0.039283164
49	0xbd9a3867	-0.07530289
50	0x3dbfe798	0.09370345
51	0x3ccaee55	0.024771849
52	0xbf5a7a6e	-0.8534306
53	0x3e938cea	0.28818446
54	0x3cf750b5	0.030189851
55	0xbc8b8ad3	-0.01703397
56	0x3d98f08a	0.07467754
57	0x3e4c5a71	0.19956376
58	0xbc9431c0	-0.018090129
59	0xbe77323b	-0.24140255
60	0x3cbc32c5	0.022973428
61	0x3e1edf36	0.15514836
62	0xbcb39656	-0.021922272
63	0xbe03e0cc	-0.12878722
64	0xbea5c419	-0.32376173
65	0xbcbecc91	-0.023290904
66	0xbeec9b7d	-0.46212378
67	0xbf75d828	-0.96032953
68	0xbd0bb8b8	-0.03411171
69	0xbdc4e3fb	-0.09613796
70	0xbedb5221	-0.42836097
71	0xbc97e64a	-0.018542428
72	0x3c5f5d20	0.013633043
73	0xbc4bb0e2	-0.012432309
74	0x3d4d60d6	0.050141178
75	0xbe33b80b	-0.17550676
76	0x3cb3db12	0.021955047
77	0xbd964995	-0.073382534
78	0xbc87654b	-0.016527792
79	0xbcfd3c3d	-0.030912513
