puppersim/dc_saves/aac_slow_pupper_0/critic2_17.pt (torch, 38295 bytes, 5 tensors)

fc1.weight f4 [80, 31]
0.040669348 0.9824439 0.85685873 1.0533154 1.9537461 2.2667232 0.88337684 -0.7744564
-0.6533931 -0.03382122 0.053377625 -1.7227622 0.7129738 0.14600673 -1.0242655 0.039233703
-0.033451293 0.05252125 0.05374656 -0.08805716 -0.13692474 -0.026085809 0.049635775 0.04785908
-0.012307215 0.11384352 0.028416833 -0.008087889 -0.07668984 0.46799976 -0.004569366 0.3886962
-1.2265414 -1.0047349 0.5314473 0.5913772 -0.6791044 -0.60923004 0.48014778 0.10018126
0.18869157 -0.58679307 0.8257475 0.5791565 2.1002743 -0.40949777 -0.09384357 0.09892694
0.15594648 0.21587288 -0.08808836 -0.36236638 -0.16180909 0.086630054 0.036650077 0.0589296
-0.25466427 -0.4069309 0.025712665 0.64520675 -0.83579063 -0.034031402 0.047958363 0.046244364
-0.5050616 -0.5567399 2.6102629 -0.30360186 0.8292948 1.7534034 -0.029112954 0.15399803
-0.79076797 -2.3873186 -0.85661805 -0.6208946 -0.17050204 -0.0065311654 0.018437836 0.013678614
0.026487283 0.028875997 0.010785811 -0.0027728823 0.020955313 -0.015743216 0.0072007594 0.040070448
0.022865644 0.0057521802 -0.03508373 -0.0012770405 0.0025402443 -0.62372154 -0.056586668 -0.19296189
0.16723235 -0.02012147 0.099257074 0.04486241 -0.15840636 0.29533973 0.035629738 -0.018671246
-0.022794722 0.27040002 0.0042144507 0.22467548 -0.0012725565 0.011598887 -0.039306328 -0.008675257
-0.008462484 0.0119710425 -0.014496451 0.0064701787 0.0008358079 0.018512186 0.0069187926 0.07715552
-0.002591429 -0.04618982 -0.042020887 0.011954447 -0.05527897 -0.113938145 -0.5276693 -2.1301694
-0.11875685 0.16012286 -0.3334382 0.2965565 0.17339113 0.48756775 0.19350521 0.12226415
0.4774376 0.04704294 0.0077991635 -0.05782568 0.19156423 0.5260499 0.044567566 0.1126929
0.15881886 -0.035429776 -0.009076993 0.021603014 0.026168928 0.046475966 0.028358389 0.012089549
-0.1827641 1.6821345 -0.004162256 -0.17457144 2.169091 0.72334594 -0.34317908 3.062789
0.9254309 -0.031979628 1.1984386 -0.26396605 0.09140392 -0.2557488 -0.7662283 0.58643615
-0.015497381 -0.111075714 0.0034677337 -0.045175 -0.013943113 0.033098105 -0.0700401 -0.0005535245
-0.027243372 0.041220818 -0.020040456 0.03196074 0.037907854 0.05993867 0.0021509798 -0.011127336
0.039505493 -0.0064078937 -0.43742916 0.39108506 0.67799926 0.4895133 1.1278695 -0.26051897
-0.9274141 -3.1709712 0.14070104 -0.1490436 -0.96769 -0.35268748 0.00026294 -0.4610271
-0.14460057 -0.038187772 -0.016645044 0.031006163 0.0472392 -0.007469469 0.035116974 -0.08993616
0.022092862 0.0025015138 -0.030289203 -0.08133085 0.013998693 0.010906252 0.018136928 0.097562745
-0.0238446 0.07053873 -0.117893234 0.94890076 1.0956945 -0.40181857 2.8236182 0.6396006
0.6623066 -0.75169945 -0.42929283 -0.47183576 0.31594747 0.14160539 0.10723205 -0.6960535
-0.024053775 0.08420264 0.11180877 -0.012858123 0.07684315 0.03395211 0.023787476 0.00063752045
-0.0017303685 -0.024043532 -0.00019236731 -0.040549565 -0.0055207247 0.050952643 -0.1625833 0.008554308
-0.5692725 -0.4016739 -0.019539747 0.22659157 -0.49397942 -0.041817002 0.057647724 -0.15603335
00000000: e794 263d 7281 7b3f 185b 5b3f 0ad3 863f
00000010: 5a14 fa3f fe11 1140 fc24 623f c642 46bf
00000020: c544 27bf 1f88 0abd 7fa2 5a3d 7983 dcbf
00000030: 7385 363f ca82 153e 221b 83bf 85b3 203d
00000040: 3904 09bd 8620 573d 5a25 5c3d 5057 b4bd
00000050: 0036 0cbe e8b1 d5bc e24e 4b3d e207 443d
00000060: 33a4 49bc cb26 e93d 6bca e83c 1183 04bc
00000070: 900f 9dbd aa9d ef3e 9fba 95bb 3003 c73e
00000080: 4fff 9cbf 279b 80bf ee0c 083f 7f64 173f
00000090: c9d9 2dbf 80f6 1bbf eed5 f53e d52b cd3d
000000a0: 5d38 413e 1238 16bf 3064 533f 9a43 143f
000000b0: e56a 0640 b1a9 d1be 0f31 c0bd 359a ca3d
000000c0: 6fb0 1f3e c80d 5d3e ac67 b4bd 1688 b9be
000000d0: 48b1 25be 196b b13d 641e 163d 2a60 713d
000000e0: 5b63 82be 3f59 d0be 5ea3 d23c 452c 253f
000000f0: 60f6 55bf 8364 0bbd fd6f 443d bb6a 3d3d
00000100: b84b 01bf 8286 0ebf 8c0e 2740 b471 9bbe
00000110: aa4c 543f 866f e03f 4a7e eebc a9b1 1d3e
00000120: c56f 4abf d4c9 18c0 524b 5bbf f3f2 1ebf
00000130: 1698 2ebe 6303 d6bb f20a 973c 441c 603c
00000140: dcfb d83c 5b8d ec3c f8b6 303c 3fb9 35bb
00000150: 7aaa ab3c ebf7 80bc 59f4 eb3b e920 243d
00000160: bb50 bb3c c97c bc3b f5b3 0fbd 5e62 a7ba
00000170: 3a7a 263b 37ac 1fbf 6cc7 67bd cd97 45be
00000180: f53e 2b3e c8d5 a4bc 4b47 cb3d a5c1 373d
00000190: 4735 22be c536 973e 7df0 113d 71f4 98bc
000001a0: ffbb babc df71 8a3e 6019 8a3b 5411 663e
000001b0: e9cb a6ba 4209 3e3c acff 20bd aa22 0ebc
000001c0: 3ba6 0abc 3122 443c 8682 6dbc cb03 d43b
000001d0: 1e1a 5b3a dea6 973c 0ab7 e23b b703 9e3d
000001e0: f7d4 29bb 8931 3dbd 181e 2cbd 96dc 433c
000001f0: 346c 62bd 6758 e9bd 5615 07bf b254 08c0
00000200: cb36 f3bd 3ff7 233e 69b8 aabe 41d6 973e
00000210: 728d 313e 7ba2 f93e 3b26 463e a065 fa3d
00000220: b372 f43e 19b0 403d 2090 ff3b 9fda 6cbd
00000230: 6a29 443e 35ab 063f 7b8c 363d 89cb e63d
00000240: 69a1 223e d01e 11bd abb7 14bc cef8 b03c
00000250: 3860 d63c 955d 3e3d da4f e83c 3e13 463c
00000260: 8326 3bbe 2f50 d73f 8963 88bb dbc2 32be
00000270: 63d2 0a40 332d 393f 2bb5 afbe bc04 4440
00000280: 0ae9 6c3f 12fd 02bd 7066 993f 8f26 87be
00000290: fa31 bb3d 82f1 82be 8a27 44bf ae20 163f
000002a0: bae8 7dbc aa7b e3bd eb42 633b 6c09 39bd
000002b0: a871 64bc e191 073d 2f71 8fbd 671a 11ba
000002c0: 7e2d dfbc 29d7 283d e22b a4bc 44e9 023d
000002d0: 4445 1b3d 4082 753d 74f7 0c3b 6e4f 36bc
000002e0: 83d0 213d 4ff9 d1bb b7f6 dfbe 4d3c c83e
000002f0: 5c91 2d3f 7da1 fa3e 075e 903f be62 85be
00000300: 036b 6dbf 31f1 4ac0 ef13 103e e39e 18be
00000310: 88ba 77bf 7493 b4be 36db 8939 be0b ecbe
00000320: 2c12 14be c86a 1cbd 305b 88bc a300 fe3c
00000330: e47d 413d 73c2 f4bb d1d6 0f3d 7330 b8bd
00000340: 17fc b43c 70f0 233b 1021 f8bc ca90 a6bd
00000350: c65a 653c 23b0 323c e593 943c face c73d
00000360: c055 c3bc 9c76 903d 0272 f1bd 29eb 723f
00000370: b83f 8c3f 2abb cdbe 29b6 3440 ddbc 233f
00000380: ed8c 293f 606f 40bf 45cc dbbe 7594 f1be
00000390: dec3 a13e 0101 113e 7a9c db3d 9030 32bf
000003a0: 6c0c c5bc 6f72 ac3d fffb e43d e0aa 52bc
000003b0: f15f 9d3d 5e11 0b3d f4dd c23c 461f 273a
000003c0: 88cd e2ba f1f6 c4bc 35b6 49b9 4d17 26bd
000003d0: 32e7 b4bb b8b3 503d 3d7c 26be 5e27 0c3c
000003e0: d8bb 11bf 34a8 cdbe d211 a0bc 9f07 683e
000003f0: dfea fcbe 4e48 2bbd 0520 6c3d 35c7 1fbe

fc1.bias f4 [80]
0.03468365 -1.1211244 1.8553455 0.3168966 -1.5628829 0.05533046 1.6309475 -0.39179966
0.1870179 0.7541781 3.5466359 0.38459936 0.15604033 0.22527973 -1.6802746 0.055009685
-1.0460044 0.92580307 -0.90115476 -2.0579178 -2.9855301 0.39500627 0.3955378 -1.1391242
0.43086508 -0.66452354 0.984539 0.43741268 -1.1661477 2.1992538 0.9256599 -3.0630243
2.601468 -2.4252536 1.41074 0.31938958 1.9063618 0.8870113 -0.20858073 -1.8510253
0.88658154 0.15992552 3.655679 0.3106218 0.27048865 0.54097015 0.30108598 1.217708
0.20189407 0.28092697 0.3372198 1.7663428 0.3461694 1.7312129 0.44887042 -4.053532
1.1044668 1.3890269 0.059964687 -0.004003186 0.5811133 2.8608553 0.15972 2.17993
-2.195008 0.55444413 1.7389473 1.4997281 -1.6595427 0.044968344 0.36834264 0.14047258
-0.0069845435 -1.5795498 -0.36659878 -0.47972524 -2.1028438 -0.25385058 0.634111 0.6029931
00000000: 7110 0e3d 0181 8fbf f67b ed3f 4540 a23e
00000010: 8c0c c8bf 31a2 623d e3c2 d03f f799 c8be
00000020: 9f81 3f3e d111 413f 15fc 6240 35ea c43e
00000030: 09c9 1f3e bbaf 663e 3d13 d7bf d651 613d
00000040: 79e3 85bf 6e01 6d3f 14b2 66bf edb4 03c0
00000050: ed12 3fc0 433e ca3e ee83 ca3e d2ce 91bf
00000060: 599a dc3e 371e 2abf bf0a 7c3f 8ef4 df3e
00000070: 5444 95bf 93c0 0c40 0cf8 6c3f 9708 44c0
00000080: 747e 2640 5b37 1bc0 2193 b43f 0887 a33e
00000090: aa03 f43f 2c13 633f 3096 55be 66ee ecbf
000000a0: 02f7 623f 84c3 233e a5f6 6940 d209 9f3e
000000b0: 7d7d 8a3e 057d 0a3f f127 9a3e dbdd 9b3f
000000c0: 52bd 4e3e a9d5 8f3e 13a8 ac3e 8517 e23f
000000d0: 1e3d b13e 6298 dd3f 58d2 e53e 89b6 81c0
000000e0: 2b5f 8d3f a2cb b13f 889d 753d 282d 83bb
000000f0: d7c3 143f 4118 3740 a48d 233e f983 0b40
00000100: 037b 0cc0 0df0 0d3f d395 de3f 17f7 bf3f
00000110: e56b d4bf ba30 383d 6897 bc3e 0bd8 0f3e
00000120: 99de e4bb b02e cabf d6b2 bbbe 8c9e f5be
00000130: fe94 06c0 b4f8 81be 1955 223f c15d 1a3f

fc2.weight f4 [80, 80]
-0.65183306 0.34183058 -0.098507404 0.13655359 -0.030100655 -0.27897435 0.13067855 -0.18631841
0.40232438 0.27177778 0.6531656 0.16969894 0.32942423 0.24921462 0.22405481 0.08083082
-0.43889025 0.180333 0.1320215 -0.24151082 -0.73602813 -0.0842551 -0.022909027 -0.089064896
0.35872868 -0.03158025 -0.29302245 0.09449135 0.016172132 -3.1454334 -0.35870528 0.19832993
-0.40021348 1.0462698 -0.06378384 0.70650065 0.059305727 -1.9266261 -0.12917036 -0.537074
-0.22155583 0.10761077 0.35434428 0.10853227 0.137436 0.13261046 -0.10542862 -0.64762914
0.15894374 0.21541396 -0.14359583 -0.74787784 0.07499682 -1.424043 0.057207063 -0.5380629
-0.011305018 -0.006528768 -1.0146579 0.007762481 -0.18676068 -0.9752351 0.21475883 -0.2229481
-0.19335003 0.16962042 -0.28173366 -1.185545 0.01694275 0.2798291 0.33602583 -0.43333206
0.13941255 -0.6156557 -0.1521565 -0.08506007 -0.08100238 -0.45126995 0.09533132 0.07791123
-0.96570545 0.05414021 -0.71665025 -0.1607644 -0.42161983 -0.1319307 0.2320112 0.4690248
1.1127704 -1.1188345 -0.30000943 0.33615983 0.5530615 0.5228468 -0.9355088 0.012899955
0.170234 -0.2615037 -0.9858828 -1.1259902 -1.348037 0.08463571 0.008531697 -0.28234896
0.31638655 -0.80663484 -0.43622577 0.20330918 -0.25864068 0.80322164 -0.042363185 -1.6040674
-0.1149351 -2.4783046 0.19822705 0.24826741 -0.40048876 -0.05506656 0.27479693 0.11602332
0.42890325 0.68285257 -0.5760888 0.5998816 0.0470746 0.12223623 -0.39825508 -0.026371889
0.48282525 0.03707859 -0.06473291 0.004063481 0.03865705 0.24821772 0.20926063 -0.6612406
-0.79594934 0.11267913 0.10899305 0.08157184 -0.74250066 0.3432809 0.34515217 -0.25184107
-0.44720197 0.06669925 -0.45573995 0.42493504 -0.44442114 0.8522841 0.038156528 0.13485366
0.1269179 -0.070349425 0.1846276 0.024685906 -0.7277729 -0.7370159 0.022504346 0.35379192
-0.0014510591 -0.111103006 -0.21807735 0.021293866 -0.12188262 0.24772204 -0.44687355 -0.9502484
-3.1952105 -0.5874139 -0.17046092 -1.5975873 -0.47826907 -1.7331507 -0.06265864 0.017503275
0.061111875 0.063771375 -1.168558 0.19846047 -0.025927871 0.28095865 -0.06929614 -0.13293108
-0.102955 -0.09632895 0.18862191 -0.22577654 0.106039904 0.23317297 0.18368062 -0.12779728
0.08737339 -0.048933785 0.10870285 -0.4174209 -0.50320846 0.054869123 -0.37228158 -0.0656499
0.14632304 -1.8953696 -0.12532282 -0.7231285 0.18897718 -0.04106094 -1.0044217 -0.18850069
-0.15663283 -0.4190589 0.043829966 -0.3606738 -0.06442701 -0.025449045 0.24815723 -0.46334162
-0.050769173 0.10355242 0.08838246 0.25573874 -0.009227452 0.10167062 -0.61334 -0.14879297
-0.2765121 0.17372721 -0.9217 -0.5729743 -0.3178275 -1.8031354 -0.019548945 -0.08394904
0.28801855 -0.08935607 -0.1667197 0.11504782 0.052780077 -1.6870029 -0.31140032 0.069984846
-0.14439625 -0.11184435 -0.15970835 0.25727463 0.0035503476 0.005618869 0.10056197 -0.25085348
0.1638004 0.070873514 1.1041073 0.04620268 0.41666672 0.090584554 0.050440878 -0.7046532
00000000: 88de 26bf 6b04 af3e 40be c9bd b4d4 0b3e
00000010: a695 f6bc bad5 8ebe 99d0 053e 41ca 3ebe
00000020: 76fd cd3e 7526 8b3e dc35 273f 8fc5 2d3e
00000030: 4baa a83e 1e32 7f3e a06e 653e a18a a53d
00000040: 39b6 e0be 37a9 383e a530 073e 9d4e 77be
00000050: 576c 3cbf f08d acbd b6ab bbbc a867 b6bd
00000060: 49ab b73e 4b5a 01bd 0a07 96be ae84 c13d
00000070: 6b7b 843c c84e 49c0 38a8 b7be 0017 4b3e
00000080: c8e8 ccbe 2bec 853f 1aa1 82bd 3add 343f
00000090: 90ea 723d af9b f6bf 3c45 04be af7d 09bf
000000a0: 88df 62be 0963 dc3d 9d6c b53e 2b46 de3d
000000b0: 06bc 0c3e 09cb 073e f6ea d7bd 06cb 25bf
000000c0: 26c2 223e 7a95 5c3e c90a 13be ec74 3fbf
000000d0: ef97 993d 0b47 b6bf f451 6a3d 7dbe 09bf
000000e0: af38 39bc 47ef d5bb 4fe0 81bf 695c fe3b
000000f0: 313e 3fbe 02a9 79bf bde9 5b3e 824c 64be
00000100: 8dfd 45be fab0 2d3e 653f 90be f0bf 97bf
00000110: 86cb 8a3c c345 8f3e 940b ac3e b3dd ddbe
00000120: 2ac2 0e3e 9d9b 1dbf eace 1bbe f933 aebd
00000130: 93e4 a5bd db0c e7be 113d c33d ec8f 9f3d
00000140: 7938 77bf 20c2 5d3d 6476 37bf 6c9f 24be
00000150: 8ede d7be d718 07be 5894 6d3e 0524 f03e
00000160: 436f 8e3f f835 8fbf d69a 99be 241d ac3e
00000170: 7095 0d3f 4ad9 053f 817d 6fbf 555a 533c
00000180: d251 2e3e d0e3 85be d162 7cbf 7220 90bf
00000190: 7a8c acbf 7d55 ad3d 88c8 0b3c 0b90 90be
000001a0: 6bfd a13e 9f7f 4ebf fc58 dfbe 4830 503e
000001b0: 8d6c 84be ef9f 4d3f 0585 2dbd 1552 cdbf
000001c0: 1863 ebbd 8b9c 1ec0 08fc 4a3e d039 7e3e
000001d0: dd0c cdbe 798d 61bd 2fb2 8c3e a29d ed3d
000001e0: 3599 db3e 6dcf 2e3f 8e7a 13bf d791 193f
000001f0: 4cd1 403d fd56 fa3d 17e8 cbbe dc09 d8bc
00000200: df34 f73e b8df 173d b092 84bd f326 853b
00000210: db56 1e3d c92c 7e3e 6b48 563e 1047 29bf
00000220: 56c3 4bbf 51c4 e63d c037 df3d 230f a73d
00000230: 8614 3ebf 84c2 af3e c9b7 b03e 50f1 80be
00000240: a8f7 e4be 9e99 883d bf56 e9be 1691 d93e
00000250: 2b8b e3be 4a2f 5a3f 054a 1c3d 1417 0a3e
00000260: c4f6 013e 5c13 90bd 040f 3d3e 193a ca3c
00000270: 534f 3abf 13ad 3cbf 095b b83c 3724 b53e
00000280: 7731 beba f989 e3bd ab4f 5fbe 7970 ae3c
00000290: 989d f9bd d9aa 7d3e 9ccc e4be 7b43 73bf
000002a0: 547e 4cc0 c260 16bf 4f8d 2ebe be7d ccbf
000002b0: afdf f4be e2d7 ddbf 2c53 80bd 0763 8f3c
000002c0: 7250 7a3d 919a 823d 4f93 95bf 3939 4b3e
000002d0: b066 d4bc d0d9 8f3e 22eb 8dbd 161f 08be
000002e0: 12da d2bd 1d48 c5bd 1a26 413e f731 67be
000002f0: 732b d93d e5c4 6e3e c616 3c3e 4add 02be
00000300: d2f0 b23d cb6e 48bd 9a9f de3d 31b8 d5be
00000310: 45d2 00bf 72be 603d b19b bebe 7473 86bd
00000320: b5d5 153e 799b f2bf a054 00be f31e 39bf
00000330: 3c83 413e 842f 28bd e490 80bf 5306 41be
00000340: 5b64 20be e38e d6be 0d87 333d 3caa b8be
00000350: 4ff2 83bd 847a d0bc ee1c 7e3e 1d3b edbe
00000360: 56f3 4fbd 4b13 d43d dd01 b53d 30f0 823e
00000370: bd2e 17bc b038 d03d da03 1dbf 2f5d 18be
00000380: fe92 8dbe 8ce5 313e 88f4 6bbf 72ae 12bf
00000390: 49ba a2be 24cd e6bf 1c25 a0bc 79ed abbd
000003a0: 2b77 933e 5100 b7bd 92b8 2abe 319e eb3d
000003b0: ec2f 583d b6ef d7bf dd6f 9fbe 3754 8f3d
000003c0: 9cdc 13be a70e e5bd 968a 23be 80b9 833e
000003d0: f3ac 683b 7d1e b83b 6ff3 cd3d de6f 80be
000003e0: 4bbb 273e 2226 913d 6353 8d3f 053f 3d3d
000003f0: 5755 d53e 6584 b93d 189b 4e3d 2764 34bf

fc2.bias f4 [80]
0.23360997 -0.6168606 -0.32654047 -1.418226 -0.48223978 -1.2188609 0.8836623 0.21751048
0.49747604 0.12641752 -0.6962344 -0.01490619 0.13952278 -0.30765542 -0.30129573 -0.116470695
0.094514765 -0.13803294 0.674434 0.1269685 -0.6884847 -0.4230228 -0.6751382 -1.273816
-0.6236495 0.045546237 -0.26533154 0.0391566 0.20932461 -0.41680285 -0.86690253 0.06901191
-0.10184617 0.09068729 -0.13287495 0.13964573 -0.45420176 0.20140432 -0.95575804 -0.24914059
-0.7430608 -0.2979804 -0.3933661 -0.21664903 -0.6795658 0.14095071 0.36339077 0.4982828
0.123409234 -0.33169386 -0.8721336 -0.94863087 -0.30009675 -0.35124585 -0.025416277 -0.36699688
0.4828451 -0.37732676 -0.7708837 0.09141781 0.29104933 0.057226524 -0.09814826 0.13634455
-0.31345224 -1.0480599 -0.7728024 -0.1298906 -0.36112437 0.105784096 -0.33869648 -0.4135831
-0.45416468 -0.5413261 0.0940975 1.2811306 -0.38362622 -0.2046365 -1.172686 -0.22640623
00000000: 7437 6f3e 94ea 1dbf 5030 a7be 6e88 b5bf
00000010: 22e8 f6be a203 9cbf b137 623f 11bb 5e3e
00000020: 2eb5 fe3e 9873 013e 6b3c 32bf 1839 74bc
00000030: 0fdf 0e3e 0385 9dbe 6f43 9abe 3088 eebd
00000040: f590 c13d 8258 0dbe b5a7 2c3f 0804 023e
00000050: 8940 30bf 7296 d8be dbd5 2cbf 670c a3bf
00000060: 7ea7 1fbf b18e 3a3d 89d9 87be ac62 203d
00000070: 3159 563e 2f67 d5be 53ed 5dbf 1e56 8d3d
00000080: ba94 d0bd 42ba b93d 5f10 08be 4aff 0e3e
00000090: 228d e8be ef3c 4e3e 8fac 74bf b61e 7fbe
000000a0: 3c39 3ebf e390 98be 4867 c9be 3ed9 5dbe
000000b0: 06f8 2dbf 6255 103e 5b0e ba3e ec1e ff3e
000000c0: fbbd fc3d c7d3 a9be 2644 5fbf 79d9 72bf
000000d0: 48a6 99be 7fd6 b3be cc35 d0bc 04e7 bbbe
000000e0: 7937 f73e f930 c1be a258 45bf 4339 bb3d
000000f0: 6b04 953e 5c66 6a3d f401 c9bd e89d 0b3e
00000100: d07c a0be d426 86bf 61d6 45bf 0b02 05be
00000110: 4be5 b8be 55a5 d83d a069 adbe 2ac1 d3be
00000120: 4688 e8be 5994 0abf 31b6 c03d 16fc a33f
00000130: a86a c4be 3b8c 51be 931a 96bf 09d7 67be

fc3.weight f4 [1, 80]
0.024367858 -0.0785116 -1.0375288 -0.16539156 -0.15055707 -0.011328326 0.04782629 -0.017198892
-0.025728958 0.12519282 -0.10703409 -0.00018096084 0.022229148 0.026254013 0.011772364 0.014914717
0.11017046 -0.019347463 -0.02222 -0.045108218 -0.038299102 0.02498427 -0.0737289 0.034452822
-0.015255678 -0.075760394 -0.2334283 0.036730275 0.10017672 0.002127581 0.08179662 -0.11103709
-0.17753461 -0.03522322 0.050436188 0.013172733 -0.6442689 0.19343884 0.023413878 -1.230874
-0.13688208 0.051451813 -0.11282028 -0.7945955 -0.01957687 0.05591117 -0.01684882 0.03913889
-0.31899092 -1.2147293 0.08152633 0.0042897505 -0.014853974 -0.42350376 0.0050324113 -0.61301136
0.03656113 -0.18364313 -0.052440662 0.23486204 -0.033154808 0.03540176 0.00018608395 0.070956394
-0.47035694 -0.07149288 -0.04113681 -1.3138065 -0.7075481 0.2220211 -0.28499022 -0.02270259
-0.15551233 -0.10520764 -0.011549483 0.045437396 -0.5496345 -0.060500637 -0.06267317 0.029230682
00000000: 1a9f c73c b1ca a0bd becd 84bf 685c 29be
00000010: a22b 1abe 719a 39bc 80e5 433d b1e4 8cbc
00000020: 89c5 d2bc 8c32 003e b034 dbbd 4ec0 3db9
00000030: e719 b63c a812 d73c e0e0 403c db5c 743c
00000040: 0da1 e13d 927e 9ebc b806 b6bc 65c3 38bd
00000050: 85df 1cbd d0ab cc3c 2dff 96bd 671e 0d3d
00000060: f4f2 79bc 4428 9bbd d407 6fbe 7c72 163d
00000070: 7429 cd3d e36e 0b3b fc84 a73d 6a67 e3bd
00000080: a2cb 35be 3946 10bd 2d96 4e3d 72d2 573c
00000090: ceee 24bf d514 463e 76ce bf3c 478d 9dbf
000000a0: d12a 0cbe 23bf 523d 520e e7bd 9c6a 4bbf
000000b0: ac5f a0bc 1c03 653d 8906 8abc 1a50 203d
000000c0: c752 a3be 407c 9bbf 47f7 a63d 0991 8c3b
000000d0: 155e 73bc 7cd5 d8be ede6 a43b 50ee 1cbf
000000e0: 20c1 153d f20c 3cbe 05cc 56bd ad7f 703e
000000f0: 56cd 07bd 7001 113d 881f 4339 9651 913d
00000100: a0d2 f0be dc6a 92bd 127f 28bd d02a a8bf
00000110: df21 35bf 8059 633e 3dea 91be c8fa b9bc
00000120: a03e 1fbe 1a77 d7bd 0b3a 3dbc 901c 3a3d
00000130: d9b4 0cbf 84cf 77bd ca5a 80bd 2f75 ef3c
