puppersim/dc_saves/aac_slow_pupper_0/critic2_7.pt (torch, 38295 bytes, 5 tensors)

fc1.weight f4 [80, 31]
00000000: 0db0 753d d6f3 723f 773a 613f b6b7 883f
00000010: 87a1 0040 8365 1240 e25f 643f 0779 4ebf
00000020: 433a 2bbf 29f9 cdbc a77a c33d c865 d7bf
00000030: 0911 313f b121 ea3d 7277 7ebf 3ef8 663c
00000040: 093e 69bd 6923 3e3d c225 6c3d c4d0 9dbd
00000050: 0481 1bbe 1758 f2bc d07e 413d 70b5 303d
00000060: bd1e 9e3c 2c6a ed3d 27a8 243d b1f0 1fbc
00000070: 933f a2bd 8da3 043f 339a a73c e798 c93e
00000080: 6baa 9fbf f24f 80bf 317c 083f 2f4a 213f
00000090: f385 28bf fff5 13bf e2dc c23e 8f94 e23d
000000a0: 9b33 453e 82d4 38bf c05b 5d3f 87d8 163f
000000b0: c172 0840 2459 f7be c049 bdbd 2f1f 3e3d
000000c0: e926 263e 3f12 5b3e b160 f5bd 56f6 bbbe
000000d0: ace1 03be a9f1 ad3d 045f 783d afa5 0e3d
000000e0: d4f3 50be 993c c2be a69b 0ebc 56e4 273f
000000f0: b564 43bf acc9 bdbd 5468 2d3d d66e 323e
00000100: 1ae0 00bf b813 0ebf 98d6 2340 4405 a8be
00000110: 9256 523f bc7e db3f 141a b23c 64e6 1f3e
00000120: fb47 43bf 9f51 19c0 4b7c 53bf 83d9 14bf
00000130: 11f8 47be 089e 753c 6dc2 6d3c c83e 683c
00000140: 76d2 ddbb 37f8 d53c b2e0 163d ca6a af3c
00000150: 1fe1 5a3d c119 59bb 0ba1 c8bc 5281 1b3d
00000160: 0137 a23c a924 b63c 3a39 3dbd 7177 08bd
00000170: efc2 38bc 37ac 1fbf 6cc7 67bd cd97 45be
00000180: f53e 2b3e c8d5 a4bc 4b47 cb3d a5c1 373d
00000190: 4735 22be c536 973e 7df0 113d 71f4 98bc
000001a0: ffbb babc df71 8a3e 6019 8a3b 5411 663e
000001b0: e9cb a6ba 4209 3e3c acff 20bd aa22 0ebc
000001c0: 3ba6 0abc 3122 443c 8682 6dbc cb03 d43b
000001d0: 1e1a 5b3a dea6 973c 0ab7 e23b b703 9e3d
000001e0: f7d4 29bb 8931 3dbd 181e 2cbd 96dc 433c
000001f0: 05d6 35bd 6ffe b5bd 0406 02bf c55c 0ac0
00000200: e155 96bd 3ac5 0d3e 2aea aabe 6d8f 4f3e
00000210: f32d 103e 15d5 003f 5f17 833e 8d6b d73d
00000220: 537f 023f bccb 303d 0347 333c 2f82 abbc
00000230: be0d 4b3e 16ac 083f 4d50 423d 2068 f23d
00000240: 2ba3 0b3e 844b 81bc 3f0a 64bc d1c0 0dbc
00000250: d9cd 023c abde cb3c eea0 233c 78af 3abc
00000260: 3b66 3dbe da52 d63f 00df ca3b cf38 26be
00000270: 56aa 0640 5975 403f 4b0d b5be 8229 4740
00000280: c967 703f 2392 96bc 1472 903f 54a6 56be
00000290: 16da c53d 881a 65be 17cc 2abf 802b 113f
000002a0: 4204 aebb 2bc8 dfbd b94d 883b fefe 4ebd
000002b0: bc6e 32bc 7717 263d d9fe 89bd 5763 3e3b
000002c0: 3300 28bd 2d3e 673d bb8c 1b3c 4540 e83c
000002d0: 216e 3b3d 0f9b 473d d36a d43b ea63 89bc
000002e0: 1403 333d dba2 65bc a812 dabe bf19 973e
000002f0: 5c4c 2c3f b543 033f 3565 8a3f b85a 6ebe
00000300: 6ba5 6dbf 69bf 49c0 d86e 143e def8 32be
00000310: f8b1 77bf 9b52 94be 440c 7c3c a532 0bbf
00000320: 24d2 b0bd a216 22bd 6ab3 06bd 60d1 843d
00000330: 7f4e 633d e7b2 2f3c bd78 fb3c 88b0 b8bd
00000340: 3c17 61bb 5c5b d1bc 4720 30bc f710 babd
00000350: 24e7 fdbc d971 c6bc c491 8c3c da26 f53d
00000360: 437c d8bc 62b0 763d afdf 9dbd fa85 703f
00000370: 5206 8d3f f575 a8be 6675 3340 abfb 2d3f
00000380: 2051 173f 12bb 40bf 829e ddbe 36f5 17bf
00000390: 9555 a53e a4b9 2b3e 2602 2a3e 1a78 2abf
000003a0: cb58 e1bc cfec 683d 2577 b13d 4995 443c
000003b0: bf70 583d 4d44 ee3c 71ca 413c 7103 b8bb
000003c0: 27b7 8ebc 2b5f adbc c4d8 8ebc 784c 11bd
000003d0: 5bae 18bc ee50 443d 3016 22be 8a24 1a3c
000003e0: d8bb 11bf 34a8 cdbe d211 a0bc 9f07 683e
000003f0: dfea fcbe 4e48 2bbd 0520 6c3d 35c7 1fbe
0.05998235 0.94903314 0.87979835 1.0681064 2.0098588 2.2874458 0.89208806 -0.80653423
-0.66885775 -0.025143223 0.095448785 -1.6827936 0.6916662 0.114322074 -0.9940101 0.0140972715
-0.056943927 0.04642049 0.057653196 -0.077058345 -0.15185934 -0.02958302 0.04724008 0.043141782
0.019301767 0.11592516 0.040199425 -0.009761975 -0.07922282 0.5181206 0.02045927 0.39374468
-1.2473882 -1.0024397 0.533145 0.6300382 -0.6582939 -0.57797235 0.38059145 0.110634916
0.19257967 -0.7219926 0.86468124 0.58924145 2.132004 -0.48310196 -0.09242582 0.046416458
0.1622578 0.21393679 -0.11981333 -0.36711377 -0.12879056 0.08493359 0.06063749 0.034825977
-0.20405513 -0.37936857 -0.008704102 0.6558279 -0.7632554 -0.092669815 0.042335823 0.17425093
-0.5034195 -0.5549884 2.5599728 -0.32816517 0.82163346 1.7148051 0.02174095 0.15615231
-0.7628171 -2.3956068 -0.8261153 -0.58144397 -0.19528224 0.014991291 0.014511687 0.0141751245
-0.0067694737 0.026119335 0.03683538 0.021413226 0.05343735 -0.0033126923 -0.024490854 0.037965126
0.019801619 0.022234278 -0.046197154 -0.033317033 -0.011276945 -0.62372154 -0.056586668 -0.19296189
0.16723235 -0.02012147 0.099257074 0.04486241 -0.15840636 0.29533973 0.035629738 -0.018671246
-0.022794722 0.27040002 0.0042144507 0.22467548 -0.0012725565 0.011598887 -0.039306328 -0.008675257
-0.008462484 0.0119710425 -0.014496451 0.0064701787 0.0008358079 0.018512186 0.0069187926 0.07715552
-0.002591429 -0.04618982 -0.042020887 0.011954447 -0.044393558 -0.0888642 -0.5079043 -2.1619122
-0.07340599 0.13844767 -0.33381778 0.20269556 0.14080028 0.5032514 0.25603768 0.105185606
0.5097553 0.043163046 0.0109422235 -0.0209361 0.19829461 0.5338758 0.047439862 0.118362665
0.13636462 -0.015783079 -0.0139184585 -0.008651928 0.007983648 0.02488645 0.009987099 -0.011394374
-0.18496029 1.6744034 0.0061911345 -0.16232608 2.1041465 0.7517906 -0.35361704 3.1119084
0.93908364 -0.01838023 1.1284814 -0.20961887 0.09660737 -0.22373402 -0.66717666 0.56707
-0.005310566 -0.10926851 0.004159656 -0.05053615 -0.010890659 0.04054972 -0.067380615 0.002905091
-0.041015815 0.05645578 0.009494002 0.028350959 0.045759324 0.04873186 0.006482461 -0.016771276
0.043704107 -0.014015879 -0.4259236 0.2951183 0.67304015 0.5127519 1.0812136 -0.23276794
-0.9283053 -3.1523077 0.14495409 -0.17477748 -0.96755934 -0.28969273 0.015383784 -0.5437415
-0.08633831 -0.039572366 -0.032885946 0.064852476 0.05549478 0.010723806 0.030697221 -0.09018046
-0.0034346124 -0.025556259 -0.010749883 -0.09085267 -0.030994006 -0.024224209 0.01715935 0.11970301
-0.02642644 0.060226806 -0.0770868 0.9395443 1.1017554 -0.32902494 2.8040404 0.6796214
0.5910816 -0.75285447 -0.43284994 -0.5935854 0.32291856 0.16770035 0.16602382 -0.6658951
-0.02750816 0.056866463 0.08665303 0.011998483 0.052841898 0.029085303 0.011828051 -0.0056156446
-0.017421318 -0.021163544 -0.017437346 -0.035473317 -0.009318913 0.047928743 -0.15828776 0.009408126
-0.5692725 -0.4016739 -0.019539747 0.22659157 -0.49397942 -0.041817002 0.057647724 -0.15603335

fc1.bias f4 [80]
00000000: 3c6c 403d ff67 8ebf 4731 ee3f 4540 a23e
00000010: 1039 c7bf 41d8 863d 2342 d13f b8fb c9be
00000020: 9f81 3f3e 9edc 3c3f 907c 6240 35ea c43e
00000030: 09c9 1f3e bbaf 663e be16 dabf cf29 263d
00000040: 6911 86bf 7491 6a3f bbc9 60bf edb4 03c0
00000050: ed12 3fc0 433e ca3e ee83 ca3e 1fcb 91bf
00000060: 599a dc3e 770b 26bf 28ba 7a3f 8ef4 df3e
00000070: 4d1e 93bf 0696 0c40 e719 6a3f 3c35 44c0
00000080: 7759 2640 5b37 1bc0 2193 b43f 0887 a33e
00000090: a54b f83f bdb0 653f 61a7 5ebe e902 eebf
000000a0: d060 643f 84c3 233e 2137 6a40 d209 9f3e
000000b0: 50e0 8f3e 057d 0a3f 51d2 aa3e 2f50 9c3f
000000c0: 26f9 4e3e a9d5 8f3e 13a8 ac3e 42e8 e03f
000000d0: 1e3d b13e 7364 e33f 58d2 e53e 89b6 81c0
000000e0: 140d 8e3f fdec b03f 889d 753d 282d 83bb
000000f0: e1f0 0f3f fd60 3740 a48d 233e 160e 0c40
00000100: 5624 0ec0 dbca 0b3f 853d de3f 17f7 bf3f
00000110: 1e84 d4bf ba30 383d 6897 bc3e 7d78 333e
00000120: 99de e4bb ce44 c9bf d6b2 bbbe 215a 02bf
00000130: 1a20 06c0 cc68 7cbe 1955 223f c15d 1a3f
0.04697822 -1.1125487 1.8608788 0.3168966 -1.5564289 0.06584216 1.6348308 -0.3944986
0.1870179 0.73774135 3.5388527 0.38459936 0.15604033 0.22527973 -1.703819 0.040567216
-1.0474063 0.91628194 -0.87807816 -2.0579178 -2.9855301 0.39500627 0.3955378 -1.1390113
0.43086508 -0.64861244 0.979403 0.43741268 -1.1493622 2.1966567 0.91445774 -3.0657492
2.5992105 -2.4252536 1.41074 0.31938958 1.9398085 0.89722806 -0.21743537 -1.8594638
0.89210224 0.15992552 3.6596148 0.3106218 0.28100824 0.54097015 0.33363584 1.221197
0.2021223 0.28092697 0.3372198 1.757088 0.3461694 1.776503 0.44887042 -4.053532
1.1097741 1.3822323 0.059964687 -0.004003186 0.5622693 2.8652947 0.15972 2.1883597
-2.2209678 0.5460641 1.7362524 1.4997281 -1.6602819 0.044968344 0.36834264 0.17526431
-0.0069845435 -1.5724123 -0.36659878 -0.50918776 -2.0957093 -0.24649352 0.634111 0.6029931

fc2.weight f4 [80, 80]
00000000: 9f80 4dbf bb54 b43e bf6a a7bd b4d4 0b3e
00000010: ec78 58bd 5a39 5cbe 3e97 0c3e 8c44 74be
00000020: 76fd cd3e a456 7f3e 3805 1e3f 8fc5 2d3e
00000030: 4baa a83e 1e32 7f3e 63fc 893e 7fb6 053d
00000040: e713 dfbe afd6 2b3e e094 d33d 9d4e 77be
00000050: 576c 3cbf f08d acbd b6ab bbbc c9db d53c
00000060: 49ab b73e 037c a03c fd08 85be ae84 c13d
00000070: 7ecc 3c3d 6fca 47c0 7a11 9bbe 783c f33e
00000080: ff80 debe 2bec 853f 1aa1 82bd 3add 343f
00000090: 40a7 d23c af9b f6bf b4a6 01be f460 0abf
000000a0: e99a 68be 0963 dc3d 71a3 a63e 2b46 de3d
000000b0: 1aa4 463e 09cb 073e 1437 22be c0c8 0fbf
000000c0: 102d 1b3e 7a95 5c3e c90a 13be 655b 28bf
000000d0: ef97 993d 0b47 b6bf f451 6a3d 7dbe 09bf
000000e0: f8a0 0abd d2e7 5a3d 4fe0 81bf 695c fe3b
000000f0: d910 38be fc04 8ebf bde9 5b3e 29ab 01be
00000100: 24a1 53be fab0 2d3e 2ea5 9bbe f0bf 97bf
00000110: d44b db3b c345 8f3e 940b ac3e db69 cdbe
00000120: 2ac2 0e3e 9d9b 1dbf eace 1bbe 8972 01be
00000130: ddeb 62bd dd3e f2be 113d c33d ec8f 9f3d
00000140: 7938 77bf 20c2 5d3d 6476 37bf 6c9f 24be
00000150: 8ede d7be d718 07be 5894 6d3e 0524 f03e
00000160: 436f 8e3f f835 8fbf d69a 99be 241d ac3e
00000170: 7095 0d3f 4ad9 053f 817d 6fbf 555a 533c
00000180: d251 2e3e d0e3 85be d162 7cbf 7220 90bf
00000190: 7a8c acbf 7d55 ad3d 88c8 0b3c 0b90 90be
000001a0: 6bfd a13e 9f7f 4ebf fc58 dfbe 4830 503e
000001b0: 8d6c 84be ef9f 4d3f 0585 2dbd 1552 cdbf
000001c0: 1863 ebbd 8b9c 1ec0 08fc 4a3e d039 7e3e
000001d0: dd0c cdbe 798d 61bd 2fb2 8c3e a29d ed3d
000001e0: 3599 db3e 6dcf 2e3f 8e7a 13bf d791 193f
000001f0: 4cd1 403d fd56 fa3d 17e8 cbbe dc09 d8bc
00000200: df34 f73e b8df 173d b092 84bd f326 853b
00000210: db56 1e3d c92c 7e3e 6b48 563e 1047 29bf
00000220: 56c3 4bbf 51c4 e63d c037 df3d 230f a73d
00000230: 8614 3ebf 84c2 af3e c9b7 b03e 50f1 80be
00000240: a8f7 e4be 9e99 883d bf56 e9be 1691 d93e
00000250: 2b8b e3be 4a2f 5a3f 054a 1c3d 1417 0a3e
00000260: c4f6 013e 5c13 90bd 040f 3d3e 193a ca3c
00000270: 534f 3abf 13ad 3cbf 095b b83c 3724 b53e
00000280: 7731 beba f989 e3bd ab4f 5fbe 7970 ae3c
00000290: 989d f9bd d9aa 7d3e 9ccc e4be 7b43 73bf
000002a0: 547e 4cc0 c260 16bf 4f8d 2ebe be7d ccbf
000002b0: afdf f4be e2d7 ddbf 2c53 80bd 0763 8f3c
000002c0: 7250 7a3d 919a 823d 4f93 95bf 3939 4b3e
000002d0: b066 d4bc d0d9 8f3e 22eb 8dbd 161f 08be
000002e0: 12da d2bd 1d48 c5bd 1a26 413e f731 67be
000002f0: 732b d93d e5c4 6e3e c616 3c3e 4add 02be
00000300: d2f0 b23d cb6e 48bd 9a9f de3d 31b8 d5be
00000310: 45d2 00bf 72be 603d b19b bebe 7473 86bd
00000320: b5d5 153e 799b f2bf a054 00be f31e 39bf
00000330: 3c83 413e 842f 28bd e490 80bf 5306 41be
00000340: 5b64 20be e38e d6be 0d87 333d 3caa b8be
00000350: 4ff2 83bd 847a d0bc ee1c 7e3e 1d3b edbe
00000360: 56f3 4fbd 4b13 d43d dd01 b53d 30f0 823e
00000370: bd2e 17bc b038 d03d da03 1dbf 2f5d 18be
00000380: fe92 8dbe 8ce5 313e 88f4 6bbf 72ae 12bf
00000390: 49ba a2be 24cd e6bf 1c25 a0bc 79ed abbd
000003a0: 2b77 933e 5100 b7bd 92b8 2abe 319e eb3d
000003b0: ec2f 583d b6ef d7bf dd6f 9fbe 3754 8f3d
000003c0: 2fac d2bd 139b 1ebe 6ec4 12be 80b9 833e
000003d0: 9948 c5bc 0604 dabc 3c02 863d 1bba 62be
000003e0: 4bbb 273e 129f 8f3d a515 923f 053f 3d3d
000003f0: 5755 d53e 6584 b93d b4af c73c 89fd 21bf
-0.80274385 0.35220894 -0.08174657 0.13655359 -0.052849695 -0.21506253 0.1372957 -0.23854274
0.40232438 0.24935395 0.61726713 0.16969894 0.32942423 0.24921462 0.26950368 0.032644745
-0.43569872 0.16781114 0.1033113 -0.24151082 -0.73602813 -0.0842551 -0.022909027 0.026105778
0.35872868 0.019590383 -0.2598342 0.09449135 0.046093456 -3.1217306 -0.3028677 0.47507071
-0.4345779 1.0462698 -0.06378384 0.70650065 0.025714517 -1.9266261 -0.12661248 -0.5405419
-0.22715344 0.10761077 0.3254657 0.10853227 0.19398537 0.13261046 -0.15841323 -0.56165695
0.15153909 0.21541396 -0.14359583 -0.65764457 0.07499682 -1.424043 0.057207063 -0.5380629
-0.033844918 0.053443737 -1.0146579 0.007762481 -0.17975177 -1.1095271 0.21475883 -0.12662949
-0.20666939 0.16962042 -0.3039946 -1.185545 0.006692389 0.2798291 0.33602583 -0.40119824
0.13941255 -0.6156557 -0.1521565 -0.12641348 -0.055400718 -0.47313586 0.09533132 0.07791123
-0.96570545 0.05414021 -0.71665025 -0.1607644 -0.42161983 -0.1319307 0.2320112 0.4690248
1.1127704 -1.1188345 -0.30000943 0.33615983 0.5530615 0.5228468 -0.9355088 0.012899955
0.170234 -0.2615037 -0.9858828 -1.1259902 -1.348037 0.08463571 0.008531697 -0.28234896
0.31638655 -0.80663484 -0.43622577 0.20330918 -0.25864068 0.80322164 -0.042363185 -1.6040674
-0.1149351 -2.4783046 0.19822705 0.24826741 -0.40048876 -0.05506656 0.27479693 0.11602332
0.42890325 0.68285257 -0.5760888 0.5998816 0.0470746 0.12223623 -0.39825508 -0.026371889
0.48282525 0.03707859 -0.06473291 0.004063481 0.03865705 0.24821772 0.20926063 -0.6612406
-0.79594934 0.11267913 0.10899305 0.08157184 -0.74250066 0.3432809 0.34515217 -0.25184107
-0.44720197 0.06669925 -0.45573995 0.42493504 -0.44442114 0.8522841 0.038156528 0.13485366
0.1269179 -0.070349425 0.1846276 0.024685906 -0.7277729 -0.7370159 0.022504346 0.35379192
-0.0014510591 -0.111103006 -0.21807735 0.021293866 -0.12188262 0.24772204 -0.44687355 -0.9502484
-3.1952105 -0.5874139 -0.17046092 -1.5975873 -0.47826907 -1.7331507 -0.06265864 0.017503275
0.061111875 0.063771375 -1.168558 0.19846047 -0.025927871 0.28095865 -0.06929614 -0.13293108
-0.102955 -0.09632895 0.18862191 -0.22577654 0.106039904 0.23317297 0.18368062 -0.12779728
0.08737339 -0.048933785 0.10870285 -0.4174209 -0.50320846 0.054869123 -0.37228158 -0.0656499
0.14632304 -1.8953696 -0.12532282 -0.7231285 0.18897718 -0.04106094 -1.0044217 -0.18850069
-0.15663283 -0.4190589 0.043829966 -0.3606738 -0.06442701 -0.025449045 0.24815723 -0.46334162
-0.050769173 0.10355242 0.08838246 0.25573874 -0.009227452 0.10167062 -0.61334 -0.14879297
-0.2765121 0.17372721 -0.9217 -0.5729743 -0.3178275 -1.8031354 -0.019548945 -0.08394904
0.28801855 -0.08935607 -0.1667197 0.11504782 0.052780077 -1.6870029 -0.31140032 0.069984846
-0.10286748 -0.15488844 -0.14332744 0.25727463 -0.024082469 -0.026613247 0.06543395 -0.22141306
0.1638004 0.07012762 1.1412855 0.04620268 0.41666672 0.090584554 0.024375774 -0.6327749

fc2.bias f4 [80]
00000000: 159b 7e3e 94ea 1dbf 5030 a7be 8a94 b8bf
00000010: 22e8 f6be 5325 9abf cc29 653f c493 453e
00000020: ca34 f43e 9873 013e d072 38bf bfdf 74bc
00000030: 1d22 333e c3d1 a0be cfe3 9fbe 826a 2cbe
00000040: f590 c13d c764 e3bd b127 2c3f 0804 023e
00000050: 1b0f 35bf e1e7 ddbe dbd5 2cbf 0079 a3bf
00000060: 9e2d 20bf b18e 3a3d 89d9 87be 7f07 663c
00000070: 3159 563e 2f67 d5be 0cdb 5ebf 5321 933d
00000080: 4dcb 3dbd 039e 903d b863 09be 4aff 0e3e
00000090: 228d e8be ef3c 4e3e 8fac 74bf 1e1d 7fbe
000000a0: a880 37bf 111b 86be e68d b7be 3ed9 5dbe
000000b0: fe0e 32bf 6255 103e 5f4f b43e 1c05 023f
000000c0: fbbd fc3d c7d3 a9be 814e 63bf 79d9 72bf
000000d0: a336 9cbe f8b1 b8be b25f 5dbc 04e7 bbbe
000000e0: 94df f43e f930 c1be e244 3ebf 4339 bb3d
000000f0: 69c7 833e d75d 9b3d f401 c9bd e89d 0b3e
00000100: d07c a0be d426 86bf 891b 42bf 0b02 05be
00000110: 4be5 b8be 7542 dd3d 9243 b2be d5da d1be
00000120: 4688 e8be 5994 0abf 64b9 123e 0ef5 a23f
00000130: a86a c4be ad74 51be 9128 9abf 8dea 70be
0.24863847 -0.6168606 -0.32654047 -1.442033 -0.48223978 -1.204264 0.895169 0.1929465
0.47696525 0.12641752 -0.7205019 -0.014945923 0.17493482 -0.31410035 -0.31228492 -0.16837505
0.094514765 -0.11103206 0.67248064 0.1269685 -0.70726174 -0.43340972 -0.6751382 -1.2771301
-0.62569606 0.045546237 -0.26533154 0.014039873 0.20932461 -0.41680285 -0.8705299 0.071840905
-0.04633646 0.07061388 -0.13416946 0.13964573 -0.45420176 0.20140432 -0.95575804 -0.24913451
-0.7168069 -0.26192525 -0.35850447 -0.21664903 -0.69554126 0.14095071 0.35216805 0.50789046
0.123409234 -0.33169386 -0.8879166 -0.94863087 -0.30510435 -0.3607328 -0.013511585 -0.36699688
0.47826827 -0.37732676 -0.74323857 0.09141781 0.25738075 0.07586258 -0.09814826 0.13634455
-0.31345224 -1.0480599 -0.75823265 -0.1298906 -0.36112437 0.10803691 -0.34817177 -0.40987268
-0.45416468 -0.5413261 0.14328533 1.2731035 -0.38362622 -0.20454665 -1.204363 -0.23526974

fc3.weight f4 [1, 80]
00000000: 36c4 c53c b1ca a0bd becd 84bf e7cc 5cbe
00000010: a22b 1abe 62f8 85bc 5d9f 823d d207 5dbc
00000020: 3533 bdbc 8c32 003e ea90 b6bd 4a4d fe3b
00000030: 85ae c63c ba40 cb3c aef2 743c 7a51 363a
00000040: 0da1 e13d 5592 92bc fd5c 94bc 65c3 38bd
00000050: 198e 10bd f365 2f3d 2dff 96bd 4813 153d
00000060: ae40 4bbc 4428 9bbd d407 6fbe d584 573d
00000070: 7429 cd3d e36e 0b3b 798b ab3d ba64 b6bd
00000080: d0d7 6fbe 3064 05bd 892a 6a3d 72d2 573c
00000090: ceee 24bf d514 463e 76ce bf3c 7895 9dbf
000000a0: dce6 5dbe abcd 703d cf6c e5bd 9c6a 4bbf
000000b0: 18e2 a5bc 1c03 653d e5b0 a0bc 90c1 6f3d
000000c0: c752 a3be 407c 9bbf b626 b13d 0991 8c3b
000000d0: 089d c7bb 0054 d6be 8cc6 be3c 50ee 1cbf
000000e0: 9bdc 083d f20c 3cbe c1d8 84bd ad7f 703e
000000f0: 501e 07bd ff68 1f3d 881f 4339 9651 913d
00000100: a0d2 f0be dc6a 92bd e65d 19bd d02a a8bf
00000110: df21 35bf b760 613e d250 8dbe 0be6 cebc
00000120: a03e 1fbe 1a77 d7bd 753f 25bd 691e 393d
00000130: d9b4 0cbf 5688 76bd 4cc5 72bd f999 4e3d
0.024141412 -0.0785116 -1.0375288 -0.21562539 -0.15055707 -0.01635379 0.063780524 -0.013490634
-0.023095706 0.12519282 -0.08914359 0.0077606784 0.02425314 0.024811137 0.0149504375 0.000695489
0.11017046 -0.017892042 -0.018110747 -0.045108218 -0.035291765 0.042821836 -0.0737289 0.03639534
-0.012405558 -0.075760394 -0.2334283 0.052616913 0.10017672 0.002127581 0.08376212 -0.08905931
-0.2342217 -0.03256625 0.05716947 0.013172733 -0.6442689 0.19343884 0.023413878 -1.2311239
-0.21670097 0.05878989 -0.11202394 -0.7945955 -0.020249411 0.05591117 -0.0196156 0.058534205
-0.31899092 -1.2147293 0.08649962 0.0042897505 -0.0060917176 -0.41860962 0.023288034 -0.61301136
0.03341351 -0.18364313 -0.06486655 0.23486204 -0.032987893 0.03891849 0.00018608395 0.070956394
-0.47035694 -0.07149288 -0.037443064 -1.3138065 -0.7075481 0.2200955 -0.27600724 -0.025256177
-0.15551233 -0.10520764 -0.04034372 0.045195017 -0.5496345 -0.060188614 -0.05927019 0.05043981
