puppersim/dc_saves/aac_slow_pupper_0/critic1_18.pt (torch, 38295 bytes, 5 tensors)

fc1.weight f4 [80, 31]
000000 31 05 5f 3d 35 b5 82 c0 97 46 14 3e 60 bf c5 be
       0.05444831 -4.08462 0.14480053 -0.3862257
000010 37 d7 10 3e 2e ae 93 bf 68 3a 09 bd c6 3f 78 bd
       0.14144598 -1.153753 -0.033502966 -0.060607694
000020 c3 e2 65 3e ba 9e dc bf 16 e9 66 be ed 59 42 3c
       0.22449784 -1.723594 -0.22549853 0.01186226
000030 64 07 44 bf 72 31 9c 3e 11 2d 49 c0 c3 96 8f be
       -0.7657378 0.30506474 -3.1433756 -0.2804471
000040 5c d8 c7 3b 58 02 96 bb f5 86 f9 3d 9c 92 08 3e
       0.00609879 -0.004577916 0.12183944 0.13337177
000050 6e 20 2b be 14 a1 de 3b fd ff 50 be d5 bc ed 3d
       -0.1671159 0.0067941044 -0.20410152 0.116082825
000060 c3 f7 45 3e 07 0b d4 bd 5f 74 a1 3d 3c 9d 04 3e
       0.19332795 -0.10353666 0.07883524 0.12950605
000070 21 30 6b 3c 64 33 3c 3f 53 88 14 3e d8 e4 d4 bd
       0.014354737 0.73515916 0.14505129 -0.10395211
000080 df e2 17 3e 81 c9 26 bf 36 5e 12 3e cd 30 86 3f
       0.14832638 -0.6515122 0.14293751 1.0483643
000090 84 d5 59 be fc 25 af 3e e5 85 40 3f f9 9b 0c 3d
       -0.21272856 0.34208667 0.75204307 0.034328435
0000a0 d5 56 bc 3e b8 8f 46 3f 99 30 ad bd ac 69 a2 3e
       0.36784998 0.7756305 -0.08456535 0.31721246
0000b0 67 be 75 bf 13 8b c1 be 57 5a 7f 3e 08 2a a4 3e
       -0.95993656 -0.37801418 0.24936806 0.32063317
0000c0 56 d1 d9 be f4 c8 e6 3e 1d 0c 9a 3e 90 dd 03 bc
       -0.42542523 0.4507519 0.30087367 -0.00804843
0000d0 86 dc aa 3e fb b6 6d 3d d2 c1 88 be e1 3b 5a 3e
       0.3337137 0.058035832 -0.26710373 0.21311904
0000e0 3e 00 fb 3e b3 95 b9 be fa 2b 59 3d df 0a bd 3e
       0.49023622 -0.36247024 0.053020455 0.36922356
0000f0 77 36 2c be 32 8b dd bd d2 37 3f 3e c6 f0 97 c0
       -0.16817652 -0.10817565 0.18673638 -4.7481413
000100 41 e4 93 bf 5b c4 38 3f c5 f6 57 bf 81 46 9e bf
       -1.1554033 0.72174615 -0.84360915 -1.2365266
000110 99 31 aa 3e e0 f6 a9 bf 45 74 3c c0 68 f1 b7 3f
       0.33240965 -1.3278465 -2.9445965 1.4370546
000120 b5 08 25 40 1c 03 9b bf fe f1 83 3e 7c 83 2e bf
       2.5786564 -1.2110324 0.25770563 -0.6816938
000130 d9 e2 a7 3e 59 11 1a 3e 9d 13 20 bf 21 22 78 3f
       0.3279026 0.1504568 -0.6252993 0.96927077
000140 d4 17 de 3e ff c3 2e bf 04 5b 46 3d 2d 24 a4 3e
       0.43377554 -0.68267816 0.048426643 0.3205885
000150 67 df b4 be be e3 f0 3b f9 1c 72 be 96 dc d2 3e
       -0.35326692 0.0073513677 -0.23643865 0.4118392
000160 92 77 e6 3e 06 b4 c8 3e f0 ea 57 3f fb 61 06 bf
       0.450131 0.39199847 0.8434286 -0.52493256
000170 6a aa 93 be c7 2e 88 3e 00 f7 21 be 92 3a 33 be
       -0.28840953 0.26598188 -0.1581688 -0.17502812
000180 84 98 bb 3e d4 7b 24 3f 7e 47 54 bf 98 5a 16 be
       0.36639798 0.64251447 -0.8292159 -0.14682996
000190 be f4 8a 3d 25 20 4c c0 09 52 c6 be fd 23 ca 3f
       0.06784962 -3.189462 -0.38734463 1.5792233
0001a0 ad db 95 bf cb 73 9a 3e 9d 12 8a bf 71 28 4f 3e
       -1.1707665 0.30166468 -1.078693 0.20230271
0001b0 3e 41 30 3e 0f 43 80 bd f7 bc c2 bd 60 bf 62 3e
       0.17212388 -0.062627904 -0.095086984 0.22143316
0001c0 ef 06 ab 3c 2d 7c 64 3d 31 44 56 be 0a ae 87 bf
       0.02087733 0.055782486 -0.2092445 -1.0599988
0001d0 cd 04 b6 be cd b8 ac 3d 5d a0 65 3e ae 6b f5 bc
       -0.35550538 0.084336855 0.22424455 -0.029958572
0001e0 c9 92 27 3e 66 01 59 bf 62 f0 74 3e 51 08 61 bd
       0.16364588 -0.8476776 0.23919824 -0.05493957
0001f0 f0 75 2b bf 67 b2 39 3f af 08 62 3f 3a 17 14 3f
       -0.66976833 0.72537845 0.882945 0.5784794
000200 5a 03 a1 3e 99 74 46 bd 87 75 27 bf ee 08 94 be
       0.3144787 -0.04845104 -0.6541371 -0.28913063
000210 58 e8 e3 3e a9 4b ec 3e d3 9f bd 3f b6 7c d8 be
       0.44513202 0.46151474 1.48144 -0.42282647
000220 61 7f 34 bf 79 cd a0 bf 1a 1b 84 3f 81 2e 32 bd
       -0.70506865 -1.2562705 1.0320771 -0.04350138
000230 01 06 1f 3c 65 03 9e 3c 79 df 19 bc 60 19 15 3d
       0.009706021 0.019288728 -0.009391659 0.036401153
000240 ec bb 44 3d dc 0e 30 bc 9e 28 b3 bc ae a5 35 bd
       0.04803078 -0.01074573 -0.021869954 -0.044347458
000250 52 8d 2d 3b a4 de 91 bc 1b 4a 53 bd b5 7f 23 3c
       0.0026481939 -0.017806359 -0.051584344 0.009979178
000260 29 c1 2f 3d ce 99 27 be 3f 94 c9 3c 5b d7 e3 be
       0.04290882 -0.16367266 0.024606822 -0.4450024
000270 35 7a 55 be 28 2b ac bc f2 33 06 3e c6 51 55 bd
       -0.208474 -0.021016672 0.13105753 -0.05207994
000280 31 c1 1e be e8 51 a4 3d 04 71 6b 3e bd 8b bf be
       -0.15503384 0.08023435 0.22992331 -0.374113
000290 42 34 a1 bd a0 a1 87 3c 5d 17 54 bd f0 d6 67 3e
       -0.078712955 0.016556561 -0.051780093 0.22640586
0002a0 c2 41 c1 bd ed 7c 33 3d af b1 01 bb 46 39 ba bd
       -0.094363704 0.04382031 -0.0019789746 -0.09092955
0002b0 2c c2 cd bd 91 fd 65 3b 48 c6 0c bd a8 b1 eb bc
       -0.10046801 0.0035093764 -0.034368783 -0.028771237
0002c0 8d 4e 8f 3c 64 67 45 bd e3 f5 d9 3c a2 10 66 3b
       0.01749351 -0.048194304 0.026606506 0.0035105129
0002d0 a0 b5 e8 3b 44 be 5d 3b 98 15 d4 bb 68 54 b0 3d
       0.0071017295 0.003383533 -0.0064723007 0.08609849
0002e0 b0 da e8 3c 66 bd 28 3d 72 46 a1 3e ac b4 b7 bf
       0.02842459 0.04119625 0.31499058 -1.4352012
0002f0 f7 23 6e be c7 5e c0 3f bc a8 f9 bf 7d 1a a8 be
       -0.23255907 1.5028924 -1.9504619 -0.3283271
000300 29 82 cf 3e 8e 41 30 c0 96 dc b3 bf 32 3f 67 3f
       0.40528992 -2.7540011 -1.4051692 0.90330803
000310 2a 42 be 3f 08 39 87 bf 8c 35 e3 bb 84 4d 81 be
       1.4863942 -1.056428 -0.0069338735 -0.25254452
000320 d8 08 80 bf 33 05 2b 3e ca c1 50 3c b7 39 b4 3e
       -1.0002699 0.16701202 0.012741515 0.35200283
000330 26 bd 82 bf 13 e8 6a 3a 9b 4d 9e be 23 a0 38 3f
       -1.0213974 0.00089609734 -0.30918583 0.7211935
000340 c6 37 13 3f 57 4b b6 3d 9c 6b 11 bb 1f 6f b0 3e
       0.5750698 0.08901089 -0.0022189384 0.3445978
000350 fe eb b9 bd 2b 92 46 3e b2 9e 0c 3f e9 c0 33 bf
       -0.09078215 0.19391696 0.5492965 -0.7021623
000360 08 6d 86 bd b3 6b 02 3b f9 cd a7 3e 93 5c f8 3e
       -0.06563765 0.001990062 0.32774332 0.4850813
000370 54 4d b6 be 43 43 90 3e 7d c5 7a be 35 9b 68 bf
       -0.35605872 0.28176317 -0.24489398 -0.9086183
000380 43 a4 d2 bf c6 1c 39 c0 a6 30 8c 3e fa 9a b4 bf
       -1.6456379 -2.8923812 0.27380866 -1.4109795
000390 8c 6a 4a 3f 4a 33 11 3f 40 fa 64 3e 6c 0f 82 3e
       0.7906883 0.56718886 0.22361088 0.2540239
0003a0 ce 53 16 3c c6 50 8a bc d7 ab 76 bc 4f 9c c0 bc
       0.009175254 -0.016884219 -0.015055618 -0.023512034
0003b0 a2 cc de bc 22 12 8a bc bd d9 c8 3c 51 c0 24 3d
       -0.027197186 -0.01685435 0.024517888 0.04022247
0003c0 59 05 91 3d 63 00 c0 bc b8 b5 a0 ba 38 4f 89 3b
       0.07081098 -0.023437684 -0.0012261188 0.004190352
0003d0 7d 76 35 bc dc b5 66 bd d4 41 19 be d2 ee 26 bc
       -0.011075613 -0.05632578 -0.14966518 -0.010188775
0003e0 8d 91 c6 3e c8 bf be 3f 28 54 b2 be dd f4 b5 3d
       0.3878292 1.4902277 -0.3482983 0.088845946
0003f0 d8 42 20 bf 0d 6f 4b be 68 54 c0 3d 23 d5 88 3e
       -0.62601995 -0.19866581 0.09391099 0.2672511

fc1.bias f4 [80]
000000 da 03 05 c0 ef 7d 7e bf bd 65 6b 3f af 51 10 bf
       -2.07836 -0.9941091 0.91952115 -0.5637464
000010 07 53 9a 3f 91 0f fa 3e f4 23 51 3e 52 6a 1b 3d
       1.2056588 0.4884 0.20423871 0.03794319
000020 72 55 2d bf 23 ef 5d 3f 2c e2 5d 3f 31 37 1e 40
       -0.67708504 0.8669302 0.86673236 2.4721186
000030 9f be c1 3e 80 b1 16 40 e9 0e c9 3e 1a b2 ce bf
       0.37840745 2.3545837 0.39269188 -1.6148102
000040 af 61 1c bf 12 d4 c7 3f 79 05 07 3f be 2c 55 3e
       -0.61086553 1.5611594 0.52742726 0.20817849
000050 e4 95 58 bf 6e b5 f6 3e 89 d7 1d 3f 21 83 11 bf
       -0.84603715 0.48185295 0.61657006 -0.5684071
000060 5f e5 2d 3e a3 20 f7 3e ec 94 15 c0 f6 af 87 40
       0.1698203 0.48267087 -2.3372145 4.2402296
000070 6d 1e 1d c0 a9 8e d0 3e 78 19 af 3e 90 00 40 40
       -2.454982 0.4073384 0.3419912 3.0000343
000080 3a a2 05 40 13 85 70 3f 39 40 df 3f cc 20 5e 3f
       2.0880265 0.93953055 1.7441474 0.86768794
000090 7f 31 60 c0 17 03 42 c0 0a 40 5e bf 2c 64 d2 bf
       -3.503021 -3.0314386 -0.86816466 -1.643682
0000a0 9f 74 59 bd 66 e1 f4 bf 65 b6 c8 3f 8b d5 de 3f
       -0.053089734 -1.9131286 1.5680662 1.7408918
0000b0 1b b9 a3 3e 5b df 16 c0 cb 98 e5 3e ad 18 4f bf
       0.31977162 -2.3573825 0.44843134 -0.8089703
0000c0 f4 5e bb be e1 d7 5a 40 59 3c f3 be 54 ea d3 bf
       -0.3659588 3.4194262 -0.4750698 -1.6555886
0000d0 3b 2c a8 3f 9f 95 94 bf ca 67 80 c0 8f 0d da 3e
       1.3138498 -1.1608161 -4.0126696 0.4258847
0000e0 96 02 b9 3f c3 b4 fe bd 26 55 04 3f e8 e6 96 be
       1.4453914 -0.12436821 0.51692426 -0.29473042
0000f0 a4 14 e9 bf 3d 8e f5 3f 1e 0b 92 3f 8a e4 40 3f
       -1.8209424 1.9184033 1.1409643 0.7534872
000100 5f d4 99 bd 62 6a 5d 3e 55 ed 7c bf dd 24 16 c0
       -0.0751121 0.21622613 -0.9879964 -2.346
000110 e0 0f 99 3d 47 0f 95 3e dc 7d 87 be 25 3a 81 bf
       0.07473731 0.29113218 -0.2646321 -1.0095869
000120 76 96 f6 3e 4a d0 50 be b7 ee f7 be 24 b9 4c 3f
       0.48161668 -0.20391956 -0.48424312 0.7997
000130 11 66 02 3e aa da 34 3f 54 02 ce 3e ce ab 91 3f
       0.12734248 0.70646155 0.4023615 1.1380556

fc2.weight f4 [80, 80]
000000 ab 3d 90 be 0b 67 9d be 3c bd 8e 3e 2e 18 60 3d
       -0.2817205 -0.30742678 0.2787875 0.05471056
000010 36 80 93 bf ac 02 31 3e dc f3 0e bf d9 1f dd be
       -1.1523502 0.17286175 -0.5584085 -0.4318836
000020 5d b5 50 bd 15 ef 24 3e 80 6c ed 3d cf a7 87 3f
       -0.05095421 0.16106828 0.1159296 1.0598086
000030 0c 3c b9 3c d3 40 33 be 0b e6 f4 bd 9b c3 22 bf
       0.02261164 -0.17505197 -0.1195794 -0.6357972
000040 d3 ec 60 be f2 75 4c be d9 53 b4 3e 6d 45 e9 bd
       -0.21965341 -0.19966868 0.3522022 -0.11390195
000050 e6 3d 2f 3f d0 48 ab 3e 69 15 19 bc 1a 77 ad 3d
       0.68453825 0.3345399 -0.0093434835 0.084699824
000060 15 4d f9 3c b0 14 96 3d 23 99 3d 3e 44 fa 39 c1
       0.030432263 0.073281646 0.18515448 -11.6236
000070 eb ec a4 3d 1c 7b bd 3d d5 8a f3 3e 0f c0 f7 bf
       0.08053001 0.09251997 0.47566858 -1.9355487
000080 d2 a4 75 bf 9a 1b 8b bd ed 66 50 be b9 df c9 be
       -0.9595462 -0.06792374 -0.20351763 -0.394285
000090 72 be 87 3d f7 49 75 bd 07 90 ec 3e 1f 9d 77 bf
       0.066281214 -0.05988499 0.46203634 -0.9672412
0000a0 aa 55 8b bd 28 56 78 bf b8 fd af bf b8 2e 94 be
       -0.068034485 -0.97006464 -1.3749304 -0.28941894
0000b0 54 19 4b be 5f 75 0b bf 27 10 25 3e a9 3d 34 3e
       -0.1983388 -0.5447597 0.16119443 0.17601646
0000c0 ba a0 d6 3e d5 0a ee be a3 0b 4b be 65 9c 1e 3e
       0.419195 -0.4649264 -0.19828658 0.15489347
0000d0 0b 6a 9c bf 16 7f 17 be 0b 74 5b bf fb 70 8a 3e
       -1.2219862 -0.14794573 -0.8572394 0.27039322
0000e0 4b b6 69 3e e7 30 2b 3f ee 37 3f 3e 20 d4 c4 3d
       0.22823445 0.66871494 0.18673679 0.09610772
0000f0 fa 69 ef 3e d4 87 a4 3e 1c 36 94 be 30 bc ea bd
       0.4676054 0.3213488 -0.28947532 -0.11461675
000100 22 8f 93 3e a6 28 a5 be 6f 54 2d be e4 e4 10 3f
       0.2882014 -0.32257575 -0.1692674 0.5659926
000110 ef 72 0c bd 46 fb df bf 24 3c 5c bf b9 62 be be
       -0.034289297 -1.7498558 -0.8602927 -0.37184694
000120 40 a3 ce 3e ab 11 80 bf e8 21 7d be 41 cf e2 be
       0.40358925 -1.0005392 -0.24719965 -0.44298747
000130 22 06 e1 be 80 6a 9c c0 2b 8b 05 3e 09 f0 c9 3e
       -0.4394999 -4.8880005 0.1304137 0.39440945
000140 7a 70 28 be 6c 5b 35 3d 53 44 c2 bf 65 6e 7b be
       -0.16449156 0.04427664 -1.5177101 -0.24553831
000150 09 15 6d 3f e1 1d f6 bd 08 63 5d bf bd f9 ce 3e
       0.9261022 -0.12017418 -0.86479235 0.4042491
000160 64 6e 9b 3c 66 37 00 3f ed 5f e0 be 43 52 5e 3f
       0.018973537 0.5008453 -0.43823186 0.8684427
000170 e2 4c 63 bf 9e 99 1e 3e 85 60 df 3e cf bc 1b be
       -0.8878919 0.15488288 0.43628326 -0.15208744
000180 50 d5 e1 be 81 56 43 3e 1d 32 5a bf 38 cb 71 be
       -0.44108057 0.19075967 -0.85232717 -0.23612678
000190 0c 79 43 bd f2 1a 58 be 6d ef 09 3b 09 96 50 3e
       -0.04772286 -0.21104029 0.002104725 0.20369734
0001a0 d7 ab f1 be 5c 74 f3 be a3 fe c8 bc 1b 15 73 3e
       -0.47201416 -0.47549713 -0.024535483 0.2373852
0001b0 12 59 19 3e c6 84 d3 be 24 94 ce bd ec 39 03 bf
       0.14975384 -0.41312236 -0.10086849 -0.51260257
0001c0 b1 b8 8d 3f 93 09 d3 3d 0e 1a d2 3d e7 b1 8b bf
       1.1071988 0.103045605 0.10258876 -1.0913666
0001d0 f5 24 c4 3e dd f7 90 3e e0 c2 10 bf b8 37 1a be
       0.38309446 0.28314105 -0.56547356 -0.15060318
0001e0 45 90 e4 3e 93 da 4f 3e ce c6 c5 bf 17 3b 25 bf
       0.4464132 0.20298223 -1.5451295 -0.6454329
0001f0 1f 5c f7 bd 9d b9 c8 be ee bc 79 bb 43 e9 8d be
       -0.120781176 -0.39204112 -0.0038106996 -0.27717027
000200 87 3d 1b be 14 2b 31 bf b9 04 ce 3d cb 86 a5 3e
       -0.1516019 -0.69206357 0.100594945 0.323294
000210 23 35 67 be c6 d3 92 be 4d 16 57 bc f8 a4 10 bf
       -0.22578864 -0.28677195 -0.0131278755 -0.5650172
000220 40 74 4d 3f b2 24 d6 be 30 82 c5 be 72 4c 5b 3d
       0.8025551 -0.4182487 -0.38575888 0.0535397
000230 01 50 b4 bd eb 99 2b bf 51 46 55 be 3a 70 a9 be
       -0.08804322 -0.67031735 -0.20827605 -0.33093435
000240 f8 fd 84 3e 35 9b 48 3e 30 2a 58 3e 23 45 23 bf
       0.25975013 0.19590457 0.21109843 -0.6377737
000250 c2 16 41 3f 69 97 dc bd b6 08 f9 bd 90 ae de 3e
       0.7542535 -0.10771067 -0.121598646 0.43492556
000260 6f 70 44 3e be 50 e6 be c0 07 28 bf 0d 96 04 3f
       0.19183515 -0.44983476 -0.65636826 0.5179146
000270 49 8c be bf 29 04 46 bf 5a e0 d7 3e 21 15 2c 3e
       -1.4886562 -0.773501 0.42163354 0.16804935
000280 9a 69 6b be 7d 4f 66 3e 50 a1 ef 3d 6c 6d 84 3d
       -0.22989503 0.2249126 0.1170069 0.06466183
000290 c5 e7 4a bf 97 e7 95 3d 0e 89 6c bf 4e ed bc bc
       -0.792599 0.07319563 -0.9239663 -0.023062374
0002a0 b8 14 87 bd b4 40 f0 bd 5e 57 b5 3d 8e 59 82 be
       -0.06595749 -0.11731091 0.088545546 -0.2545895
0002b0 b9 32 6e 3c 6b 81 0a 3d 38 42 b5 bd b4 69 89 3f
       0.01453846 0.03381483 -0.08850521 1.0735383
0002c0 4d d9 0f 3e 51 21 ed bd 0e 17 a6 3e b9 db 22 3e
       0.14047737 -0.1157862 0.32439464 0.1590413
0002d0 89 5b c6 be 51 0a cb 3d 3e 15 bc bc 5f 21 13 3e
       -0.3874171 0.09914077 -0.022959348 0.14368199
0002e0 2f 5a 68 3e 82 97 e1 3c f5 6c c2 39 20 86 90 bf
       0.22690652 0.027538065 0.00037083743 -1.1290932
0002f0 ee 03 1a bd 13 2e 05 3e 07 3c a7 3e 27 d6 93 3d
       -0.037601404 0.13005857 0.32662985 0.07218581
000300 63 51 fe 3e 0d 65 63 be 15 5c d6 3d c1 b1 f3 bf
       0.49671468 -0.22206517 0.10466782 -1.9038621
000310 b4 34 b6 3d cd ba 0d be 27 24 3c 3e 38 95 be 3e
       0.08896771 -0.1384079 0.18373166 0.3722322
000320 d7 56 ad 3c f3 0f a3 3e df 8b 55 be c3 c4 2f 3e
       0.021159573 0.31848106 -0.20854138 0.17164902
000330 63 76 65 3e 4b 2d 5e be f7 fc cb 3d 8a aa 6a be
       0.22408442 -0.21696965 0.099603586 -0.22916618
000340 5d 7a ec 3e 88 19 8a 3e df c1 13 bf ab 0c 64 3e
       0.46187106 0.26972604 -0.577177 0.22270457
000350 4b 13 d7 be d5 cd ee 3e 9f c2 b5 3f 93 2c 25 3e
       -0.42006907 0.46641412 1.4200019 0.16130285
000360 d8 53 82 3e 75 2c b7 be a6 0d 97 3d 04 b9 64 bf
       0.25454593 -0.35776106 0.0737565 -0.8934481
000370 b1 09 e2 be 12 87 93 bd d5 75 6e be 76 c9 8b be
       -0.4414802 -0.07203497 -0.23287137 -0.2730214
000380 81 91 b6 3d 6a bf 2d be e1 16 0c bf 58 7c 2f 3f
       0.089144714 -0.1696755 -0.5472241 0.6854911
000390 9f 15 5d 3e d1 86 fa bd 31 8e f9 be f6 00 14 3e
       0.21590279 -0.122327454 -0.48741296 0.14453492
0003a0 3a 6e 36 3e 91 f8 f0 be 4c 20 58 be ed 6a c5 be
       0.17815486 -0.4706464 -0.2110607 -0.3855814
0003b0 a7 d6 09 bf c5 15 02 bf d4 ec 43 3d d1 44 03 be
       -0.5384316 -0.5081447 0.04783328 -0.1281922
0003c0 ca 67 b3 bd e2 ce 9a 3d 84 dd a3 3d 59 0a 1b bf
       -0.087600306 0.07558991 0.08001235 -0.60562664
0003d0 d8 d3 1d 3d d1 7f d6 3d 97 4f 46 3d 83 1f 71 be
       0.038532108 0.10473598 0.048415747 -0.23547177
0003e0 56 a2 35 be 7e cb 90 bd ec 22 ac 3b 19 81 20 be
       -0.17737707 -0.07070063 0.0052531864 -0.15674247
0003f0 f3 ff 14 3e 69 58 75 be 54 44 50 bf 10 6b e8 be
       0.14550762 -0.23959507 -0.8135426 -0.45394182

fc2.bias f4 [80]
000000 af 13 42 bd 09 d2 c1 3e a2 48 28 3e de 9d 37 3e
       -0.047382053 0.37855557 0.16433957 0.17931315
000010 74 c1 c4 bf 12 d2 72 bd f5 4a 87 be ce a1 52 3e
       -1.5371537 -0.05928237 -0.26424375 0.20569536
000020 b3 ec cd be 27 34 7d 3e 43 91 62 bf 6f 64 91 3e
       -0.4021965 0.24726926 -0.885029 0.28396937
000030 f2 56 50 3e 0d d8 ef 3e b5 4f 9d bf 82 e8 d4 bf
       0.20345667 0.4684452 -1.228995 -1.6633456
000040 c7 66 d5 be 64 98 a5 be 64 ae 8b 3e be 19 47 be
       -0.41679975 -0.32342827 0.27281487 -0.19443414
000050 ce d8 b5 3e c6 10 00 3f 04 97 46 be a8 20 27 be
       0.3551697 0.50025594 -0.19393545 -0.16321051
000060 56 0b 2c bf 7e de 09 3f 91 56 a7 3f 21 dd 96 bf
       -0.672048 0.5385512 1.3073293 -1.1786233
000070 9c 55 3b 3d 31 6a f6 bf ad b7 c1 be 05 40 4e bf
       0.04573594 -1.9251157 -0.37835446 -0.80566436
000080 bd 36 9a 3e ee 30 f2 be dc ac a4 3e b7 ce 84 3e
       0.30119887 -0.47302955 0.3216313 0.2593896
000090 9c 96 21 3e 34 06 c2 be 09 6e c5 3d 26 70 8c bf
       0.15780109 -0.37895358 0.09640128 -1.0971725
0000a0 d1 e6 42 be b6 1b a4 be f6 a2 e8 bd e9 18 01 c0
       -0.19033362 -0.32052392 -0.11359207 -2.0171454
0000b0 25 2d 54 3e b0 09 06 bf 2f 25 87 bf b3 e8 30 be
       0.20720346 -0.5235853 -1.0558223 -0.17276268
0000c0 97 35 18 bf 9c c5 fc 3e 54 d8 70 3e ae 75 29 3e
       -0.5945677 0.49369514 0.23520023 0.16548797
0000d0 84 92 62 be dd 82 fd 3c db 3d 25 be eb f7 54 bf
       -0.22126204 0.03094619 -0.16136877 -0.8319079
0000e0 71 8d 73 3e b4 16 3a 3e 90 40 db be f8 a6 93 bf
       0.23784424 0.18172723 -0.42822695 -1.153533
0000f0 c6 7c 9f 3e 83 c7 ea 3d d7 ea 41 bf 23 0e 31 bd
       0.31149882 0.11463835 -0.7574896 -0.043226372
000100 f1 1b 90 3d 21 30 d8 3d c5 57 59 be 7b af bb be
       0.070365794 0.10556055 -0.21224888 -0.36657318
000110 c8 5b 46 bf 3f 43 1a bf 51 ef bf be dc 21 15 bf
       -0.774838 -0.6025886 -0.3748727 -0.5825479
000120 30 fb 41 be 47 9b 73 bf c1 8d 8e bf 86 89 4d be
       -0.18943477 -0.9515881 -1.113701 -0.20071992
000130 e6 a1 51 be ea be 43 bf 19 df 41 bf 63 43 39 3f
       -0.20471916 -0.76463187 -0.75731045 0.7236845

fc3.weight f4 [1, 80]
000000 4c 31 c9 3d fe 11 7a bc 80 86 04 3d 21 16 a9 3e
       0.09823856 -0.015263079 0.03235483 0.33024696
000010 7b 9e f3 bb 43 2e ba bc 39 41 8f bc e3 e1 54 3e
       -0.007434664 -0.022727137 -0.017487155 0.20789294
000020 a7 0d 4a bf 16 6b e7 3c bc 91 6c 3d 68 8d ed 3c
       -0.7892708 0.028249305 0.05775617 0.028998092
000030 0d 7e ce 3c 20 be 9b be 09 cb 8f bc d6 e9 91 3c
       0.02520659 -0.3041849 -0.01755287 0.017811697
000040 13 d0 e7 3d 8d 41 94 bd d0 79 98 3d 0d f6 ad be
       0.11318984 -0.07239065 0.07445109 -0.33976784
000050 7c 01 c8 bc 36 e1 a2 bc ce e3 60 bf a2 f7 53 bb
       -0.02441477 -0.01988278 -0.878476 -0.0032343646
000060 f8 e1 3e bd 9e 95 35 3d 4b 0d 83 bc 08 17 92 bc
       -0.04660222 0.04433214 -0.01599755 -0.017833248
000070 16 bf cb bd 3e 37 0c bd a0 4e 48 3d 15 a4 c2 bc
       -0.09948556 -0.03423237 0.048903108 -0.023759881
000080 69 e2 95 be 5e 74 53 be 89 8a a3 3c 47 72 32 3d
       -0.292743 -0.2064986 0.01996352 0.043566015
000090 40 9d 87 3e d7 fc de bc ca 97 52 bb 5a 61 25 be
       0.2648716 -0.027220173 -0.003213393 -0.16150418
0000a0 15 92 84 bd 12 c0 53 3e ba d6 9f bf 4a 72 d2 bc
       -0.064731754 0.20678738 -1.2487404 -0.025689263
0000b0 74 89 c6 bd 21 ed 0a 3d 8c 12 5c bd 72 59 a9 3b
       -0.09694186 0.03391755 -0.053728625 0.0051681334
0000c0 f1 7c 2d 3d 99 e5 85 bd 98 e7 bf 3d 55 ee ca 3c
       0.04235548 -0.06537933 0.09370345 0.024771849
0000d0 6e 7a 5a bf ea 8c 93 3e 4b fa f4 3c a1 f1 a3 bc
       -0.8534306 0.28818446 0.029904505 -0.020012679
0000e0 ed 46 8a 3d 71 5a 4c 3e 56 da cd bc 82 b2 88 be
       0.06751809 0.19956376 -0.025128525 -0.2669869
0000f0 7c 4a cb 3c 36 df 1e 3e 9f 84 1e bd cc e0 03 be
       0.02481579 0.15514836 -0.038700696 -0.12878722
000100 04 0f a8 be f2 09 f7 bc 7d 9b ec be 28 d8 75 bf
       -0.32823956 -0.03015611 -0.46212378 -0.96032953
000110 8e 0b 58 bd a0 57 c8 bd 77 2e d4 be 7d 0f 8a bc
       -0.052745394 -0.09782338 -0.414417 -0.016853089
000120 ba 96 9f 3c c0 6b 58 bc 89 04 3e 3d 0b b8 33 be
       0.019481052 -0.013209283 0.046391044 -0.17550676
000130 03 d5 c4 3c 11 cc 5f bd 6d 57 ad bc 6f a6 e6 bc
       0.024027353 -0.054637972 -0.021159852 -0.028155534
