puppersim/dc_saves/aac_slow_pupper_0/critic1_22.pt (torch, 38295 bytes, 5 tensors)

fc1.weight f4 [80, 31]
0.2310323 -6.7135377 -0.23946431 0.07647186 -0.18989742 -0.584608 -0.34247887 0.888126
-0.07469136 -1.3438097 -1.0018442 -0.1601053 -0.637948 -0.38032505 -1.0764476 0.39963
-0.07162133 -0.105953395 -0.12840705 0.11548591 -0.05414543 -0.026667578 -0.22364607 -0.10733921
-0.16310658 0.13435344 -0.091066174 -0.043250527 0.102681726 1.0967205 0.059969705 -0.10395211
0.14832638 -0.6515122 0.14293751 1.0483643 -0.21272856 0.34208667 0.75204307 0.034328435
0.36784998 0.7756305 -0.08456535 0.31721246 -0.95993656 -0.37801418 0.24936806 0.32063317
-0.42542523 0.4507519 0.30087367 -0.00804843 0.3337137 0.058035832 -0.26710373 0.21311904
0.49023622 -0.36247024 0.053020455 0.36922356 -0.16817652 -0.10817565 0.13378108 -4.2971168
-1.0918787 0.5107796 -1.6513603 -1.5800242 0.32096285 -1.3416378 -2.3665094 1.3036481
1.4473437 -2.2770698 0.14478515 -1.7416143 0.40789977 0.12195369 0.22557308 0.49415863
0.003240124 -0.23941362 -0.56036264 0.53947896 -0.65668213 -0.68924123 -0.7062061 0.9112193
0.09357133 -0.1993953 0.7910417 -0.5267891 -0.14942469 0.09098037 -0.3175847 0.1441761
0.18849999 0.27858436 -0.6745952 -0.22772118 1.0545235 -3.0932631 -0.2849431 0.83841336
-0.61174244 0.35085166 -2.3269632 -0.14156039 -0.073507294 0.12862206 -0.1617402 -0.06621536
0.10906336 0.052145913 -0.06494859 -1.019687 -0.49542165 -0.22824274 0.07232501 -0.11448908
0.070401184 -0.524844 0.49057445 0.097392686 -0.7028887 0.88448 0.8811039 0.5924837
0.9541009 0.03465371 -0.70169306 0.053400148 0.48623124 0.2769024 1.1252648 -0.6090531
-0.59241384 -0.8709108 0.85574144 0.012190114 -0.030816149 0.013552655 0.03536279 0.003866786
-0.026757909 0.006943312 0.025270436 -0.005715368 -0.017183477 0.05641031 0.011732135 0.03441719
0.12285681 -0.08419347 0.0071381605 -0.4450024 -0.208474 -0.021016672 0.13105753 -0.05207994
-0.15503384 0.08023435 0.22992331 -0.374113 -0.078712955 0.016556561 -0.051780093 0.22640586
-0.094363704 0.04382031 -0.0019789746 -0.09092955 -0.10046801 0.0035093764 -0.034368783 -0.028771237
0.01749351 -0.048194304 0.026606506 0.0035105129 0.0071017295 0.003383533 -0.0064723007 0.08609849
0.02842459 0.04119625 0.3842743 -1.225719 -0.14965183 1.5127059 -2.220708 -0.28851187
0.36486277 -2.9295242 -1.1778189 0.9504506 1.79474 -0.39221606 -0.08847955 -0.018995598
-0.7927732 0.21577112 -0.10162454 0.2024592 -1.0620431 -0.05803858 -0.2373975 0.6215466
0.45789695 0.41610762 0.07213185 -0.004282864 -0.119002216 0.17882515 0.4785587 -0.7497367
0.03614401 0.033793848 1.0315952 0.82248807 -0.2296065 0.4887549 0.14757936 -0.96581835
-1.8579897 -2.8225532 0.37459463 -0.69627404 0.45369267 0.65453494 0.38617042 0.073793024
0.0060471618 -0.020703727 -0.0134510975 -0.011685919 -0.034620676 -0.06118597 0.009229133 0.05053699
0.048618432 0.008208642 0.03204189 0.045118537 0.0026735126 -0.08909917 -0.0042173984 -0.0028990966
0.13267416 0.2230364 -0.6849009 0.3656925 -0.500745 -0.5185996 0.6595445 0.28389585
00000000: bb93 6c3e 4dd5 d6c0 2236 75be 479d 9c3d
00000010: 7874 42be dfa8 15bf 6459 afbe 3a5c 633f
00000020: c9f7 98bd f501 acbf 6e3c 80bf a5f2 23be
00000030: 8f50 23bf f7b9 c2be 09c9 89bf 4e9c cc3e
00000040: 34ae 92bd 18fe d8bd 237d 03be e083 ec3d
00000050: 99c7 5dbd f775 dabc 7a03 65be a9d4 dbbd
00000060: 6905 27be f393 093e e780 babd 7727 31bd
00000070: cc4a d23d 5661 8c3f cba2 753d d8e4 d4bd
00000080: dfe2 173e 81c9 26bf 365e 123e cd30 863f
00000090: 84d5 59be fc25 af3e e585 403f f99b 0c3d
000000a0: d556 bc3e b88f 463f 9930 adbd ac69 a23e
000000b0: 67be 75bf 138b c1be 575a 7f3e 082a a43e
000000c0: 56d1 d9be f4c8 e63e 1d0c 9a3e 90dd 03bc
000000d0: 86dc aa3e fbb6 6d3d d2c1 88be e13b 5a3e
000000e0: 3e00 fb3e b395 b9be fa2b 593d df0a bd3e
000000f0: 7736 2cbe 328b ddbd e8fd 083e fb81 89c0
00000100: aec2 8bbf 74c2 023f c65f d3bf 3c3e cabf
00000110: 3e55 a43e caba abbf e474 17c0 f1dd a63f
00000120: 8f42 b93f 83bb 11c0 8f42 143e 38ed debf
00000130: 3dd8 d03e dbc2 f93d a1fc 663e 5c02 fd3e
00000140: 4358 543b d828 75be ed73 0fbf 4b1b 0a3f
00000150: 521c 28bf 1d72 30bf ecc9 34bf ab45 693f
00000160: 53a2 bf3d 482e 4cbe b581 4a3f a7db 06bf
00000170: c902 19be eb53 ba3d 769a a2be e6a2 133e
00000180: 2406 413e 9ca2 8e3e 45b2 2cbf be2f 69be
00000190: a0fa 863f 06f8 45c0 10e4 91be 42a2 563f
000001a0: 279b 1cbf d4a2 b33e f7ec 14c0 35f5 10be
000001b0: fe8a 96bd 80b5 033e 399f 25be eb9b 87bd
000001c0: 9c5c df3d f496 553d c403 85bd 1b85 82bf
000001d0: e8a7 fdbe 77b8 69be 231f 943d 4079 eabd
000001e0: 7f2e 903d 2d5c 06bf 932c fb3e d175 c73d
000001f0: 84f0 33bf 486d 623f 0690 613f 03ad 173f
00000200: f53f 743f 0cf1 0d3d 28a2 33bf 1dba 5a3d
00000210: 4df3 f83e 27c6 8d3e ad08 903f e7ea 1bbf
00000220: 6fa8 17bf 03f4 5ebf df11 5b3f 0bb9 473c
00000230: 2672 fcbc f40b 5e3c 93d8 103d e769 7d3b
00000240: 6733 dbbc b984 e33b f203 cf3c fb47 bbbb
00000250: 5dc4 8cbc 7f0e 673d 2438 403c 0af9 0c3d
00000260: 5a9c fb3d a06d acbd 3be7 e93b 5bd7 e3be
00000270: 357a 55be 282b acbc f233 063e c651 55bd
00000280: 31c1 1ebe e851 a43d 0471 6b3e bd8b bfbe
00000290: 4234 a1bd a0a1 873c 5d17 54bd f0d6 673e
000002a0: c241 c1bd ed7c 333d afb1 01bb 4639 babd
000002b0: 2cc2 cdbd 91fd 653b 48c6 0cbd a8b1 ebbc
000002c0: 8d4e 8f3c 6467 45bd e3f5 d93c a210 663b
000002d0: a0b5 e83b 44be 5d3b 9815 d4bb 6854 b03d
000002e0: b0da e83c 66bd 283d 9abf c43e 5ce4 9cbf
000002f0: 543e 19be 59a0 c13f 1420 0ec0 d4b7 93be
00000300: 4bcf ba3e 537d 3bc0 c5c2 96bf bb50 733f
00000310: 0aba e53f 8bd0 c8be c434 b5bd a89c 9bbc
00000320: 2ff3 4abf 1bf3 5c3e 8720 d0bd 7751 4f3e
00000330: 07f1 87bf ddb9 6dbd 5518 73be ae1d 1f3f
00000340: 7871 ea3e 0f0c d53e ddb9 933d 4457 8cbb
00000350: 6fb7 f3bd f11d 373e a505 f53e bfee 3fbf
00000360: be0b 143d 6b6b 0a3d 500b 843f 948e 523f
00000370: f71d 6bbe 153e fa3e 0b1f 173e df3f 77bf
00000380: 9bd2 edbf b6a4 34c0 deca bf3e 043f 32bf
00000390: 684a e83e 9a8f 273f 21b8 c53e cc20 973d
000003a0: 4527 c63b dd9a a9bc fe61 5cbc 4c76 3fbc
000003b0: 69ce 0dbd 249e 7abd ca35 173c e0ff 4e3d
000003c0: 1f24 473d 8a7d 063c 5b3e 033d 37ce 383d
000003d0: 1936 2f3b a079 b6bd 1a32 8abb c5fe 3dbb
000003e0: bcdb 073e a763 643e aa55 2fbf 0c3c bb3e
000003f0: d330 00bf f2c2 04bf e9d7 283f cc5a 913e

fc1.bias f4 [80]
-2.0145113 -0.9941091 1.0471064 -0.4142336 1.2045226 0.4884 0.19182678 -0.049846552
-1.0804744 0.8654402 0.74418885 2.297096 0.37840745 2.4215693 0.2462238 -1.5566106
-0.61086553 1.6259285 0.52742726 0.20137443 -0.85516495 0.48185295 0.6393898 -0.6896693
0.1698203 0.48267087 -2.2497947 4.168743 -2.5935588 0.4073384 0.3419912 3.2314987
2.0558 0.9627857 1.6909441 0.86768794 -3.4037879 -2.942428 -0.82268476 -1.643682
-0.17961605 -1.9131286 1.7312562 1.7993714 0.31977162 -2.4113643 0.44843134 -0.921862
-0.3659588 3.19318 -0.5513091 -1.4915861 1.4182292 -1.1642619 -3.981706 0.4258847
1.4491059 -0.06891447 0.51692426 -0.1859962 -1.9267437 1.8923291 1.2162132 0.87703574
-0.0751121 0.4481298 -0.9879964 -2.3746588 0.07473731 0.2850683 -0.2646321 -0.82428074
0.48161668 -0.20391956 -0.5684964 0.6284125 0.08418177 0.9691487 0.4023615 1.2137829
00000000: c1ed 00c0 ef7d 7ebf 9507 863f 6d16 d4be
00000010: cc2d 9a3f 910f fa3e 3d6e 443e e62b 4cbd
00000020: fc4c 8abf 7d8d 5d3f 2983 3e3f 9f03 1340
00000030: 9fbe c13e fefa 1a40 1822 7c3e 043f c7bf
00000040: af61 1cbf 6d1e d03f 7905 073f 1935 4e3e
00000050: 17ec 5abf 6eb5 f63e 0daf 233f 2b8e 30bf
00000060: 5fe5 2d3e a320 f73e a3fc 0fc0 5866 8540
00000070: defc 25c0 a98e d03e 7819 af3e e0d0 4e40
00000080: 3a92 0340 2079 763f db70 d83f cc20 5e3f
00000090: a9d7 59c0 be50 3cc0 789b 52bf 2c64 d2bf
000000a0: 45ed 37be 66e1 f4bf ce99 dd3f cd51 e63f
000000b0: 1bb9 a33e cb53 1ac0 cb98 e53e 26ff 6bbf
000000c0: f45e bbbe 105d 4c40 9822 0dbf 4bec bebf
000000d0: 8988 b53f 8906 95bf 45d4 7ec0 8f0d da3e
000000e0: 4d7c b93f 0823 8dbd 2655 043f ca75 3ebe
000000f0: 8a9f f6bf d737 f23f e0ac 9b3f 6a85 603f
00000100: 5fd4 99bd 4571 e53e 55ed 7cbf 69fa 17c0
00000110: e00f 993d 79f4 913e dc7d 87be 1004 53bf
00000120: 7696 f63e 4ad0 50be fb88 11bf a4df 203f
00000130: 7e67 ac3d 211a 783f 5402 ce3e 3d5d 9b3f

fc2.weight f4 [80, 80]
-0.14763509 -0.30742678 -0.13699445 0.23717046 -1.1298395 0.17286175 -0.02279993 -0.30597168
-0.19735593 0.062304497 -0.04068818 1.0598086 0.02261164 -0.027122395 -0.5662143 -0.84246826
-0.21965341 -0.137108 0.3522022 0.016544422 0.68453825 0.3345399 -0.35869348 -0.11676996
0.030432263 0.073281646 0.36333686 -10.140266 0.04306148 0.09251997 0.47566858 -1.9355487
-0.27318272 -0.017999252 0.19270602 -0.394285 0.2129031 -0.23168524 0.20792265 -0.9672412
-0.18109305 -0.97006464 -1.398391 -0.34963706 -0.1983388 -0.23113441 0.16119443 -0.36409384
0.419195 -0.106612 0.7582438 0.16655506 -1.6833192 0.12002445 -0.6210181 0.27039322
0.12627436 0.265796 0.18673679 0.18098806 0.41734782 0.3701154 -0.036990795 -0.18954737
0.2882014 -0.3254127 -0.1692674 0.531163 -0.034289297 -1.7498558 -0.8602927 -0.41749758
0.40358925 -1.0005392 0.20041545 -0.111327775 -0.0051855366 -4.8880005 0.1304137 0.39105105
0.08089035 0.04427664 -0.6170346 0.35055032 1.2084713 -0.12017418 -1.5852934 0.22034398
-0.096665084 0.06493334 -0.5549576 0.64035845 -0.8878919 0.4024766 0.53192145 0.122535266
-0.44108057 0.22408353 -0.85232717 0.03547657 -0.04520561 -0.21104029 0.020595465 0.16666877
-0.47201416 -0.47549713 0.032277994 0.34754023 0.2034048 -0.41312236 -0.10086849 -0.68772763
1.4836187 0.08401881 0.18282169 -1.0913666 -0.06062109 0.17571184 -0.28098372 -0.15060318
0.25977653 0.20298223 -1.3974952 -0.61832535 -0.120781176 -0.21046804 -0.0038106996 -0.23415954
-0.1516019 -0.6937245 1.0022117 0.20651582 0.049649637 -0.37245527 1.1706733 -0.5650172
0.7116527 -0.29886326 -0.38575888 0.15109916 -0.08412229 -0.6417888 -0.0020843188 -0.18032695
0.25975013 0.039362412 0.21109843 -0.78003097 0.7542535 -0.10771067 -0.121598646 0.43391675
0.19183515 -0.44983476 -0.4905366 0.12317204 -0.2697153 -1.8826135 0.42163354 -0.3164582
-0.009544427 0.2249126 0.38824573 -0.027878681 -0.21985967 0.07319563 -0.21810918 -0.13808383
-0.47308528 -0.2327164 0.2064984 0.14939602 0.01453846 0.1605993 0.07085035 1.1210365
0.14047737 -0.23657264 0.32439464 0.080514126 -0.3874171 0.09914077 -0.17716658 -0.15331669
0.22690652 0.027538065 0.17038055 -1.050864 -0.093146935 0.13005857 0.32662985 0.11761145
0.6421362 -0.22119558 -0.10187263 -1.9038621 -0.08835071 -0.1709856 -0.09961092 0.3722322
0.19478838 0.31848106 -0.2432069 -0.13610098 0.22408442 0.19573253 0.099603586 0.34987983
0.46187106 0.14249758 -0.102052234 0.07903944 0.1255065 0.4803077 1.1815323 0.16130285
0.15118718 -0.6500064 0.0737565 -0.024926417 -0.38872385 -0.13329223 0.03354121 -0.40350452
0.089144714 -0.15628116 -0.5472241 0.3795399 0.21590279 -0.122327454 -0.48741296 0.26631126
0.17815486 -0.4706464 -0.08248103 -0.22991587 -0.17348891 -0.25160396 0.04783328 -0.20598379
-0.087600306 0.07558991 0.08001235 -0.60562664 0.038532108 0.10473598 0.048415747 -0.23547177
-0.17737707 -0.07070063 0.0052531864 -0.15674247 0.14550762 -0.23959507 -0.8135426 -0.45394182
00000000: a72d 17be 0b67 9dbe 4648 0cbe d0dc 723e
00000010: 959e 90bf ac02 313e ebc6 babc 52a8 9cbe
00000020: ac17 4abe 0033 7f3d a6a8 26bd cfa7 873f
00000030: 0c3c b93c c92f debc 6cf3 10bf 00ac 57bf
00000040: d3ec 60be 0a66 0cbe d953 b43e 2b88 873c
00000050: e63d 2f3f d048 ab3e aca6 b7be 1725 efbd
00000060: 154d f93c b014 963d 4a07 ba3e 883e 22c1
00000070: 3c61 303d 1c7b bd3d d58a f33e 0fc0 f7bf
00000080: 9bde 8bbe 2b73 93bc ba54 453e b9df c9be
00000090: 4503 5a3e e53e 6dbe ade9 543e 1f9d 77bf
000000a0: 7570 39be 2856 78bf 7afe b2bf a103 b3be
000000b0: 5419 4bbe 80ae 6cbe 2710 253e 826a babe
000000c0: baa0 d63e 6457 dabd 441c 423f 698d 2a3e
000000d0: 0177 d7bf 61cf f53d 0bfb 1ebf fb70 8a3e
000000e0: 114e 013e 6a16 883e ee37 3f3e ef54 393e
000000f0: 9dae d53e c47f bd3e a983 17bd b518 42be
00000100: 228f 933e 7e9c a6be 6f54 2dbe 4cfa 073f
00000110: ef72 0cbd 46fb dfbf 243c 5cbf 3ec2 d5be
00000120: 40a3 ce3e ab11 80bf b539 4d3e d1ff e3bd
00000130: 6feb a9bb 806a 9cc0 2b8b 053e d837 c83e
00000140: d7a9 a53d 6c5b 353d fbf5 1dbf 557b b33e
00000150: 30af 9a3f e11d f6bd e5ea cabf daa1 613e
00000160: 58f8 c5bd c5fb 843d b411 0ebf 88ee 233f
00000170: e24c 63bf 6a11 ce3e 012c 083f c5f3 fa3d
00000180: 50d5 e1be 2776 653e 1d32 5abf e14f 113d
00000190: 8529 39bd f21a 58be d2b7 a83c 38ab 2a3e
000001a0: d7ab f1be 5c74 f3be ee35 043d cbf0 b13e
000001b0: 5949 503e c684 d3be 2494 cebd eb0e 30bf
000001c0: 38e7 bd3f 0e12 ac3d 9c35 3b3e e7b1 8bbf
000001d0: d24d 78bd ceed 333e 19dd 8fbe b837 1abe
000001e0: 6e01 853e 93da 4f3e 1fe1 b2bf 924a 1ebf
000001f0: 1f5c f7bd ef84 57be eebc 79bb 85c7 6fbe
00000200: 873d 1bbe ee97 31bf 7948 803f e278 533e
00000210: 6b5d 4b3d 75b2 bebe 9fd8 953f f8a4 10bf
00000220: df2e 363f 9b04 99be 3082 c5be bdb9 1a3e
00000230: 4f48 acbd 454c 24bf 1199 08bb a1a7 38be
00000240: f8fd 843e 7b3a 213d 302a 583e 1cb0 47bf
00000250: c216 413f 6997 dcbd b608 f9bd 562a de3e
00000260: 6f70 443e be50 e6be 9d27 fbbe 9f41 fc3d
00000270: 2018 8abe 7bf9 f0bf 5ae0 d73e cf06 a2be
00000280: 3a60 1cbc 7d4f 663e 25c8 c63e d561 e4bc
00000290: e522 61be 97e7 953d 0358 5fbe d965 0dbe
000002a0: 3c38 f2be 354d 6ebe 5174 533e 45fb 183e
000002b0: b932 6e3c 2574 243e fd19 913d 207e 8f3f
000002c0: 4dd9 0f3e 1940 72be 0e17 a63e 97e4 a43d
000002d0: 895b c6be 510a cb3d 286b 35be 0dff 1cbe
000002e0: 2f5a 683e 8297 e13c 3d78 2e3e b682 86bf
000002f0: d2c3 bebd 132e 053e 073c a73e 46de f03d
00000300: 0a63 243f 1881 62be 99a2 d0bd c1b1 f3bf
00000310: 38f1 b4bd d916 2fbe cf00 ccbd 3895 be3e
00000320: 9b76 473e f30f a33e 3b0b 79be 0e5e 0bbe
00000330: 6376 653e 1c6e 483e f7fc cb3d 7323 b33e
00000340: 5d7a ec3e e3ea 113e c300 d1bd 6edf a13d
00000350: c784 003e e4ea f53e 733c 973f 932c 253e
00000360: d0d0 1a3e d266 26bf a60d 973d 7c32 ccbc
00000370: d006 c7be c27d 08be 8262 093d 2598 cebe
00000380: 8191 b63d 2b08 20be e116 0cbf 0e53 c23e
00000390: 9f15 5d3e d186 fabd 318e f9be f359 883e
000003a0: 3a6e 363e 91f8 f0be d0eb a8bd 116f 6bbe
000003b0: 14a7 31be 3cd2 80be d4ec 433d 6aed 52be
000003c0: ca67 b3bd e2ce 9a3d 84dd a33d 590a 1bbf
000003d0: d8d3 1d3d d17f d63d 974f 463d 831f 71be
000003e0: 56a2 35be 7ecb 90bd ec22 ac3b 1981 20be
000003f0: f3ff 143e 6958 75be 5444 50bf 106b e8be

fc2.bias f4 [80]
-0.122124806 0.37580046 0.1466503 0.17931315 -1.4818908 -0.062284563 -0.2764681 0.20569536
-0.39268196 0.38996944 -0.90263534 0.39962173 0.18783855 0.49428174 -1.228995 -1.5276209
-0.37917268 -0.28612697 0.27281487 -0.19443414 0.42375195 0.2675938 -0.17501268 -0.16321051
-0.48592547 0.5285034 1.3500364 -0.8826731 0.1367387 -1.8555086 -0.36684224 -0.79707205
0.30119887 -0.61667585 0.25944832 0.2593896 0.15780109 -0.46938255 0.09640128 -1.1176181
-0.19033362 -0.35200748 -0.11359207 -2.0171454 0.62756115 -0.2827661 -0.907654 -0.24202938
-0.5227579 0.5034094 0.23520023 0.16548797 -0.22126204 0.030966109 -0.12418519 -0.92540807
0.12925433 0.18172723 -0.46001226 -1.2249839 0.10478445 0.11463835 -0.5199873 -0.043226372
0.042529274 0.48818657 -0.21224888 -0.3665324 -0.56653863 -0.43611267 -0.33692667 -1.0459334
-0.8145253 -0.9583764 -1.3035042 -0.20071992 -0.22852612 -0.7667735 -0.49072212 0.48084423
00000000: 921c fabd eb68 c03e 7f2b 163e de9d 373e
00000010: 99ae bdbf 191e 7fbd 3a8d 8dbe cea1 523e
00000020: 9c0d c9be 13aa c73e 1c13 67bf 389b cc3e
00000030: c058 403e 7f12 fd3e b54f 9dbf 1589 c3bf
00000040: ec22 c2be 3c7f 92be 64ae 8b3e be19 47be
00000050: 04f6 d83e 0e02 893e 8636 33be a820 27be
00000060: 39cb f8be 004c 073f fecd ac3f ddf6 61bf
00000070: 3b05 0c3e 4e81 edbf bfd2 bbbe ea0c 4cbf
00000080: bd36 9a3e 78de 1dbf 69d6 843e b7ce 843e
00000090: 9c96 213e e952 f0be 096e c53d 1c0e 8fbf
000000a0: d1e6 42be 533a b4be f6a2 e8bd e918 01c0
000000b0: d9a7 203f b8c6 90be 035c 68bf 8dd6 77be
000000c0: 76d3 05bf 70df 003f 54d8 703e ae75 293e
000000d0: 8492 62be a3ac fd3c ce54 febd 8be7 6cbf
000000e0: 3f5b 043e b416 3a3e ba86 ebbe 46cc 9cbf
000000f0: 3b99 d63d 83c7 ea3d e31d 05bf 230e 31bd
00000100: 2d33 2e3d 97f3 f93e c557 59be 22aa bbbe
00000110: ad08 11bf 294a dfbe a781 acbe 25e1 85bf
00000120: bb84 50bf 2858 75bf 3ad9 a6bf 8689 4dbe
00000130: c002 6abe 454b 44bf ee3f fbbe 3731 f63e

fc3.weight f4 [1, 80]
0.058160815 -0.01875811 0.025779542 0.33024696 -0.03286407 -0.018467965 -0.060436875 0.20789294
-0.7955399 0.03789217 0.040582523 0.03843301 0.02739997 -0.012654664 -0.01755287 0.015965095
-0.037558485 -0.09129107 0.07445109 -0.33976784 -0.012698499 -0.01631697 -0.8910781 -0.0032343646
-0.031689897 0.044963438 -0.016294062 -0.038853876 -0.09564407 -0.017695805 0.07486344 -0.021411438
-0.292743 0.014347211 0.026074862 0.043566015 0.2648716 -0.021678135 -0.003213393 -0.19951805
-0.064731754 0.17858674 -1.2487404 -0.025689263 -0.041617665 -0.019822335 -0.02159212 -0.06864498
0.04090623 -0.06630485 0.09370345 0.024771849 -0.8534306 0.2898208 0.028088266 -0.0116802305
0.07104082 0.19956376 -0.016789723 -0.20189667 0.03451249 0.15514836 -0.06607701 -0.12878722
0.0011015008 -0.0137023805 -0.46212378 -0.9616638 -0.027760608 -0.018196324 -0.44566524 -0.028361512
0.043254513 -0.03063274 0.037730403 -0.17550676 0.026328694 -0.111237556 -0.046020914 -0.032948375
00000000: 093a 6e3d 9caa 99bc 9e2f d33c 2116 a93e
00000010: 7a9c 06bd 214a 97bc a88c 77bd e3e1 543e
00000020: 81a8 4bbf d234 1b3d dc39 263d ef6b 1d3d
00000030: e775 e03c 8255 4fbc 09cb 8fbc 3bc9 823c
00000040: edd6 19bd d0f6 babd d079 983d 0df6 adbe
00000050: 5d0d 50bc 2bab 85bc b21d 64bf a2f7 53bb
00000060: 44cd 01bd 952b 383d 207b 85bc 3e25 1fbd
00000070: 0ae1 c3bd cbf6 90bc 0152 993d 0a67 afbc
00000080: 69e2 95be 9110 6b3c f39a d53c 4772 323d
00000090: 409d 873e 5896 b1bc ca97 52bb 764e 4cbe
000000a0: 1592 84bd 71df 363e bad6 9fbf 4a72 d2bc
000000b0: 4977 2abd 7362 a2bc f5e1 b0bc bd95 8cbd
000000c0: 4b8d 273d d6ca 87bd 98e7 bf3d 55ee ca3c
000000d0: 6e7a 5abf 6463 943e 5d19 e63c 705e 3fbc
000000e0: d97d 913d 715a 4c3e 9a8a 89bc 00be 4ebe
000000f0: f85c 0d3d 36df 1e3e 6253 87bd cce0 03be
00000100: 3c60 903a f37f 60bc 7d9b ecbe 992f 76bf
00000110: 376a e3bc 7510 95bc 3c2e e4be 6756 e8bc
00000120: a52b 313d 83f1 fabc 328b 1a3d 0bb8 33be
00000130: 46af d73c 84d0 e3bd 6d80 3cbd e0f4 06bd
