puppersim/dc_saves/aac_slow_pupper_0/critic2_11.pt (torch, 38295 bytes, 5 tensors)

fc1.weight f4 [80, 31]
-0.1964414 1.2673512 0.66727567 1.0743332 2.246069 1.9023894 0.60760146 -2.3776894
-0.9416086 0.82443494 0.54713184 -2.4806924 0.7964814 -1.6003547 -1.7408098 -0.21909809
0.17198326 0.095633164 -0.23305862 0.19430119 0.1443057 0.045707956 -0.13619083 0.023217732
0.1797321 -0.22043002 -0.07806265 -0.024306461 0.18877283 0.45672837 0.17043784 24.352829
22.60155 24.001125 -22.474787 23.13163 22.245548 -23.873796 -13.020393 22.976858
-23.66453 -25.627205 26.176693 -23.010237 25.316202 21.84817 23.436914 -23.625021
-23.491932 22.7369 -23.725466 -20.900808 -7.3009844 -10.195397 7.1980834 -23.375017
-14.619985 23.249763 -17.733545 -23.332123 23.312603 -20.181446 23.764042 22.340942
22.496372 -24.24146 24.469065 23.898994 -22.907858 -11.68933 24.715328 -23.40432
-23.895525 21.039143 -24.258118 22.928295 23.943964 23.633345 -23.583843 -23.559204
22.683289 -23.592583 -20.90419 -7.037655 -9.913076 7.0596066 -23.551937 -14.210163
23.529146 -17.72731 -23.787725 23.082382 -20.297768 -0.62372154 -0.056586668 -0.19296189
0.16723235 -0.02012147 0.099257074 0.04486241 -0.15840636 0.29533973 0.035629738 -0.018671246
-0.022794722 0.27040002 0.0042144507 0.22467548 -0.0012725565 0.011598887 -0.039306328 -0.008675257
-0.008462484 0.0119710425 -0.014496451 0.0064701787 0.0008358079 0.018512186 0.0069187926 0.07715552
-0.002591429 -0.04618982 -0.042020887 0.011954447 23.735456 23.536013 23.985529 -26.723509
23.304972 23.438566 -23.193203 -12.770158 23.733961 -23.550245 -23.47575 22.835197
-22.982483 23.561811 24.097998 23.544065 -23.566313 -23.034546 22.668266 -23.667772
-20.917362 -7.113165 -10.023576 7.2135506 -23.515232 -14.41455 23.481165 -17.778063
-23.69881 23.970625 -20.218771 -0.3764951 0.9408494 0.6114941 1.0244778 1.0121108
0.79233116 -0.41827816 2.783957 -2.3220854 -0.03765058 -2.9860358 -1.2999057 1.2999493
-0.7667999 0.074715756 -0.20797586 0.2776285 0.22988592 -0.18737511 0.27500805 0.17494445
0.05025741 -0.079433635 0.045770407 0.16820057 -0.104890846 -0.076915465 -0.021720653 0.26265213
-0.28242898 0.10840102 22.886057 23.701935 23.999086 -23.3544 24.028568 23.852217
-24.02921 -15.172136 23.459677 -23.577744 -24.226698 22.991192 -22.765596 22.835817
24.418066 23.41683 -23.451862 -23.38166 22.668976 -23.510113 -20.873137 -7.206051
-9.88688 6.951457 -23.427204 -14.221715 23.388546 -17.63353 -23.563143 22.71589
-20.237276 23.716528 23.71233 24.006168 -22.845991 22.337107 27.359644 -23.149542
-12.297467 23.78964 -23.678896 -23.154991 23.23034 -23.765306 23.081959 23.166014
23.561316 -23.596092 -23.559814 22.694227 -23.634539 -20.932453 -7.101224 -10.040546
7.0598874 -23.424034 -14.339101 23.389904 -17.708267 -23.629759 22.344511 -20.20914
-0.5692725 -0.4016739 -0.019539747 0.22659157 -0.49397942 -0.041817002 0.057647724 -0.15603335
00000000: ef27 49be 9038 a23f 94d2 2a3f c083 893f
00000010: 98bf 0f40 7f81 f33f c58b 1b3f 102c 18c0
00000020: 430d 71bf 2b0e 533f d510 0c3f aac3 1ec0
00000030: 34e6 4b3f 6cd8 ccbf dbd2 debf 405b 60be
00000040: 611c 303e 52db c33d eba6 6ebe e4f6 463e
00000050: e0c4 133e 4438 3b3d 9c75 0bbe 1d33 be3c
00000060: b10b 383e 68b8 61be 50df 9fbd 581e c7bc
00000070: aa4d 413e 4dd8 e93e 4287 2e3e 98d2 c241
00000080: f9cf b441 4e02 c041 5dcc b3c1 940d b941
00000090: e2f6 b141 89fd bec1 8853 50c1 9bd0 b741
000000a0: f550 bdc1 8404 cdc1 de69 d141 f714 b8c1
000000b0: 9587 ca41 0dc9 ae41 cd7e bb41 0b00 bdc1
000000c0: 7aef bbc1 2ce5 b541 c1cd bdc1 db34 a7c1
000000d0: aaa1 e9c0 5920 23c1 b356 e640 0900 bbc1
000000e0: 75eb 69c1 84ff b941 4dde 8dc1 30a8 bac1
000000f0: 3680 ba41 9a73 a1c1 c21c be41 40ba b241
00000100: 92f8 b341 83ee c1c1 a5c0 c341 2431 bf41
00000110: 4b43 b7c1 7f07 3bc1 feb8 c541 0c3c bbc1
00000120: 092a bfc1 2a50 a841 a010 c2c1 266d b741
00000130: 3d8d bf41 1711 bd41 b6ab bcc1 4079 bcc1
00000140: 6077 b541 9cbd bcc1 c83b a7c1 7834 e1c0
00000150: f69b 1ec1 4ce8 e140 5e6a bcc1 d45c 63c1
00000160: b13b bc41 88d1 8dc1 434d bec1 b8a8 b841
00000170: d461 a2c1 37ac 1fbf 6cc7 67bd cd97 45be
00000180: f53e 2b3e c8d5 a4bc 4b47 cb3d a5c1 373d
00000190: 4735 22be c536 973e 7df0 113d 71f4 98bc
000001a0: ffbb babc df71 8a3e 6019 8a3b 5411 663e
000001b0: e9cb a6ba 4209 3e3c acff 20bd aa22 0ebc
000001c0: 3ba6 0abc 3122 443c 8682 6dbc cb03 d43b
000001d0: 1e1a 5b3a dea6 973c 0ab7 e23b b703 9e3d
000001e0: f7d4 29bb 8931 3dbd 181e 2cbd 96dc 433c
000001f0: 37e2 bd41 c149 bc41 5de2 bf41 bfc9 d5c1
00000200: 9570 ba41 2f82 bb41 ae8b b9c1 9152 4cc1
00000210: 27df bd41 e766 bcc1 56ce bbc1 7cae b641
00000220: 20dc b7c1 977e bc41 b3c8 c041 3f5a bc41
00000230: cf87 bcc1 c046 b8c1 9c58 b541 9957 bdc1
00000240: c256 a7c1 0c9f e3c0 9160 20c1 68d5 e640
00000250: 321f bcc1 ffa1 66c1 6dd9 bb41 7939 8ec1
00000260: 2a97 bdc1 d7c3 bf41 0bc0 a1c1 f7c3 c0be
00000270: 82db 703f e18a 1c3f 1722 833f d98c 813f
00000280: 37d6 4a3f 8e28 d6be 5a2c 3240 0c9d 14c0
00000290: 7f37 1abd 361b 3fc0 4f63 a6bf bd64 a63f
000002a0: 004d 44bf 9304 993d a0f7 54be 5325 8e3e
000002b0: 3767 6b3e 43df 3fbe dbcd 8c3e a324 333e
000002c0: b7da 4d3d 1aae a2bd c079 3b3d c53c 2c3e
000002d0: 03d1 d6bd db85 9dbd 83ef b1bc 577a 863e
000002e0: 889a 90be 5b01 de3d a516 b741 909d bd41
000002f0: 21fe bf41 d0d5 bac1 823a c041 57d1 be41
00000300: d23b c0c1 12c1 72c1 6bad bb41 389f bcc1
00000310: 47d0 c1c1 f6ed b741 f11f b6c1 c1af b641
00000320: 3358 c341 ab55 bb41 6a9d bbc1 a40d bbc1
00000330: 105a b541 b614 bcc1 2ffc a6c1 f897 e6c0
00000340: a930 1ec1 5672 de40 ea6a bbc1 258c 63c1
00000350: be1b bb41 7811 8dc1 5181 bcc1 25ba b541
00000360: f1e5 a1c1 73bb bd41 dab2 bd41 a20c c041
00000370: 97c4 b6c1 65b2 b241 8de0 da41 4332 b9c1
00000380: 6dc2 44c1 2f51 be41 616e bdc1 6c3d b9c1
00000390: bcd7 b941 591f bec1 daa7 b841 ff53 b941
000003a0: 937d bc41 ccc4 bcc1 807a bcc1 c78d b541
000003b0: 8913 bdc1 aa75 a7c1 3a3d e3c0 14a6 20c1
000003c0: 99ea e140 6c64 bbc1 f56c 65c1 861e bb41
000003d0: 88aa 8dc1 bf09 bdc1 8fc1 b241 52ac a1c1
000003e0: d8bb 11bf 34a8 cdbe d211 a0bc 9f07 683e
000003f0: dfea fcbe 4e48 2bbd 0520 6c3d 35c7 1fbe

fc1.bias f4 [80]
-0.03729763 23.371277 25.36289 0.3168966 21.252237 0.3982412 26.24044 23.185307
0.1870179 24.505281 3.494191 0.38459936 0.15604033 0.22527973 22.83076 23.747242
22.564877 24.78225 23.159462 21.54606 20.557049 0.39500627 0.3955378 22.679258
0.43086508 21.281357 24.207514 0.43741268 22.491228 25.83623 24.65367 22.486042
25.741543 21.005205 1.41074 0.31938958 26.392504 0.710093 23.097654 21.620354
23.96624 0.15992552 4.327876 0.3106218 22.111053 0.54097015 24.469631 24.369154
22.81654 0.28092697 0.3372198 1.5141723 0.3461694 2.3471649 0.44887042 -4.9224067
24.266413 25.539024 0.35722554 -0.004003186 22.561874 26.95067 0.15972 25.973085
21.511148 0.49951783 25.833353 1.4946302 20.832203 0.044968344 0.36834264 22.469334
-0.0069845435 20.756105 -0.2870288 23.135881 22.145136 22.813213 0.634111 0.6029931
00000000: 66c5 18bd 60f8 ba41 33e7 ca41 4540 a23e
00000010: 9504 aa41 45e6 cb3e 6cec d141 827b b941
00000020: 9f81 3f3e d10a c441 d3a0 5f40 35ea c43e
00000030: 09c9 1f3e bbaf 663e 65a5 b641 5afa bd41
00000040: de84 b441 0c42 c641 9446 b941 555e ac41
00000050: d674 a441 433e ca3e ee83 ca3e 1f6f b541
00000060: 599a dc3e 3840 aa41 fda8 c141 8ef4 df3e
00000070: 09ee b341 99b0 ce41 b73a c541 6ae3 b341
00000080: aeee cd41 a90a a841 2193 b43f 0887 a33e
00000090: d923 d341 a8c8 353f ffc7 b841 7cf6 ac41
000000a0: dcba bf41 84c3 233e f67d 8a40 d209 9f3e
000000b0: 70e3 b041 057d 0a3f cec1 c341 07f4 c241
000000c0: 4688 b641 a9d5 8f3e 13a8 ac3e 66d0 c13f
000000d0: 1e3d b13e f337 1640 58d2 e53e 5b84 9dc0
000000e0: 9d21 c241 ec4f cc41 44e6 b63e 282d 83bb
000000f0: b87e b441 f99a d741 a48d 233e e1c8 cf41
00000100: d516 ac41 cdc0 ff3e b5aa ce41 0b50 bf3f
00000110: 5aa8 a641 ba30 383d 6897 bc3e 32c1 b341
00000120: 99de e4bb 810c a641 70f5 92be 4916 b941
00000130: 3d29 b141 7681 b641 1955 223f c15d 1a3f

fc2.weight f4 [80, 80]
-0.6804307 0.084135644 -0.4694146 0.13655359 0.040808875 -0.15355101 -0.85841906 0.41452804
0.40232438 0.04670949 0.3912011 0.16969894 0.32942423 0.24921462 0.10804994 -0.15398313
0.06534027 -0.008403494 -1.0219076 -0.20882444 0.06395738 -0.0842551 -0.022909027 -0.7508188
0.35872868 -0.29631564 -0.21063006 0.09449135 0.015325904 0.07098565 0.8697911 -0.17426136
-0.13860357 -1.1787186 -0.06378384 0.70650065 0.014769118 -2.6148498 -0.64194036 -0.14394376
-0.049161125 0.10761077 0.5753847 0.10853227 -0.5689887 0.13261046 0.5082114 -3.9035695
-0.7411214 0.21541396 -0.14359583 -0.14699265 0.07499682 -3.5309916 0.057207063 -1.4787431
-0.24324375 -7.6324778 -0.648159 0.007762481 0.28386107 -3.3953938 0.21475883 0.038189106
0.0856988 0.16962042 -0.035193402 -1.185545 -0.14867166 0.2798291 0.33602583 0.3251341
0.13941255 0.030048646 0.013182751 -0.04256048 -0.0020619836 -0.31265622 0.09533132 0.07791123
-0.9745627 0.05414021 -0.71665025 -0.1607644 -0.40443087 -0.1319307 0.2320112 0.4690324
1.1127704 -1.1188345 -0.30000943 0.33615983 0.5530615 0.5228468 -0.9355088 0.012899955
0.170234 -0.25212955 -0.9858828 -1.1259902 -1.348037 0.08463571 0.008531697 -0.28234896
0.31638655 -0.80663484 -0.43622577 0.20330918 -0.25864068 0.80322164 -0.042363185 -1.6040674
-0.1149351 -2.4783046 0.19822705 0.24826741 -0.40933695 -0.05506656 0.27481043 0.116027206
0.42890754 0.68285257 -0.5760888 0.5998816 0.0470746 0.12223623 -0.39825508 -0.026371889
0.48282525 0.03707859 -0.06473291 0.004063481 0.03865705 0.24821772 0.20926063 -0.64286435
-0.7964313 0.11267913 0.10899305 0.08157184 -0.74225175 0.3432809 0.34515217 -0.25184107
-0.436979 0.06669925 -0.45572048 0.42493504 -0.44442114 0.8522841 0.038156528 0.13466643
0.1269179 -0.070349425 0.1846276 0.034093484 -0.7277729 -0.7370159 0.022504346 0.35379192
-0.0014510591 -0.111103006 -0.25274724 0.021293866 -0.07140993 0.24772204 -0.44687355 -0.966105
-3.1952105 -0.5874139 -0.203334 -1.5975873 -0.47826907 -1.7331507 -0.08988828 0.02956336
0.051557496 0.08657316 -1.168558 0.19846047 -0.025927871 0.28095865 -0.06929614 -0.15763906
-0.102955 -0.120235406 0.14515167 -0.22577654 0.09066193 0.19949484 0.15008232 -0.058637604
0.08055638 -0.048933785 0.10870285 -0.4174209 -0.4968165 0.021932459 -0.3045729 -0.0656499
0.13470633 -1.8953696 -0.15860283 -0.7231285 0.21156132 -0.04106094 -1.0044217 -0.23138286
-0.15663283 -0.4190589 0.043829966 -0.35282812 -0.06442701 -0.06660142 0.24815723 -0.46334162
-0.08291222 0.08618417 0.08838246 0.25573874 -0.024412524 0.10167062 -0.61334 -0.16960919
-0.25660855 0.17372721 -0.91346806 -0.5729743 -0.31469572 -1.8031354 -0.019548945 -0.09191258
0.28801855 -0.11366363 -0.1667197 0.11602121 0.035169166 -1.7057347 -0.31140032 0.069984846
-3.248842 -0.6108779 0.98704886 0.25727463 -0.31291693 -0.19471991 -0.047567733 0.29286477
0.1638004 0.012222991 1.8580724 0.04620268 0.41666672 0.090584554 0.74483216 0.09106013
00000000: b530 2ebf 4f4f ac3d 1c57 f0be b4d4 0b3e
00000010: 3527 273d 7a3c 1dbe 5ac1 5bbf 053d d43e
00000020: 76fd cd3e 7352 3f3d 834b c83e 8fc5 2d3e
00000030: 4baa a83e 1e32 7f3e 4949 dd3d c1ad 1dbe
00000040: 1fd1 853d cfae 09bc decd 82bf 13d6 55be
00000050: 16fc 823d f08d acbd b6ab bbbc a935 40bf
00000060: 49ab b73e afb6 97be 68af 57be ae84 c13d
00000070: 8019 7b3c ed60 913d a1aa 5e3f 9271 32be
00000080: 18ee 0dbe 40e0 96bf 1aa1 82bd 3add 343f
00000090: 2cfa 713c b359 27c0 3456 24bf fe65 13be
000000a0: 2d5d 49bd 0963 dc3d 694c 133f 2b46 de3d
000000b0: 3ea9 11bf 09cb 073e 241a 023f 15d4 79c0
000000c0: 22ba 3dbf 7a95 5c3e c90a 13be 3e85 16be
000000d0: ef97 993d c4fb 61c0 f451 6a3d 7447 bdbf
000000e0: e414 79be 423d f4c0 c0ed 25bf 695c fe3b
000000f0: 3d56 913e 224e 59c0 bde9 5b3e 2e6c 1c3d
00000100: da82 af3d fab0 2d3e f526 10bd f0bf 97bf
00000110: 623d 18be c345 8f3e 940b ac3e fa77 a63e
00000120: 2ac2 0e3e 9428 f63c 77fc 573c e653 2ebd
00000130: 5822 07bb 7a14 a0be 113d c33d ec8f 9f3d
00000140: f17c 79bf 20c2 5d3d 6476 37bf 6c9f 24be
00000150: 9011 cfbe d718 07be 5894 6d3e 0425 f03e
00000160: 436f 8e3f f835 8fbf d69a 99be 241d ac3e
00000170: 7095 0d3f 4ad9 053f 817d 6fbf 555a 533c
00000180: d251 2e3e 2017 81be d162 7cbf 7220 90bf
00000190: 7a8c acbf 7d55 ad3d 88c8 0b3c 0b90 90be
000001a0: 6bfd a13e 9f7f 4ebf fc58 dfbe 4830 503e
000001b0: 8d6c 84be ef9f 4d3f 0585 2dbd 1552 cdbf
000001c0: 1863 ebbd 8b9c 1ec0 08fc 4a3e d039 7e3e
000001d0: 9d94 d1be 798d 61bd f4b3 8c3e ac9f ed3d
000001e0: c599 db3e 6dcf 2e3f 8e7a 13bf d791 193f
000001f0: 4cd1 403d fd56 fa3d 17e8 cbbe dc09 d8bc
00000200: df34 f73e b8df 173d b092 84bd f326 853b
00000210: db56 1e3d c92c 7e3e 6b48 563e c292 24bf
00000220: ece2 4bbf 51c4 e63d c037 df3d 230f a73d
00000230: 3604 3ebf 84c2 af3e c9b7 b03e 50f1 80be
00000240: b6bb dfbe 9e99 883d 3254 e9be 1691 d93e
00000250: 2b8b e3be 4a2f 5a3f 054a 1c3d ffe5 093e
00000260: c4f6 013e 5c13 90bd 040f 3d3e 9ca5 0b3d
00000270: 534f 3abf 13ad 3cbf 095b b83c 3724 b53e
00000280: 7731 beba f989 e3bd 1668 81be 7970 ae3c
00000290: 5f3f 92bd d9aa 7d3e 9ccc e4be a852 77bf
000002a0: 547e 4cc0 c260 16bf ca36 50be be7d ccbf
000002b0: afdf f4be e2d7 ddbf 5917 b8bd dc2e f23c
000002c0: f42d 533d 454d b13d 4f93 95bf 3939 4b3e
000002d0: b066 d4bc d0d9 8f3e 22eb 8dbd 226c 21be
000002e0: 12da d2bd fb3d f6bd a4a2 143e f731 67be
000002f0: f6ac b93d 6048 4c3e 2eaf 193e fc2d 70bd
00000300: befa a43d cb6e 48bd 9a9f de3d 31b8 d5be
00000310: bb5e febe b3ab b33c fbf0 9bbe 7473 86bd
00000320: 75f0 093e 799b f2bf c868 22be f31e 39bf
00000330: 88a3 583e 842f 28bd e490 80bf a1ef 6cbe
00000340: 5b64 20be e38e d6be 0d87 333d e3a5 b4be
00000350: 4ff2 83bd 5366 88bd ee1c 7e3e 1d3b edbe
00000360: e2cd a9bd 5381 b03d dd01 b53d 30f0 823e
00000370: c6fc c7bc b038 d03d da03 1dbf 08ae 2dbe
00000380: 3262 83be 8ce5 313e 0bd9 69bf 72ae 12bf
00000390: cc1f a1be 24cd e6bf 1c25 a0bc aa3c bcbd
000003a0: 2b77 933e 7ac8 e8bd 92b8 2abe 879c ed3d
000003b0: 8b0d 103d 8455 dabf dd6f 9fbe 3754 8f3d
000003c0: 07ed 4fc0 7e62 1cbf 3caf 7c3f 80b9 833e
000003d0: a636 a0be a864 47be 62d6 42bd 5ff2 953e
000003e0: 4bbb 273e f142 483c 51d5 ed3f 053f 3d3d
000003f0: 5755 d53e 6584 b93d 52ad 3e3f bc7d ba3d

fc2.bias f4 [80]
-0.7673438 -0.61685467 -0.33777243 -2.819494 -0.44711438 21.494318 -0.12757446 24.033054
23.237663 0.16079724 -0.87798005 -0.10834433 -0.06123256 23.052948 21.99451 23.270477
-0.30440766 0.058580212 0.24782836 0.14068061 21.84769 23.669603 23.236065 21.821157
21.070898 0.81596446 -0.26533154 -0.07679745 0.20932461 -0.41680285 21.961807 -0.88341206
-0.6002272 0.21965528 0.25116846 0.018957034 -0.45420176 0.19195098 -0.8068507 -0.2681927
-0.81954354 23.065693 -1.5263102 -0.22616588 22.008167 0.14095071 22.705168 -0.7574245
0.14365941 -0.3390568 22.908321 -0.8427601 -0.32991984 -0.3928642 24.154003 -0.38588193
0.3870977 -0.383401 -0.052080587 0.082508445 23.18093 23.077707 -0.105457544 0.13634455
-0.28395173 -1.9605277 21.788021 -0.15839867 -0.36883324 0.101620205 -0.34328312 23.163992
-0.39815286 -0.52490044 22.118109 24.125004 -0.403352 -0.55647725 -2.567951 23.081995
00000000: a570 44bf 30ea 1dbf 82f0 acbe 9772 34c0
00000010: 2dec e4be 5df4 ab41 e1a2 02be b243 c041
00000020: bce6 b941 08a8 243e 4dc3 60bf a2e3 ddbd
00000030: fece 7abd 706c b841 c2f4 af41 f029 ba41
00000040: 52db 9bbe cef1 6f3d b8c6 7d3e 940e 103e
00000050: 12c8 ae41 595b bd41 76e3 b941 bb91 ae41
00000060: 3391 a841 0ce3 503f 89d9 87be fb47 9dbd
00000070: 3159 563e 2f67 d5be c8b1 af41 4b27 62bf
00000080: 7da8 19bf 50ed 603e 2799 803e c84b 9b3c
00000090: 228d e8be cc8e 443e c48d 4ebf 8e50 89be
000000a0: 9bcd 51bf 8a86 b841 225e c3bf 0798 67be
000000b0: ba10 b041 6255 103e 2fa4 b541 92e6 41bf
000000c0: 741b 133e da98 adbe 3e44 b741 20bf 57bf
000000d0: 41eb a8be 7f25 c9be 663b c141 5192 c5be
000000e0: ab31 c63e 234d c4be 7452 55bd 30fa a83d
000000f0: 8b72 b941 259f b841 20fa d7bd e89d 0b3e
00000100: 1f62 91be 92f2 fabf de4d ae41 4333 22be
00000110: b6d7 bcbe 411e d03d cec2 afbe db4f b941
00000120: b1da cbbe e05f 06bf e3f1 b041 0200 c141
00000130: 2784 cebe 4b75 0ebf 4f59 24c0 eda7 b841

fc3.weight f4 [1, 80]
0.022649238 -0.078196324 -1.0834875 -0.010223727 -0.12986456 23.659744 -0.0078082304 23.697489
23.707733 0.17086737 0.022819944 -0.13960171 0.03366796 23.8075 23.84622 23.904694
0.08936653 -0.008879594 0.005030818 -0.0841258 23.67561 23.841118 23.92846 23.76762
23.656982 -0.12766074 -0.2334283 0.0142661445 0.10017672 0.002127581 23.775019 -0.009219914
-0.076545715 -0.0795382 0.052469358 0.17432679 -0.6442689 0.18444069 0.016865453 -1.2144941
-0.23313847 23.863035 -0.24770162 -0.7853132 23.717194 0.05591117 23.685446 -0.13423428
-0.35262796 -1.1967357 23.772251 0.059147213 -0.009815288 -0.38718578 23.780067 -0.59575796
0.028753335 -0.16440725 -0.047091395 0.24222402 23.627682 23.760822 -0.0067377468 0.070956394
-0.46058622 -0.16031466 23.66818 -1.301572 -0.694552 0.21097186 -0.25793397 23.69858
-0.08053781 -0.120170176 23.75192 23.760078 -0.49332163 0.009383822 -0.031153347 23.825233
00000000: e58a b93c 6525 a0bd b8af 8abf 6b81 27bc
00000010: 37fb 04be 2847 bd41 2fdc ffbb 7594 bd41
00000020: 70a9 bd41 dbf7 2e3e e4f0 ba3c c0f3 0ebe
00000030: 6ae7 093d c375 be41 0fc5 be41 d03c bf41
00000040: cd05 b73d b77b 11bc 8fd9 a43b 264a acbd
00000050: a667 bd41 9cba be41 7c6d bf41 1624 be41
00000060: 8041 bd41 7fb9 02be d407 6fbe 8cbc 693c
00000070: 7429 cd3d e36e 0b3b 3d33 be41 1f0f 17bc
00000080: 00c4 9cbd ece4 a2bd 1cea 563d b982 323e
00000090: ceee 24bf 05de 3c3e 6b29 8a3c 8b74 9bbf
000000a0: dabb 6ebe 7fe7 be41 7ea5 7dbe 490a 49bf
000000b0: d0bc bd41 1c03 653d cb7b bd41 b674 09be
000000c0: a78b b4be a32e 99bf 922d be41 5944 723d
000000d0: 4dd0 20bc 373d c6be 943d be41 9883 18bf
000000e0: 1d8c eb3c 605a 28be e8e2 40bd 9309 783e
000000f0: 7e05 bd41 2a16 be41 51c8 dcbb 9651 913d
00000100: f5d1 ebbe 8729 24be 6f58 bd41 e999 a6bf
00000110: 29ce 31bf 0209 583e ec0f 84be b196 bd41
00000120: 02f1 a4bd c81b f6bd ef03 be41 a414 be41
00000130: a794 fcbe 9abe 193c 4e35 ffbc 149a be41
